demo/4_3_2/critic_2_3.pth (torch, 108582 bytes, 5 tensors)

fc1.weight f4 [148, 28]
00000000: 3072 c13e d747 8cbf 2649 bfbf c1b4 6d3f
00000010: 4c1f 6dbf cca6 0a3e 92a1 63be 858c 97bf
00000020: 2194 b3be 4233 3c3e 515a c43e 382e 79bd
00000030: cd29 19c0 c076 1240 e0dc 5f3e 5fc3 bb3e
00000040: 6f68 943d 987a 113f 1ce6 9e3d d7d9 2f3e
00000050: f5eb 5dbd 6080 453d adfa 41bf c55d 70c0
00000060: 5e2e 7bc0 0c75 813e e4f3 833f 797f 02c0
00000070: fbf0 593f 8923 7a40 9092 4cbf eae2 1e3f
00000080: 35f7 a6bd cb2c 5b40 5aab 9abd a101 af3d
00000090: db78 3bbd f0c7 063e c9d1 72be f366 dbbc
000000a0: 26ae eb3f e4f1 73c0 f0b6 cf3f 0159 57bf
000000b0: dc82 30c0 14dd 2dbf 4233 47be c646 cd3d
000000c0: 3967 a9bd 61cc cdbd 31e6 50bf 7748 c83f
000000d0: 63bb b53e a203 5e3f 0ab0 94c0 4084 be3f
000000e0: 68c1 613f 4210 88bf a701 0dbf dce9 ab3f
000000f0: 7edf ea3f ce2d 8fbf 5cba 6b3d fc4c b93d
00000100: c4c8 663c 9834 fcbc 7394 1d3d 72e6 eebd
00000110: 2e1b e7bf 23d5 4a40 6bb7 2640 5dfc 513f
00000120: 1c1b a63f 378a 11c0 1fb4 b9be 3b1d 03bc
00000130: c83c c33e 5634 2b3f 05ae d93f 0023 e23f
00000140: e0ec 923e a25e 0040 7be8 4640 74ac 743f
00000150: b090 bcc0 0ece 77bf 9845 b63e 890f be3e
00000160: 382d ed3e 9a96 d03f 942c dcbd 234d 6dbc
00000170: 2a3d 6dbc 9edc 50bd a61e 5f3d f9b7 8e3c
00000180: 58dc 17be 77a8 5b40 8a0b f03f 5325 19c0
00000190: 32d0 3341 e4bd 373e e9f3 ebbe 3e25 fa3c
000001a0: af61 cb3e e018 5d3e 1997 c4c0 7df1 2b3f
000001b0: 11be 853f ec1c e6bf 3164 cb3e 0fcc 9f3f
000001c0: 395a 6dc0 58a7 7cbf a675 c9be b0e2 0540
000001d0: e4e1 013f a7a9 2540 fde4 b8bc cc29 dfbc
000001e0: 151d babd 4406 da3a 14cf aa3d 7b83 283d
000001f0: f54b 0d3e b9f8 693f 246f a73f b11f fbbe
00000200: 0561 00c0 7431 623f f1f5 ae3d cc3b 933d
00000210: 7a84 76be 73a5 1ebe df12 11c0 33f5 c9be
00000220: 9fb5 15bf f664 b93f 051b e53f 7a32 c73f
00000230: 4ce1 73bf fe7a e03f 2dd9 2b3c c9f7 4e40
00000240: f7e8 e53f 4a66 233e 2cfc 763c abc7 7e3e
00000250: f00c a0bd 6d50 11be d457 57be f2a5 313e
00000260: bad5 163e 9756 9fc0 27a0 2bc0 452e 0f3e
00000270: cae2 923f f8b1 76bf 1b0f 7e3e bd06 02bd
00000280: b350 6fbe 2865 4cbe 82ba ae3e 5cd3 2940
00000290: bde0 76bf 11b4 1c40 7637 a6bf f598 87bf
000002a0: 8fef db3d 21f0 a13e 9a9e 03bf a814 2fbf
000002b0: c220 88be 97fd 773e 566d 7ebd d5c5 0fbd
000002c0: 989a a83c f886 2abe 07b2 e2bd 373b 14bd
000002d0: 5385 413f c536 1fc0 baa4 f5c0 f38c 823f
000002e0: 5b07 8a3f becc a6bf 8806 aa3d c853 64bd
000002f0: 0f10 b93d 1d22 46bc e68f 1cbf 95c8 04c0
00000300: 4d17 d8c0 7125 22be c4a9 21bf 7dd2 97bf
00000310: 64ca b0be 3b26 633f 7fd3 1b3f f03f af3e
00000320: 002b 33bf f450 313e 74b9 31bd 2b06 e43b
00000330: b764 86bb bd27 cabc d915 cebc 5bdc 643c
00000340: d7ff 8d3f 5d95 9140 f3e9 2440 4917 5ec0
00000350: 5d18 9ec0 a2fc 9ac0 8153 203e 6b28 e3bd
00000360: 4403 91be bf8f d43c bfd1 04c0 79a2 3a3e
00000370: cd3d ad3f dc28 13c0 76bb 15bf 7df8 e63e
00000380: d999 513f 9160 2d3f a764 1d3e 259c 0cc0
00000390: 7e11 cf3f 9558 babf 686c 33bf 9dd3 35be
000003a0: dac0 ca3e 6e5e d2bd 2baa 213c 9082 db3d
000003b0: 167c 5f40 21df 43c0 4fc2 c6c0 9692 1140
000003c0: 4c34 f5bf f19d d0bf d763 10bf 12f4 d7bd
000003d0: bf08 e33e 165b 273f 947b 55c0 0e42 93c0
000003e0: 15ce 263f 7172 60c0 0308 9f40 917e 8ec0
000003f0: 8619 c7bd 0db7 dd3e b2b6 953f b7f6 6b3f
0.3778243 -1.0959424 -1.4944198 0.92853934 -0.9262588 0.1354019 -0.22229603 -1.1839758
-0.3507395 0.18378928 0.38350156 -0.060835093 -2.3931763 2.288498 0.21861601 0.36672494
0.072464816 0.5682769 0.07758734 0.17172943 -0.054180104 0.04821813 -0.75773126 -3.7557232
-3.924705 0.25284612 1.0308805 -2.0390303 0.8513333 3.908419 -0.79911137 0.62064993
-0.0815262 3.424609 -0.07552214 0.085452326 -0.045769554 0.13162208 -0.23712839 -0.026782488
1.8412521 -3.8116388 1.6227703 -0.84120184 -2.757987 -0.67915463 -0.19453147 0.100232646
-0.08271641 -0.10048748 -0.81601244 1.5647115 0.35494527 0.86724293 -4.646489 1.488411
0.8818574 -1.0629961 -0.55080646 1.3430743 1.8349454 -1.1185853 0.057550773 0.09047887
0.014085952 -0.030786797 0.03847165 -0.11665048 -1.805517 3.1692588 2.604945 0.820257
1.2977023 -2.274061 -0.36270234 -0.008002575 0.3813231 0.66876733 1.7006232 1.7666931
0.28696346 2.005776 3.1079395 0.9557564 -5.892662 -0.9679879 0.3559997 0.37121227
0.46323562 1.629596 -0.1075069 -0.014483723 -0.014479915 -0.050991647 0.054472588 0.01742171
-0.14830148 3.4321573 1.8753521 -2.392903 11.238329 0.17943531 -0.46084526 0.030535337
0.39722964 0.2159152 -6.1434445 0.67165357 1.0448629 -1.7977576 0.39724877 1.2484149
-3.7086318 -0.98692846 -0.3934757 2.091961 0.50735307 2.5884798 -0.022570128 -0.02724161
-0.09087578 0.0016633947 0.08340278 0.041141015 0.13798507 0.91395146 1.3080792 -0.49047616
-2.0059216 0.8835671 0.08543003 0.0718914 -0.24073973 -0.15492801 -2.2667768 -0.39444885
-0.58480257 1.4483936 1.7898871 1.5562279 -0.9526565 1.7537534 0.01048879 3.2338736
1.796172 0.15956989 0.015074771 0.24880855 -0.07814968 -0.14190836 -0.21029598 0.1734846
0.14729968 -4.97932 -2.68165 0.13982494 1.147546 -0.9636531 0.2481045 -0.031744707
-0.23370628 -0.19960463 0.3412667 2.6535254 -0.96436673 2.4484904 -1.2985675 -1.0593554
0.107390516 0.31628516 -0.5141388 -0.68390894 -0.26587492 0.2421783 -0.06211599 -0.035100777
0.020581529 -0.16653049 -0.11069112 -0.036189284 0.7559406 -2.4877179 -7.676358 1.0199264
1.0783495 -1.3031232 0.08302027 -0.055743963 0.09036266 -0.012093094 -0.6115707 -2.0747426
-6.7528443 -0.15834595 -0.63149667 -1.1861111 -0.34529412 0.8873021 0.6086959 0.34228468
-0.6998749 0.17316037 -0.043389753 0.006958743 -0.0041013616 -0.024677152 -0.025156902 0.013968552
1.1093701 4.549483 2.5767791 -3.4701712 -4.940474 -4.843339 0.15656854 -0.110916935
-0.28322804 0.02594745 -2.075302 0.18226041 1.3534485 -2.2993689 -0.5848917 0.45111457
0.8187538 0.67725474 0.15370427 -2.1970303 1.6177213 -1.4558283 -0.7008729 -0.17756505
0.3960026 -0.10271917 0.009867231 0.10718262 3.4919486 -3.0604937 -6.2112193 2.274572
-1.9156585 -1.62982 -0.56402344 -0.105445996 0.4434261 0.6537336 -3.3356676 -4.6018133
0.65158206 -3.506985 4.969728 -4.45295 -0.09721665 0.4330372 1.1696379 0.9217333

fc1.bias f4 [148]
00000000: e196 3e3f f0ff 083f 4b42 a53e 3957 6abd
00000010: ba10 8b3e 02d1 59bf 4fc3 8fbf bbca 9fbe
00000020: e81e d9bf bb4b efbf 543e 36be 51c2 1c3f
00000030: a322 9cbe 1d20 bd3e 4a0f 473f 171d 383f
00000040: 5887 7dbf 943b b5bf 166c 083f 8291 32bf
00000050: 5dc4 833f 9e36 86bd 7142 b73e 8f29 b6bf
00000060: 5ea8 5b3f 622f 763e 9a13 683e b69d e3bf
00000070: afd0 a13f 6a8c 08c0 be36 a33e c491 b03e
00000080: 61b6 59bf d491 233f a4f2 f63e 32b0 a0be
00000090: 1fe4 df3e 49fe 73be 6088 253f 96c5 913e
000000a0: b1fd 843f 86ea 553f 6285 713f 881f a6bf
000000b0: fdf2 9b3c 2cc7 0abe 077b edbe efdd 40be
000000c0: 7d14 17bf f298 843e ae18 5ebe 104b 433f
000000d0: 52f7 97be a61d cb3e a2cd 1cbf 026f 0d3f
000000e0: b558 653f b7d6 dabf 4f9f 233f 6c16 023f
000000f0: f5c3 07be 9bbc 0bbf 7b94 3ebe 7891 9e3f
00000100: e6e3 03bf 5953 603f 8355 9a3f e3fa 14bf
00000110: 51c3 6f3f e056 803f 4bb1 3ebf 41a4 913d
00000120: 7055 523f 7d7e 193e d566 923f 7f69 f03f
00000130: 2b9e cc3e 0d2c 333f 4ed3 2dbd 1d63 373e
00000140: 7d39 6d3e a4bf 0a40 41c1 383f 4a7f fc3e
00000150: 90c6 2dbf 4f16 fe3e 8635 163f 95c1 b73e
00000160: 34b1 53bf cc01 16bf 72e5 823e 753a 9a3e
00000170: 88cf 69bf 4da2 5a3f cb7d 813f 538f f7bf
00000180: 0b79 cd3c 3fed 453d 9481 7b3e 4db7 b3bf
00000190: a5e4 853e 349c 013f 2a75 903f 43de c8bf
000001a0: d1f7 b5be bd79 913f e219 7bbe 0c2f 6ebf
000001b0: 64e4 4fbb 0009 d53e 1e7a 0540 48b6 913d
000001c0: dd01 3a3f f692 e8be 7f8f 243e 5392 bc3e
000001d0: 7c02 8dbe dac0 813f 6e0f 2b3f 9e71 303f
000001e0: b3df ac3f 2138 d03e 8fc1 5ebf ac22 873f
000001f0: bcc5 8f3e 0cf0 943c c73e 9a3e 3fbb 993e
00000200: 6781 c6bd 882e 0bbd e51d 3f3f 8775 3e3e
00000210: ee0a 0440 7e52 0a3f beb1 203d a94e 92be
00000220: 316c 963f 44e0 133f cc8f 2a3e e473 e23b
00000230: 6d11 8d3f c8df 2abf 8307 e63e 2dbf 8040
00000240: 75fe 4a3f 9990 913f 90bc aebf cc17 ab3e
0.7444897 0.5351553 0.3227714 -0.05721209 0.271612 -0.85084546 -1.1231478 -0.3120936
-1.6962557 -1.8694986 -0.17797214 0.61234003 -0.30495176 0.36938563 0.77757704 0.7191939
-0.99034643 -1.4158807 0.53289926 -0.6975328 1.02943 -0.06553386 0.35792878 -1.4231433
0.8580378 0.24041513 0.22663727 -1.7782505 1.264181 -2.1335702 0.31877702 0.3448621
-0.85043913 0.6389439 0.48231995 -0.31384426 0.4372873 -0.23827471 0.64661217 0.2847106
1.038992 0.8356098 0.9434415 -1.2978373 0.019036764 -0.1355254 -0.46382925 -0.18834661
-0.5901564 0.25897938 -0.21689102 0.7628641 -0.29680878 0.39671057 -0.6125127 0.5524751
0.8958848 -1.7096776 0.6391496 0.50815463 -0.13258345 -0.54584664 -0.18611328 1.2388144
-0.5151962 0.8762718 1.2057346 -0.5819532 0.93657404 1.0026512 -0.7448928 0.07111407
0.8216162 0.14989658 1.1437632 1.8782195 0.39964423 0.6998909 -0.042437844 0.17908902
0.23166461 2.1679468 0.7216988 0.49315864 -0.6788111 0.49626395 0.5867542 0.3588988
-0.82692266 -0.5859649 0.25565678 0.30122724 -0.9133229 0.854039 1.0116514 -1.9340614
0.025082132 0.04832196 0.24561149 -1.4040314 0.26151004 0.5062897 1.1285756 -1.5692829
-0.3554063 1.1365277 -0.24521592 -0.9304054 -0.0031721825 0.4160843 2.0855784 0.071148455
0.72659093 -0.45424622 0.16070364 0.36830387 -0.27540958 1.0136979 0.6682042 0.68923366
1.3505768 0.40667823 -0.87014097 1.0557456 0.28080547 0.01818087 0.3012602 0.3002567
-0.0969265 -0.033979923 0.7465499 0.1859952 2.063167 0.54032123 0.03923201 -0.28575638
1.1751767 0.5776408 0.16656417 0.006910788 1.1020943 -0.66747713 0.44927606 4.023337
0.7929452 1.1372253 -1.3651295 0.33416593

fc2.weight f4 [148, 148]
00000000: e84e d6bf 802f 23be c011 13c1 1e8e a3bf
00000010: 0f0e d73f ac4c b63f 558d 25c0 751f 6bc0
00000020: a77e 12c0 210f 66c0 c293 e73f fa8a 3dc0
00000030: 83e1 043f 10ae e5bd 3c32 71c0 c116 0fc0
00000040: 26f7 51c1 3d54 ec3f df60 ccbf 2d5f f1c0
00000050: 4845 8ec0 7691 e5be 0237 c13e 5783 14bf
00000060: 1ca5 16c1 cb0c 99bf 0b6f a93d 9230 e1bf
00000070: ecdb 92c0 39a1 70bf 2a62 b340 cf20 e1bc
00000080: 599c 99c0 8c58 e7c0 2ce5 193f 1c8b 5cc0
00000090: f9c3 45c0 207e c1c0 43ba 4d3f bdf4 16c0
000000a0: 3d7f fcbf e41f 1640 c572 a4c0 b34e 3e3f
000000b0: 2b54 dac0 3da5 be3f 791a d3c0 9bcb c83f
000000c0: 6feb 1fc0 dd0a a2c0 ae6c 61c0 dc30 b1bf
000000d0: f1b7 7c3f c309 83c0 09c3 da3f a3ef e6c0
000000e0: dd1b 053e e06b 7f3c c46a 42c0 90b8 62c0
000000f0: faa7 35be 522f 20c0 e7e6 81c0 4453 0940
00000100: 8bd6 b0c0 9f8b bf3f 9870 d03f 37d7 7fc0
00000110: e7bc 5e40 a1de e23f e45e febf b4f4 1540
00000120: 2ea5 48c0 6dfd cc3f 1c55 0ec1 46a7 8fc0
00000130: dee2 903f bc0f a5c0 86d6 0ac0 4187 0140
00000140: 023f abc0 a56e f9c0 7c1b 1a3f 16bb 853e
00000150: 2233 32c0 232b 023f d937 12c0 7ed5 9bbf
00000160: 5ab7 a5bf 230f 0940 19aa c13f 6822 71c0
00000170: de3c b5bf 5652 cf3e b9d4 ddbf fdaf b4bf
00000180: 6561 4a40 ee2e 70c0 a352 933e 077e c9bf
00000190: 7c01 c4c0 5989 01c1 8bfa 41c1 3963 3d40
000001a0: 0068 d83f bd40 77c0 9405 15c0 b981 cac0
000001b0: 86a2 46c1 ab5c fe3f f554 91c0 3e92 f0bd
000001c0: f1c9 bec0 6da2 2cbe d452 f83f 73fa 78c0
000001d0: f43e 7540 f90c d33f 9022 1ec0 1d3f 99c0
000001e0: 1c4e 053e f84d 8ac0 94dc 31c0 8a30 9dc0
000001f0: 2aa0 dec0 b448 94c0 3ebf 25c1 1899 843e
00000200: eae8 c93d f314 973f 224c 68be f4b1 5540
00000210: 2e29 aac0 cd4c acc0 976c 5abd b5be 3bbc
00000220: ada1 0dc1 fc9a 37c0 fd4a c9c0 7060 62bf
00000230: ff8e 06c0 869a ef3f 95f0 0240 e940 9cbf
00000240: 7797 6040 796a abbe 69e0 1cc1 bcf5 0340
00000250: 4ce0 933e 1974 0ac0 bab4 8540 d9b4 99c0
00000260: 3d8b 6040 9225 88c0 8cf1 9a40 0f4d 6241
00000270: b81c 0ac0 7dfa 98bf 7718 bd40 437a e2bf
00000280: 6c09 8bbf 873b d4bf 0ba4 5240 aa47 8740
00000290: c132 8e40 017e a440 254e 3641 5711 a6be
000002a0: c23c 39bf 8b12 b540 29cd 0c40 59e8 6d40
000002b0: 5724 983e 9090 7a40 972f 07c0 9ab8 0b40
000002c0: dbfe 30bf dce7 cc3f 7af8 9f3e 4ba3 b4be
000002d0: d912 9c41 f368 9640 1c6b eebf e2a5 4840
000002e0: 43e3 8240 eb1c cdbf 6ae4 2541 f7d4 a0bf
000002f0: a91f 173e c992 eabe 4804 8bbf 1517 9bbf
00000300: ace2 2140 2f1a 6540 3bd7 8f40 6da9 6ec0
00000310: 49e6 0441 13cf fe3f bd3f b3c0 9612 b73f
00000320: ec3b aa40 da9b b1bf d6ea 3740 6b36 5b3e
00000330: 6a6f a6c0 988e 38c0 86ca f4bf 64a0 c53e
00000340: a6b5 d340 3c5a cf40 beec 1740 5958 d2bf
00000350: 67cd 9640 77bd 0740 9cab f13f caa4 9140
00000360: 536f f6bf e181 c1bf af42 0e40 f78f 8fc0
00000370: e1f3 8fbe 6a4f 8a40 1b55 243f c238 a6bd
00000380: 3e09 fabe 8f64 9fbe db8f ae40 53f1 8240
00000390: 1734 a740 092e f73d 526d aa3f 388c dabe
000003a0: 2f86 86c0 6537 03c0 b18d e13f a82e 4040
000003b0: 1239 88c0 504d d540 06c4 dd3f 70a4 24c0
000003c0: bd8b 6241 0dcb 5140 7bd5 143e 914c 0140
000003d0: f524 37c0 eb0f d340 36a3 e3bf 39ef b940
000003e0: 8b02 d23e b17b 09be 3156 053e 8892 5fc0
000003f0: 6250 7541 897d b23e 9e7f 4fbe b1aa a2bf
-1.674283 -0.15936089 -9.1918335 -1.2777746 1.6801165 1.4242148 -2.5867512 -3.673795
-2.2889802 -3.5946734 1.8091967 -2.9616075 0.51906604 -0.112148404 -3.768691 -2.2357638
-13.122839 1.8463207 -1.5967063 -7.542868 -4.445957 -0.4483754 0.3773728 -0.5801291
-9.41531 -1.1957029 0.08273133 -1.7592947 -4.589346 -0.93996006 5.605733 -0.027481465
-4.8003354 -7.229559 0.60115314 -3.4459906 -3.0900862 -6.046646 0.8036234 -2.3586876
-1.972633 2.3456964 -5.13901 0.74338835 -6.8227744 1.4894177 -6.5969815 1.5687135
-2.4987447 -5.063826 -3.5222583 -1.3843036 0.9871817 -4.0949416 1.709077 -7.2167525
0.1299891 0.015589684 -3.0377665 -3.5425148 -0.17739859 -2.5028882 -4.0594363 2.1457071
-5.5261893 1.4964484 1.6284361 -3.9975107 3.4802797 1.7724191 -1.9872708 2.3430605
-3.1350818 1.601484 -8.895779 -4.489169 1.1319234 -5.1581707 -2.1693435 2.0238802
-5.3514414 -7.7947564 0.6019819 0.26119298 -2.784371 0.5084707 -2.2846587 -1.2174528
-1.294658 2.1415489 1.5130035 -3.767725 -1.41592 0.40492505 -1.7330543 -1.4116207
3.1621945 -3.7528644 0.28773984 -1.5741585 -6.125181 -8.096032 -12.123668 2.959181
1.6906738 -3.8633263 -2.3284655 -6.3283353 -12.414679 1.987203 -4.5416207 -0.117466435
-5.962151 -0.16858836 1.9400277 -3.8902862 3.8319674 1.6488334 -2.4708595 -4.7889543
0.13018078 -4.3220177 -2.779088 -4.912175 -6.9570513 -4.633875 -10.35919 0.2589805
0.09858878 1.1803268 -0.22685292 3.3389864 -5.317527 -5.384375 -0.053326216 -0.011459042
-8.851972 -2.8688345 -6.290404 -0.884284 -2.1024778 1.8719032 2.045934 -1.2207309
3.5092447 -0.3347967 -9.804788 2.0618734 0.28882062 -2.163336 4.1783113 -4.803326
3.5084984 -4.254586 4.8419857 14.143813 -2.1580029 -1.1951443 5.9092364 -1.7693561
-1.086225 -1.6580666 3.2912624 4.227498 4.4436955 5.1403813 11.394078 -0.32435104
-0.72358334 5.6585135 2.200022 3.7173064 0.29715225 3.9150734 -2.1122797 2.1831422
-0.6913888 1.6008258 0.3124426 -0.35280833 19.509203 4.700311 -1.8626437 3.1351247
4.090242 -1.602445 10.368265 -1.2564992 0.14758171 -0.45815113 -1.0860682 -1.2116419
2.52946 3.5797231 4.4950233 -3.729091 8.306222 1.9906944 -5.6015306 1.4302547
5.3198147 -1.3875687 2.8737082 0.21407478 -5.2011003 -2.8837032 -1.9124305 0.3859893
6.615924 6.479765 2.3738246 -1.6433212 4.7125735 2.120939 1.8880496 4.551366
-1.9252723 -1.5117761 2.22282 -4.486324 -0.28115752 4.322194 0.6419236 -0.081162944
-0.48835176 -0.31131408 5.4550605 4.0919585 5.2251086 0.120693274 1.3314612 -0.42685103
-4.20388 -2.050256 1.7621366 3.0028477 -4.2569666 6.6656876 1.7325447 -2.5725365
14.159116 3.2780182 0.14534561 2.0202982 -2.8616307 6.595693 -1.7784183 5.810452
0.41017565 -0.13426091 0.1302116 -3.4933186 15.332125 0.348614 -0.20263526 -1.2708341

fc2.bias f4 [148]
00000000: 4000 36be 7b92 943d 2c9e 1a3d 47a6 d3bd
00000010: a9ee 5e3e 51b9 3a3d 752c c0bb 0b7a 08bd
00000020: 46f2 b03d 5884 48bd 5a96 8d3d 1681 2c3e
00000030: 24ab d7bd f63d 893e 92d7 233e 6688 b3bd
00000040: 205d 983d fcde bebd 7433 0a3e 3097 813e
00000050: 78e4 dd3f 0b80 afbd 298a 843f 2774 113d
00000060: a3a5 80bd 7915 afbf 5365 553c 00dd 483d
00000070: 7f55 313e 886b 5cbe 6f03 193c 927c 35bd
00000080: f7b4 ec3d 1fe8 b33d f728 123e 6745 863c
00000090: 4672 d83d 5c31 53be 11fd b1bd e8ef 47bd
000000a0: 0afb 87bd e9dc 213e 2efc ba3f 232b 66bd
000000b0: a9c4 94bd 6408 dcbd a38c c73c 9d37 613e
000000c0: 2f3a 193e 4716 e3be 0079 8e3d 33bd 75bd
000000d0: f7c5 bebd 61df 8a3e d12a dabe 0f24 dc3b
000000e0: 55ac cfbd 6f3a 8abd 822d e9bc 7ceb c3bd
000000f0: 4b74 27bd 8749 c23d 479f 86bb d126 dd3f
00000100: c3a1 5c3d edab df3d b0b2 b4bd 63ad dd3f
00000110: a01e d8bd e000 10be b862 853e 5162 323c
00000120: 7f4f 373e 782c 463e f8af 4abd f2f3 e4bd
00000130: 8b33 203f 910d 9ebd 8ea3 8e3d 68ff 02be
00000140: 8953 23bf a976 6b3e 1f37 f0bc 7201 9e3d
00000150: 3c67 1e3e ec7e 4d3e e429 c5bd 4ee2 3b3e
00000160: d898 b33c b03f 4b3e c0ac 493e 5b76 afbb
00000170: edab 263e 6569 783d 0d9f 93bd f48f 66bd
00000180: 1d7e 38bb f255 74bd 1755 3d3e 30a5 073e
00000190: a26c e83d efcd 0c3c dc56 a9be 8e7a c13d
000001a0: bcfc 093e f0e4 293e db3e 82bb decd d63d
000001b0: 2e5e 813e b300 88bd 8ba3 b3bd d1ec 683e
000001c0: 460d 533e f593 453d dc6e bc3e a21b 9bbd
000001d0: f7d7 2d3e bfd2 303c 5ec2 03be 83cc 2540
000001e0: e155 743e 9395 c1bc 5005 d83d 17ce d5bd
000001f0: 2b7d ea3d 2b05 453f 07eb 87bd 4ecc 813d
00000200: 6281 133d 3708 e9bd 5c67 ebbc cc4f aabd
00000210: fe54 0c3e afe6 1d3e 5c36 ea3d 82d5 b63e
00000220: 6b5b b83f 29f0 2a3d dcf6 0fbb 4376 a2bb
00000230: 89b0 493e 3bae a83d dd7a 003e c50a 733d
00000240: 0974 96bd 0648 613e 41d2 c13d 05e7 c33b
-0.17773533 0.072545014 0.0377485 -0.10334449 0.21770729 0.045586888 -0.0058646747 -0.033319514
0.0863996 -0.048954338 0.06913443 0.16846117 -0.10530689 0.26805085 0.16000202 -0.0876625
0.07439637 -0.09319875 0.1349619 0.2531066 1.7335348 -0.08569344 1.0354663 0.035511162
-0.06281593 -1.3678428 0.013024646 0.049038887 0.1731777 -0.21525395 0.009339198 -0.044308253
0.11557954 0.08784508 0.1427344 0.016390515 0.10568671 -0.20624298 -0.08690847 -0.048812777
-0.06639679 0.15806927 1.4608209 -0.056193482 -0.072640724 -0.10743788 0.024359053 0.21993871
0.14963602 -0.44352934 0.06956673 -0.059994888 -0.093151025 0.2712355 -0.4261079 0.0067181657
-0.101402916 -0.067494266 -0.028464083 -0.095663995 -0.04088239 0.094866805 -0.004108343 1.7277471
0.053865205 0.10921464 -0.088231444 1.7318538 -0.10552716 -0.14062834 0.2605188 0.010887698
0.17901419 0.19352901 -0.049484223 -0.111793414 0.6257865 -0.07717431 0.06964789 -0.12792742
-0.6379934 0.22994484 -0.029323159 0.077151194 0.15469068 0.20067948 -0.09627131 0.18348047
0.021923468 0.19848514 0.19694805 -0.0053546852 0.16276522 0.060647387 -0.07208071 -0.05628963
-0.0028151341 -0.059652276 0.1848949 0.13246608 0.11348845 0.00859402 -0.3307408 0.094472036
0.13475317 0.16591239 -0.003974778 0.10488485 0.25267166 -0.06640758 -0.08771428 0.22746588
0.20610532 0.048236806 0.3680333 -0.0757363 0.16976915 0.010792433 -0.12867114 2.5906074
0.23860885 -0.023630893 0.10547888 -0.10439699 0.11449655 0.7696101 -0.06636625 0.06337796
0.03601206 -0.1137852 -0.028735809 -0.08316001 0.13704297 0.1542003 0.114361495 0.3570977
1.4402899 0.04173294 -0.0021967208 -0.0049579456 0.19696249 0.08236357 0.12546869 0.059336443
-0.07346351 0.22000131 0.09463931 0.0059784674

fc3.weight f4 [1, 148]
00000000: c8a0 2941 a758 b1c0 125a f2c0 91e7 b33c
00000010: 830b c6c0 34ce 0fc1 5800 3dc1 998d 5bbc
00000020: e58e acc0 bb72 263c b8eb e9c0 1199 d2c0
00000030: 1bda a7bc a483 d0c0 190a c9c0 5a91 283d
00000040: c0cb 23c1 f5cd 04bc 42b9 b1c0 be9e d8c0
00000050: b6c8 3141 a231 b9bc efe2 98c1 2643 5d3d
00000060: 3ddd dc3c 1523 6f41 98c1 37c1 de2e e1bb
00000070: 0174 d5c0 0815 f23f 755f 05c1 4d95 3f3c
00000080: e5cd b7c0 d637 2ac1 c7e9 cbc0 8f9f 82bc
00000090: a4f2 d6c0 9421 c040 9587 fe3c 84cb 58bc
000000a0: 36e9 34bc 333e d5c0 1427 df40 4c14 163c
000000b0: 47f9 1c3d 38a7 32c1 4843 c93b deda b7c0
000000c0: 530a d7c0 93e2 f53f c1be 86c1 00e0 143d
000000d0: 2301 21c1 ffb2 d9c0 b8c2 dc3f fb32 a13c
000000e0: 2e9d 1c3c 73fe 6d3d b8fa bfbb 674b e13c
000000f0: 66c9 8b3b dc0a b3c0 837d 143d 407e da40
00000100: e204 d4c0 b226 09c1 8003 c93c e9bc e140
00000110: ce9c 983c 528a 5d41 792c 10c1 b50c d4c0
00000120: 60cf e4c0 42be bfc0 ead7 1c3d 56b3 6a3c
00000130: 0304 df40 a1d4 283d 892b d6c0 03dd ce3c
00000140: 2b57 9b40 9874 c3c0 292e 333d 1279 afc0
00000150: ba47 d6c0 ee10 b0c0 2b50 353d a886 d6c0
00000160: 0dbb 8640 7e8a 10c1 ed25 dfc0 b895 a9bc
00000170: 4807 b0c0 4f41 e33f e0b3 ea39 8b64 e73c
00000180: 06de a93b 6555 d63c 6cc0 e1c0 2b29 ccc0
00000190: 506b b2c0 0a4a 093a 6e96 2641 e71a cac0
000001a0: 036f 00c1 331d e740 31d4 1cc1 9cec d9c0
000001b0: b20f 03c1 f163 e73b 07b4 54bc a5f6 8d40
000001c0: fbe5 ccc0 5599 27c1 b992 2840 7b22 bcbb
000001d0: 8b6b c0c0 99d9 01c1 ba99 a43c 218a 0e41
000001e0: c935 e6c0 23bc fa3c 5fad d1c0 1d49 62bc
000001f0: d271 bbc0 7f22 0541 450a 15bb 1da2 fac0
00000200: 843b 35c1 b812 863b ea34 d8bc e84f 863c
00000210: 445b 09c1 d5dd cec0 3f14 f1c0 5fd6 95c1
00000220: 1849 ce40 adfe 2fc1 7766 a6ba 2c67 06c1
00000230: 8d49 ebc0 635c b2c0 9c3b 03c1 047c 03c1
00000240: 2744 803d a1d2 cec0 86b1 cec0 b00a 0abc
10.601753 -5.542072 -7.573495 0.021961005 -6.1889052 -8.987843 -11.812584 -0.013400459
-5.392443 0.01015919 -7.3100243 -6.581185 -0.020489743 -6.5160694 -6.2824826 0.041154243
-10.237244 -0.008105745 -5.5538645 -6.7693777 11.111502 -0.022606675 -19.110807 0.054019116
0.026960963 14.946065 -11.484764 -0.006872042 -6.6704106 1.8912668 -8.335805 0.011693311
-5.7438836 -10.638632 -6.3722873 -0.015945224 -6.717119 6.004099 0.03107051 -0.013232116
-0.01104193 -6.6638427 6.9735203 0.009160113 0.038323667 -11.165825 0.0061420538 -5.745467
-6.7200103 1.920977 -16.843142 0.036346436 -10.0627775 -6.8031 1.7246923 0.01967763
0.009558959 0.05810399 -0.0058587454 0.027501775 0.004265952 -5.5950756 0.03625251 6.8279114
-6.625596 -8.571947 0.024537802 7.0543103 0.018629458 13.84627 -9.010858 -6.626551
-7.1503143 -5.991975 0.03829185 0.014324984 6.9692397 0.041218404 -6.6928144 0.025251871
4.8543906 -6.1079826 0.043745194 -5.483529 -6.6962557 -5.5020666 0.044265907 -6.7039375
4.2103333 -9.033812 -6.9733796 -0.020701274 -5.500889 1.7754306 0.00044765975 0.028246185
0.005183938 0.026163766 -7.054739 -6.3800254 -5.5755997 0.0005237168 10.411726 -6.315784
-8.027102 7.2223144 -9.801805 -6.810133 -8.191332 0.0070614745 -0.012982375 4.436358
-6.403074 -10.474935 2.6339552 -0.005741415 -6.013128 -8.115624 0.020092834 8.908723
-7.1940656 0.030607289 -6.5524135 -0.013811377 -5.857644 8.320922 -0.0022741717 -7.832289
-11.32703 0.004091587 -0.026392419 0.016395524 -8.584782 -6.464579 -7.5337214 -18.729673
6.4464226 -10.999677 -0.0012695332 -8.400188 -7.3527284 -5.5737777 -8.202053 -8.217777
0.06262999 -6.4632115 -6.4591703 -0.0084254
