demo/5_1_tran3_1_2/actor_5.pth (torch, 83208 bytes, 6 tensors)

fc1.weight f4 [128, 22]
00000000: f832 a9be 8bb0 303e ac5f 923c 9e12 90bf
00000010: 3cfd 38bf 3584 073f 10f2 c03c ce87 c6be
00000020: 9df5 573b 1caf 21be 8ab5 5a3e ab52 3bbd
00000030: 1f7d c33e e2d6 283f 3260 83be e0da b7bd
00000040: 1ccc 5d3e bd32 ee3e fe3d dc3f f618 28be
00000050: 8ba3 bc3e 3890 b13e e442 253f c55b 5e3e
00000060: e320 1ebf 4807 a73f 7774 c13e ca3b 8bbe
00000070: 6d23 4bbd 1592 1bbc df62 573c 4605 7e3d
00000080: 8f64 b7bc 2c3a 63bc f368 8d3f 09c6 053f
00000090: 9601 9fbf 9757 0ebe 271a 0d3f c880 a4be
000000a0: 9a51 033f 79f3 8abe 809c 9a3e 33eb 073e
000000b0: ab22 0f3f bbd1 5c3f 2a45 17be 42ef a73f
000000c0: ed06 10be fd52 bf3e edde 95bd 1c05 213d
000000d0: dbb5 aebd 8ab1 be3d 845b e93a 3a3f a8bc
000000e0: e6bb 9e3e 5a02 3bc0 4cea 553d 2a44 ce3e
000000f0: b6b2 1fbd 6f03 91be 7bf5 12c0 55f1 31be
00000100: be9f e63e b24d a3be a316 bc3e a404 083d
00000110: bb9f 07be 51bc 9fbe f05f bc3d 2f03 1e3f
00000120: 2735 3fbd 1164 b03d 29ae 7dbc a80b 833d
00000130: abb4 df3a 8acd f53b 1e49 56bf 0e4f acbe
00000140: 6268 7d3e 6dbe 74be 298f 3fc0 503d 98bf
00000150: edd6 aebf 8026 b3b9 9971 643e 7e30 b63d
00000160: 8591 2dbf 8afd 09be 9ca8 c5be 2a56 9a3f
00000170: b92b 9d3e 5962 9bbf 688e e2bd 7f5a 573d
00000180: cb4a 883d 5a7e 033d b3d4 40bc d7a3 25bd
00000190: 3cf2 57bf a1e5 26bf 507e afbe 0a89 46bf
000001a0: 644d 303c c60c 753e a390 c0be 7189 d0be
000001b0: 92a4 12bf 26f5 fd3d ed7e 7bbe fba4 f53e
000001c0: 0bd0 61bf f6a7 e5bd a664 113f cec9 8ebe
000001d0: ae35 e4bc 853f 653c ae18 ba3d 7702 68ba
000001e0: e8ce b6bc 659d 72bd 148e 43bf bf63 a13e
000001f0: 2db5 b1bf 7f03 1a3e 358d 0240 0af9 0bbe
00000200: b69b 12c0 5de6 e0be 3c0d da3e 7ae1 1c3e
00000210: 4f1e 2cbe 0302 7fbe 96f6 2d3e 352f 3bbf
00000220: cfb8 c5bd fe24 b73f ff5c c7bc 34fb 8b3c
00000230: 7df7 543d 2e5e 933c 9ba3 44bb c341 25bd
00000240: 67c4 de3d 21d1 b23e ce09 96be 1a02 06bf
00000250: 687a 2640 9ad8 cb3e 5099 48bc 175f 033f
00000260: bf79 623d c02d 7cbe f9f4 08bf a873 18bf
00000270: 0741 1b3e 06e8 c03b 9565 d8be ffd0 89bf
00000280: 2422 09bd 7088 b8bd 0439 12be 65ca 0f3d
00000290: 30a4 633c b1e3 abbd 8af9 b8be 2adc bc3d
000002a0: ba4f 12bf 0db9 cebe e4e4 80bf d7e1 90be
000002b0: 4c16 94be adf4 5dbf b87d 0bbe 2721 ba3d
000002c0: 8286 99be 2a82 ca3d c166 ac3d 5cc6 2cbf
000002d0: ddce cc3c d99c b13d 97b7 09be d922 42bd
000002e0: b41a 473e ba3d c63b ca47 9cbd 6af2 03be
000002f0: 7154 15bf 8b1c c13e d72c b73f 6191 debe
00000300: 0fcb 1b3f 1c43 6b3e 2de5 3d3f 1381 34bf
00000310: e738 d0bd bcd3 9e3e d533 e6be 4798 aebe
00000320: edd6 76bc 6c79 6ebf c4dd 903e df76 40bf
00000330: 976c a6bc ccea 143d b334 99bc ac34 3abc
00000340: 3d3c 883d fdbd 98bd 8278 73bf 02ba 1a40
00000350: eb83 e2be 1ab1 67be f29e 2bbe 9e7a 973f
00000360: d794 f1bf fe71 433e 2dbb 43be 5eeb 6a3d
00000370: 04d9 ff3e 1f03 12be 8303 02bf 0bcb 53bf
00000380: 4f71 233e 2ff8 0fbf b25b 7e3c 3822 a1bc
00000390: 33e0 35bd 9c71 1e3d 1817 c43b 4ef1 a6bd
000003a0: eab6 9dbe d45a fb3d c3dd 10bf 62d6 60be
000003b0: dd0e 033f 7f22 643f e36f 4040 5de2 003e
000003c0: ea36 3bbe 916d 813e ed27 ebbe 4ff1 6d3e
000003d0: 2746 08bf 36fb 22bf b8e2 d93d aaaf b9be
000003e0: 41ca 063e d6f2 1f3e 61b3 1ebe da91 dcbd
000003f0: 26f4 10be 652c 21bd 85a3 843d 01e9 603f
-0.330467 0.17254846 0.017867886 -1.1255682 -0.72261405 0.52936107 0.023552924 -0.38775486
0.0032952793 -0.15789455 0.21358314 -0.045733135 0.38181397 0.65952885 -0.2565933 -0.08977294
0.21659893 0.46523085 1.7206419 -0.16415772 0.36843523 0.34680343 0.6455519 0.21714695
-0.6176893 1.3049097 0.37784168 -0.27194053 -0.04959433 -0.009495278 0.013146131 0.062016748
-0.022386817 -0.01386885 1.1047653 0.522553 -1.2422359 -0.139006 0.5511803 -0.32129502
0.5129639 -0.2713888 0.30197525 0.13273315 0.55912274 0.86257523 -0.14772478 1.3119891
-0.14065142 0.37368003 -0.0731791 0.039311513 -0.0853078 0.09311207 0.0017803763 -0.020537961
0.3100273 -2.9220185 0.052225396 0.4028638 -0.03898879 -0.28322932 -2.296233 -0.17377217
0.4504375 -0.31895214 0.3673602 0.03320755 -0.13244526 -0.31198362 0.09197986 0.6172361
-0.04668155 0.08612836 -0.015483418 0.06398708 0.0017067393 0.007501309 -0.8370532 -0.33654064
0.2474685 -0.23900767 -2.9931128 -1.1893711 -1.365934 -0.00034170225 0.22308959 0.08895968
-0.6780017 -0.13475624 -0.386052 1.2057545 0.3069742 -1.2139388 -0.11062318 0.05257654
0.066548906 0.03210292 -0.011769461 -0.040439453 -0.84353995 -0.65194136 -0.34276056 -0.77552855
0.010760639 0.23930654 -0.3761035 -0.4072986 -0.57282364 0.12400274 -0.24560137 0.47977433
-0.88208073 -0.11213677 0.567942 -0.2788834 -0.027857628 0.013992195 0.090867385 -0.0008850465
-0.022315457 -0.059232134 -0.7638867 0.31521413 -1.3883415 0.15040396 2.0398686 -0.1366922
-2.2907538 -0.43925753 0.42588222 0.15320387 -0.16808437 -0.24903111 0.16988596 -0.7311891
-0.0965439 1.4308164 -0.024336336 0.017087556 0.051993836 0.017989244 -0.0030004743 -0.04034592
0.108773045 0.34925178 -0.29304355 -0.52346957 2.601221 0.3981369 -0.012243584 0.5131697
0.055291887 -0.24626827 -0.534988 -0.5955148 0.15161525 0.0058870343 -0.42265 -1.0766906
-0.033479825 -0.090103984 -0.14279562 0.035105128 0.013894126 -0.08393038 -0.36127883 0.092216805
-0.57152903 -0.40375558 -1.0069852 -0.28297302 -0.2892326 -0.8670147 -0.13622177 0.090883546
-0.29985434 0.09888108 0.08418036 -0.6749017 0.025000984 0.086724944 -0.1344894 -0.047396515
0.1944378 0.006049839 -0.0763088 -0.12885442 -0.5833197 0.3771709 1.4310559 -0.4347029
0.6085672 0.22974819 0.7417782 -0.7050945 -0.10167103 0.31020916 -0.4496142 -0.34100553
-0.015065891 -0.93154025 0.28294194 -0.7518138 -0.020315452 0.036356732 -0.018701887 -0.011365097
0.066521145 -0.074581124 -0.95105755 2.417603 -0.4424127 -0.22626153 -0.16759852 1.1834295
-1.8873547 0.19086453 -0.1911437 0.05735337 0.49970257 -0.14259003 -0.5078661 -0.82731694
0.15961193 -0.56238073 0.015524792 -0.019669637 -0.044403266 0.038682565 0.0059841983 -0.08151494
-0.30803615 0.122731835 -0.5658838 -0.2195678 0.51194555 0.89115137 3.006829 0.1258635
-0.18282667 0.25278905 -0.45928898 0.23236583 -0.53232044 -0.6366457 0.10638946 -0.36266834
0.13163091 0.15619978 -0.15498115 -0.107700065 -0.14155635 -0.03934898 0.064765014 0.87855536

fc1.bias f4 [128]
00000000: 1a18 af3e 7d5f cc3d aca4 a9bd 9b3a 983e
00000010: 38ff f33b f56b 123c 24f0 4fbd 905d 3f3e
00000020: a69d df3e fed7 9e3e 32da 893e f969 233e
00000030: b88f c83d 1d7a 993e f474 363e e561 0d3d
00000040: f32a 323e c33b 143e f36b 083f 3110 88bc
00000050: 5d27 6f3e 945b 77bd 2ba0 423d 8ed5 043d
00000060: 8f4c 26bc 0736 023f 5f41 da3d 4f49 173e
00000070: b611 863e bc89 a83e f64a 513e ce46 9a3e
00000080: 6f0f 12bb ef83 a03d 770b f93d 19c9 c43e
00000090: 7b0c e1bc 8b60 8a3e ad78 f03e da09 b13e
000000a0: 8c50 90be e49c 04bd d8a4 a83e 3911 013f
000000b0: 83ed dd3d 20bb bb3d 8146 753e 497a d93d
000000c0: 3af6 b83e 31ba 7dbe 5f02 8a3e afc4 4a3e
000000d0: 1862 8bbd 03a3 f23d 5d05 493e f5d2 8f3e
000000e0: b172 c03e 7039 913c d342 cc3d b2e1 38bd
000000f0: d80d 7cbd c970 763d 533d f2bd a730 9f3e
00000100: 8d32 6dbe f7b0 53bd ff00 8b3e d0b8 45be
00000110: e8b7 c1bc 2174 b03e f993 973d 5f4b b93d
00000120: 05dd e23e 60e3 3dbe d4d4 d23d f707 293c
00000130: c416 e13c 4c8a 033f d510 d53c f8c0 3a3c
00000140: b02a 06bd 8c48 7f3e 7642 753d 3456 a23e
00000150: 5ccb 003e fe5d 9c3e 47ff aa3e d8aa b83d
00000160: 8c7b 253f 9df8 9e3e da64 223e 3c52 703e
00000170: 86e9 213e a430 9e3e e327 0b3e cbf5 0dbe
00000180: 2b2d 833c c985 9c3e 333b c7be 540a 93be
00000190: 60ae 363e eb9d 093d 8099 de3d 42a4 b33b
000001a0: d34a bdbe 6095 84bb c753 6b3c cc30 40be
000001b0: a1ac 0a3e 6a18 913d 66cc d93e 586d 6a3e
000001c0: 0277 f4bb 8616 8d3e 96e4 f53d fd1e 9cbd
000001d0: 2081 0cbe f960 bbbc 21ce 58bd 1451 543d
000001e0: 7df0 4e3e 71f8 ac3d 27a1 e0bd aaf9 fc3c
000001f0: befb b03e 99df 9ebe 3c06 66be 52ef 143d
0.34198076 0.099791504 -0.08283362 0.29732212 0.007446196 0.008936872 -0.050766125 0.18688035
0.43674964 0.31024164 0.26924282 0.15958394 0.09793037 0.29975978 0.17818052 0.034517188
0.17399196 0.14475922 0.5328972 -0.016609283 0.2335486 -0.06039007 0.04751603 0.032430224
-0.010150089 0.5086369 0.10657 0.14774059 0.26185387 0.32917583 0.20438752 0.30132145
-0.0022287031 0.07837664 0.1216039 0.38434675 -0.027471771 0.2702678 0.46967068 0.3457783
-0.28186452 -0.032376185 0.32938266 0.50416905 0.108363174 0.09166551 0.23952676 0.10619027
0.36125356 -0.24778058 0.26954934 0.19801591 -0.06805819 0.11847498 0.19630952 0.28090635
0.37587503 0.017727584 0.09973683 -0.045137115 -0.06153664 0.060166154 -0.11828103 0.31091806
-0.23163815 -0.05168244 0.27149197 -0.19308782 -0.023647264 0.344636 0.074012704 0.09047579
0.4430925 -0.18543768 0.102945 0.01031684 0.027476676 0.513829 0.026009003 0.011398546
-0.032755554 0.24930018 0.059877835 0.31706393 0.12577575 0.3054046 0.33397886 0.09016961
0.6464164 0.31049052 0.15858784 0.2346887 0.15811738 0.30896485 0.13589434 -0.13863294
0.016012749 0.3057082 -0.38912353 -0.28718817 0.17839956 0.033597868 0.108691216 0.0054822275
-0.3697115 -0.004046127 0.014363236 -0.18768615 0.13542415 0.07084735 0.42538756 0.22893274
-0.007460476 0.27556247 0.1200649 -0.07623098 -0.13721132 -0.022873389 -0.052930955 0.051835135
0.20208926 0.08445824 -0.10968237 0.030880768 0.34567064 -0.31029966 -0.22463316 0.036361046

fc2.weight f4 [128, 128]
00000000: d691 883b 06b3 913f da45 18bd 83ae b9be
00000010: af5f 15be 32f5 703f 3748 44be cb57 c93d
00000020: 5f87 a13d 0df8 24be 7379 6ebe 88ef 693e
00000030: 5f09 0e3e 5151 aabe 39f1 42be 0b2b c3bd
00000040: df73 7fbe 6118 4f3f ae77 e6bc 5609 d03c
00000050: 152b d1bd a04c a73e d3da 47be 29f8 cdbc
00000060: 7585 ac3b 6530 ccbd 4857 a83e d683 143d
00000070: 9ba2 233d 7da4 7ebb 0f59 183e 050f 09bf
00000080: 549e 62bc bfa3 e43e 42bf e83d b203 f73d
00000090: a882 d53d 0b59 de3d b71c 2f3d 49db afbd
000000a0: e6f6 23bf 079a ce3d 8c2c 773e 4ef5 863b
000000b0: f67a 83bb 67e6 70bd 35b5 17bf 9514 8f3d
000000c0: d14d 9c39 067a 23bf 0192 03be 2d9b 0bbf
000000d0: a8b8 adbe 3773 bebe 5dbc 04be 5b27 c2bc
000000e0: 787f b9bd 9e24 c8bd 6e1c 823e fc15 913f
000000f0: d1b1 ce3e a6e4 0bbf d8f1 41be be5f e7bf
00000100: 8f53 0f3f 915d 883d f40d 9a3e 4013 08bf
00000110: c958 5a3e dde8 8ebe 9a34 d43c cb91 04bf
00000120: d125 03bf 0d3f 133e 2743 f8bc 80e4 69bf
00000130: 8703 0dbe e3dd 0f3d f6f2 823d d60f ea3d
00000140: 6078 053e ec72 c2be ad2e f5be d1b7 4d3e
00000150: 8dad e13e b77a 1cbe 9b85 04be 00ea 8fbe
00000160: fbf5 233f ccbd 1abe 3de7 8c3e feaf bd3d
00000170: 29d1 b2be 1861 203d 3497 04be 2644 1c3d
00000180: 78a7 bf3e 8d44 babd 1ca2 8d3f c28c 3bbf
00000190: d275 383f d0c9 2f3d ec97 b4bd 00ed 3cbf
000001a0: 2edc 043f a1e2 4bbe e3c4 673d 64a8 a83e
000001b0: 290c 203e 3b60 1dbe 5ea1 31be 1771 4b3e
000001c0: 2263 b4bd 51dc 373e eac8 aa3e 279a 40be
000001d0: 3335 bcbe 4508 41bf a2db 8a3e 6b68 5f3e
000001e0: b0e2 6abe 59d3 21bf d6df f73d 8f1c 833d
000001f0: a72f bbbc 5aa5 2f3f 9e4d 1f3d c304 8f3e
00000200: b27e 3e3e 5a78 c83e 5f8b 493e 4ed6 61bd
00000210: 9f57 c2bd 80d6 edbd 571e 9a3e 876d 75bb
00000220: e390 913e fc7f 833e 9657 3e3e fe75 773e
00000230: f17b 1c3e d633 ad3e a044 bd3d 32be 1c3e
00000240: e818 893d 310d ff3c 0bd9 d23e 2c0d 043d
00000250: c7f5 09bd 3bdc 223f 5a09 21be 7580 603e
00000260: 61cf 113e 06ed 003f a130 86bc 4616 8bbd
00000270: c043 96be c8c7 423e abfb 5c3d c009 b63e
00000280: 74ae 6abc 324f a23c 5432 083e ab5a f23d
00000290: 8aff 943e 7bbe 4c3e 776f 3dbe 256a 97be
000002a0: 3d40 1cbf d50a aa3e 8df7 b53e 69f0 8e3e
000002b0: 870c c2bd 2c8d c13b 109a 15be 56ae 8f3e
000002c0: 6b31 f73e 43c2 163e d3c2 adbd e1d6 6abf
000002d0: 70b7 6bbf c23b e13e 76d8 df3e 993c a83e
000002e0: 1929 53be e79d 893e 7823 d33c 58b4 cebc
000002f0: fb52 a23e 07ad a33e 1998 1e3d bc02 4d3e
00000300: cf04 1b3f d245 723e beae bf3d 97e7 1a3c
00000310: b26f 09be 1530 5c3e 5b49 a53d ae4d abbe
00000320: 8e49 29be 866a 75bd 9ab8 9bbd 6e8c bb3e
00000330: bacf 4e3e 542c 74bc b39d 2a3e eaea a13d
00000340: cf66 083e e203 b9be 8033 3a3d d4be 97ba
00000350: 39f8 99bc 5397 d13d a127 71be 5ad9 acbe
00000360: 918b 91be 15ed b83e 9c78 aa3e c653 d5bd
00000370: de6d 453d b2b8 a73d caa4 863e e411 4f3e
00000380: 1474 f5bc 41db 7d3e 6efa f8ba ef00 173e
00000390: 35a7 1a3d 3aa8 ddbc 41cd a63d 604d 363c
000003a0: a58d 1cbe 7399 a13e 7e0a adbd 5848 fcbd
000003b0: cb59 423e ca8d db3c 309c fc3c e85d 64bd
000003c0: 882f f63d 0b1d 973e b3f8 c5be 2e57 233b
000003d0: 17a7 fcbd ea1b 263c 3b78 acbc d731 243f
000003e0: 23a5 4b3e bd1d f9be c1a2 153e 29c8 423d
000003f0: 663d b33d e843 5a3e 06ba a33e 40fc 3a3e
0.0041677756 1.1382759 -0.03717599 -0.36265954 -0.14587282 0.9412414 -0.19168173 0.09831198
0.07887148 -0.16110249 -0.23288517 0.2284528 0.13870762 -0.33265164 -0.19037332 -0.09529694
-0.24946545 0.80896574 -0.02813324 0.025395077 -0.10213295 0.32675648 -0.19517069 -0.025142746
0.0052649328 -0.09970168 0.3287909 0.03625854 0.039949995 -0.0038855367 0.14877723 -0.53538543
-0.013831694 0.44656178 0.113646045 0.12061252 0.10425311 0.10856827 0.042751994 -0.08586747
-0.6404861 0.10087972 0.24138087 0.004118598 -0.004012461 -0.05881348 -0.59260875 0.069863476
0.00029812616 -0.6385807 -0.12848665 -0.54533654 -0.33929944 -0.37197277 -0.1296248 -0.023700407
-0.09057516 -0.09772609 0.25412315 1.1334834 0.40370038 -0.54645765 -0.18939912 -1.8076093
0.55986875 0.066584714 0.3008877 -0.53154373 0.21322931 -0.27912036 0.025903989 -0.5178496
-0.5122958 0.1437952 -0.030305458 -0.9136429 -0.13770877 0.035123717 0.06393997 0.11428802
0.130342 -0.37978303 -0.47887173 0.20089652 0.4407772 -0.15281187 -0.12941591 -0.28108215
0.6404721 -0.15111464 0.2752017 0.092620835 -0.34925202 0.039155096 -0.12948304 0.03815093
0.37432456 -0.09095106 1.1065097 -0.73261654 0.7205478 0.042917073 -0.08818039 -0.73799133
0.5189847 -0.19910671 0.05658425 0.32940972 0.15629639 -0.1536874 -0.17346713 0.19867359
-0.088079706 0.17955138 0.3335641 -0.18808804 -0.36759338 -0.75403243 0.27120692 0.21817176
-0.22938037 -0.63213116 0.1210324 0.064019315 -0.02284987 0.6861168 0.03889238 0.2793332
0.18603018 0.3915432 0.19682072 -0.055136018 -0.09489369 -0.11613178 0.30101272 -0.0037449317
0.28430852 0.25683582 0.18588099 0.24166104 0.15281655 0.3382861 0.09241605 0.15306929
0.066942036 0.03113422 0.41181216 0.032239124 -0.033681657 0.63617295 -0.15726224 0.21924002
0.14239265 0.5036167 -0.01638061 -0.06791358 -0.29348564 0.19021523 0.053950947 0.35554314
-0.014323819 0.019813154 0.13300449 0.118337 0.2910121 0.19994538 -0.18499552 -0.2957317
-0.6103552 0.3321139 0.3554043 0.27917793 -0.09475046 0.0059067216 -0.14609551 0.28062695
0.4827989 0.14722542 -0.084844254 -0.9173413 -0.9207678 0.43990904 0.43719834 0.32858732
-0.20621146 0.26878282 0.025773749 -0.025232479 0.31703934 0.31967947 0.03871927 0.20020574
0.6055421 0.23659447 0.09359501 0.009454629 -0.13421515 0.21502717 0.08070632 -0.33457702
-0.16531965 -0.05991604 -0.07603569 0.36630577 0.20196429 -0.014903147 0.1666172 0.079061344
0.13320468 -0.36135775 0.04545927 -0.0011577257 -0.01879512 0.10233941 -0.23550273 -0.33759576
-0.28426793 0.3611838 0.33295143 -0.10416369 0.04820048 0.08189525 0.262976 0.20221668
-0.029962577 0.2479067 -0.0018995532 0.1474645 0.037757117 -0.027057756 0.08144618 0.011126846
-0.15288408 0.31562385 -0.08449267 -0.12318486 0.18979566 0.026801009 0.030836195 -0.05575362
0.120207846 0.29514346 -0.38666305 0.002492379 -0.12336557 0.010138491 -0.021053424 0.6413855
0.19887213 -0.486555 0.14612867 0.04755417 0.08751945 0.21314967 0.31977862 0.18260288

fc2.bias f4 [128]
00000000: 5c7f 263c d239 9a3d a895 07bd 094e 423e
00000010: ff48 0b3e 7497 383d 7c8d 55be ace4 25be
00000020: 157b 0bbd 7036 01bc cf08 4a3d 9017 f43d
00000030: a023 3e3d d0d4 de3d 699c 0fbe 8706 d33c
00000040: 55e0 ad3d 0e0d 9bbe 2573 7c3d 84ff 1c3e
00000050: 3fb4 373e 30be 40bd 949b 863d 0d57 0e3e
00000060: 7a9e 7c3e 61b7 aa3c 786c ccba bb45 a13e
00000070: 02d0 b6bc 7f79 9fbd 7338 013e b90b cd3d
00000080: a91a 0ebc ebe6 013d ef24 3c3e a231 a73d
00000090: e170 dcbd 4603 ef3c 437a a93d d288 173e
000000a0: da30 cf3d 7377 90be 8638 04bd dc6f 8ebd
000000b0: dcd4 d9bd f43f 693e 8720 96bc 46e3 a93d
000000c0: 5dd9 c3bb f1e9 88bd 9f76 ab3c 4f3b bb3e
000000d0: 3048 1c3e 34ce 6d3d 5b21 efbd 5830 983c
000000e0: 95b8 62be 3421 4c3e b77f 5dbd ee1d fcbc
000000f0: 8d2c 523e 2142 c63c ba8b da3d 117a dc3d
00000100: 86d1 95be a9e5 16bd 114a 30bb fda6 503d
00000110: ffda 1b3e daf1 923c 2438 873e d997 92bd
00000120: 907c 05bd 5b6a 90bd 983d a83d 0067 ba3d
00000130: 255f cbbd 3993 113e 56d5 2cbc 7217 303e
00000140: f541 743b 795e 693d 2a63 703e faf9 f63d
00000150: 166c 463b 7e6a 70bc 0786 543d 0ab3 39bd
00000160: ba2f 453e c8c1 1e3e 48c2 bebc 80b9 ea3d
00000170: 0e82 c63d c337 e1bd 2d1c da3d 9d09 11be
00000180: 0d00 123d edc7 b8bd fa57 ee3c e4cf 8bbe
00000190: 66e8 663e 0cb9 0e3e 327a ef3d 7f92 883d
000001a0: a236 89bc e2f0 b03d b047 93bb 2344 a83d
000001b0: cf3e 5f3b f775 bc3d c440 08be 2114 083e
000001c0: 9b17 f7bb fa5d eebc 01e8 043e 150a 333d
000001d0: 8061 2c3d 55cb 22bd d6f1 35be e612 2b3e
000001e0: c804 4ebd 97cf 1c3e 859c 133d b72f 433e
000001f0: 1183 193e 979a 253d 33ac 033e 5a3f d1bd
0.010162201 0.075305596 -0.033101708 0.1897508 0.13602065 0.045066312 -0.20854753 -0.16200513
-0.034052927 -0.007886514 0.049324807 0.11918557 0.046420693 0.108804345 -0.1402451 0.025759948
0.084900536 -0.30283397 0.061633248 0.15331846 0.17939852 -0.047056377 0.06572643 0.13900395
0.24669829 0.020839395 -0.0015596291 0.31498513 -0.022315983 -0.077868454 0.1261919 0.100120015
-0.008673348 0.03171436 0.18373464 0.081637636 -0.107637174 0.029176366 0.08275273 0.14798287
0.101167396 -0.28216133 -0.032280467 -0.06954929 -0.10636303 0.22778302 -0.018326057 0.08295302
-0.0059768395 -0.06685246 0.020930586 0.36568686 0.15261912 0.05805798 -0.11676284 0.01857774
-0.22140725 0.19934541 -0.054076876 -0.03077599 0.20524807 0.024201455 0.10671182 0.1076547
-0.29261416 -0.036840115 -0.0026899616 0.050940502 0.15220259 0.01793759 0.2641002 -0.07157869
-0.032589495 -0.07051536 0.08214873 0.09101677 -0.09930257 0.14216317 -0.01054891 0.17196444
0.0037270759 0.05697486 0.23475328 0.12059398 0.0030276827 -0.014673827 0.05188563 -0.04533676
0.19256487 0.15503609 -0.023286 0.114611626 0.09692775 -0.10996964 0.10649905 -0.14163823
0.03564458 -0.09022508 0.029094685 -0.27307045 0.2254959 0.13937777 0.11693229 0.06668567
-0.016749684 0.08639695 -0.00449463 0.08216121 0.0034064536 0.092021875 -0.13305956 0.13288929
-0.007540656 -0.029097546 0.12979127 0.043710787 0.04208517 -0.039744694 -0.17768034 0.16706428
-0.05029753 0.15313564 0.03603794 0.1906117 0.14991404 0.04043063 0.12858658 -0.102171615

fc3.weight f4 [6, 128]
00000000: 5eee 62bf 27ce 8cbe 0dd0 283f cae1 813d
00000010: 49e4 b5be 7e09 593d 75b6 5e3d 8316 4bbe
00000020: fd0d 46bf 582d 64bf 48f0 4a3f 57bc 853e
00000030: 2535 86bf e46b 35be 833f 4bbf c225 0f3f
00000040: 13b7 943e d791 063e 5ff4 8a3d c0f1 3a3f
00000050: 720d 853f a6b8 3a3e 6faf ccbf 88bb 0c3f
00000060: 4a59 e53e 3acd 8ebb f334 063f 4e23 8ebe
00000070: 328c 9bbf 1d87 2b3f a97c 473e 310e 263f
00000080: c5bb 913c 60e9 df3d 9282 9bbb 82d9 cb3f
00000090: eafd 0fbf e22f 35bf ef26 7abf e3a2 a5be
000000a0: 685d 813f 50ec 47bf 1b82 89bf fe22 083f
000000b0: 75b4 47be f156 c73f 6c0a 4b3f b69e 0dbf
000000c0: 4a9a 683e 9a1c 22bf b907 853e 00cd d8be
000000d0: f8f9 a4bf 2fa9 a4be a88b 50bf 7aba 96be
000000e0: 3bf7 a5bf 5ca3 7d3f d4b4 b6be f103 21bf
000000f0: 19df 5b3e c74e ea3e fdd9 673f 9a22 5bbf
00000100: e07f cf3f ace1 1e3e 75cd 573f e2db 853e
00000110: 75e1 233f e462 05bf f307 a5bb 87aa 8b3d
00000120: 82b7 13be 5a04 55be b4af eabe 984f 7e3e
00000130: 9d16 223f 7531 0b3e c621 583e 76a1 d13f
00000140: c08e 973c cd11 2d3c 7f53 a63f e869 7ebf
00000150: f967 393a 7e5e 80bd 1f9d ba3e 7d4e 723d
00000160: 8f74 11bf d8fd 60bf 0cda 443e 0845 893c
00000170: f727 a2be 32a9 16be 4f76 b7be d84e 70bf
00000180: f5e5 9d3f 3d8c fabc 7506 663d 269a 78be
00000190: 030a 093f abeb 19bf 867b 09be 6bd7 343f
000001a0: d912 abbc 4a6e 08bf 69ee 2bbf 3383 1f3f
000001b0: 8e16 dc3f 3d74 383f 43a9 573f 8505 fbbe
000001c0: fc9a 2fbc 22c0 a0be 81a4 833f 281c dfbe
000001d0: f597 1d3d 2152 a9bf 43b1 c3bf 00a3 eb3e
000001e0: ceb8 c8be 8818 793e 98ad 293f 3920 56be
000001f0: d9dc 943d 3d66 703e a103 85bf 0599 843d
00000200: d63d 003f 1623 673e 0f5f 01c0 0c1d cdbe
00000210: fd47 843f 2eff a4bd 7312 a8bf a404 eb3e
00000220: 1356 9dbf dd88 0cbf 7f22 033f eda8 c93e
00000230: 8aaf 013f 8a21 45bf b03e afbe 7acc a1bf
00000240: 1997 edbe c70c 1b3f 1bf9 263f 56d8 cabd
00000250: 1af0 01be b32f 843f 0741 bc3e 4093 8ebf
00000260: dcf0 053e c3fc a8bf cfcf 003f f3b8 99bf
00000270: 4ff2 48bf b1e1 38bf fcf9 0a3e 9a35 8abc
00000280: d2f5 8c3d 9131 2fbd 01ee fa3e 353f d93e
00000290: 464a 5bbe 781e 7e3e 7bed 583f d3e1 94bf
000002a0: 0a3f 643f ea52 06bf aa1a 463e f632 e23e
000002b0: b73f 343e b1f7 e2be 4cac cf3e 79b0 6cbe
000002c0: 1e20 9a3f 8402 bcbf 4980 193e 9162 a33e
000002d0: 8135 b5bf c6cf 79bd 8cea 5a3e 52b2 5dbe
000002e0: c4dd 053e c063 c1bf aa63 703c b2ba 3fbe
000002f0: 46c5 3e3f e4b3 bc3d 3270 a5bf 6aa0 703f
00000300: acfe 1dbf b216 39be 11f0 6bbd b937 05c0
00000310: 3c98 e73e e4bb f13d 68e6 f3be 70a1 2d3c
00000320: 33f4 5a3f 2edc 02bf 07f4 9dbe 1c23 c73e
00000330: 0391 3cbf 0130 36bc 6869 a33f f5d1 c5bc
00000340: c21f 92bf adab a03e e305 07bf e3db ab3e
00000350: f68a 0c3d da09 f9be 3c37 373e deaa 53be
00000360: 2255 083e 031a 693f 633b 603d 704d 47bf
00000370: cc64 243e 4691 9b3d 330d 21bc 57f3 a33f
00000380: 6cb2 663f f6bd 723d 6497 fb3d e871 b3bd
00000390: 7c12 2ebe 20f1 e2be bb3e 2bbe 6cdf afbf
000003a0: 065a b6bd 110b 7cbd 91a4 373f cbdc ba3f
000003b0: 9bbc e73f 9a64 25bf 38f0 8f3f aa0a b03d
000003c0: e976 89bb 07f9 f6bd 41ae 253e 5a42 8ebe
000003d0: ef33 b93f e08d 993e 68da 243e 15ac d83e
000003e0: 2384 b5bf 4ece 0a3f 845e 8cbe 2ebf 1cbe
000003f0: 6e9a 08bf 2482 e53d 798f 6f3f ccbc 16bd
-0.8864497 -0.27501032 0.6594246 0.06341894 -0.3552573 0.052987568 0.054373223 -0.19832806
-0.77365094 -0.8913169 0.7927289 0.26120254 -1.0484968 -0.17716938 -0.79393786 0.5591699
0.29045925 0.13141571 0.06784891 0.7302513 1.0394728 0.182345 -1.5991038 0.5497365
0.44794685 -0.004357961 0.52424544 -0.2776131 -1.2152159 0.6700304 0.19481148 0.64865404
0.01778973 0.109331846 -0.00474579 1.5925753 -0.5624682 -0.7077619 -0.9771566 -0.32350835
1.010663 -0.7809496 -1.074283 0.53178394 -0.19502433 1.5573407 0.7931278 -0.553203
0.22715107 -0.6332489 0.25982454 -0.42343903 -1.2888784 -0.32160327 -0.814631 -0.29439145
-1.2966074 0.9907739 -0.35684836 -0.6289664 0.21471824 0.45763227 0.90567 -0.8559967
1.6210899 0.15515774 0.8429788 0.2614432 0.64015895 -0.5210402 -0.005036348 0.06819635
-0.14425471 -0.20802441 -0.45837176 0.2483505 0.63315755 0.13593085 0.21106634 1.6377399
0.018500686 0.010563326 1.2994231 -0.9938035 0.0007072683 -0.06268023 0.36448 0.059156884
-0.5681848 -0.87887335 0.19223803 0.01675655 -0.31671116 -0.1471298 -0.3583245 -0.93870306
1.2335802 -0.030584449 0.0561585 -0.24277553 0.535309 -0.60125226 -0.13426027 0.706412
-0.02088301 -0.5329329 -0.6716066 0.6230957 1.7194383 0.72052366 0.8424265 -0.4902765
-0.0107181035 -0.31396586 1.0284578 -0.4357617 0.038474996 -1.3228189 -1.5288471 0.46022797
-0.39203495 0.24325764 0.6628051 -0.2091073 0.07268686 0.23476501 -1.0391732 0.06474499
0.50094354 0.22571978 -2.021427 -0.40061224 1.0334469 -0.08056484 -1.313063 0.45901978
-1.2291893 -0.54896337 0.5122451 0.39386693 0.50658476 -0.770043 -0.34227514 -1.2640526
-0.4640434 0.6056637 0.65223855 -0.09904544 -0.12689248 1.0327057 0.36768362 -1.1138687
0.13080162 -1.3202137 0.5031709 -1.2009567 -0.78494734 -0.7221938 0.13571924 -0.016871262
0.06882824 -0.04277188 0.49009708 0.42431036 -0.21415052 0.2481631 0.84737366 -1.1631416
0.8915869 -0.52470267 0.19346109 0.44179505 0.1760243 -0.443296 0.4056114 -0.23114194
1.2041051 -1.4688268 0.14990343 0.31911138 -1.4156953 -0.060989164 0.21378535 -0.21650055
0.13072878 -1.5108566 0.014672199 -0.18723562 0.74519765 0.09213999 -1.2924864 0.9399477
-0.61716723 -0.18075064 -0.057601992 -2.081526 0.45233333 0.118034154 -0.47636724 0.010597572
0.8552887 -0.5111722 -0.3085024 0.38893974 -0.7365877 -0.011119843 1.2766542 -0.024147967
-1.1415942 0.31380978 -0.5274336 0.33566198 0.03431221 -0.4864033 0.17892164 -0.2067065
0.13313726 0.91055316 0.054744136 -0.77852535 0.16054076 0.07596068 -0.009829807 1.2808636
0.90116 0.059263192 0.12284735 -0.0876196 -0.16999239 -0.4432459 -0.16723149 -1.3740058
-0.08903889 -0.06153399 0.71735483 1.4598631 1.8104433 -0.6460663 1.1245184 0.08595784
-0.0041950834 -0.12059217 0.16179754 -0.27784997 1.4468974 0.29991055 0.1609894 0.42318788
-1.418095 0.54221046 -0.2741586 -0.15307304 -0.5336064 0.11206463 0.93578297 -0.036801144

fc3.bias f4 [6]
00000000: 2ce6 f93c 7c6f 98bd 9348 f1bd b3bc 11be
00000010: 41ce 1abe 23b5 d9bd
0.030505262 -0.07443139 -0.117814206 -0.1423214 -0.15117742 -0.10630252
