demo/5_1_tran3_1_2/critic_2_6.pth (torch, 108582 bytes, 5 tensors)

fc1.weight f4 [148, 28]
1.5600067 0.80034083 -0.45292133 0.47679415 -0.03569151 -0.39122087 0.8897116 -0.60851383
-0.46024495 0.25779364 -0.22023284 -0.021753551 -0.88197523 3.1944342 -0.085704654 0.53756773
0.4383155 0.267359 1.1470346 0.80193305 -0.1054559 1.2040275 13.509703 3.1963587
-1.5284473 1.0064632 2.391255 0.12869258 1.3039317 -0.9643087 -0.37405276 -1.1854864
0.12731332 -0.76215553 0.097563855 -0.20051593 0.31192964 -0.1422534 0.2643914 0.13354123
-0.049849417 2.46147 0.067570545 1.995458 -1.6108673 -2.5299046 -3.6634624 1.0125335
3.162783 1.3990724 -2.5455122 -0.008432889 -0.9771146 4.5489774 -2.006056 -0.06346224
0.21076703 0.38312998 1.7121466 0.057292067 -0.5808788 -1.4369793 0.00068320055 -0.1209193
0.008036369 -0.010260073 -0.069208615 0.047928195 -0.27911136 -1.9285167 0.12693207 3.8917675
3.5097935 0.26829073 1.9134582 -1.3792049 0.24568799 1.8891715 -4.0663133 1.3658806
-1.4773885 1.7793063 1.0754372 -1.5964695 0.36438438 -0.48026314 0.5084287 0.8488569
-0.7526382 0.27682218 0.0101871425 -0.3420912 0.39813262 0.06149277 -0.20836702 -0.1059977
-1.13087 -0.6962906 3.0376918 -0.22653261 -3.4629064 0.9070855 -1.6734192 -0.038301837
0.5038718 1.8557926 4.0560083 -0.47722933 3.3606174 -1.7951103 -0.25429836 4.2090225
-0.40363553 1.2786114 -0.1289768 2.2198844 0.28962278 0.95250106 -0.10629233 -0.22571856
-0.009811499 -0.05714807 0.06315796 -0.09591041 0.558023 2.0394182 1.0719242 -0.1689037
4.0915217 0.9064789 -0.25403246 -0.1417134 0.68228704 1.7386045 1.9762806 -0.34530792
-1.5994691 -2.8107991 3.3025157 0.3384216 -1.230403 0.21410428 -0.87333775 -0.2406698
0.22989161 0.19116049 -0.5900932 -0.025944311 0.17130527 0.7798918 -0.24518555 -0.12776572
-0.4017379 -5.5414777 0.795844 -0.95799464 4.83808 -1.7151529 2.9563417 -1.3443004
-0.90137666 0.4397401 -0.26974922 -3.94037 7.5540495 -2.6530867 -1.4892207 1.3040421
-1.1539017 -0.45470896 -0.8960679 -2.1996114 1.577028 -2.8605878 -0.149941 0.034014102
0.30346704 -0.12439313 0.07081485 0.14797975 -1.4160478 -2.279771 0.46966925 0.5671178
-2.6314573 2.571688 4.145203 -0.33462328 -0.3448424 1.0174445 0.17296799 -0.19539325
1.8380756 -0.70100355 0.54809874 0.91925776 0.5945064 -0.41265023 -0.46935067 1.5710939
-0.039499853 -1.1178477 1.1047615 0.707522 0.40378737 -0.2618189 -0.08799199 -0.011329637
1.3183953 0.38549015 2.275929 -2.1024349 5.144367 -1.8782704 0.6463292 -1.9666376
0.21739948 1.2371308 9.813465 1.6106058 -7.120131 4.0919056 0.10047893 -1.2572633
0.6955821 0.07364042 -0.9095682 -0.09073608 0.60645694 -0.83458126 -0.1346082 -0.06365621
0.4646771 0.13432725 -0.06840951 -0.4086694 -4.780216 -1.6425228 -2.0239587 1.0294387
0.5612579 1.4496936 -0.13321854 -0.36198837 -0.13083635 1.462631 -0.18914303 1.0070415
4.324818 2.1673331 2.5516133 5.497677 -1.3369018 0.03953792 1.7432475 -2.6118503
00000000: 4dae c73f 23e3 4c3f 4ee5 e7be 5d1e f43e
00000010: 4331 12bd 1a4e c8be 24c4 633f 90c7 1bbf
00000020: 3aa5 ebbe 87fd 833e b884 61be 8134 b2bc
00000030: 21c9 61bf 9c71 4c40 ec85 afbd 0a9e 093f
00000040: e46a e03e 47e3 883e 08d2 923f 7c4b 4d3f
00000050: 43f9 d7bd 931d 9a3f be27 5841 2491 4c40
00000060: 29a4 c3bf c9d3 803f 520a 1940 fdc7 033e
00000070: 3ce7 a63f efdc 76bf d883 bfbe 05be 97bf
00000080: 6c5e 023e a01c 43bf 8fcf c73d 0c54 4dbe
00000090: 3eb5 9f3e e0aa 11be 4f5e 873e 08bf 083e
000000a0: e72e 4cbd b988 1d40 6d62 8a3d 2b6b ff3f
000000b0: e630 cebf f5e9 21c0 2b76 6ac0 b39a 813f
000000c0: 096b 4a40 ce14 b33f ace9 22c0 1a2a 0abc
000000d0: 2f24 7abf 3991 9140 3963 00c0 7ef8 81bd
000000e0: 50d3 573e 9d29 c43e 9f27 db3f 16ab 6a3d
000000f0: 79b4 14bf f0ee b7bf d018 333a 8aa4 f7bd
00000100: faaa 033c dd19 28bc 3fbd 8dbd 5b50 443d
00000110: afe7 8ebe a3d9 f6bf 7bfa 013e b812 7940
00000120: 75a0 6040 675d 893e 33ec f43f c989 b0bf
00000130: a295 7b3e 5fd0 f13f 3d1f 82c0 2dd5 ae3f
00000140: 111b bdbf 4fc0 e33f eda7 893f 1d59 ccbf
00000150: 9790 ba3e 0de5 f5be 6228 023f b04e 593f
00000160: e6ac 40bf a3bb 8d3e f9e7 263c 9426 afbe
00000170: 0ad8 cb3e d8df 7b3d 2a5e 55be 5215 d9bd
00000180: 59c0 90bf 1a40 32bf 8b69 4240 2af8 67be
00000190: 42a0 5dc0 c136 683f 9a32 d6bf 63e2 1cbd
000001a0: befd 003f 9d8a ed3f d2ca 8140 6757 f4be
000001b0: 5b14 5740 2dc6 e5bf 6533 82be 50b0 8640
000001c0: 51a9 cebe 8aa9 a33f 7f12 04be 9612 0e40
000001d0: 7049 943e 1cd7 733f cbaf d9bd c422 67be
000001e0: 69c0 20bc 1814 6abd f658 813d ad6c c4bd
000001f0: 98da 0e3f d485 0240 d034 893f 17f5 2cbe
00000200: bfed 8240 000f 683f 8b10 82be 511d 11be
00000210: 5daa 2e3f 988a de3f c3f6 fc3f 33cc b0be
00000220: 67bb ccbf 22e4 33c0 6b5c 5340 9945 ad3e
00000230: d87d 9dbf 273e 5b3e 1093 5fbf 2572 76be
00000240: b568 6b3e 93bf 433e 5910 17bf 2a89 d4bc
00000250: a66a 2f3e fda6 473f ec11 7bbe 04d5 02be
00000260: 97b0 cdbe c953 b1c0 6fbc 4b3f 233f 75bf
00000270: 8dd1 9a40 218a dbbf b434 3d40 0912 acbf
00000280: 9fc0 66bf 9d25 e13e 921c 8abe 062f 7cc0
00000290: c6ba f140 2ccc 29c0 c99e bebf daea a63f
000002a0: 0db3 93bf 9dcf e8be b564 65bf 6fc6 0cc0
000002b0: 0edc c93f df13 37c0 228a 19be 5f52 0b3d
000002c0: 0860 9b3e d3c1 febd 6007 913d 0188 173e
000002d0: 0e41 b5bf c5e7 11c0 7d78 f03e a22e 113f
000002e0: cc69 28c0 8996 2440 81a5 8440 be53 abbe
000002f0: 2f8f b0be 9f3b 823f 851e 313e 2b15 48be
00000300: 1046 eb3f f874 33bf 3350 0c3f 7a54 6b3f
00000310: 9231 183f e446 d3be bb4e f0be 9b19 c93f
00000320: 99ca 21bd a215 8fbf d368 8d3f 2920 353f
00000330: 38bd ce3e 200d 86be 2535 b4bd f19f 39bc
00000340: 2dc1 a83f f75e c53e d2a8 1140 4b8e 06c0
00000350: a89e a440 2a6b f0bf d575 253f c8ba fbbf
00000360: f89d 5e3e 4d5a 9e3f f403 1d41 5528 ce3f
00000370: 1dd8 e3c0 e4f0 8240 e6c7 cd3d 01ee a0bf
00000380: ab11 323f cad0 963d 76d9 68bf d7d3 b9bd
00000390: c340 1b3f 1ea7 55bf bbd6 09be 305e 82bd
000003a0: 28ea ed3e 158d 093e 491a 8cbd 1e3d d1be
000003b0: 88f7 98c0 303e d2bf 8a88 01c0 a6c4 833f
000003c0: 99ae 0f3f 8f8f b93f 716a 08be 8a56 b9be
000003d0: f7f9 05be 7e37 bb3f b6ae 41be bce6 803f
000003e0: e964 8a40 96b5 0a40 a24d 2340 f8ec af40
000003f0: 991f abbf 84f2 213d bc22 df3f 8e28 27c0

fc1.bias f4 [148]
1.213252 1.4652523 1.8761497 1.9756249 1.7926888 0.087797195 1.046355 1.1878443
1.4426417 0.28338152 0.9080285 0.64580363 1.3705816 0.67451835 -1.2693254 -0.27451047
2.5073535 0.39906693 1.0534415 -0.86147285 1.7852771 1.3586856 1.6995853 -1.9361023
0.3563471 0.20091633 0.573128 1.3231452 -0.26092675 0.42972642 0.67790353 1.912527
-1.4526156 1.1746944 0.955642 -0.31299576 0.052155677 1.1206908 0.9021283 0.32394463
2.3135312 1.2640803 -1.3813097 2.0164716 1.3369318 1.3642697 2.1182098 0.31318247
0.7981969 -0.4922873 -0.5871058 -0.04800143 1.6739653 -1.3677964 1.5940742 1.3861501
0.12843752 0.6712619 0.05593295 2.1871269 1.0219349 -1.459492 0.52060586 0.6659546
0.48051298 1.3358148 1.9198666 -2.4007773 0.2916131 -0.31851086 1.368159 1.7021033
1.3336318 -0.09179414 1.6003609 2.2767982 -0.030729888 -0.004280662 -0.7481731 1.5257564
-0.6516475 1.9558012 1.9061434 1.7631139 -0.34405354 0.0019801871 0.228147 0.90519166
0.8550431 0.87889856 1.1907593 2.0709393 0.7589886 1.5737389 2.093348 1.5158589
1.0812353 0.6099983 0.629747 -0.46422595 0.72723436 1.1074462 -1.0130394 -1.0038607
1.4268148 0.6260937 -0.94165754 1.0096203 -0.71377754 1.6856242 -0.3312122 0.41084024
-0.8160729 0.7501187 0.9712203 0.6185468 0.58589613 0.6973816 0.7054813 -0.4839455
0.23016706 -1.3541856 2.1539288 2.3147748 1.0272251 0.79472286 1.4958829 1.6776764
1.6419456 1.8324001 -0.0025691916 0.9527502 0.9776732 -0.72417873 1.8939929 0.40574217
-0.11462493 1.4558951 1.771347 0.832869 1.2774274 1.7609912 -0.2044822 0.5031367
0.23743835 1.3121915 0.18157434 -1.6200635
00000000: d74b 9b3f 638d bb3f ac25 f03f 47e1 fc3f
00000010: d476 e53f 04cf b33d f6ee 853f 480b 983f
00000020: 7ca8 b83f 6217 913e 8e74 683f 6353 253f
00000030: 386f af3f 3cad 2c3f 4179 a2bf a38c 8cbe
00000040: 7b78 2040 8052 cc3e 2cd7 863f 7c89 5cbf
00000050: f683 e43f 69e9 ad3f 038c d93f 33d2 f7bf
00000060: 2173 b63e 03bd 4d3e 84b8 123f d25c a93f
00000070: 3198 85be 1a05 dc3e 168b 2d3f afcd f43f
00000080: 4fef b9bf 635c 963f f4a4 743f fb40 a0be
00000090: 31a1 553d cc72 8f3f e1f1 663f 12dc a53e
000000a0: e510 1440 62cd a13f c2ce b0bf df0d 0140
000000b0: 9520 ab3f 64a0 ae3f c090 0740 7459 a03e
000000c0: a256 4c3f 150d fcbe 914c 16bf 269d 44bd
000000d0: 7f44 d63f f413 afbf a00a cc3f 5e6d b13f
000000e0: 2085 033e d2d7 2b3f f319 653d e3f9 0b40
000000f0: c3ce 823f a2d0 babf 6d46 053f 007c 2a3f
00000100: cc05 f63e fbfb aa3f 30be f53f 56a6 19c0
00000110: 504e 953e db13 a3be d61f af3f 85de d93f
00000120: 72b4 aa3f 91fe bbbd a0d8 cc3f 10b7 1140
00000130: 3fbd fbbc cc44 8cbb 4688 3fbf fc4b c33f
00000140: 5fd2 26bf b257 fa3f 82fc f33f b7ad e13f
00000150: c927 b0be 07c6 013b 5e9f 693e a4ba 673f
00000160: 1be4 5a3f 7fff 603f cd6a 983f 458a 0440
00000170: 144d 423f 4770 c93f 6af9 0540 aa07 c23f
00000180: eb65 8a3f d928 1c3f 1937 213f 06af edbe
00000190: 082c 3a3f ccc0 8d3f 46ab 81bf 827e 80bf
000001a0: dea1 b63f ad47 203f 7810 71bf 3d3b 813f
000001b0: 20ba 36bf 89c2 d73f a594 a9be a759 d23e
000001c0: 27ea 50bf c707 403f e5a1 783f 1559 1e3f
000001d0: 4afd 153f 9a87 323f 6c9a 343f b4c7 f7be
000001e0: eab0 6b3e f455 adbf f8d9 0940 4525 1440
000001f0: 1d7c 833f f572 4b3f 1779 bf3f 1abe d63f
00000200: 462b d23f 168c ea3f e25f 28bb 70e7 733f
00000210: ca48 7a3f c763 39bf 5c6e f23f 70bd cf3e
00000220: 7ac0 eabd c55a ba3f 80bb e23f e736 553f
00000230: be82 a33f 2968 e13f c863 51be 91cd 003f
00000240: 0a23 733e e4f5 a73f a0ee 393e 3e5e cfbf

fc2.weight f4 [148, 148]
0.04003749 0.0046592006 -0.88426435 0.46815056 0.39312187 0.6098243 1.5468036 0.28595993
0.4901202 -0.52233845 0.6059014 -0.5950771 2.0174844 -0.93844986 0.2811977 -12.403584
0.66642743 1.910154 1.3408885 0.3343854 -0.00887421 0.536006 0.6270387 4.0263395
0.8510013 1.4632167 -0.75402945 1.550039 -1.4458731 0.83801526 0.20472305 1.736482
-0.93110895 0.3030969 -0.127599 -0.6643064 -0.20168681 -0.15854466 -0.08732656 0.21944441
0.46089327 -0.95231056 0.72968966 1.7086241 2.0685377 -0.096026696 0.35149103 -0.53411716
-0.8213441 -1.8592045 -0.36895376 -0.43636245 2.0268817 0.40012893 0.2975123 2.0925272
3.6248677 1.5450639 -1.0635586 0.57758784 -0.47785184 -0.7591283 -0.52812 0.3782779
-0.28481376 0.10221238 0.17964187 -0.6462392 0.16872664 -0.7013959 0.49552894 0.20115356
-0.3534755 -0.9320723 -0.8961021 2.0340943 0.40280157 -1.0650513 -0.8251795 -0.43928596
-2.7094274 0.3759754 0.33611217 0.11950703 0.17861022 0.29978782 0.22501804 0.79090464
-0.036125936 1.1387464 -0.18522462 0.065822035 1.245274 0.066204704 -0.16576351 0.3535642
-0.018955221 1.4394797 1.3497566 -1.1813903 0.14176416 0.46465772 0.15946743 -1.1537023
0.65325767 -0.10504367 -1.6514162 0.48145616 2.1554208 0.43817478 -0.14037159 -1.6289598
-3.546109 0.389241 0.4564408 -1.0273193 2.6919007 1.519581 0.6404378 1.2917979
0.9833024 -0.2570473 0.29299825 -0.96868026 0.8864428 0.29552203 0.33243427 1.542044
-0.12355414 0.92393935 -0.32164732 0.9868663 1.0307182 -0.47693852 0.53197986 -1.0527433
0.9259565 0.05790291 0.1929253 -0.3749359 0.85332185 0.22229968 -0.8422303 0.5647713
0.3596154 1.4071528 -0.25287566 -0.29113325 -0.04197774 0.05398402 -0.03605012 -0.0062572975
-0.075324446 -0.08385083 -0.02652716 -0.0773953 -0.08237391 0.040569525 0.024408903 -0.056524962
-0.004378405 -0.091929115 0.038392927 -0.075397514 -0.06678657 0.019757153 0.04612964 -0.07459153
0.044487122 -0.07291644 -0.024993533 0.017843274 0.03615093 -0.06782858 -0.036234293 -0.026208756
0.010292435 0.02419011 0.000536439 -0.03376594 -0.09293892 -0.017179666 0.014824262 0.06450453
-0.053619765 0.06094651 -0.056287754 -0.008379692 0.03642198 -0.09237293 -0.030856647 -0.021797096
0.0010372435 -0.08057939 0.015772164 -0.071511984 -0.047948223 -0.052940186 0.014367334 -0.04997388
-0.05081813 0.062007602 -0.09189294 0.055047266 0.021998659 -0.023325438 0.036800005 -0.08532781
-0.00967882 -0.014973441 -0.026397578 -0.07325066 0.03354448 -0.004366447 0.020647965 -0.05768625
0.050256286 0.043043453 -0.04944554 0.0075583705 -0.046681177 -0.00591908 0.04035863 -0.09029571
-0.040339597 -0.033866752 0.025379857 -0.013918352 -0.07361718 -0.019352514 0.003870002 -0.062187627
-0.04404459 0.022801349 -0.005920944 -0.084990434 0.011630879 -0.07281491 0.036929548 -0.017219398
-0.002534705 -0.02462152 -0.099256046 0.007284524 0.006506037 -0.02480698 -0.028539358 0.011410408
-0.031606372 -0.035617735 -0.012070428 -0.015617047 0.041246206 -0.0724266 0.06469728 -0.068919726
00000000: 5afe 233d 35ac 983b 265f 62bf 6eb1 ef3e
00000010: 4547 c93e 721d 1c3f a9fd c53f 5769 923e
00000020: 09f1 fa3e f9b7 05bf 5b1c 1b3f f956 18bf
00000030: 771e 0140 403e 70bf 25f9 8f3e 1475 46c1
00000040: fd9a 2a3f ed7f f43f 3ca2 ab3f 9034 ab3e
00000050: 2265 11bc b037 093f 9c85 203f c6d7 8040
00000060: 39db 593f af4a bb3f 1308 41bf ae67 c63f
00000070: 5f12 b9bf 2b88 563f eba2 513e 0b45 de3f
00000080: 285d 6ebf 842f 9b3e 50a9 02be fc0f 2abf
00000090: fd86 4ebe 8859 22be 44d8 b2bd 09b6 603e
000000a0: 34fa eb3e a0ca 73bf f1cc 3a3f 32b4 da3f
000000b0: ec62 0440 a5a9 c4bd a2f6 b33e e7bb 08bf
000000c0: 9b43 52bf 6afa edbf 82e7 bcbe e66a dfbe
000000d0: 6eb8 0140 b3dd cc3e 8853 983e f7eb 0540
000000e0: d5fd 6740 a7c4 c53f b022 88bf ccdc 133f
000000f0: ffa8 f4be 3b56 42bf df32 07bf a4ad c13e
00000100: 1cd3 91be b954 d13d 0af4 373e ef6f 25bf
00000110: adc6 2c3e af8e 33bf f8b5 fd3e 33fb 4d3e
00000120: befa b4be 4a9c 6ebf f266 65bf 9a2e 0240
00000130: 023c ce3e 9a53 88bf f73e 53bf 17ea e0be
00000140: 4267 2dc0 d97f c03e e516 ac3e 1ac0 f43d
00000150: 99e5 363e ca7d 993e 216b 663e ba78 4a3f
00000160: caf8 13bd 71c2 913f 86ab 3dbe b4cd 863d
00000170: 2365 9f3f 5596 873d e9bd 29be 5e06 b53e
00000180: fb47 9bbc df40 b83f d3c4 ac3f cc37 97bf
00000190: a02a 113e 9ee7 ed3e 6e4b 233e 84ac 93bf
000001a0: e53b 273f 2321 d7bd 9b61 d3bf 6c81 f63e
000001b0: 6af2 0940 7258 e03e 92bd 0fbe c181 d0bf
000001c0: 73f3 62c0 994a c73e 9cb2 e93e 337f 83bf
000001d0: 1a48 2c40 a181 c23f bbf3 233f a259 a53f
000001e0: b5b9 7b3f b49b 83be de03 963e 6efb 77bf
000001f0: eaed 623f aa4e 973e d334 aa3e b361 c53f
00000200: f409 fdbd 4a87 6c3f f5ae a4be 45a3 7c3f
00000210: 93ee 833f 4931 f4be d52f 083f 4bc0 86bf
00000220: 7c0b 6d3f 9a2b 6d3d 368e 453e 99f7 bfbe
00000230: 4d73 5a3f 87a2 633e 689c 57bf da94 103f
00000240: 821f b83e 951d b43f eb78 81be 6b0f 95be
00000250: daf0 2bbd 591e 5d3d 4aa9 13bd 040a cdbb
00000260: b443 9abd fcb9 abbd 7d4f d9bc 6d81 9ebd
00000270: a7b3 a8bd 3b2c 263d 2ef5 c73c b886 67bd
00000280: b978 8fbb 5545 bcbd e741 1d3d 036a 9abd
00000290: 66c7 88bd c1d9 a13c 6ff2 3c3d 72c3 98bd
000002a0: 2138 363d 3755 95bd 3dbf ccbc 0f2c 923c
000002b0: ff12 143d b6e9 8abd 696a 14bd bfb3 d6bc
000002c0: 9aa1 283c 562a c63c d09f 0c3a 284e 0abd
000002d0: c356 bebd 5fbc 8cbc 76e1 723c f31a 843d
000002e0: 66a0 5bbd 0ca3 793d fd8d 66bd fa4a 09bc
000002f0: 372f 153d 052e bdbd 14c7 fcbc d38f b2bc
00000300: 1ef4 873a cf06 a5bd a034 813c e074 92bd
00000310: 5b65 44bd cfd7 58bd f764 6b3c 69b1 4cbd
00000320: ac26 50bd affb 7d3d 5e32 bcbd 3e79 613d
00000330: 8836 b43c fd14 bfbc 9abb 163d 59c0 aebd
00000340: ea93 1ebc 2a53 75bc bc3f d8bc 7104 96bd
00000350: f065 093d 6a14 8fbb ec25 a93c 6b48 6cbd
00000360: 89d9 4d3d 554e 303d 6887 4abd 35ac f73b
00000370: c334 3fbd d8f4 c1bb 174f 253d f5ec b8bd
00000380: 223b 25bd ddb7 0abd 6be9 cf3c cd09 64bc
00000390: 9bc4 96bd 2a89 9ebc dc9f 7d3b 74b8 7ebd
000003a0: 1a68 34bd e5c9 ba3c 7a04 c2bb 770f aebd
000003b0: 718f 3e3c fc1f 95bd 7043 173d b20f 8dbc
000003c0: 4b1d 26bb 12b3 c9bc c146 cbbd 04b3 ee3b
000003d0: 9830 d53b 0238 cbbc 5fcb e9bc b8f2 3a3c
000003e0: af75 01bd e7e3 11bd 0bc3 45bc a5de 7fbc
000003f0: c8f1 283d 6654 94bd 0280 843d c925 8dbd

fc2.bias f4 [148]
2.0727954 -0.03762625 -0.109454595 2.3540878 2.1893115 2.1591837 0.017654294 -3.1192484
-0.07786392 2.2035434 -0.07562146 2.212596 2.084338 -3.3165815 -0.05703445 2.0237546
2.0647607 -0.08037763 2.457815 2.1199443 2.0455465 -0.046931878 -0.06777074 2.4687855
-0.052826494 2.409957 2.1124592 2.4043584 2.1670105 0.040233508 -0.10965998 2.439702
2.3170862 2.115308 2.0927503 0.021760115 2.3227494 -0.019943004 0.034974176 0.0020909973
1.9553589 1.7177956 -0.11650975 -0.0055298535 -0.05546115 2.0657876 0.024402734 1.1426914
2.3798778 2.0920947 2.1021597 2.1082232 -0.06013585 2.0489824 2.1121337 2.112388
2.1255748 2.123987 -0.057156 2.0969887 2.045014 2.2241015 -0.05103295 -0.011006547
0.34173265 0.032956813 2.20257 2.145494 -0.037684787 2.1563087 -0.006319495 2.4709384
-0.013772963 -0.0984288 2.0765872 -0.044897266 2.2311332 0.024668267 2.1484432 2.0865438
-0.042152926 2.0346959 2.1463099 -0.0533307 0.05206071 2.1064322 0.042681195 0.018934824
-0.102863595 -0.008340601 -0.037180666 0.030555189 -2.7758036 -0.10823762 -0.0642307 -0.556251
-0.06701861 -0.015495785 2.2206657 0.00089583144 0.011655474 2.4348009 2.3963523 0.45993787
2.1566637 2.20265 -0.055628594 2.0503407 2.0720024 0.022639224 2.188006 0.008958419
2.3953166 2.1273477 2.2954905 2.094678 2.4330056 2.19404 2.0666819 0.00964272
-0.036653996 2.4121537 -0.05583603 2.1705432 -0.11293823 2.255743 0.0064924946 0.8407604
-0.0682769 2.4075074 2.423893 2.082196 2.1476302 1.1245306 -0.12624234 0.0117210215
-0.084029056 1.8954641 2.167512 2.3185265 2.1480749 -0.049019687 2.364909 2.1604557
2.0349462 0.062878035 2.254169 2.197455
00000000: aea8 0440 fc1d 1abd bb29 e0bd 60a9 1640
00000010: ae1d 0c40 1130 0a40 bd9f 903c c4a1 47c0
00000020: 1e77 9fbd db06 0d40 6ddf 9abd 2c9b 0d40
00000030: cb65 0540 df42 54c0 f59c 69bd 3285 0140
00000040: 0a25 0440 079d a4bd d74c 1d40 2bad 0740
00000050: 3cea 0240 a43b 40bd 63cb 8abd 9500 1e40
00000060: 9860 58bd bc3c 1a40 8832 0740 02e1 1940
00000070: 4db0 0a40 e4cb 243d 6995 e0bd 1424 1c40
00000080: 244b 1440 3561 0740 9fef 0540 4542 b23c
00000090: eda7 1440 835f a3bc 1541 0f3d 1d09 093b
000000a0: 3349 fa3f bae0 db3f aa9c eebd c633 b5bb
000000b0: 3b2b 63bd dd35 0440 3ee8 c73c b643 923f
000000c0: eb4f 1840 e1e4 0540 c989 0640 21ed 0640
000000d0: 0251 76bd 8722 0340 332d 0740 5d31 0740
000000e0: 6b09 0840 67ef 0740 691c 6abd 1035 0640
000000f0: 82e1 0240 ae57 0e40 ed07 51bd ce54 34bc
00000100: 95f7 ae3e b9fd 063d e8f6 0c40 c64f 0940
00000110: 5d5b 1abd f600 0a40 c413 cfbb db23 1e40
00000120: fea7 61bc 0a95 c9bd cee6 0440 32e6 37bd
00000130: e3ca 0e40 1b15 ca3c 1880 0940 ef89 0540
00000140: 8ca8 2cbd 7538 0240 245d 0940 4b71 5abd
00000150: 9c3d 553d c9cf 0640 7ad2 2e3d 341d 9b3c
00000160: 26aa d2bd 04a7 08bc c14a 18bd e04e fa3c
00000170: c4a6 31c0 afab ddbd 638b 83bd 7766 0ebf
00000180: 0e41 89bd 08e2 7dbc 631f 0e40 3bd6 6a3a
00000190: 9af6 3e3c c7d3 1b40 d65d 1940 fa7c eb3e
000001a0: c706 0a40 38f8 0c40 cfda 63bd c838 0340
000001b0: b09b 0440 e575 b93c 4a08 0c40 55c6 123c
000001c0: de4c 1940 7726 0840 51e9 1240 340f 0640
000001d0: 5db6 1b40 276b 0c40 8444 0440 80fc 1d3c
000001e0: 8022 16bd ba60 1a40 52b4 64bd 2eea 0a40
000001f0: 294c e7bd 185e 1040 febe d43b 133c 573f
00000200: c2d4 8bbd 9a14 1a40 1021 1b40 b342 0540
00000210: c672 0940 9ef0 8f3f ac45 01be 8709 403c
00000220: 6d17 acbd 919e f23f 84b8 0a40 bd62 1440
00000230: 0f7a 0940 dec8 48bd ab5a 1740 e844 0a40
00000240: 8f3c 0240 33c6 803d 4e44 1040 1aa3 0c40

fc3.weight f4 [1, 148]
-0.5454235 0.06380275 -0.010656968 -0.6547247 -0.578919 -0.58722115 0.04174542 9.162099
0.02328094 -0.59786755 0.01959145 -0.6647418 -0.5951518 10.690365 0.004798348 -0.68504477
-0.6737546 0.029806381 -1.0888051 -0.58897185 -0.63457066 0.019816434 0.008819 -0.6616318
0.028227486 -0.66762596 -0.5259552 -0.6845119 -0.64517015 0.020425111 0.02950073 -0.6566559
-0.67833567 -0.56347144 -0.6286053 0.032777682 -0.6654082 -0.0012791633 0.032126416 0.023044063
-2.9221303 -6.6819777 -0.006831766 0.064379945 0.034228675 -0.6350163 0.01806113 -7.2791185
-0.66371644 -0.68617964 -0.6528047 -0.58031476 -0.018917888 -0.62190753 -0.63607854 -0.5664631
-0.65562975 -0.6086779 0.009333155 -0.58082294 -0.57858807 -0.59885794 0.03573505 0.04972048
11.050394 -0.010436489 -0.62127584 -0.62448514 0.02260026 -0.5963143 -0.01464515 -0.68607336
0.025765518 0.05792403 -0.6484341 0.00853668 -0.5917332 0.038717974 -0.6694858 -0.5694554
-0.023104712 -0.54627293 -0.6148228 -0.031428568 0.059333067 -0.60503864 0.01686399 0.01579773
0.037772376 0.023488048 0.06715169 -0.0033693465 10.852339 0.018236397 0.03415005 38.23526
-0.010579895 -0.02812422 -2.1701486 0.03286601 -0.02351125 -0.6554617 -3.5673504 -11.027405
-0.594111 -0.6554616 0.030531213 -0.57703143 -0.68596685 0.010891579 -0.5584671 0.0031893852
-0.62761724 -0.5601788 -2.021147 -0.60559505 -0.6585939 -0.69209623 -0.61371213 0.0139751835
0.002720465 -0.6717851 0.0044701435 -0.60039 0.07986424 -1.9406911 -0.009848687 -16.266682
-0.025568565 -0.68290335 -0.6522903 -0.66674346 -0.58852744 24.522787 0.028398944 0.013682717
0.04339336 -2.4566271 -0.6280807 -0.6470912 -0.6649017 -0.015527034 -0.63005596 -0.6703466
-0.6585479 0.069355436 -3.111023 -0.6055461
00000000: e0a0 0bbf 04ab 823d 909a 2ebc 0a9c 27bf
00000010: 0934 14bf 2054 16bf 3ffd 2a3d f597 1241
00000020: abb7 be3c d90d 19bf 407e a03c 852c 2abf
00000030: de5b 18bf bc0b 2b41 763b 9d3b 185f 2fbf
00000040: 2e7b 2cbf 832c f43c f75d 8bbf dcc6 16bf
00000050: 3973 22bf 1356 a23c 917d 103c b460 29bf
00000060: 543d e73c 89e9 2abf 00a5 06bf 2c3c 2fbf
00000070: df29 25bf 9052 a73c 84ab f13c 9a1a 28bf
00000080: 68a7 2dbf aa3f 10bf 47ec 20bf e441 063d
00000090: 3158 2abf 99a9 a7ba fd96 033d e7c6 bc3c
000000a0: 2f04 3bc0 c3d2 d5c0 02dd dfbb a2d9 833d
000000b0: 5e33 0c3d 6e90 22bf eff4 933c 8aee e8c0
000000c0: 52e9 29bf 78a9 2fbf 351e 27bf 828f 14bf
000000d0: b0f9 9abc 5535 1fbf 0bd6 22bf ba03 11bf
000000e0: 5ad7 27bf 51d2 1bbf 17ea 183c d0b0 14bf
000000f0: 591e 14bf c14e 19bf ea5e 123d b4a7 4b3d
00000100: 6ace 3041 cffd 2abc ef0b 1fbf 42de 1fbf
00000110: 2e24 b93c 0ea8 18bf 36f2 6fbc 81a2 2fbf
00000120: 3512 d33c bf41 6d3d c7ff 25bf 6edd 0b3c
00000130: d47b 17bf bd96 1e3d 6c63 2bbf d4c7 11bf
00000140: 1846 bdbc 8bd8 0bbf 0765 1dbf 3ebb 00bd
00000150: 3b07 733d d0e3 1abf 5a26 8a3c 3e6a 813c
00000160: 35b7 1a3d 026a c03c d386 893d 41d0 5cbb
00000170: 2ea3 2d41 7f64 953c ece0 0b3d e8f0 1842
00000180: 4c57 2dbc c464 e6bc b7e3 0ac0 829e 063d
00000190: aa9a c0bc 57cc 27bf 784f 64c0 4070 30c1
000001a0: a917 18bf 55cc 27bf 981c fa3c 55b8 13bf
000001b0: 869b 2fbf 9872 323c b3f7 0ebf 0105 513b
000001c0: 86ab 20bf e167 0fbf 795a 01c0 4708 1bbf
000001d0: 9c99 28bf 382d 31bf 3d1c 1dbf 2bf8 643c
000001e0: d449 323b 1cfa 2bbf 487a 923b 29b3 19bf
000001f0: dd8f a33d 9168 f8bf 635c 21bc 2a22 82c1
00000200: 2b75 d1bc c1d2 2ebf 7ffc 26bf b3af 2abf
00000210: bca9 16bf ab2e c441 e7a4 e83c 7a2d 603c
00000220: 3cbd 313d 6139 1dc0 e6c9 20bf c5a7 25bf
00000230: ff36 2abf 1a65 7ebc 594b 21bf d69b 2bbf
00000240: 9896 28bf 390a 8e3d 001b 47c0 1205 1bbf
