demo/4_2_tran3_1_2_andtran2_3_act2/critic_2_2.pth (torch, 108582 bytes, 5 tensors)

fc1.weight f4 [148, 28]
000000 8e c0 65 bf af 4c 55 3f 59 73 97 3f 37 de c7 3e
       -0.8974694 0.83320135 1.1832076 0.39036724
000010 59 bf 1a bf a8 4e b6 3e 2f e8 1d 3e c0 1d 87 be
       -0.60448223 0.35606885 0.15420602 -0.26389885
000020 96 9c 23 bf a6 b4 50 3e 90 b1 0c 3e eb d0 60 3d
       -0.63910806 0.20381412 0.1373961 0.05488674
000030 8b e4 32 bf 6a 2e 00 bf 61 74 8f 40 c3 b9 16 bf
       -0.6987998 -0.5007082 4.4829564 -0.588772
000040 1a 8c 9f 3f 25 bd 00 40 82 70 2e 3e 4b 85 64 bf
       1.2464631 2.0115445 0.17035106 -0.8926589
000050 7d 4a 6e 3f 89 79 7f 3f 89 0a e9 bf 2a 1f fa 3e
       0.9308241 0.9979482 -1.820634 0.488519
000060 c6 9a fa bf d0 e7 06 40 6d 8b 0c c0 7b c8 b5 bf
       -1.9578483 2.1078987 -2.1960099 -1.4201807
000070 8c 48 a3 3f 2a be 26 3f 81 b8 25 3f 6e a9 84 bf
       1.2756515 0.6513392 0.64734656 -1.0364206
000080 3a 36 26 40 ca d3 f7 3f b1 8a ae 3d 14 e5 86 be
       2.5970597 1.9361508 0.08522547 -0.26346648
000090 b9 38 3d 3f 82 be 0c 40 02 8f 08 3e a9 d0 bb 3d
       0.73914677 2.1991277 0.13335803 0.09170658
0000a0 77 97 64 be 70 76 21 c0 0c 40 09 bf a5 a5 e9 bf
       -0.22323404 -2.5228539 -0.5361335 -1.8253676
0000b0 2b 75 2b 40 af 70 c5 bd a6 57 02 3c 26 97 40 bd
       2.6790264 -0.09640633 0.007955467 -0.047019146
0000c0 a3 4d 62 be b5 63 0b bd a1 95 81 40 c0 24 17 40
       -0.22099929 -0.034030635 4.0495152 2.361618
0000d0 d1 33 5f 40 ab e6 46 40 12 d4 62 c1 ca e5 b3 c0
       3.4875376 3.1078289 -14.176775 -5.6218004
0000e0 cd 26 08 3f 3c 83 d0 bf 8c c4 92 bf 26 4f 62 40
       0.53184205 -1.629005 -1.1466231 3.5360808
0000f0 b7 32 e2 bd 28 f3 1d c0 a4 7f ef 3d 79 7a 2e 3d
       -0.11044829 -2.467966 0.116942674 0.042597268
000100 ac d1 5c bd ee 72 c8 bc cb d8 fa bc 79 a3 fe bc
       -0.053910896 -0.024468865 -0.030620953 -0.03108381
000110 73 34 04 bf 0e f3 f9 3f 7e 08 f5 bf fd 18 e8 be
       -0.5164253 1.95273 -1.9143217 -0.45331565
000120 12 48 84 3f b4 4d e7 be 9f 00 0c bd 1f 0d fa 3e
       1.0334494 -0.4517647 -0.03418028 0.48838136
000130 7d 78 28 bf 16 6a 00 bf ee a4 f8 3f 86 cc 4c 3f
       -0.6580885 -0.50161874 1.9425333 0.7999958
000140 8a 0d 86 bf 4a 07 8c be c7 3c 37 be 02 17 8c bf
       -1.0472882 -0.2734931 -0.17894278 -1.0944521
000150 a5 fd e5 3d d2 24 8c 40 c3 d3 71 3f 39 8e 44 3e
       0.112300195 4.3794947 0.9446375 0.19194879
000160 aa b2 50 3f 06 bb 3e 3f 43 af 92 bd 4d 7c ef 3d
       0.8152262 0.74504125 -0.07162335 0.1169363
000170 de 74 bd bc 18 1f ff bd 4f f8 12 3e 47 d2 cb 3d
       -0.023127016 -0.124571025 0.14352535 0.099522166
000180 e2 df b6 bd 81 05 a4 3f 02 c6 6a 3f 82 ce 5c be
       -0.08929421 1.281418 0.91708386 -0.21563151
000190 96 25 ac 3d 34 1c c0 bf 50 20 8e 3d a7 63 9e bd
       0.084056064 -1.5008607 0.06939757 -0.07733851
0001a0 02 96 2a 3e ec f3 86 bc ed a7 90 bf d3 79 a4 40
       0.16658786 -0.016473733 -1.1301247 5.139871
0001b0 0f 58 b9 40 1b 73 a6 c0 2d a6 40 c0 6b f6 e0 3f
       5.7919993 -5.201551 -3.0101426 1.7575201
0001c0 9c ee 8e 3f 8d 87 24 bf 52 9e b5 bf f7 af fc bc
       1.1166568 -0.64269334 -1.418894 -0.030845625
0001d0 25 79 34 bf b5 d4 86 3e 57 6d e9 be 0e 69 cf be
       -0.7049735 0.26334158 -0.45591232 -0.40509838
0001e0 e6 76 15 be 19 ef e8 be 06 7b 27 3e 57 f7 8e 3c
       -0.14596137 -0.45494917 0.16355523 0.017451925
0001f0 dc 6f a2 be 73 ba 31 bd 94 02 c1 bf 3a b1 83 bf
       -0.31725967 -0.043390702 -1.5078912 -1.028846
000200 e2 78 2b 3e 5c c0 c0 3f e2 d8 d3 bd 33 1e d2 bf
       0.16745332 1.5058703 -0.103441015 -1.6415466
000210 0e 6e bb 3f 97 ce c1 3f e3 a9 9c be ef 8a 4a 3c
       1.4642961 1.5141171 -0.30598363 0.012362226
000220 1b aa 2c c0 4d a2 e4 bf ec f5 b3 bf 48 bb f3 bd
       -2.6978824 -1.786203 -1.4059424 -0.119009554
000230 54 df 2c 3f a8 06 f6 3f 15 74 95 be 23 c0 24 c0
       0.6752827 1.9220781 -0.29190126 -2.574227
000240 0e 25 33 bf 48 0a 95 bf ba 89 38 3f ec 82 af 3e
       -0.69978416 -1.1643763 0.72085154 0.34279573
000250 2e 4a d6 3d 21 ed 7a be f9 44 29 be 4b 14 d4 3e
       0.104633674 -0.2450452 -0.16530217 0.41421732
000260 a5 8e 8c bf 02 42 c3 40 95 d3 3a c0 5c 39 ce bf
       -1.0981032 6.1018076 -2.919164 -1.6111255
000270 f7 dd 02 c0 9a df d5 bf 57 d3 cb bd f4 fb a2 3e
       -2.0447977 -1.6708863 -0.09952419 0.3183285
000280 96 d9 e2 be 71 65 e8 bd b6 4f 81 41 62 b6 3a 3f
       -0.4430663 -0.113474734 16.163921 0.72934544
000290 07 41 c0 c0 da 6a a1 c0 e1 da 8c 3f ab 67 d3 bf
       -6.007938 -5.0442934 1.1004297 -1.6516012
0002a0 38 d1 15 40 5a 64 c9 3d 62 00 40 be cd 21 4c c0
       2.3408947 0.09833594 -0.18750146 -3.189563
0002b0 ab 8e 04 3d 7e 97 d5 bf 5e 19 15 be 29 af 30 be
       0.03236262 -1.6686857 -0.14560458 -0.17254318
0002c0 68 57 17 be e0 a5 0f bc 38 cb 3b 3d 1f 6c 86 bd
       -0.14779437 -0.008767575 0.0458481 -0.06563591
0002d0 54 09 4f 3e 94 ae e0 3f 1f 97 43 bf 90 bb 70 3d
       0.20218402 1.7553277 -0.7640247 0.058772624
0002e0 03 ab 6f 3f 8c f0 0b bc dc 64 63 bc 85 1e aa be
       0.9362032 -0.008541238 -0.013879027 -0.3322641
0002f0 5c 62 4a 3c 2f 5e 2a 3e 42 3a 75 bf 26 2e 96 c0
       0.012352552 0.1663749 -0.9579202 -4.6931334
000300 f4 32 26 c0 82 53 07 41 5d 66 bc 40 12 97 7b 40
       -2.59686 8.457888 5.8874955 3.9310956
000310 af b6 b1 be fa 21 b7 3f 23 6e 10 bf a4 92 77 40
       -0.3470969 1.4307244 -0.56418055 3.8683252
000320 a7 25 80 bc 53 83 25 bf 23 a4 1c bd 33 c7 9f be
       -0.015642954 -0.6465351 -0.03824247 -0.31206664
000330 3d ca 13 3f 77 de b2 be ba 56 8c 3e 97 3b 31 bd
       0.57730466 -0.34935352 0.27409917 -0.04326972
000340 ef 7a 0d 40 34 6d 76 c0 94 de 34 bf 70 f9 fb 3e
       2.2106283 -3.8504152 -0.7065213 0.49213743
000350 d8 c7 b0 bf ca ed 6d bf c1 9a dc bd ff 95 2d bf
       -1.3810987 -0.9294096 -0.107717045 -0.67807
000360 78 0b d8 3e 54 44 e1 3e c8 4e 80 c0 fd 42 85 40
       0.4219625 0.43997443 -4.009617 4.1644273
000370 82 15 8d 40 99 97 a2 c0 31 fa b7 c0 38 a0 37 40
       4.4088755 -5.0810056 -5.749291 2.869154
000380 79 d6 13 40 64 e7 0d 3c ab 14 0b 3f 99 9f 85 c0
       2.3099654 0.008661125 0.5432841 -4.175732
000390 30 4b 81 bb 2e 09 15 40 e4 49 ce bd 9a af d4 bd
       -0.0039457306 2.3286853 -0.10072687 -0.10385056
0003a0 75 4a 30 3d 80 b9 af bd 50 27 f7 bc ec 0f 3b 3d
       0.043039758 -0.08580303 -0.030170113 0.04566948
0003b0 07 85 10 c0 aa e6 48 40 34 b7 1f 3f d5 94 6c be
       -2.2581193 3.1390786 0.6238892 -0.2310365
0003c0 80 da 13 3f c7 61 f4 3d 65 e4 c3 bd e1 16 8e 3e
       0.5775528 0.11932712 -0.09565047 0.2775183
0003d0 fc ab c5 be 66 fa e6 be 95 b1 42 c0 ba a6 28 be
       -0.38607776 -0.45112914 -3.0420887 -0.16469851
0003e0 53 97 d1 bf 96 58 35 40 90 cc 4b 3f 1f 14 f6 3e
       -1.6374305 2.8335319 0.7960901 0.48062226
0003f0 ad 7c 1a 40 51 ae 53 be f8 9e 47 bf a7 65 47 3f
       2.4138596 -0.20671965 -0.7797694 0.77889484

fc1.bias f4 [148]
000000 42 eb 80 3f 75 c2 03 3d 7a c0 03 bf 98 ab d3 3d
       1.0071795 0.03216787 -0.5146557 0.10335463
000010 bc ba c8 3f 28 4f ee be 50 f8 47 3e 6b 09 c8 3e
       1.5681987 -0.46544766 0.19528317 0.39069685
000020 f0 35 f1 be e9 de 4e 3f 3d fe 75 be 82 fa 75 3e
       -0.47111464 0.80808884 -0.24022765 0.24021342
000030 7d d4 1a 3f 55 b0 0e 3f 44 79 21 3f c3 77 66 be
       0.6048048 0.5573781 0.6307566 -0.22506623
000040 6e 85 aa 3e df 94 c6 be f6 c6 ed 3e 19 dc 8b be
       0.33304924 -0.38785455 0.46440858 -0.2731636
000050 78 a3 28 bd e9 fd 54 3f e0 47 9f 3e 20 4b 88 3e
       -0.04117152 0.83199936 0.31109524 0.26619816
000060 a5 ec e8 3f 95 7e bf be 8e d9 71 3f 36 63 5e be
       1.8197218 -0.37401262 0.9447259 -0.21717533
000070 00 35 42 bf 17 0e 82 3e ac a5 bf 3e fe b3 8d bf
       -0.7586212 0.25401375 0.37431085 -1.1070554
000080 a5 94 d7 be 62 04 0a bd 74 57 82 be db 8a 7d 3e
       -0.42105594 -0.033695586 -0.25457346 0.2476
000090 ee e8 a4 be c7 51 3a 3f d3 48 5d 3f 29 f3 10 bf
       -0.3220896 0.7278103 0.86439246 -0.5662103
0000a0 e6 94 05 3d 60 2b bc be e5 c8 16 3f 82 a7 a1 3e
       0.032612704 -0.36751842 0.5890029 0.3157311
0000b0 10 41 cd 3f 99 2b 19 bf 9c 25 01 bf 03 1e d7 bd
       1.603548 -0.5983215 -0.5044801 -0.10503771
0000c0 cb 79 1e bf f0 f8 00 bd b0 79 d7 3f 5d 4d 4e 3e
       -0.6190459 -0.031487405 1.6834011 0.20146699
0000d0 ad 67 b4 bc c9 cd 21 3f e4 d1 89 bf 5b 03 ef 3e
       -0.022022093 0.6320463 -1.0767179 0.46682248
0000e0 c1 02 8a 3e 8a 36 d0 3e c5 d3 af 3f 69 ca 3b 3f
       0.26955226 0.4066661 1.3736502 0.7335573
0000f0 ef 48 7d 3e f8 23 ca bd 0b 54 fb bd 81 ae 40 be
       0.24734853 -0.09870142 -0.12271889 -0.18816568
000100 72 67 0c 3f 26 61 3c 3f f4 94 ee 3e d7 fa 9c 3d
       0.54845345 0.73585737 0.46598017 0.076650314
000110 05 6f 1d be 98 92 45 be 3c de d2 3f 44 98 64 3c
       -0.15374382 -0.19294202 1.647407 0.013952319
000120 ff b3 ac bd 8f c7 98 3f c5 7c 53 3f ad 5e 9a be
       -0.08432769 1.19359 0.8261226 -0.30150357
000130 80 53 e3 3f 10 42 5e bf b3 90 53 bf bc 0f 0d bf
       1.7759857 -0.86819553 -0.8264267 -0.55102134
000140 78 14 26 bd 1a 1e ac 3f 75 a5 d6 3f b5 6f f3 be
       -0.040546864 1.3446686 1.6769243 -0.47546163
000150 1e 6a 87 3f ba fc 8b be e9 aa 1c be 2c 20 35 3f
       1.0579259 -0.27341253 -0.15299572 0.70752215
000160 fc cf b5 3e f5 59 9b 3d a2 9a b7 bd 34 70 5c 3e
       0.35510242 0.07585517 -0.08965041 0.21527177
000170 a5 38 9e be 91 68 e1 3e 99 60 71 be 0e 2d d4 3f
       -0.3090259 0.4402509 -0.23572005 1.657625
000180 2a 0b 84 3f 6f 10 9b 3e 3f 58 65 3f 41 10 19 bf
       1.0315907 0.30285975 0.8958778 -0.59790426
000190 ed 7f ac be b1 db fd 3e 4f 10 cd 3f f7 43 f5 3e
       -0.3369135 0.49581674 1.6020602 0.47903416
0001a0 92 6e f9 bd e9 57 eb 3e 66 64 bc 3f bc fe 77 bf
       -0.12179293 0.45965508 1.4718139 -0.9687307
0001b0 16 14 ea be 62 4b d4 be c5 b2 75 bf 24 5a 02 be
       -0.4571845 -0.41463763 -0.95975906 -0.12729698
0001c0 ad 68 f5 3b 61 b2 9f 3f cc 76 c7 3e a7 30 28 bf
       0.007489285 1.2476312 0.38957822 -0.6569924
0001d0 88 4c c7 3e 1b 54 0c bf 0d eb 23 3f a8 08 22 be
       0.38925576 -0.54815835 0.64030534 -0.15823615
0001e0 58 ea 06 3e e8 80 77 bd 22 c3 b0 3d f8 a1 a8 3f
       0.13175333 -0.06042567 0.08630969 1.3174429
0001f0 4d 98 78 3e 73 d4 cc 3e 91 ed ce 3e 09 61 83 3e
       0.24276848 0.40005836 0.40415624 0.2565997
000200 e1 f4 1a 3f 4f 8f 70 3e 93 96 92 bf cb ef c4 be
       0.60529906 0.23492168 -1.1452202 -0.38464198
000210 34 41 3a bf 1b 49 42 3f af 3c d8 bf ac 44 ee be
       -0.7275574 0.758928 -1.6893519 -0.46536767
000220 73 2b de be 88 26 d9 3e 33 c2 25 be da 1a 79 3f
       -0.43392524 0.4241221 -0.16187362 0.973066
000230 a2 f8 92 3e a2 8b c3 be ef 52 97 3e 9a fd 20 3f
       0.28705317 -0.3819247 0.2955546 0.62886965
000240 74 fe e4 bf d3 56 e6 bd 92 e4 22 3e 8f 28 cd 3f
       -1.7890153 -0.11247029 0.15907505 1.6028003

fc2.weight f4 [148, 148]
000000 71 f9 96 3f 98 64 66 bf 71 65 f3 bf dc 69 87 3f
       1.1794873 -0.89997244 -1.9015332 1.0579181
000010 90 bb e0 3d 5f 49 84 3f a6 50 bd 3f 1b 2d 94 3f
       0.10973275 1.0334891 1.4790237 1.1576265
000020 26 c0 e0 3f c6 4f 55 3f b9 dc da 3f 54 78 13 40
       1.7558639 0.8332485 1.7098609 2.3042192
000030 29 ba f4 3f b1 7a 19 3f 8b f5 32 3f 19 ef 93 3e
       1.9119312 0.5995284 0.6990592 0.28893355
000040 d9 36 7f be b2 c1 05 3f a3 b2 4a 3f 9f 0a f0 bf
       -0.24923266 0.5224868 0.7917883 -1.8753241
000050 87 d5 b6 bf 14 da 07 40 a7 71 b0 3d 40 e9 9c 3e
       -1.4283913 2.1226854 0.086154275 0.30646706
000060 f2 67 9a 3e d6 9c 89 3f ed 38 cd 3f 8d d3 d0 3d
       0.3015743 1.0750988 1.6032997 0.101966
000070 cb 49 19 3f 28 0b fa be 3b a6 d2 bc 4d 8b ce 3f
       0.59878224 -0.48836637 -0.02571403 1.6136261
000080 49 c5 c9 3e e3 13 d8 3e f9 59 9c bf 80 09 dd be
       0.3940833 0.42202672 -1.2214957 -0.4317131
000090 c9 48 57 3d da 1f a7 3f 97 4c 4b be c2 ea 19 3f
       0.052559648 1.3056595 -0.19853435 0.60123837
0000a0 2a a2 04 3d 61 ab 5b be 02 07 9d 3f 85 44 9a 3f
       0.032381214 -0.21452095 1.2267764 1.205216
0000b0 af 0d 21 bb 15 b4 3f 3e 96 fe 8e bf 1d 53 34 40
       -0.0024574806 0.1872104 -1.1171443 2.8175728
0000c0 20 bd 7c 3e 84 4b 88 3f 62 98 1a 3d 9c 7e 21 bf
       0.2468152 1.0648046 0.03774298 -0.63083816
0000d0 2a cd 24 40 ae 3b 15 be 23 80 c0 be ef cf c6 3f
       2.5750222 -0.14573547 -0.3759776 1.5532206
0000e0 4a d0 2a bf 25 a7 d2 3f 01 6c 07 bd 8c 0d 42 3e
       -0.66724074 1.6457258 -0.033061985 0.1895048
0000f0 22 0e f6 bd 94 37 9a be 6f 19 25 bf 94 cc 1a 3f
       -0.12014414 -0.30120528 -0.64491934 0.6046841
000100 c7 ac e1 3e 54 7b 0c 40 aa c1 6d be 4d fc 0d 3f
       0.4407713 2.1950274 -0.23218408 0.55463105
000110 57 80 3d 3f 22 ce b6 be fe c9 96 3e 3e 6a b1 3e
       0.74023956 -0.35704142 0.29450983 0.3465137
000120 84 71 64 3e ff 18 a0 bd 47 9c 1b 3e 9a 9d 91 3f
       0.22308928 -0.078172676 0.15196334 1.1376221
000130 0b 45 3b 3e a6 85 92 3d d9 81 35 be 06 f4 c1 3f
       0.18288057 0.07154398 -0.17725314 1.5152595
000140 78 3d b0 bf 2e 80 83 3e ee 82 19 3d 33 22 6b bf
       -1.3768759 0.2568373 0.03747838 -0.9184906
000150 63 9d c1 3e 0d c2 7d 3f df 7e 59 3e 08 2d e6 3f
       0.3781539 0.99124223 0.21239804 1.7982492
000160 5e e1 bd bf 66 42 6a be 41 05 84 3f 81 64 56 3e
       -1.4834402 -0.22876891 1.0314103 0.20936777
000170 76 d6 34 40 5a f4 f4 3e c7 78 c6 3e cb 47 5e bc
       2.8255897 0.47842675 0.3876402 -0.013566921
000180 73 17 0f 40 20 c1 2d 3f 0c 38 73 3f fa 5b 82 3f
       2.2358062 0.6787281 0.95007396 1.0184319
000190 6d 1b 5a 3e ca 98 67 40 29 6a cd 3c 24 29 33 3f
       0.21299525 3.6187005 0.025075035 0.6998465
0001a0 68 b2 0a 40 f8 4c 3a 3f d6 1b 12 bc 51 55 09 c0
       2.167139 0.72773695 -0.008917769 -2.1458323
0001b0 f6 c0 89 3f 26 9c 39 bf 43 7d 0e 40 28 8b 06 3f
       1.0762012 -0.7250389 2.2263954 0.52556086
0001c0 c4 17 c9 3f 29 e4 9e bb 6e ef 91 3f 6d a3 31 c0
       1.5710378 -0.004848976 1.1401193 -2.7755997
0001d0 25 87 1f 3f 02 55 b5 be 34 d8 a1 3f e7 40 2b 3f
       0.6231559 -0.35416418 1.2644105 0.6689591
0001e0 c0 da 55 bf 6d a3 38 bf 4b 14 e1 3e 93 a4 97 3c
       -0.8353691 -0.7212437 0.43960795 0.018511092
0001f0 62 f9 9a 3e c9 4b b0 3e 8d 14 08 bd a7 9f 9c 3f
       0.3026839 0.3443282 -0.033222724 1.2236222
000200 a3 a4 2a 40 3a d6 69 3f a7 52 c9 be 84 65 ef 3e
       2.6662986 0.9134251 -0.3932087 0.46757138
000210 80 c0 34 40 dc 21 41 3f 6e ac 59 3d d6 3d 84 3e
       2.8242493 0.7544229 0.053142957 0.25828427
000220 95 0a fa 3e 7a 22 99 3d 61 1e 7a 3f 0e 28 ba 3f
       0.48836198 0.07477279 0.97702605 1.4543474
000230 ea 02 8e be bf ab 95 3f 94 f5 46 40 97 73 83 3f
       -0.27736598 1.1693038 3.108739 1.026965
000240 08 76 02 bf 64 66 e7 3f 93 ab 6e 3f 77 31 46 3e
       -0.5096135 1.8078122 0.9323055 0.19354807
000250 ab 56 28 bd 08 63 5b 3d 2a 5d f3 bc ff 17 ec bb
       -0.041098278 0.05356124 -0.02970751 -0.007205009
000260 9f 6c 93 bd 05 f8 92 bd ec 26 b0 bc bb 21 93 bd
       -0.07198452 -0.07176212 -0.021502934 -0.07184168
000270 c0 3f ac bd b9 2f 4a 3d 8b 45 12 3d b9 35 6d bd
       -0.08410597 0.049361918 0.035710853 -0.057912562
000280 4c 96 02 bb 21 d6 b2 bd 5f a5 20 3d d6 d0 9a bd
       -0.001992601 -0.08732248 0.03922021 -0.075593635
000290 bc d1 86 bd bd 88 a1 3c 16 41 66 3d cf 84 97 bd
       -0.065829724 0.019718522 0.056214415 -0.07398378
0002a0 c0 ed 40 3d 72 b5 91 bd 97 45 c7 bc bf 1b a9 3c
       0.047101736 -0.07114686 -0.024325175 0.020643113
0002b0 83 ce 0f 3d 70 87 8d bd c6 29 0d bd b4 48 dc bc
       0.035109054 -0.06910598 -0.034463666 -0.026890136
0002c0 89 18 39 3c d5 c6 a8 3c 21 b3 dc 3a 58 ac 16 bd
       0.011297354 0.020602623 0.0016838053 -0.036785454
0002d0 d8 ed bd bd f4 b6 8a bc 76 e1 72 3c 70 f1 81 3d
       -0.09273881 -0.016932942 0.014824262 0.06344879
0002e0 a6 57 60 bd e5 39 66 3d d0 6b 65 bd 4a b0 49 bc
       -0.054771088 0.056207556 -0.05601102 -0.012310097
0002f0 11 41 12 3d 04 30 bd bd aa 81 20 bd 3f ba a8 bc
       0.035706583 -0.09237674 -0.039186157 -0.020596622
000300 70 52 1e ba 87 42 a4 bd df 1d 82 3c 72 76 81 bd
       -0.0006039506 -0.080205016 0.015883384 -0.0632142
000310 2a 4b 35 bd 07 ae 5f bd bb ba 48 3c e5 96 52 bd
       -0.044261135 -0.054609325 0.012251551 -0.051413435
000320 2a f4 4f bd cd 58 83 3d 63 bc bf bd ff 6c 66 3d
       -0.050769962 0.06413422 -0.09362104 0.05625629
000330 6c f3 c0 3c 86 6e 60 bc 1f bd 08 3d 8a 08 b3 bd
       0.023553573 -0.013698226 0.033383485 -0.08741863
000340 16 06 81 bb d1 23 83 bc 61 e5 b6 bc c6 7f 88 bd
       -0.003937493 -0.01600829 -0.022326173 -0.06664996
000350 cb 15 1c 3d 7e e4 a0 3b 50 85 be 3c 31 a3 19 bd
       0.03810672 0.004910051 0.023256928 -0.037509147
000360 c8 3b 51 3d b8 08 22 3d 5f 30 54 bd 19 f0 32 3c
       0.051082402 0.039559096 -0.051803943 0.010921502
000370 ff f3 3b bd 9f 0f a8 bb ba 02 41 3d d8 e1 b4 bd
       -0.04588699 -0.0051288153 0.04712174 -0.08832139
000380 46 13 21 bd 34 65 16 bd 19 71 c5 3c 0c 36 44 bc
       -0.03932502 -0.03671761 0.02410178 -0.011975776
000390 46 d4 91 bd d3 6a a0 bc a2 47 e0 3b 65 9b 7e bd
       -0.07120566 -0.019582188 0.006844477 -0.062159915
0003a0 9d e2 37 bd 49 24 07 3d c3 39 7e bb 72 72 a1 bd
       -0.04489385 0.03299359 -0.0038791753 -0.07883157
0003b0 fa af 99 3c 0b a8 99 bd e3 de 16 3d 43 5b 9e bc
       0.01876067 -0.07502755 0.036833655 -0.019330626
0003c0 e9 8f a1 ba f0 dc cf bc 9b 19 c8 bd b6 c6 c8 3b
       -0.0012326214 -0.025373906 -0.09770509 0.006127204
0003d0 26 23 97 3c 06 9d bd bc 47 45 e2 bc e2 60 50 3c
       0.018449377 -0.023146164 -0.027620925 0.012718411
0003e0 3a 96 f7 bc 7c b5 39 bd 05 e6 4e bc 7c 12 65 bc
       -0.030223 -0.045339093 -0.012628083 -0.013981458
0003f0 c6 70 33 3d 11 f3 8b bd 5c b5 80 3d 7b d8 8b bd
       0.04380872 -0.068334706 0.062845916 -0.068284

fc2.bias f4 [148]
000000 29 6e 1d 3f d2 92 1c bd 15 0a d3 3f 29 21 31 3f
       0.61496216 -0.038225956 1.6487452 0.69191223
000010 64 24 44 3f aa 67 38 3f 97 79 96 bf 5f d1 cf bc
       0.7661803 0.7203318 -1.1755856 -0.02536839
000020 26 4f 98 bd 9f 35 37 3f 5e fb 3a bd 1d ea 40 3f
       -0.07436971 0.71566194 -0.04564988 0.7535723
000030 f5 27 1e 3f f7 e7 e9 bd b5 ec 8e bd 0c 16 1d 3f
       0.6177972 -0.11421197 -0.06978742 0.61361766
000040 c5 c4 22 3f 3e 99 21 3f b7 eb 28 3f b1 d6 20 3f
       0.63581496 0.63124454 0.6598467 0.62827593
000050 3c 12 1b 3f a2 15 d6 3f a8 af dd 3f 72 17 39 3f
       0.605747 1.6725352 1.7319231 0.723014
000060 1f cd 5e bf 35 7b 35 3f ba 79 29 3f 28 f7 26 3f
       -0.8703174 0.70891124 0.66201365 0.6522088
000070 a4 b6 3c 3f bd 08 1f 3d 4d b7 a5 bf e8 8c 3f 3f
       0.7371619 0.038826693 -1.2946564 0.7482438
000080 26 4e 1d 3f 60 f8 2f 3f 58 3e 32 3f f3 57 81 bc
       0.6144737 0.68738365 0.6962638 -0.015789008
000090 55 67 1f 3f ab 6f 87 bf ea e6 1f 3d d1 0e 53 3b
       0.6226705 -1.0580953 0.039038576 0.0032204876
0000a0 d2 d4 3e 3f c0 0a 06 bd 75 01 df 3f 2b 0f d0 3f
       0.7454349 -0.032725096 1.742232 1.6254629
0000b0 b5 cf 46 bd 9d b4 27 3f 0b ba cc 3e e4 50 e7 3b
       -0.04853793 0.6550997 0.3998569 0.0070592035
0000c0 26 42 2f 3f fd 8c 29 3f 8a 02 20 3f 6e 16 29 3f
       0.6846031 0.66230756 0.62503874 0.6604985
0000d0 28 79 7c bd 3c 8f 21 3f ff 3c 28 3f ea 34 2f 3f
       -0.06163898 0.63109183 0.6571807 0.68440115
0000e0 9b 24 2b 3f 5f 42 2d 3f 21 d9 96 bd 38 67 25 3f
       0.6685273 0.676794 -0.07365633 0.64610624
0000f0 cf f9 1d 3f 05 80 3d 3f 51 7c 52 bd 4b f1 ec 3f
       0.617093 0.7402347 -0.05138809 1.8511137
000100 54 81 44 3f e2 35 36 bf 8b 0d 34 3f 73 7d 2b 3f
       0.7675984 -0.7117597 0.70333165 0.66988295
000110 f2 a9 13 bd 43 c1 31 3f ae f7 58 3b e2 e3 37 3f
       -0.036050744 0.6943552 0.0033106613 0.71832097
000120 0b d4 9a bc d6 e3 30 be 67 57 21 3f 31 9a b0 3d
       -0.018899938 -0.17274413 0.6302399 0.0862316
000130 0b 84 3e 3f d8 c3 8a 3c ef b5 32 3f 19 89 26 3f
       0.7442023 0.016939089 0.6980886 0.65052944
000140 f9 a8 18 bd e2 70 1d 3f 1c f4 28 3f 2f 03 3f bd
       -0.03727052 0.6150037 0.6599748 -0.046633895
000150 31 b9 cb 3c a7 c2 1d 3f 8b 8b ea 3f bf cd 03 3d
       0.02486858 0.6162514 1.8323835 0.032178637
000160 e7 8d 8a bf a1 82 f6 bb 9f cf 88 bd 25 fd 95 3c
       -1.0824555 -0.0075228964 -0.066802256 0.018309185
000170 3f 29 6d 3f 8d ad e6 bd 93 59 2c bd 91 a9 26 bd
       0.9264106 -0.11263571 -0.042077612 -0.040689055
000180 55 b6 d5 be 50 d9 97 bc 4a f5 33 3f ad d7 e5 3a
       -0.4174067 -0.01853624 0.70296156 0.001753559
000190 f5 25 9c 3b a5 47 3f 3f ba 18 40 3f d4 6a 17 3d
       0.004765267 0.74718696 0.7503773 0.036967114
0001a0 66 8e 2f 3f ec c9 40 3f 11 70 5f bd 7a 5e 1d 3f
       0.6857666 0.7530811 -0.054550234 0.61472285
0001b0 b6 ec 22 3f 4a 59 d5 3c 8e b9 40 3f 8b 6d 33 3c
       0.6364244 0.026043553 0.75283134 0.01095141
0001c0 11 94 40 3f 05 0e 30 3f 2e 7c 41 3f de 24 25 3f
       0.7522593 0.6877139 0.7558011 0.6450938
0001d0 38 61 37 3f ee d3 41 3f 26 50 1a 3f 09 aa 9b bf
       0.7163272 0.75714004 0.60278547 -1.2161266
0001e0 d4 fb 40 bd 89 84 39 3f 56 b8 14 bd ab ee 30 3f
       -0.047115162 0.7246786 -0.03630861 0.6911418
0001f0 63 ee 99 3f a3 60 3b 3f 4e e7 a2 3c ce ef 25 3f
       1.2025875 0.7319433 0.019885685 0.6481904
000200 d5 d7 8d bd c8 f3 2c 3f b4 02 31 3f bb a6 24 3f
       -0.06925932 0.6755948 0.6914475 0.6431691
000210 83 ab 30 3f 6b 53 cf bd a9 6d 79 bf d7 27 aa bc
       0.69011706 -0.101233326 -0.97432953 -0.02077095
000220 1a 3c ad bf 35 a0 21 3f 41 7c 3a 3f 6b 1a 21 3f
       -1.3533967 0.6313508 0.72845846 0.62930936
000230 b2 7a 30 3f 3e 22 98 bf c9 aa 24 3f c5 dc 3e 3f
       0.6893722 -1.188545 0.643231 0.7455562
000240 50 1d 1d 3f 1e 76 81 3d ef 04 3c 3f 14 fa 33 3f
       0.6137285 0.06321357 0.7344503 0.70303464

fc3.weight f4 [1, 148]
000000 00 73 a3 bf 3b ca 84 3d e0 2b 10 42 b5 4a aa bf
       -1.276947 0.06483885 36.042847 -1.3304049
000010 f5 a5 a6 bf ca 14 a2 bf f8 9e a3 40 6f ce 8b 3c
       -1.3019396 -1.2662594 5.1131554 0.017066209
000020 68 2c 43 3d b4 1f a3 bf ce b8 50 3d cb f1 ab bf
       0.04764977 -1.274405 0.050957493 -1.3433164
000030 ee 3b a7 bf 04 eb 61 3c 6d 5c 7f 3b 69 23 b0 bf
       -1.3065164 0.013788942 0.0038965002 -1.3760806
000040 df 62 af bf 2a ce eb bf 2b 1b b4 bf 66 81 a5 bf
       -1.3702048 -1.8422291 -1.4070791 -1.2930114
000050 f6 31 a5 bf 60 04 10 42 62 17 11 42 b2 85 a3 bf
       -1.2905872 36.004272 36.272835 -1.2775176
000060 d0 9d ea 40 8a 1b a3 bf a7 70 9d bf ad d8 a0 bf
       7.331764 -1.2742779 -1.2300004 -1.2566124
000070 ff 0d a8 bf 3a 40 b2 3c 19 83 9c 40 63 42 a7 bf
       -1.3129271 0.021759141 4.891003 -1.3067135
000080 0c 77 a9 bf 33 e8 a4 bf 8e ac a9 bf 12 fe ce 40
       -1.3239455 -1.2883362 -1.3255785 6.4685144
000090 3b c7 a1 bf 5e a3 a5 40 e4 69 0e 3d c6 af c1 3c
       -1.2638925 5.1761923 0.034768954 0.023643386
0000a0 36 a0 ae bf e3 3b 4b bd ca 56 0f 42 a9 1b ee 41
       -1.3642642 -0.04961766 35.834755 29.763506
0000b0 69 85 3d 3d 16 18 ae bf ae b0 31 41 55 34 90 bb
       0.046269808 -1.36011 11.105635 -0.0044007697
0000c0 69 53 a6 bf 0f 8a a7 bf c2 21 ac bf 0f 58 a3 bf
       -1.2994205 -1.3089007 -1.3447802 -1.2761248
0000d0 a0 56 a7 bc 7d 90 a9 bf 00 f1 a5 bf 92 5d a0 bf
       -0.020427048 -1.3247219 -1.2964172 -1.2528555
0000e0 0f a2 a8 bf 27 4a a9 bf 3f 0a 89 bc 3c 94 a6 bf
       -1.3174456 -1.3225754 -0.016728519 -1.3013988
0000f0 68 6c a2 bf 58 30 a4 bf 50 a1 0c 3d a6 df 0d 42
       -1.2689333 -1.2827253 0.034333527 35.468407
000100 12 e5 38 41 76 81 cd 40 3f e0 aa bf 65 af a5 bf
       11.555925 6.4220533 -1.3349684 -1.2944151
000110 2e 8d be 3c f8 36 a8 bf 75 c9 1e bc 7c 79 a4 bf
       0.02326068 -1.3141775 -0.009691586 -1.2849574
000120 94 aa da 3a 10 7d 68 3d eb c1 a8 bf 94 9f 21 41
       0.0016682916 0.056759894 -1.3184179 10.1014595
000130 36 d2 a2 bf 77 18 04 3d b0 d7 a9 bf 36 7d a5 bf
       -1.2720401 0.032249894 -1.3268948 -1.2928836
000140 eb 76 b1 bc 39 2f a0 bf 03 06 aa bf 56 76 fd 3c
       -0.02166315 -1.2514411 -1.3283085 0.030940216
000150 fb 52 98 3d a9 75 a8 bf 72 84 11 42 1d e6 11 bc
       0.07437702 -1.3160907 36.37934 -0.008904961
000160 89 9c 89 40 f8 ec c0 3c 2c 9f 25 3d 30 aa 57 bc
       4.3003583 0.023550496 0.040435 -0.013163134
000170 2b e6 b1 41 27 62 42 3c cc d6 4f 3d 0e c3 e1 3c
       22.237387 0.011864222 0.050741956 0.02755883
000180 3f c4 6d 41 43 a9 fc bc b4 8a a9 bf d3 ee ea 3c
       14.860412 -0.030842429 -1.3245454 0.028678333
000190 1e e4 86 bc f0 2c a3 bf eb 2e ae bf f4 85 d6 bc
       -0.016466197 -1.2748089 -1.3608068 -0.02618692
0001a0 4f fa a8 bf 4f 8b a9 bf e9 3e cd bc eb 21 a5 bf
       -1.3201388 -1.3245639 -0.025054412 -1.2900976
0001b0 66 2d aa bf a9 82 60 3c c5 85 a1 bf b0 e6 a6 3b
       -1.3295105 0.013703027 -1.2618948 0.005093418
0001c0 90 ac a2 bf 60 03 a3 bf c4 38 ab bf 75 33 a9 bf
       -1.2708912 -1.2735405 -1.3376698 -1.3218828
0001d0 4c bb 9f bf e5 ea a9 bf 22 ce ab bf f5 a7 a7 40
       -1.2479033 -1.3274809 -1.3422282 5.2392526
0001e0 c2 2c 70 3b d1 aa a7 bf 8e b2 b9 3b fd 41 a8 bf
       0.0036647771 -1.3099004 0.0056670373 -1.3145138
0001f0 4c c6 a7 41 c7 63 ad bf 6f d4 27 3c 21 b8 b5 bf
       20.971825 -1.3546075 0.010243519 -1.4196817
000200 88 d3 d5 bc 72 f5 a0 bf db 11 a3 bf 03 96 b0 bf
       -0.026101843 -1.2574904 -1.2739824 -1.379578
000210 67 50 a8 bf 85 3d 00 3d 09 0e 83 41 6c e0 8b bc
       -1.3149537 0.03130867 16.381853 -0.017074786
000220 33 08 94 40 5a 37 ab bf 28 9d a7 bf c7 61 a4 bf
       4.626001 -1.3376267 -1.3094835 -1.2842339
000230 bc 70 a7 bf 55 04 30 41 fa a3 9b bf fe 19 ac bf
       -1.3081279 11.001058 -1.2159417 -1.3445432
000240 ef b8 ac bf 1e a7 8d 3d a7 1d f3 bf 97 7a a7 bf
       -1.3493937 0.06916641 -1.8993424 -1.3084286
