demo/4_2_3tran2_3_act2/actor_5.pth (torch, 83208 bytes, 6 tensors)

fc1.weight f4 [128, 22]
0	0x3f44ae49	0.7682844
1	0x3e44c1d3	0.19214563
2	0xbdf945b8	-0.12171501
3	0xbf0912f2	-0.53544533
4	0xbf2b04fc	-0.6680448
5	0xbef6372d	-0.4808897
6	0xbd9ccd77	-0.07656377
7	0x3d0b5f14	0.03402622
8	0x3d5a42b4	0.05328627
9	0xbbfe3f9d	-0.007759048
10	0xbd2a5e31	-0.041593734
11	0x3bb1f0b9	0.0054303077
12	0x3e19929d	0.14997335
13	0xbf8af10d	-1.0854813
14	0x3f38e09c	0.72217727
15	0xbe0f4a0d	-0.13993092
16	0x3fc0d389	1.5064555
17	0xbf410f70	-0.7541418
18	0x3c912ce0	0.017721593
19	0xbdefa4a1	-0.11701322
20	0x3e8055d0	0.2506547
21	0x3e64afa9	0.22332634
22	0xbee8485b	-0.45367703
23	0x3f031de6	0.51217496
24	0x3b0cfea5	0.0021514085
25	0x3f4584fc	0.77156043
26	0x3dc320ea	0.09527762
27	0x3fa1c3f9	1.2637931
28	0xbd413d2c	-0.04717748
29	0xbcec320e	-0.028832462
30	0x3c84eb27	0.01622541
31	0x3d506d1f	0.050885316
32	0x3cd602ed	0.026124442
33	0xbd1167db	-0.035499435
34	0x3e1e45cf	0.15456317
35	0xc0242e41	-2.565323
36	0xbe9f8fc9	-0.31164387
37	0xbe385a9d	-0.18003316
38	0x3fb54881	1.4162751
39	0x3db58173	0.08862581
40	0x3e78a947	0.24283324
41	0x3e7fcca5	0.2498041
42	0xbe98b515	-0.29825655
43	0xbcbca872	-0.02302954
44	0x3f5418a7	0.82850116
45	0x3e100b60	0.14066839
46	0xbdd7456f	-0.1051129
47	0x3f235a5b	0.63809747
48	0xbbefebce	-0.0073218113
49	0xbf42f04e	-0.76147926
50	0x3d9aa4db	0.07550975
51	0x3d05cd11	0.03266627
52	0xb9f2c20f	-0.00046302422
53	0xbe10119d	-0.14069219
54	0x3ca6c27c	0.02035641
55	0xbc17c045	-0.009262149
56	0xbef70bfc	-0.4825133
57	0xc00d1616	-2.204473
58	0x3fa30c28	1.2738085
59	0xbf9ab1b5	-1.2085482
60	0xc01018b9	-2.251509
61	0xbd52a1a9	-0.051423702
62	0x3e464c48	0.19365036
63	0x3e2cba4a	0.16867939
64	0x3d23145f	0.03981435
65	0xbdae19eb	-0.08501037
66	0x3e25f7f6	0.16207871
67	0x3e1df065	0.15423734
68	0xbe6d7428	-0.23188841
69	0x3ec7ff74	0.39062083
70	0xba983d32	-0.0011614917
71	0x3eb687cc	0.3565048
72	0x3c2e1a49	0.010626384
73	0xbd3a66ec	-0.04550831
74	0xbc79065d	-0.015199271
75	0xbcb7c92f	-0.022434799
76	0xbc5aec38	-0.013361983
77	0xbd9c8e3d	-0.07644317
78	0xbfa5fc12	-1.2967551
79	0xbf5c7571	-0.861167
80	0xbe849f3c	-0.25902736
81	0x3f9a79c8	1.2068415
82	0x3ff9ca26	1.9514816
83	0x3f71fc1c	0.94525313
84	0x3ded0f23	0.11575153
85	0xbdbebfcc	-0.09313926
86	0x3e6de7b9	0.23232926
87	0x3b9791b7	0.004625525
88	0xbf3eb152	-0.7448932
89	0x3f06e6bc	0.5269582
90	0xbe509576	-0.20369515
91	0x3e889157	0.26673386
92	0xbdf7975e	-0.12089418
93	0xbec8f19b	-0.3924683
94	0x3b63a044	0.0034732977
95	0x3e147994	0.14499503
96	0xbd9c905b	-0.07644721
97	0xbc6ff36d	-0.01464544
98	0xbd3a78b2	-0.04552526
99	0xbd655328	-0.055987507
100	0xbf0e66ff	-0.5562591
101	0xbf2504c3	-0.6446039
102	0x3ea20695	0.31645647
103	0xbfb162f7	-1.3858327
104	0x3f8d57c4	1.1042409
105	0x3e571921	0.2100568
106	0xbdcb3c14	-0.09923568
107	0xbea326f4	-0.31865656
108	0x3dd970d7	0.106172256
109	0x3e3a8111	0.18213297
110	0x3e9ec3f1	0.31008866
111	0xbf5ca822	-0.8619405
112	0xbe4ebd6c	-0.20189446
113	0xbf918927	-1.136998
114	0x3d898e4f	0.06716596
115	0x3e9a6366	0.3015396
116	0x3d250da3	0.040296208
117	0xbda53bc0	-0.08068037
118	0xbc81328f	-0.015771179
119	0x3d5dd368	0.05415669
120	0x3cbeb4d5	0.023279587
121	0xbbb0f1f9	-0.005399939
122	0x3f1b2de6	0.6061691
123	0xbfe0ee21	-1.7572671
124	0xbee33b3d	-0.44381133
125	0x3e52e7c5	0.20596226
126	0xbffaf3cd	-1.9605652
127	0x3fb6b8dd	1.4275166
128	0xbeb5c39a	-0.35500795
129	0xbedb5119	-0.4283531
130	0x3f1cefb6	0.6130327
131	0x3f032726	0.5123161
132	0x3f09c4d4	0.5381596
133	0xbf0d8946	-0.5528759
134	0x3eab4a5f	0.33455178
135	0xbea55aa7	-0.32295725
136	0x3ed67a64	0.41890252
137	0xbf6aeb90	-0.9176569
138	0xbe346074	-0.17614919
139	0x3d973c64	0.073845655
140	0xbe15e661	-0.14638664
141	0x3caafac0	0.02087152
142	0xbda9b91b	-0.08287259
143	0xbde7a5c4	-0.11310914
144	0x3f94feea	1.1640294
145	0xc016f7b9	-2.3588698
146	0xbc6f88f7	-0.014620057
147	0x3ed74ea1	0.42052177
148	0xc03286c9	-2.7894766
149	0xbfa990b5	-1.3247286
150	0x3e6ca56b	0.23109977
151	0x3e5aba7b	0.21360199
152	0xbe4dfeb8	-0.20116699
153	0xbe531c3e	-0.20616242
154	0xbedd9d86	-0.43284243
155	0xbe1b9ff8	-0.15197742
156	0x3e798b66	0.24369583
157	0x3edef302	0.43544775
158	0xbeec2961	-0.4612532
159	0x3c88bf49	0.016692774
160	0x3d9f5ba2	0.077811494
161	0xbda145b7	-0.07874625
162	0x3e0f9f09	0.14025511
163	0xbd32786c	-0.043571874
164	0xbd804c37	-0.06264537
165	0x3c98732a	0.018609602
166	0xbf502c37	-0.81317466
167	0x3ef1e8d5	0.4724795
168	0x3f06dde7	0.52682346
169	0x3f04fb69	0.5194612
170	0x4021424e	2.519672
171	0xbe1db641	-0.15401556
172	0x3da0017f	0.07812785
173	0xbe8449f5	-0.25837675
174	0xbd4f685f	-0.050636645
175	0x3d477569	0.048695955
176	0x3e646637	0.22304617
177	0xbf0b9be3	-0.5453474
178	0x3e941109	0.28919247
179	0xbe6ae11a	-0.22937432
180	0xbd365421	-0.044513825
181	0x3f0a5167	0.5403046
182	0x3c755c0e	0.014975561
183	0xbcbf5a1f	-0.023358403
184	0xbd1dd77c	-0.03853558
185	0xbd873136	-0.06601183
186	0x3d8d3380	0.068945885
187	0x3bca6b87	0.006177369
188	0xbf3db3f2	-0.741027
189	0xbf29b6e1	-0.66294676
190	0x3e6f82f6	0.23389801
191	0x3f895c3e	1.0731275
192	0x3f4d08bf	0.8009147
193	0x3fda6b5e	1.7064016
194	0xbcf19a81	-0.029492619
195	0xbe93a8e3	-0.28839788
196	0x3b98c7a2	0.00466247
197	0x3dd34f6b	0.10317882
198	0xbe2b6406	-0.16737375
199	0x3ebd2eda	0.36949807
200	0xbd33e019	-0.043914888
201	0xbf366ef0	-0.7126303
202	0x3d4a3999	0.049371336
203	0x3f6014e4	0.87531877
204	0x3e007457	0.1254438
205	0xbd8095ac	-0.06278548
206	0x3ddf96ea	0.109174564
207	0xbdcd6d07	-0.10030561
208	0x3e10f582	0.14156154
209	0x3d2e70c4	0.04258801
210	0xbf3f7d62	-0.74800694
211	0x3f0e1ff7	0.55517524
212	0x3e33f947	0.1757556
213	0xbf1f0154	-0.621114
214	0xbe8c0020	-0.27343845
215	0x3f3eb72c	0.7449825
216	0x3e5f17cb	0.2178642
217	0x3dcd95f4	0.10038367
218	0xbccf417f	-0.025299786
219	0xbe8520bf	-0.26001546
220	0x3ee35ba1	0.44405845
221	0xbdeebe6f	-0.11657416
222	0xbeb40a93	-0.35164317
223	0x3e9418bc	0.2892512
224	0x3edbeed2	0.42955643
225	0x3eb471a0	0.3524294
226	0xbd449393	-0.0479923
227	0x3cbc3f4f	0.022979407
228	0xbc9c425a	-0.019074608
229	0x3c12dbb4	0.008963514
230	0xbcbdef00	-0.023185253
231	0x3c86fcc5	0.016477952
232	0xbd8ccb0a	-0.06874664
233	0x3e92bf2b	0.28661475
234	0xbf8b32b9	-1.0874854
235	0xbf027d06	-0.5097202
236	0xbddc39ca	-0.1075321
237	0x3fe46245	1.784249
238	0x3c3ff04f	0.011715009
239	0x3e678793	0.22610311
240	0xbe98199f	-0.29707047
241	0xbe0e1c53	-0.13877992
242	0x3f3a927b	0.7287976
243	0x3f5229cb	0.8209502
244	0xbe455c51	-0.19273497
245	0xbcfaca8b	-0.030614158
246	0xbd835a9b	-0.06413766
247	0x3ecdc75a	0.40191156
248	0x3940c12c	0.00018382509
249	0xbd086120	-0.03329575
250	0x3db41c27	0.08794432
251	0x3cb9a1a4	0.022660084
252	0x3d1921bc	0.037385687
253	0x3d7283dc	0.059207782
254	0x3f9712e0	1.1802635
255	0x3ee104a6	0.4394886

fc1.bias f4 [128]
0	0x3d9f5c95	0.077813305
1	0xbe224a41	-0.15848638
2	0x3dadbe77	0.08483594
3	0x3f0c8b0c	0.5489967
4	0x3e94dece	0.29076236
5	0x3ee71c8a	0.4513896
6	0xbb14f406	-0.0022728457
7	0x3f05e548	0.5230298
8	0x3f12c2f5	0.5732873
9	0x3e10f27f	0.14155005
10	0xbd646e5d	-0.055769313
11	0x3cc9ccd0	0.024633795
12	0x3d97f508	0.07419783
13	0x3d936014	0.0719606
14	0x3e2d6784	0.1693402
15	0xbf29f9a6	-0.6639656
16	0x3cf2e862	0.029651824
17	0x3f30c30f	0.69047636
18	0x3ead6379	0.33864954
19	0xbd7c18e8	-0.06154719
20	0x3dfb38d4	0.122666985
21	0x3db1b4c6	0.08677058
22	0xbe3988b1	-0.1811855
23	0x3e16c840	0.14724827
24	0xbe058810	-0.13040185
25	0x3e4b0f59	0.19830073
26	0xbdbe662c	-0.092968315
27	0x3ea13f3b	0.31493554
28	0x3ee0b768	0.43889928
29	0x3e742c79	0.2384509
30	0xbd867fad	-0.06567321
31	0x3e4cff45	0.20019253
32	0xbe1afd47	-0.1513568
33	0x3e1a5ea9	0.15075172
34	0x3ec5d202	0.38636786
35	0x3e3c8dfc	0.18413538
36	0xbe16aba0	-0.14713907
37	0x3eebf57d	0.4608573
38	0xbee080ef	-0.4384837
39	0x3e81ccbf	0.2535152
40	0x3d5261ff	0.051362988
41	0xbea07a47	-0.3134329
42	0x3f0d4fa1	0.5519963
43	0x3d7573d5	0.05992492
44	0x3ed8bf0e	0.42333263
45	0x3e670594	0.22560722
46	0x3d0dce7f	0.03462076
47	0xbe8ad6eb	-0.27117094
48	0x3e0d7f5a	0.13818112
49	0x3e652ce0	0.223804
50	0x3e8a0f5b	0.2696484
51	0x3efd454a	0.49466926
52	0x3e8f4b95	0.27987352
53	0x3e611f1b	0.21984522
54	0x3ef56651	0.47929624
55	0x3e956656	0.2917964
56	0x3da65d11	0.0812322
57	0xbe316b93	-0.17326193
58	0x3dbf9c47	0.093559794
59	0xbe68bd4e	-0.22728464
60	0xbeacb861	-0.3373442
61	0x3d0bbfce	0.034118466
62	0x3e3ca5eb	0.18422668
63	0xbdec6f83	-0.11544707
64	0xbdf82ef9	-0.12118334
65	0xbe29fe99	-0.16601028
66	0x3b453d04	0.0030096183
67	0x3ec47742	0.38372236
68	0x3e013216	0.12616763
69	0x3eee2b4c	0.46517408
70	0x3df8bde5	0.121455945
71	0x3e15e641	0.14638616
72	0x3ebf36f2	0.37346607
73	0xbe1b5183	-0.15167813
74	0xbe240cd9	-0.16020526
75	0xbe222321	-0.15833713
76	0x3e8cb51c	0.27481925
77	0x3d5e6ef8	0.054305047
78	0xbd0ae19b	-0.03390656
79	0x3cfcfd68	0.030882552
80	0xbe6340dd	-0.22192712
81	0xbde9da75	-0.114186205
82	0x3e319d3b	0.17345135
83	0x3e3ee5e1	0.1864238
84	0x3ea2cc8a	0.31796676
85	0x3e54d95e	0.20786044
86	0x3ed48e13	0.41514644
87	0xbd5ff2e9	-0.054675017
88	0x3ef050ca	0.46936637
89	0x3d04a353	0.03238232
90	0x3ebd68f5	0.36994138
91	0x3e2c830d	0.16846867
92	0x3d490228	0.049074322
93	0x3e527983	0.20554166
94	0xbd5e8abf	-0.054331537
95	0xbee61d9f	-0.44944474
96	0x3e60a5fa	0.21938315
97	0x3e370126	0.17871532
98	0xbe0a30bf	-0.13495158
99	0xbe8e3c01	-0.27780154
100	0x3f041ce1	0.51606566
101	0xbeb5c723	-0.35503492
102	0xbdad6efb	-0.084684335
103	0x3ee28b40	0.44246864
104	0x3e9e761a	0.3094948
105	0xbe7fdbf5	-0.2498625
106	0x3e4dfb35	0.20115359
107	0xbe428fbf	-0.19000147
108	0x3dba9ae5	0.09111575
109	0x3e14eb84	0.14542967
110	0x3e4e5987	0.2015134
111	0xbe4b5900	-0.1985817
112	0x3e82b901	0.25531772
113	0x3e19bc8d	0.15013333
114	0x3ea18e5b	0.3155392
115	0xbe07a20a	-0.13245407
116	0xbd14b8c3	-0.036309015
117	0xbdfa08af	-0.122086875
118	0xbe66eaaa	-0.22550455
119	0x3e036027	0.12829648
120	0x3e65decd	0.22448273
121	0xbdb6edab	-0.0893205
122	0xbe248c92	-0.16069248
123	0xbd9134ce	-0.0709015
124	0x3efed445	0.49771324
125	0xbdc5921d	-0.096470095
126	0xbe84e01c	-0.25952232
127	0xba4b469a	-0.0007754356

fc2.weight f4 [128, 128]
0	0xbe3e65b8	-0.1859349
1	0x3e9d55ae	0.3072943
2	0x3f808455	1.0040385
3	0xbf82cc0f	-1.0218524
4	0x3f04cd5c	0.51875854
5	0xbfa83161	-1.3140069
6	0x3f880eae	1.062948
7	0xbeaefb04	-0.34175885
8	0xbf9f30e8	-1.24368
9	0xbdc8401a	-0.097778514
10	0xbf7ff09d	-0.9997652
11	0x3f3d5308	0.7395482
12	0x3eb64751	0.35601285
13	0x3ca6c750	0.020358711
14	0x3fe9408d	1.8222824
15	0xbc96cb86	-0.018407594
16	0x3f819127	1.0122422
17	0x40201de6	2.5018249
18	0xbc1e5ec5	-0.0096661495
19	0xbcc71623	-0.024302548
20	0x3e3fe493	0.18739538
21	0x3ec0940f	0.3761296
22	0xbf032415	-0.5122693
23	0x3edaf3cf	0.42764136
24	0x3f9851da	1.1899979
25	0x3e549b5b	0.20762388
26	0x3f51fc82	0.8202592
27	0xbf9173e3	-1.1363491
28	0x3f7e3843	0.993046
29	0xbb4b196a	-0.003099049
30	0xbe261758	-0.16219842
31	0xbf013eb0	-0.5048628
32	0x3f6deaf6	0.92936647
33	0x3f9a60d0	1.2060795
34	0x3eb99634	0.36247408
35	0xbdb19d49	-0.08672578
36	0x3e82b3ff	0.2552795
37	0xbdc245c3	-0.09485962
38	0x3f5825f2	0.844329
39	0x3f53bdd4	0.8271153
40	0xbe896bd8	-0.2684009
41	0xbffd6284	-1.979569
42	0x3c9d0df6	0.019171696
43	0xbf9cf8a4	-1.2263379
44	0xbf968683	-1.17598
45	0xbe31a996	-0.17349848
46	0x3db2f9bf	0.087390415
47	0xbf0f70a5	-0.56031257
48	0x3d9a6dff	0.07540511
49	0x3e9bb34d	0.30410233
50	0x3e644888	0.22293293
51	0xbe6c9a94	-0.23105842
52	0xbf350d2a	-0.7072321
53	0x3df604ad	0.120126106
54	0xbe5d6ddd	-0.21623941
55	0xbfd42ab3	-1.6575531
56	0x3f9fa750	1.2472935
57	0xbe1f17a5	-0.15536363
58	0xbf0195bd	-0.5061911
59	0xbf95d3ff	-1.1705321
60	0x3e5f1f11	0.21789195
61	0xbee8496f	-0.45368525
62	0x3f13464b	0.57529134
63	0x3ea9b71b	0.3314751
64	0x3f986270	1.1905041
65	0x3f0ecdc2	0.5578271
66	0x3f880de9	1.0629245
67	0xbe0feada	-0.14054433
68	0x3dc9f5a7	0.098613076
69	0xbef5c97f	-0.48005292
70	0x3e51d2fe	0.20490643
71	0x3d226a39	0.039652083
72	0xc04cfdad	-3.2029831
73	0xbe3bc0b0	-0.18335223
74	0x3f144edf	0.5793285
75	0xbd6a8044	-0.05725123
76	0x3d60ce66	0.054884337
77	0x3e6d5533	0.23177032
78	0x3ed67c44	0.41891682
79	0xbed6b35e	-0.4193372
80	0xbf5c3fe7	-0.8603501
81	0xbedae5f9	-0.4275358
82	0x3e4af5f2	0.19820383
83	0xbf9fb84d	-1.2478119
84	0x3d83c5df	0.06434225
85	0xbec829fe	-0.39094537
86	0xbf3a0235	-0.7265962
87	0xbfa2ae46	-1.2709434
88	0xbf1d84cf	-0.61530775
89	0xbf47a05d	-0.7797907
90	0xbf1fefbf	-0.624752
91	0x3ec02843	0.37530717
92	0xbe0727c6	-0.13198766
93	0x3f9847aa	1.189687
94	0x3f426bfb	0.75946015
95	0x3f4066f4	0.75157094
96	0xbe79b4c2	-0.2438536
97	0x3e6d6de1	0.23186447
98	0xbe930b54	-0.2871958
99	0xbf58acdd	-0.8463877
100	0xbe4200d2	-0.18945625
101	0xbecdce96	-0.40196675
102	0xbf892cb9	-1.0716773
103	0x3f8267e1	1.0187951
104	0x3d91ffaa	0.07128842
105	0x3f2eb06e	0.6823796
106	0xbf11ed92	-0.5700313
107	0x3e99b089	0.30017498
108	0x3f1212a5	0.570597
109	0xbef5dec1	-0.4802151
110	0xbefe6ea3	-0.49693784
111	0x3eb3c424	0.3511058
112	0xbf186cb0	-0.59540844
113	0x3dfd1177	0.12356847
114	0xbe0c151d	-0.13679929
115	0xbe426da6	-0.1898714
116	0x3f052196	0.52004373
117	0xbe88ab04	-0.26692975
118	0xbedabd8e	-0.42722744
119	0x3f90520c	1.1275039
120	0x3ea067ba	0.31329137
121	0x3f73fac3	0.95304507
122	0xbdbc06a4	-0.09180954
123	0xbc85c5f9	-0.016329752
124	0xbf42788e	-0.759652
125	0x3f32ae4d	0.6979721
126	0xbf0534d3	-0.5203373
127	0x3e0d582c	0.13803166
128	0xbb01b39e	-0.0019790898
129	0x3e54b841	0.20773412
130	0x3f390d0b	0.72285527
131	0xbe35a901	-0.17740251
132	0xbdf70717	-0.12061899
133	0x3e8f2fff	0.27966306
134	0x3f0a7731	0.5408812
135	0xbbcdf7ef	-0.0062856595
136	0xbf246433	-0.6421539
137	0x3dceee41	0.10104037
138	0xbed2c45e	-0.4116544
139	0x3ed3233f	0.41237828
140	0x3c849c6c	0.016187869
141	0xbe543eb7	-0.20727049
142	0xbe5c3642	-0.21505073
143	0x3e9c7df5	0.30564848
144	0x3f412bd9	0.7545753
145	0x3f749b66	0.9554962
146	0xbd30ba93	-0.04314668
147	0x3e5063af	0.20350526
148	0xbeb3796f	-0.35053584
149	0xbb796bc8	-0.0038058627
150	0xbe90a31e	-0.2824945
151	0xbddf9b81	-0.10918332
152	0xbdbb1f9a	-0.09136887
153	0xbdee3ce1	-0.116327055
154	0x3f0b26be	0.5435599
155	0xbede4335	-0.4341065
156	0x3e104e45	0.14092357
157	0xbe221db5	-0.15831645
158	0xbf02ec45	-0.5114177
159	0xbea6948b	-0.32535204
160	0x3e09e75b	0.13467161
161	0x3f054b23	0.52067775
162	0xbe8e2b8c	-0.277676
163	0xbee11b4e	-0.43966144
164	0xbd7f1e4a	-0.062284745
165	0x3ec91d1a	0.39280015
166	0x3f0503a5	0.51958686
167	0x3c11f2e0	0.008908004
168	0xbee5e5ac	-0.44901788
169	0x3eb9109b	0.3614548
170	0x3f6d1a2a	0.9261805
171	0xbf575f84	-0.8413012
172	0x3e1ea3d4	0.15492183
173	0x3e1594df	0.14607571
174	0x3f17d6e4	0.5931227
175	0x3f62df27	0.88621753
176	0xbe8dff27	-0.27733728
177	0x3e1f0aa3	0.15531401
178	0x3dcd69dc	0.10029957
179	0xbd5d7f51	-0.054076497
180	0x3eb77458	0.3583095
181	0x3e93dcef	0.28879496
182	0xbe80a994	-0.25129378
183	0x3d12cf89	0.035842452
184	0x3f919c77	1.1375874
185	0xbf50c226	-0.81546247
186	0xbe9776c6	-0.29582804
187	0xbda71a72	-0.08159341
188	0x3eaea020	0.3410654
189	0x3ec477c3	0.3837262
190	0xbf2183d4	-0.6309178
191	0xbde38d5f	-0.11110949
192	0x3e43aaa2	0.1910806
193	0x3c26f173	0.010189402
194	0x3f6a739a	0.91582644
195	0xbeabb8fd	-0.33539572
196	0x3d5d2bec	0.053996965
197	0x3f250807	0.64465374
198	0xbf9203ae	-1.1407373
199	0xbe69bd9f	-0.22826241
200	0xbf41d1b3	-0.757106
201	0x3ef92ca7	0.4866688
202	0x3db0a998	0.086260974
203	0xbe013053	-0.1261609
204	0xbdb9a851	-0.09065307
205	0xbe7d832f	-0.24757074
206	0x3ec8b8f1	0.392036
207	0xbfe1575c	-1.7604785
208	0x3dc56d60	0.09640002
209	0x3f292763	0.66075724
210	0x3e8566ea	0.2605508
211	0xbf1a22ff	-0.6020965
212	0x3d741738	0.059592456
213	0xbef34fb7	-0.47521755
214	0x3e86602b	0.26245245
215	0xbd34a87f	-0.044106003
216	0x3f313f4b	0.692372
217	0x3eb15bd1	0.34640363
218	0xbe33380f	-0.17501853
219	0x3d7f4332	0.06231994
220	0x3edd963d	0.43278685
221	0x3e91f0ee	0.28504127
222	0x3f45e30c	0.7729957
223	0xbdecd3e0	-0.115638494
224	0x3e265903	0.16244893
225	0x3ea773bd	0.3270549
226	0xbedb9bba	-0.42892247
227	0x3e8569d8	0.26057315
228	0xbdbc7f16	-0.09203927
229	0xbe19ab17	-0.15006672
230	0xbe51359e	-0.2043061
231	0x3f5a8cb9	0.85370976
232	0x3f1dfb01	0.61711127
233	0x3f0fc36e	0.5615758
234	0xbd5e371d	-0.05425178
235	0x3e962ecd	0.2933258
236	0x3f3cab77	0.73699135
237	0x3eaa1e1c	0.33226097
238	0xbeb712a0	-0.35756397
239	0x3f5f5f2d	0.872546
240	0xbd5da705	-0.05411436
241	0x3c017d92	0.007903473
242	0x3dd334d8	0.103128135
243	0xbe33bab2	-0.17551687
244	0x3f3fa7d1	0.7486544
245	0x3f1bb583	0.6082384
246	0x3f2be0ac	0.671397
247	0xbf5ead9b	-0.8698365
248	0xbe7367d1	-0.23770072
249	0xc0216181	-2.5215762
250	0x3e733e92	0.23754337
251	0x3f6470dd	0.89234716
252	0xbc828c68	-0.015936092
253	0xbc0fa2d8	-0.008766852
254	0x3d9c847f	0.07642459
255	0x3ed53788	0.4164393

fc2.bias f4 [128]
0	0x3e2fa48a	0.1715261
1	0x3e787418	0.24263036
2	0x3e801b98	0.25021052
3	0xbdcdbd6f	-0.10045897
4	0x3da89106	0.08230786
5	0x3e2b6715	0.16738541
6	0x3e3c2cad	0.18376417
7	0x3e35a409	0.17738356
8	0x3e8b8f5c	0.27257812
9	0x3e8092ad	0.25111905
10	0xbc9d0770	-0.019168586
11	0x3ddcb529	0.10776741
12	0x3e0a7cf3	0.13524227
13	0x3c974535	0.018465618
14	0xbe356ecf	-0.17718051
15	0xbddb099d	-0.10695193
16	0x3ec998d3	0.39374408
17	0x3c6581c5	0.01400799
18	0x3eb744a2	0.3579455
19	0x3eb0c5a1	0.3452578
20	0x3e17c6ca	0.14821926
21	0xbba9971c	-0.0051754843
22	0x3e1cc512	0.15309551
23	0xbc1de7e1	-0.009637804
24	0x3e04db87	0.12974368
25	0x3eb8e328	0.36110806
26	0x3d6e33bc	0.058154806
27	0x3cdb4c18	0.026769683
28	0x3c8cfe69	0.017211156
29	0x3e9f9fbe	0.3117656
30	0x3d83a91e	0.06428741
31	0x3e8d29d1	0.27570966
32	0x3e09dbb7	0.13462721
33	0x3d5b5197	0.053544607
34	0xbde2c897	-0.11073416
35	0x3e359f41	0.17736532
36	0xbe10dbfc	-0.14146417
37	0x3e154319	0.14576377
38	0x3b903edc	0.0044020247
39	0x3e8f41ca	0.2797988
40	0xbda0091c	-0.078142375
41	0x3dcbca09	0.099506445
42	0x3ee4b82c	0.44671762
43	0x3e036543	0.12831597
44	0x3ecbae4a	0.3978141
45	0xbe04ba34	-0.12961656
46	0xbd96180b	-0.073288046
47	0xbf396b9c	-0.72429824
48	0x3db8934b	0.09012469
49	0xbb10f069	-0.0022115952
50	0x3de6d54b	0.11271151
51	0x3e173d2d	0.1476943
52	0xbe47fce3	-0.19530062
53	0x3e78bffe	0.24291989
54	0xbcea34ff	-0.028589724
55	0xbcc1e69f	-0.023669539
56	0x3e181ea8	0.14855444
57	0x3dbf252b	0.09333261
58	0x3e3cb86e	0.1842973
59	0xbe9a2d68	-0.30112767
60	0xbd9e4446	-0.07727866
61	0x3e74b8b3	0.23898582
62	0x3c4a6b52	0.012354689
63	0x3e3c0f6c	0.18365258
64	0xbe7111aa	-0.23541895
65	0x3d15831b	0.036501985
66	0x3e3d8000	0.1850586
67	0x3d2023d1	0.039096657
68	0x3e0ca6ee	0.13735554
69	0x3e60b1ed	0.21942873
70	0x3e9bf312	0.30458885
71	0x3e748c70	0.23881698
72	0x3dfa5bf8	0.12224573
73	0x3b851ac7	0.00406203
74	0x3dbf2595	0.0933334
75	0xbdb39c96	-0.08770101
76	0xbc1032c6	-0.008801168
77	0xbdc5a58d	-0.09650717
78	0xbde58193	-0.11206355
79	0x3e869d19	0.2629173
80	0xbe0b6c43	-0.13615517
81	0x3e79d900	0.24399185
82	0xbd95fe62	-0.0732391
83	0x3db26e72	0.08712472
84	0x3ca64e65	0.020301053
85	0xbe8689d5	-0.26277032
86	0x3e640bba	0.22270098
87	0x3e0035de	0.12520549
88	0xbdd876ae	-0.10569511
89	0xbc8bb4de	-0.017054018
90	0xbeb8cb72	-0.36092716
91	0x3e94084a	0.28912574
92	0x3d845425	0.06461362
93	0x3c86f0aa	0.01647218
94	0xbd0a4318	-0.03375539
95	0xbea83a07	-0.3285677
96	0x3e508bc8	0.20365822
97	0x3d104120	0.035218358
98	0x3e8c7d64	0.27439415
99	0x3e5f6b6e	0.21818325
100	0x3d4c1cf6	0.049832307
101	0x3d582b53	0.052775692
102	0x3e3775d7	0.17916046
103	0x3cad8c7b	0.02118515
104	0xbc6396dc	-0.013890948
105	0xbe89eb67	-0.2693741
106	0x3dba126f	0.09085547
107	0x3e76e14c	0.24109381
108	0xbe1371c8	-0.14398873
109	0x3ec17ed1	0.37792066
110	0xbe0de057	-0.1385511
111	0x3e6766c5	0.22597797
112	0x3e333e9a	0.1750435
113	0x3e79a911	0.243809
114	0x3bf22f7c	0.0073909145
115	0x3e2bd40f	0.16780113
116	0xbc643e08	-0.013930805
117	0x3da4f40a	0.08054359
118	0x3da94b31	0.08266295
119	0x3e58f331	0.2118652
120	0x3e2a2a0e	0.16617605
121	0xbe8ab280	-0.2708931
122	0x3d86346e	0.06552969
123	0x3e99143e	0.29898256
124	0x3e50c0ba	0.2038602
125	0x3e0e2b5b	0.13883726
126	0x3d2fdc55	0.042934734
127	0xbecdab43	-0.40169725

fc3.weight f4 [6, 128]
0	0x3caf54f1	0.021402808
1	0xbfba345a	-1.4547226
2	0x3f32eb8b	0.6989066
3	0xc0247822	-2.5698323
4	0x3e3f9fa7	0.18713246
5	0x401aaf13	2.4169357
6	0x3fe9fb8d	1.8279892
7	0x401fe787	2.4985063
8	0xbe10a13c	-0.14124006
9	0x3eaa335b	0.33242306
10	0x3fb32c3f	1.3997878
11	0xbc5094b9	-0.012730771
12	0x3fef420c	1.8692031
13	0xbd0c3765	-0.034232516
14	0xbfbfb54b	-1.4977201
15	0x3e0ccc4a	0.13749805
16	0x3e908c2d	0.28231946
17	0xbd6c3f91	-0.05767781
18	0xbf541cc1	-0.82856375
19	0x3eb9212a	0.36158115
20	0x40a65cb1	5.198815
21	0xbfa6264d	-1.2980438
22	0xc005e698	-2.0921993
23	0x3dd1b6e4	0.10239962
24	0x3f297908	0.66200304
25	0x40154d12	2.332829
26	0xbdd49860	-0.10380626
27	0xbf698d9b	-0.912317
28	0x3e0f495b	0.13992827
29	0x3f1549dc	0.58315825
30	0xbf5613a6	-0.8362373
31	0xbde3ad7f	-0.11117076
32	0xc045af00	-3.0888062
33	0x3f062937	0.5240664
34	0x3f79562a	0.973971
35	0x3eeecd24	0.46640885
36	0xbfef5a99	-1.8699523
37	0xbf68e5bf	-0.90975565
38	0xbf134c93	-0.5753872
39	0xbf4f6a76	-0.8102182
40	0xbe9743d6	-0.29543942
41	0x4004035f	2.0627058
42	0xbef462ec	-0.4773172
43	0xbf18ac3d	-0.59637815
44	0xbeeba105	-0.46021286
45	0x3ee12c37	0.43979046
46	0x3f31e3e4	0.6948836
47	0x3f57c0a8	0.84278345
48	0xbf2d7c1a	-0.6776749
49	0xbfdc9231	-1.7232114
50	0x3f02daae	0.5111493
51	0xbd75ff46	-0.0600579
52	0x3e2df2db	0.16987173
53	0x3ea1c35a	0.31594354
54	0xbf43e423	-0.76519984
55	0xbc45693b	-0.012049015
56	0x3f18ed1e	0.5973681
57	0xbdc9a005	-0.098449744
58	0xc0042689	-2.064852
59	0x3fa2a327	1.270604
60	0x3e9d6001	0.30737308
61	0x3f4b8fc4	0.79516244
62	0xbe43e3b1	-0.19129826
63	0xbe6e2c59	-0.23259105
64	0xbed16459	-0.40896872
65	0x3f230677	0.6368174
66	0xbf9a8a65	-1.2073485
67	0xbe86c7c5	-0.26324287
68	0x3f939620	1.153019
69	0x3fc2e68d	1.5226609
70	0x4002ffc9	2.046862
71	0x3f24cbb6	0.6437334
72	0x405145ea	3.2698922
73	0x3ea52ac2	0.32259184
74	0x3f7698ea	0.9632708
75	0x3f63bb38	0.8895755
76	0xbcdf7818	-0.027278945
77	0xbdb4b48a	-0.088234976
78	0x3ec42693	0.3831068
79	0x3f13db5f	0.5775661
80	0xbf1930f7	-0.5984034
81	0x3ec67e99	0.3876846
82	0xbbc53737	-0.006018545
83	0xbfa50916	-1.2893398
84	0xc03c0555	-2.9378254
85	0xbf91423e	-1.134834
86	0x3fc08377	1.504012
87	0x4012b8eb	2.2925365
88	0x3d4f49a3	0.050607335
89	0xbc7e5c7c	-0.01552498
90	0xbfb0b778	-1.380599
91	0xbf5e69aa	-0.8687998
92	0x3e096c7b	0.13420288
93	0x3f3e3def	0.74313253
94	0xbfb6dd8e	-1.4286363
95	0x3f8d43ec	1.1036353
96	0xbfa87d32	-1.3163207
97	0xbf4a2f83	-0.7897875
98	0xc010eea3	-2.2645652
99	0xbfdd6b9f	-1.7298468
100	0x3f8304db	1.0235857
101	0xbf6d901b	-0.9279801
102	0x3f6bdeec	0.92137027
103	0x3eff3dd9	0.49851874
104	0xbf77c767	-0.9678864
105	0x3f3d97f3	0.7405998
106	0xbd9ec2c8	-0.07751995
107	0x4041aeea	3.026301
108	0xbe482082	-0.19543651
109	0x3efb808c	0.4912151
110	0xbfb78653	-1.4337867
111	0xc068d00f	-3.637699
112	0xbf0f5ab4	-0.55997777
113	0x3e987dbb	0.29783425
114	0xbe7b634a	-0.24549595
115	0xbf603a6d	-0.8758915
116	0xbf14299a	-0.5787598
117	0x406837ad	3.6283982
118	0xbf06653e	-0.52498233
119	0xbecf51a0	-0.40491962
120	0xbcdf1af3	-0.02723453
121	0xbd724ddb	-0.05915628
122	0xbf04ce68	-0.5187745
123	0x3f331f5c	0.69969726
124	0xbdd3ca15	-0.103412785
125	0xbf07d214	-0.5305493
126	0xbf9bb1c4	-1.2163625
127	0xbc0ba194	-0.00852241
128	0xbfeef71f	-1.8669165
129	0x3fc0668f	1.5031298
130	0xbdaf0965	-0.08546714
131	0xbdbf6b2e	-0.09346615
132	0xbe8b71ea	-0.27235347
133	0xbf90227e	-1.1260526
134	0x3e32c5c1	0.1745825
135	0xbeab085b	-0.33404812
136	0x3f0aa5dd	0.5415934
137	0x3f8b838b	1.0899519
138	0xc01da90d	-2.463443
139	0xbeb47d93	-0.35252056
140	0xbde6700e	-0.112518415
141	0xbe4dc40a	-0.20094314
142	0x3dc5f5a3	0.09665992
143	0xbebdb8bc	-0.37055004
144	0xbc295fff	-0.010337829
145	0xbf20b7a6	-0.62780225
146	0xbd435b30	-0.047694385
147	0x3f6ea7a8	0.93224573
148	0x403143f2	2.769772
149	0xbe76540b	-0.24055497
150	0x3ec44925	0.38337055
151	0x3f8282c1	1.0196153
152	0xbfb49b62	-1.4109919
153	0x3fba31c3	1.4546436
154	0xbe7f47fe	-0.24929807
155	0xbf30d230	-0.6907072
156	0x3eab3038	0.33435225
157	0x400b59bb	2.1773517
158	0x40af7d8d	5.484076
159	0x3fd61703	1.6725773
160	0x401a3050	2.4091988
161	0xbf93aa7a	-1.15364
162	0xbf9a2ad4	-1.204432
163	0x3f66a74b	0.9009902
164	0xbff6574e	-1.9245393
165	0x3f35082d	0.707156
166	0x4029db17	2.6539972
167	0x3fb2b0ed	1.3960243
168	0x3f56f958	0.8397422
169	0xbf832cf4	-1.0248094
170	0x3f3c7ba9	0.7362619
171	0x3d95a589	0.07306964
172	0x3fe71e2c	1.8056083
173	0xbefcf61d	-0.4940652
174	0xbf96421a	-1.1738923
175	0xc005c985	-2.0904248
176	0xbf91fa18	-1.1404448
177	0x3d84abeb	0.06478103
178	0x3f64d22e	0.8938321
179	0xbf226e54	-0.634496
180	0xbee01a5a	-0.43770105
181	0xbeaa122b	-0.33216986
182	0xbeac5100	-0.33655548
183	0xbd36d904	-0.044640556
184	0xbf77abe0	-0.96746635
185	0xc00b30bc	-2.1748495
186	0x4012ace6	2.291803
187	0x3c80d44d	0.015726233
188	0xbecea2d8	-0.40358615
189	0x3e073fac	0.13207883
190	0xbfeeacb7	-1.8646458
191	0x3faa874d	1.332254
192	0x3f627d7d	0.8847273
193	0xbe05e05c	-0.13073868
194	0xbfb310a1	-1.398945
195	0xbe3fb1ff	-0.18720244
196	0x3d1b6426	0.037937306
197	0x3e78af50	0.24285626
198	0x3fcbd6b4	1.5924897
199	0x3f4a574d	0.7903946
200	0xc0107477	-2.2571084
201	0xbef5164b	-0.4786857
202	0x3f50de25	0.81588966
203	0xbc25393d	-0.010084447
204	0xbcfe6a64	-0.03105659
205	0xbcd7ea1a	-0.026356746
206	0xbf4b2b94	-0.7936337
207	0x3fce5674	1.6120133
208	0xbf0d43ed	-0.5518177
209	0xbfd30c4b	-1.6488127
210	0x3c681c9a	0.014166975
211	0xbdf83408	-0.12119299
212	0x403c9323	2.9464805
213	0xbd08dd3f	-0.03341412
214	0xbf90f666	-1.1325195
215	0x4033fae5	2.8121884
216	0xbf1a4803	-0.6026613
217	0xbd256bd4	-0.040386036
218	0xc03ab2b3	-2.917157
219	0x3ebcc6c4	0.36870396
220	0xbf5383be	-0.826229
221	0x3fce25f2	1.610533
222	0xbde0e493	-0.10981097
223	0xbf2f2360	-0.6841335
224	0x3f0c5d5b	0.5482995
225	0x3f88a343	1.0674824
226	0x3f98af98	1.1928587
227	0x4064fd20	3.5779495
228	0xbe89c474	-0.26907694
229	0xbee1e5f2	-0.44120747
230	0x3e283314	0.16425735
231	0xbee2c3ab	-0.44289908
232	0xbe76260a	-0.24037948
233	0xbf345001	-0.70434576
234	0x3e6790b4	0.22613794
235	0x3fd6474b	1.6740507
236	0x3f5906ac	0.84775805
237	0x3e14a420	0.14515734
238	0xbfe750f9	-1.8071586
239	0x40147973	2.3199127
240	0xbfa5f4a3	-1.2965282
241	0xbfdae912	-1.7102377
242	0x3fb1a4b4	1.3878388
243	0x3f9fbeda	1.2480118
244	0xbe2f5713	-0.1712306
245	0xbf294667	-0.6612305
246	0xbfc6d7b4	-1.5534577
247	0x3fdb542a	1.713506
248	0xbfda59c0	-1.705864
249	0x3f758885	0.9591144
250	0x400e768a	2.225985
251	0xbf0ebb01	-0.55754095
252	0x3e2a06b0	0.16604114
253	0xbf53b3cd	-0.8269623
254	0xbf741752	-0.95348084
255	0xbfa7423d	-1.3067089

fc3.bias f4 [6]
0	0x3d61357f	0.05498266
1	0x3da84078	0.082154214
2	0xbe15453c	-0.14577192
3	0x3de6393e	0.11241387
4	0xbe088d02	-0.1333504
5	0xbe1ffed9	-0.1562456
