demo/2_2_tran1_obs1/actor_22.pth (torch, 83538 bytes, 6 tensors)

fc1.weight f4 [128, 22]
0	0xbf8af7ec	-1.085691
1	0xbf278b1f	-0.65446657
2	0xbebabac8	-0.36470628
3	0x3f2268c9	0.6344114
4	0x3dd75d1f	0.10515808
5	0x3f9e31ed	1.2358986
6	0xbccf976e	-0.025340762
7	0xbcc94d17	-0.024572892
8	0x3d636a94	0.055521563
9	0xbc7710e4	-0.015079711
10	0xbd4f1e64	-0.050566092
11	0x3d787e24	0.060667172
12	0xbed2873c	-0.411188
13	0xbf74dfbd	-0.956539
14	0x3f93084e	1.1486909
15	0xbfcce0e4	-1.6006131
16	0x404b2317	3.1740167
17	0xbff25a7e	-1.8933866
18	0x3d689904	0.056786552
19	0xbd9fa3f7	-0.07794946
20	0x3e58a9bf	0.21158503
21	0x3e3caffd	0.18426509
22	0xbf837cb4	-1.0272431
23	0xbd8f1d23	-0.06987979
24	0xbf4f639a	-0.81011355
25	0x3cc92c61	0.024557294
26	0xbf1f1dbb	-0.6215474
27	0x3c8d7d8d	0.017271781
28	0x3d883928	0.06651527
29	0xbd2ca8a8	-0.04215303
30	0x3c629f07	0.01383186
31	0x3d9e944d	0.0774313
32	0x3d25300a	0.040329017
33	0x3d8dd97e	0.06926249
34	0xbea5c2dd	-0.3237523
35	0x3f0944c5	0.5362056
36	0xbf942639	-1.1574165
37	0xbf1455d0	-0.5794344
38	0xc01353b3	-2.3019836
39	0x3ff7a38b	1.9346784
40	0x3e02bf02	0.12768176
41	0x3e09e20a	0.13465133
42	0xbe3b7dcb	-0.18309705
43	0x3dbcac81	0.0921259
44	0xbf3e9ab3	-0.744548
45	0xbee609a0	-0.44929218
46	0x3ea136cc	0.3148712
47	0x3fdf029a	1.7422669
48	0xbecac997	-0.39606926
49	0x3ee61011	0.44934133
50	0xbcd236dc	-0.025660925
51	0xbb8a900f	-0.004228599
52	0x3caaadc9	0.02083482
53	0xbcd89736	-0.02643929
54	0x3bd72316	0.006565462
55	0x3ca0165a	0.019541908
56	0xbf7142cd	-0.94242555
57	0x3fde9f9a	1.7392457
58	0x3fc0f264	1.5073972
59	0x3eb94a30	0.36189413
60	0x3e5974b3	0.21235923
61	0x3fb9d328	1.4517565
62	0x3e381ee0	0.17980528
63	0x3e1e8c8f	0.15483306
64	0x3d5bcef2	0.053664155
65	0xbd91bd79	-0.07116217
66	0xbee4d45b	-0.44693264
67	0x3f75950d	0.9593056
68	0xbf2b9450	-0.6702318
69	0xbd217b17	-0.03942403
70	0x3f897931	1.074011
71	0xbfa8a9d8	-1.3176832
72	0xbd5e4505	-0.05426504
73	0x3dd61499	0.104531474
74	0xbe148fbd	-0.14507957
75	0x3dd46d66	0.103724286
76	0x3e5aad13	0.21355085
77	0x3d60fea1	0.054930333
78	0x3fc38995	1.5276362
79	0xbee80c2a	-0.4532178
80	0xbff0add1	-1.8803045
81	0x3fbcc98f	1.4749011
82	0x3ff86c3d	1.9408032
83	0xc0350371	-2.828335
84	0x3e481b65	0.195417
85	0xbc5cb9de	-0.013472049
86	0x3e1c550c	0.15266818
87	0xbd99b157	-0.07504528
88	0x3ed9bde9	0.42527702
89	0xbf10ef85	-0.5661548
90	0xbedcb3e4	-0.43105996
91	0xbe77476f	-0.24148344
92	0xbeab763e	-0.3348865
93	0xbe4f1e0d	-0.20226307
94	0x3d8d8288	0.069096625
95	0x3d479ce5	0.04873361
96	0x3dab057f	0.08350658
97	0xbbc784ab	-0.0060888133
98	0x3da693ff	0.08133697
99	0x3cc22671	0.02369997
100	0xbf2b6270	-0.6694708
101	0xc0023173	-2.0342681
102	0x3f3e7139	0.74391514
103	0xbff66d64	-1.9252133
104	0x3fe2b7d2	1.7712348
105	0xbf0ffcbf	-0.56245035
106	0x3dadafff	0.08480834
107	0xbe09dd66	-0.13463363
108	0xbd9f7b53	-0.07787194
109	0xbafb0dc8	-0.0019153887
110	0xbf9ada07	-1.2097787
111	0xbff4835a	-1.9102585
112	0xbdc2980e	-0.095016584
113	0x3fba36c1	1.454796
114	0x3f66ca0c	0.9015205
115	0x3e5ef674	0.21773702
116	0x3d1aab9c	0.037761316
117	0xbc2278f6	-0.009916535
118	0x3c6ba18c	0.0143817775
119	0xbd301fa2	-0.042998917
120	0x3c9788b6	0.018497806
121	0xbb1c75c7	-0.0023873912
122	0xbf179457	-0.59210724
123	0xbfd9e1bc	-1.7022014
124	0xbe889787	-0.26678106
125	0xbf6dbfbf	-0.92870706
126	0x3f620fb4	0.8830521
127	0xc034e2d4	-2.8263445
128	0x3d7923ed	0.060825277
129	0xbc4d189f	-0.012518077
130	0x3e49e8ff	0.19717787
131	0x3dc59615	0.096477665
132	0x3f4ffa54	0.81241345
133	0x3e8a5b24	0.2702266
134	0xbc192ec7	-0.0093495315
135	0xbebc38fc	-0.36762226
136	0xbf0feebd	-0.5622366
137	0x3f2bab23	0.6705801
138	0xbd29340d	-0.041309405
139	0x3bbd1134	0.005769873
140	0xbd949e06	-0.07256703
141	0x3d85d664	0.065350324
142	0x3da22d6f	0.07918822
143	0x3b87b415	0.0041413405
144	0xbea2ec33	-0.3182083
145	0xbf577651	-0.8416491
146	0x3f9e4f33	1.236792
147	0x3fdc2949	1.7200099
148	0x40654bea	3.5827584
149	0x3fe4710a	1.7846997
150	0x3e28fc85	0.16502579
151	0x3e170d72	0.14751223
152	0xbe0a52cf	-0.13508151
153	0xbe0f70cb	-0.14007871
154	0x3daff7fb	0.085922204
155	0x3e178f7f	0.14800833
156	0xbe997a43	-0.2997609
157	0xbe869ddb	-0.2629231
158	0xbf20990b	-0.62733525
159	0xbffa5450	-1.955698
160	0xbd0fb018	-0.035080045
161	0xbcd5f247	-0.026116503
162	0x3d096fac	0.033553764
163	0xbd1336d3	-0.035940956
164	0x3c5b8d75	0.013400425
165	0x3d482029	0.048858795
166	0xbe6564fd	-0.22401805
167	0x3f04abc9	0.51824623
168	0x3f1bf25e	0.609167
169	0xbc3fdc23	-0.0117101995
170	0x3f308b9f	0.68963045
171	0x3f3b9c81	0.7328568
172	0x3e150aa9	0.14554848
173	0xbe438672	-0.19094256
174	0xbdf1c975	-0.11806003
175	0xbc995ee2	-0.018722001
176	0xbd3c772c	-0.04601209
177	0xbea125e1	-0.31474212
178	0x3b796b36	0.0038058287
179	0x3f9ba9ab	1.2161154
180	0x3e8ce9e1	0.27522185
181	0x3f5ed9b4	0.8705094
182	0x3c38816a	0.0112613235
183	0x3c772534	0.0150845535
184	0xbcb770d7	-0.022392673
185	0xbc9f7640	-0.019465566
186	0x3b828202	0.0039827833
187	0xbc89deb4	-0.016829826
188	0xbedd4936	-0.43219918
189	0xbf6fca7e	-0.93668354
190	0xbf74cda1	-0.95626265
191	0x3f287f51	0.6581927
192	0xc0a9d9cb	-5.307836
193	0x3f8543ca	1.0411313
194	0x3d9b76f3	0.07591047
195	0xbe3b61e5	-0.18299063
196	0xbdce5171	-0.100741275
197	0xbb11b7bb	-0.0022234756
198	0xbedd8b0a	-0.4327014
199	0x3e82e1d4	0.25562918
200	0xbf354323	-0.7080557
201	0x3e22e913	0.15909223
202	0x3d0a48a4	0.03376068
203	0xbf1fa08a	-0.6235434
204	0x39ec82dd	0.00045110928
205	0xbc2d1d3b	-0.010566051
206	0x3d5b936c	0.05360739
207	0xbd647e9c	-0.055784807
208	0xbc2d6bd3	-0.010584789
209	0xbc7cc267	-0.0154272085
210	0xbf3ae93c	-0.7301214
211	0x3edca09f	0.43091294
212	0xbea30c48	-0.31845307
213	0xbf048f90	-0.5178156
214	0x404d6dd9	3.2098296
215	0x3fc9e859	1.5774032
216	0x3e12b222	0.14325765
217	0x3cd32016	0.025772136
218	0x3d49f5c9	0.049306665
219	0xbe3ddd02	-0.18541339
220	0x3f2eed1e	0.6833056
221	0xbf9626bf	-1.1730574
222	0xbdf48c53	-0.11940827
223	0xbef9191f	-0.48651978
224	0x3e8dec41	0.2771931
225	0xbdb826cb	-0.08991774
226	0x3bf15345	0.007364663
227	0x3c9dbcfe	0.019255158
228	0xbd19b5eb	-0.037527006
229	0xbbf763f4	-0.007549757
230	0x3d3c5bc7	0.045985963
231	0x3ce58a3b	0.028020015
232	0xbedd0ec8	-0.4317534
233	0xbff88208	-1.9414682
234	0xc0266e9d	-2.6005013
235	0x3ecd5741	0.40105632
236	0xc011c779	-2.2777998
237	0x3d5a9531	0.053364936
238	0xbe0a6abf	-0.13517283
239	0x3da23e16	0.07921998
240	0xbe19cb90	-0.15019059
241	0x3c04c815	0.008104344
242	0x3f875bc4	1.057488
243	0xbd1dbb3d	-0.038508642
244	0xbe0cb530	-0.13740993
245	0x3e913553	0.28360996
246	0x3f08652f	0.53279394
247	0x3e891053	0.26770267
248	0xbdbe3826	-0.09288053
249	0x3d4d0e29	0.050062332
250	0x3d3670ca	0.044541158
251	0xbd80e2fc	-0.06293294
252	0x3ced62db	0.028977802
253	0x3d9a035f	0.07520174
254	0xbf8cc2eb	-1.0996984
255	0x3ed2c29e	0.41164106

fc1.bias f4 [128]
0	0x3e806fe3	0.25085363
1	0x3eb2c3cd	0.3491501
2	0x3f14b858	0.58093786
3	0xbde7b970	-0.11314666
4	0x3e9e3776	0.30901688
5	0x3e928833	0.28619537
6	0x3e534090	0.20630097
7	0x3f89193e	1.0710828
8	0x3beeb2e6	0.00728451
9	0x3eccaf8f	0.3997769
10	0x3dafb2e3	0.08579042
11	0x3efbc34e	0.49172443
12	0x3f19cb9a	0.60076296
13	0x3f795161	0.973898
14	0x3d5c9a54	0.053858116
15	0x3dd235fc	0.10264203
16	0x3f18c1ea	0.5967089
17	0x3f7638c9	0.961804
18	0x3f077b42	0.5292245
19	0xbf118cd2	-0.568555
20	0xbef414e9	-0.47672203
21	0x3f0cc8b6	0.5499376
22	0x3e77a2fd	0.24183269
23	0xbeb84da8	-0.35996747
24	0x3f34add9	0.7057777
25	0x3f2698f6	0.6507715
26	0x3e79f2d4	0.24409038
27	0x3e4ac9a0	0.19803476
28	0x3e849ebd	0.25902358
29	0x3f1e430f	0.61821073
30	0x3f25dfe6	0.64794767
31	0xbe1951bc	-0.14972585
32	0x3e3a0f68	0.1816994
33	0x3f83c947	1.02958
34	0xbd0e49eb	-0.034738462
35	0x3f4dde23	0.8041708
36	0x3f2bf57f	0.6717147
37	0x3e850749	0.2598212
38	0xbe0895cb	-0.13338391
39	0x3ea375a7	0.319257
40	0x3e5d310c	0.21600741
41	0x3ef269aa	0.4734624
42	0x3e46e52a	0.19423357
43	0x3f72be9f	0.94822115
44	0x3f810433	1.0079406
45	0x3ef804e7	0.4844124
46	0xbe9280ad	-0.28613797
47	0x3eb37ac3	0.35054597
48	0x3efaad0f	0.48960158
49	0xbd9381e6	-0.072025105
50	0x3f818871	1.0119764
51	0xbeae6484	-0.34061062
52	0xbe8dde6f	-0.27708766
53	0x3f2fd313	0.6868145
54	0x3f1e3275	0.6179574
55	0x3efe0b7e	0.49618143
56	0x3f3e1907	0.7425694
57	0x3f22da01	0.636139
58	0xbd98e99d	-0.07466433
59	0xbe3448f9	-0.17605962
60	0x3d724c7b	0.05915497
61	0x3ec0e76d	0.37676564
62	0x3ea304c4	0.31839573
63	0x3f0b4ea4	0.5441687
64	0xbda68430	-0.081306815
65	0x3ec21d51	0.37912992
66	0xbf0c7853	-0.548711
67	0x3f085246	0.5325054
68	0x3deb05c1	0.11475707
69	0x3e8c603a	0.27417165
70	0x3f22ca34	0.6358979
71	0xbf6c4c76	-0.9230417
72	0x3f18d7ed	0.59704477
73	0xbf0cc71a	-0.54991305
74	0x3ebf7461	0.37393478
75	0x3d802196	0.06256406
76	0x3eba03d3	0.36331043
77	0xbf1f7958	-0.6229453
78	0x3f3bc2e6	0.73344266
79	0x3f298d7e	0.66231525
80	0xbe81fbd1	-0.25387433
81	0x3f64ae40	0.89328384
82	0x3e9764ba	0.29569036
83	0x3f1d0f60	0.61351585
84	0x3e134c59	0.14384593
85	0x3f48ebc8	0.78484774
86	0x3e7e9878	0.2486285
87	0x3f37f853	0.7186329
88	0x3f67fc9f	0.90619844
89	0x3f00da89	0.5033346
90	0x3f07b8a9	0.53016144
91	0x3eb0c48a	0.34524947
92	0x3f0d86a8	0.55283594
93	0x3f94d5f2	1.1627791
94	0x3f0ff44f	0.5623216
95	0x3e51872c	0.2046172
96	0xbe3be4b8	-0.18348968
97	0xbe8aa51d	-0.27079096
98	0xbe8ea4b2	-0.27860028
99	0x3e3b05de	0.18263957
100	0x3f11444f	0.56744856
101	0x3ebcea77	0.36897632
102	0x3ec84645	0.3911611
103	0x3ed57c07	0.41696188
104	0x3e3792f7	0.17927156
105	0x3f289d4f	0.65865034
106	0x3e94cfd7	0.2906482
107	0x3f067b3a	0.5253178
108	0x3c7e3c58	0.015517317
109	0x3eb68f29	0.35656098
110	0x3eb7fa0c	0.35932958
111	0x3eb33c1b	0.35006794
112	0x3e5317b4	0.20614511
113	0x3f1ad8e9	0.6048723
114	0x3f3faef5	0.7487634
115	0x3c0f8442	0.00875956
116	0x3e962972	0.29328495
117	0x3f01803b	0.5058629
118	0x3f8d9dfc	1.1063838
119	0x3f64c60c	0.89364696
120	0xbe03b4ec	-0.12861985
121	0x3e866a02	0.26252753
122	0x3f0d2898	0.55140066
123	0x3ea36779	0.3191488
124	0xbdb0a381	-0.08624936
125	0xbf0495a4	-0.51790833
126	0x3e6ab0a7	0.2291895
127	0x3b66eeed	0.0035237626

fc2.weight f4 [128, 128]
0	0xbeb28143	-0.34864244
1	0xbf117472	-0.56818306
2	0x3f0310b3	0.51197356
3	0xbfc69b07	-1.551606
4	0xbddacb6e	-0.106833324
5	0xbee7651a	-0.45194322
6	0x3ddcce8e	0.10781585
7	0x3e8b915e	0.27259344
8	0x3d6f981c	0.058494672
9	0xbe8d4896	-0.2759444
10	0xbf778cab	-0.9669902
11	0xbe125976	-0.14291939
12	0xbe410b1a	-0.18851891
13	0xbe9d6737	-0.3074281
14	0x3e74935d	0.2388434
15	0x3f434712	0.7628032
16	0xbfcc9e8c	-1.5985885
17	0xbe1f5d8d	-0.1556303
18	0xbd24597c	-0.0401244
19	0xbe04469c	-0.1291756
20	0xbf44a9f2	-0.76821816
21	0xbe85fed7	-0.2617099
22	0xbf0e32b3	-0.5554611
23	0xbd1133c0	-0.035449743
24	0x3e3cddfd	0.18444057
25	0x3eab5a49	0.3346732
26	0xbd7ef955	-0.0622495
27	0x3e97b699	0.29631498
28	0xbe39dc1f	-0.18150376
29	0xbf86786d	-1.0505501
30	0xc025eea3	-2.5926902
31	0x3f0358eb	0.51307553
32	0x3f2e07e5	0.67980796
33	0xbeb81112	-0.35950524
34	0xbf83f45e	-1.030895
35	0x3e89bf53	0.2690378
36	0xbf2e34b3	-0.6804916
37	0x3f5c1e25	0.85983497
38	0x3def91f2	0.11697759
39	0xbf4f50da	-0.80982745
40	0xbffc7e21	-1.9725991
41	0xbfe1b503	-1.7633365
42	0xbe7e810b	-0.24853913
43	0xbe30c8f1	-0.17264153
44	0xbf832830	-1.0246639
45	0x3ec71591	0.3888364
46	0xbf3d6c88	-0.7399373
47	0xbf6aa4fc	-0.91657996
48	0x3b90213a	0.004398492
49	0xbda2a83b	-0.07942244
50	0x3ed301d8	0.41212344
51	0xbe303342	-0.17207053
52	0x3e16add4	0.14714748
53	0xbf9aca37	-1.2092961
54	0xbd9f530e	-0.07779513
55	0xbd83606a	-0.06414874
56	0xbec8cd86	-0.39219302
57	0xbf48b715	-0.7840436
58	0x3f4ff496	0.81232584
59	0xbf49242d	-0.78570825
60	0x3dd10815	0.1020662
61	0xbeac00b7	-0.33594295
62	0x3f7d9674	0.990577
63	0xbea21b59	-0.3166149
64	0xbe8e617e	-0.27808756
65	0xbf50c145	-0.81544906
66	0x3e0a94a5	0.13533266
67	0xbcdb5896	-0.02677564
68	0xbeb94827	-0.3618786
69	0xbf827be7	-1.0194062
70	0xbf617a24	-0.88076997
71	0x3e8a3a0b	0.26997408
72	0xc00fd88e	-2.2475924
73	0x3f13390e	0.57508934
74	0x3d3ec33b	0.046572905
75	0xbf51aed2	-0.8190738
76	0x3c6bb6d2	0.0143868495
77	0x3e3716f4	0.1787985
78	0x3e81fb3c	0.2538699
79	0x3ed1a10e	0.40943187
80	0x3f2892e7	0.65849155
81	0xbe18b70a	-0.14913574
82	0xbf309f6e	-0.6899327
83	0xbe89d33e	-0.26918977
84	0xbf81ef9a	-1.0151246
85	0xbf3d0a0c	-0.73843455
86	0x3e3c234f	0.18372844
87	0x3e6882e4	0.22706181
88	0xbf60718e	-0.8767327
89	0xbc6efd27	-0.014586723
90	0x3d5dad5b	0.054120403
91	0xbf9404e4	-1.1563993
92	0x3eedf7c4	0.46478093
93	0xbfff1b3d	-1.9930187
94	0x3ec7b0a1	0.39001945
95	0x3f15ae04	0.5846865
96	0xbdd2eb76	-0.10298817
97	0xc0092da2	-2.1434102
98	0xbf0757fa	-0.52868617
99	0x3e92d485	0.28677765
100	0xbeba6602	-0.3640595
101	0xbeaa81f3	-0.33302268
102	0xbf3ca533	-0.73689574
103	0x3e33333c	0.17500013
104	0x3f1fc638	0.6241183
105	0x3d660763	0.05615939
106	0x3e236ff0	0.1596067
107	0x3d198755	0.03748258
108	0xbf012a36	-0.50455034
109	0x3e75f677	0.240198
110	0xc00a9cc8	-2.1658192
111	0xbf659246	-0.8967632
112	0xbf84de15	-1.0380274
113	0xbf93f54f	-1.1559237
114	0x3ec1deb6	0.37865227
115	0xbf40faa7	-0.75382465
116	0xbfbb8d1e	-1.465244
117	0xbe11a6b4	-0.14223748
118	0xbf5e3fc4	-0.8681605
119	0x3e86c179	0.26319483
120	0x3fde5028	1.7368212
121	0x3e23cd4a	0.1599628
122	0x3ef0e310	0.47048235
123	0xbfcd79b8	-1.6052771
124	0xbf6c8c76	-0.92401826
125	0x3e38cedd	0.18047662
126	0xbf90ed51	-1.1322423
127	0xbfc0d621	-1.5065347
128	0x3d927c8a	0.0715266
129	0xbca85c79	-0.020551907
130	0x3cdf6d0e	0.027273681
131	0xbd8ce72d	-0.06880031
132	0xbd8a624c	-0.0675703
133	0xbd8855b5	-0.06656972
134	0x3c4b09de	0.012392489
135	0xbd89b3da	-0.06723757
136	0x3d77fcd4	0.06054385
137	0x3d6fefc9	0.058578286
138	0xbd3ced87	-0.04612496
139	0xbdcda31d	-0.10040877
140	0x3c8e3399	0.017358588
141	0xbd98314c	-0.07431278
142	0xbd553c8d	-0.0520597
143	0xbc16a181	-0.009193779
144	0x3c9d5f08	0.019210353
145	0x3d2cb3f9	0.042163823
146	0x3d54103f	0.051773306
147	0x3d7ccbc5	0.061717767
148	0xbd1df013	-0.03855903
149	0x3c351a77	0.011053673
150	0xbc702d29	-0.0146592045
151	0xbda9e3d1	-0.08295406
152	0xbdd6e1ea	-0.104923084
153	0x3d0400fd	0.032227505
154	0xbca53d7e	-0.020170923
155	0xbd06929f	-0.032854673
156	0x3cc248b0	0.0237163
157	0x3d349514	0.044087484
158	0xbcecc3c1	-0.028901936
159	0x3ceb5cef	0.028730838
160	0xbd13f7b0	-0.036124885
161	0x3d20973b	0.039206725
162	0xbd906972	-0.07051362
163	0xbd20fa7e	-0.039301388
164	0xbd8b4dbb	-0.06801935
165	0x3abb8e6a	0.001430941
166	0xbdb27087	-0.08712869
167	0xbd77d416	-0.060504995
168	0x3cdc998a	0.026928682
169	0x3d89ddfc	0.06731793
170	0x3c3cae88	0.011516221
171	0x3d9e06be	0.0771613
172	0x3d865822	0.06559779
173	0xbce1072e	-0.027469244
174	0xbd0949fa	-0.033517815
175	0xbd823f83	-0.0635977
176	0xbd860e79	-0.06545729
177	0xba6aa698	-0.0008951216
178	0x3c985fc2	0.018600348
179	0xbd289f28	-0.04116741
180	0xbdb45be8	-0.08806592
181	0xbd24b513	-0.04021175
182	0xbd6c507d	-0.057693947
183	0x3d50bf38	0.05096361
184	0x3ac64981	0.0015128107
185	0x3c41441d	0.011796025
186	0x3cf94996	0.030430596
187	0x3cd09445	0.025461325
188	0xbd7101f1	-0.058839742
189	0xbd13a93b	-0.036050063
190	0x3ce11b69	0.02747889
191	0xbc59da57	-0.013296685
192	0x3d628981	0.055306915
193	0xbdeed501	-0.11661721
194	0xbd451846	-0.048118852
195	0xbd8d1e1e	-0.0689051
196	0xbdae608f	-0.08514511
197	0x3d8dcd36	0.069239065
198	0x3d668782	0.056281574
199	0x3d31374b	0.043265622
200	0xbd0d0144	-0.034425035
201	0xbbd91ba6	-0.0066256104
202	0xbdb141d3	-0.08655133
203	0xbc8aec92	-0.016958509
204	0xbccd0b6b	-0.025029859
205	0xbd38d81f	-0.045127984
206	0x3c631bdc	0.013861623
207	0xbd8cc88b	-0.06874188
208	0xbda3df8d	-0.08001623
209	0x3d853732	0.06504668
210	0xbdcb0788	-0.09913546
211	0xbd9bdf5f	-0.07610964
212	0xbd76bdb6	-0.060239516
213	0xbda11ca7	-0.07866793
214	0xbd9e1232	-0.07718314
215	0x3cd72523	0.026262825
216	0xbd845c90	-0.064629674
217	0x3b8d0e5e	0.004304691
218	0xbc9a5989	-0.018841522
219	0xbc6884aa	-0.014191786
220	0xbdaf7bf9	-0.08568568
221	0xbd365d8c	-0.044522807
222	0xbcdcec7d	-0.026968235
223	0xbdac4d1c	-0.08413145
224	0xbdcb4c53	-0.09926667
225	0x3d7b0f43	0.06129385
226	0x3d96058b	0.07325276
227	0x3cc4dadc	0.024030142
228	0xbdb3f76c	-0.08787426
229	0x3bbd7f8a	0.005783026
230	0xbdb3fbf7	-0.08788293
231	0x3d1f9cae	0.03896778
232	0xbd90c369	-0.070685215
233	0x3d58c4cb	0.05292205
234	0xbdb74f68	-0.089506924
235	0x3c9f5aad	0.019452417
236	0x3cad4c7d	0.021154637
237	0xbdaf8520	-0.085703135
238	0xbda9a6a3	-0.082837366
239	0xbbf5e48a	-0.0075040506
240	0xb9c0e9d3	-0.00036795306
241	0xbd19d671	-0.037558023
242	0xbd860178	-0.06543249
243	0x3c80dae3	0.015729373
244	0xbda93c9a	-0.08263512
245	0xbc0d80c3	-0.008636656
246	0xbd25ca14	-0.04047592
247	0x3d726b2f	0.05918425
248	0xbd7a7233	-0.061144065
249	0xbd6429e1	-0.055704
250	0xbd54c067	-0.0519413
251	0x3d6cb73c	0.057791933
252	0xbce0d66c	-0.027445994
253	0xbd21823a	-0.039430834
254	0xbcf20685	-0.029544124
255	0xbd8e5980	-0.069506645

fc2.bias f4 [128]
0	0xbdca2e13	-0.09872069
1	0x3cf34b01	0.02969885
2	0x3ef72692	0.48271614
3	0x3eb776e1	0.35832885
4	0x3ea3bda7	0.3198063
5	0xbe841acb	-0.2580169
6	0xbeffdc62	-0.49972826
7	0xb6c199ba	-5.7697443e-06
8	0x3f0d2d23	0.55147
9	0x3ed882ed	0.42287388
10	0x3d8c1d6f	0.068415515
11	0x3e99a066	0.30005187
12	0xbe21f720	-0.15816927
13	0xbe0cddbc	-0.1375646
14	0xbe8b2ca0	-0.27182484
15	0xbb9cd345	-0.0047859275
16	0x3f09abd1	0.53777796
17	0x3eb985a8	0.36234784
18	0x3dad87f8	0.084731996
19	0xbe4cc03a	-0.19995204
20	0x3e852673	0.26005897
21	0x3ede24b8	0.4338739
22	0x3db9dada	0.09074946
23	0x3e8f95d4	0.28043997
24	0x3ea68bb5	0.32528463
25	0x3e34645c	0.17616409
26	0x3ed18b94	0.40926802
27	0x3f1585c4	0.58407235
28	0x3ea9c876	0.33160752
29	0x3ee56a13	0.4480749
30	0xbe8814a7	-0.26578256
31	0x3e2bcf47	0.16778289
32	0x3e9c9c8c	0.30588186
33	0x3e1f71ff	0.1557083
34	0x3eb39cd0	0.35080576
35	0xbe893f6c	-0.268062
36	0xbe39b4a4	-0.18135315
37	0x3ee1ffab	0.44140372
38	0x3d96347a	0.07334228
39	0x3d8e7928	0.069567025
40	0xbe59223a	-0.21204463
41	0x3eb4fb76	0.353481
42	0x3ebad8de	0.36493582
43	0x3ec13dc3	0.37742433
44	0x3ebd5ac0	0.369833
45	0xbe28eb37	-0.16495977
46	0xbeac6708	-0.33672357
47	0x3dc7259d	0.09723971
48	0xbdc090a9	-0.09402592
49	0x3f1496bf	0.5804252
50	0xbdce80b3	-0.10083141
51	0xbe06a9b6	-0.13150677
52	0x3ea6d6f1	0.32585862
53	0x3d50d824	0.050987378
54	0x3ea83167	0.3285019
55	0x3e3bb396	0.18330225
56	0x3eb0a084	0.34497464
57	0xbeddab34	-0.4329468
58	0x3e23be5b	0.15990584
59	0x3e1cda1a	0.15317574
60	0xbdf81dcc	-0.12115058
61	0x3d421ded	0.04739182
62	0x3f217cdd	0.6308115
63	0x3e6d9ee3	0.23205142
64	0xbeac1ff4	-0.33618128
65	0x3dc89954	0.0979487
66	0xbec338a6	-0.38129157
67	0x3ece3f6c	0.40282762
68	0xbc1b958e	-0.009496106
69	0xbec4e3b2	-0.38454968
70	0x3e141530	0.14461207
71	0x3e98b745	0.29827324
72	0x3e8b418f	0.27198455
73	0x3f2261e8	0.63430643
74	0x3f171c24	0.59027314
75	0xbe168a79	-0.1470126
76	0x3f498afd	0.78727704
77	0xbed1c842	-0.40973097
78	0x3df3e11c	0.119081706
79	0x3e5f9fc8	0.21838295
80	0xbe2053f0	-0.1565702
81	0x3ea28013	0.31738338
82	0x3e53caea	0.20682874
83	0x3e425bf9	0.18980397
84	0x3edebeff	0.43505093
85	0xbe361a13	-0.17783384
86	0x3eee92ae	0.46596283
87	0x3e94cd27	0.2906277
88	0x3f173379	0.59062916
89	0xbe5f7b0e	-0.21824285
90	0x3f0735ea	0.5281664
91	0x3f10f1fa	0.56619227
92	0x3f15bf04	0.5849459
93	0x3e97c963	0.29645833
94	0x3eb355de	0.3502645
95	0xbca7f249	-0.020501273
96	0xbe882a9b	-0.26595005
97	0xbe4c4a79	-0.19950284
98	0x3da4e883	0.080521606
99	0x3f3bd63d	0.73373777
100	0x3e7b4631	0.24538495
101	0xbd1d6659	-0.038427684
102	0x3e2b60dc	0.16736168
103	0x3efa1180	0.48841476
104	0xbe335c94	-0.17515785
105	0xbd4df41f	-0.05028164
106	0x3e4a3d02	0.19749835
107	0x3f3934df	0.723463
108	0x3ea95aff	0.33077237
109	0x3ef009be	0.46882433
110	0x3e99c7a9	0.3003514
111	0xbd32eb2d	-0.043681312
112	0xbe92c736	-0.2866761
113	0xbe4d8f73	-0.20074253
114	0x3ef71b85	0.48263183
115	0xbae53e33	-0.001748985
116	0xbe0520d4	-0.13000804
117	0x3f206863	0.6265928
118	0x3f273901	0.65321356
119	0x3e94dbf5	0.29074064
120	0x3ec9072f	0.39263293
121	0x3e84b87e	0.25922006
122	0xbe89c61a	-0.26908952
123	0x3ceb116e	0.028694835
124	0x3e4ba840	0.19888401
125	0x3ef9be2a	0.48777896
126	0x3ebdaf1e	0.37047666
127	0x3e47e302	0.1952019

fc3.weight f4 [6, 128]
0	0xbf49d068	-0.7883363
1	0xbd7cfa7d	-0.06176232
2	0x3fc2e630	1.5226498
3	0x3fd24964	1.6428647
4	0x4011de34	2.2791872
5	0x400d0cc9	2.2039053
6	0xbe8c70ad	-0.27429715
7	0xbfaf2387	-1.3682717
8	0xbfd42f00	-1.6576843
9	0xbf581fef	-0.84423727
10	0x406754fb	3.6145618
11	0xbf966659	-1.1749984
12	0xbf330d60	-0.69942284
13	0xbe942410	-0.28933764
14	0xc049e6ca	-3.1547112
15	0x3e31a7a7	0.1734911
16	0x40377503	2.8665168
17	0xc04f28d0	-3.236866
18	0x3fc2a33f	1.5206069
19	0x3f7f4c66	0.9972595
20	0x3fb87841	1.4411699
21	0x3e4d26f6	0.20034394
22	0x3fd72520	1.6808205
23	0x3fdf1ee0	1.7431297
24	0x40006135	2.005933
25	0xc038ec0a	-2.8894067
26	0xc001a204	-2.0255136
27	0xc01f3a6d	-2.487941
28	0x3e6dfab6	0.2324017
29	0xbfc17991	-1.5115224
30	0x3f1a3c32	0.602481
31	0x3fc511e2	1.5396082
32	0xbe931e6c	-0.28734148
33	0xbf88e943	-1.0696186
34	0xbf823009	-1.0170909
35	0xbf0fc9c6	-0.56167257
36	0xbeec107d	-0.4610633
37	0x3fec28cb	1.8449949
38	0x3f866647	1.0499963
39	0x3f3d29d3	0.73891944
40	0x3f26b4fe	0.6511992
41	0x3faaaede	1.3334615
42	0xc042655c	-3.0374365
43	0x3f769826	0.9632591
44	0xbffe8d85	-1.9886938
45	0x3f258f33	0.6467163
46	0xbe1edd7e	-0.1551418
47	0xbfe5eaeb	-1.7962316
48	0xbf887269	-1.0659915
49	0x3ffa7b4f	1.9568881
50	0x3faff7c1	1.3747483
51	0xbffbb0ef	-1.9663371
52	0x3e4737ea	0.19454923
53	0xbe0e710c	-0.13910311
54	0x3e2fc4e1	0.17164947
55	0xc08690a0	-4.2051544
56	0x3ef275e1	0.4735556
57	0xbf8c3b4a	-1.0955594
58	0x3fe18c07	1.7620858
59	0x3fb2bad9	1.3963271
60	0xbe1b0c27	-0.15141355
61	0x400483bd	2.0705407
62	0xbfbea935	-1.4895388
63	0x3f1af5fc	0.6053159
64	0xbf045d86	-0.51705205
65	0x3f0de6fa	0.5543057
66	0x3fd0e5b8	1.6320105
67	0x400a42e0	2.1603317
68	0xbf0b2d44	-0.54365945
69	0x3f1945b1	0.59871966
70	0xbf47d47f	-0.7805862
71	0x40a69a5e	5.2063437
72	0x3fc3f20e	1.5308244
73	0xbff54da3	-1.9164318
74	0x3f977487	1.1832436
75	0xc01dd243	-2.4659584
76	0x3ea2722f	0.3172774
77	0xbf011028	-0.5041528
78	0xbf42a64e	-0.7603501
79	0x4020857b	2.508147
80	0xbf909741	-1.1296159
81	0xc000bca8	-2.0115147
82	0x3fb564b5	1.4171358
83	0xbfc67323	-1.5503887
84	0xbf922585	-1.14177
85	0xbf15a710	-0.5845804
86	0xbe365f6c	-0.17809838
87	0x3ee63e38	0.44969344
88	0xbff1fe4d	-1.8905731
89	0x401c9481	2.446564
90	0x4022f556	2.546224
91	0x3f250c81	0.64472204
92	0xbea2bdf6	-0.31785554
93	0x40309935	2.759351
94	0xbf18cc9d	-0.59687215
95	0x3f7cb6ae	0.9871625
96	0xbfb565db	-1.4171709
97	0x3eaa8da3	0.33311185
98	0xc02e381f	-2.7221754
99	0x40288b41	2.6334994
100	0x3f2c95fa	0.67416346
101	0xc03b9476	-2.9309363
102	0x3eaeb267	0.34120485
103	0xbf63710a	-0.8884436
104	0x3fa064ec	1.2530799
105	0xbee56bdf	-0.44808862
106	0x3f70c64d	0.9405258
107	0x3f3e7c9d	0.74408895
108	0xbe8994b3	-0.2687126
109	0x3fa22c06	1.2669685
110	0x3f88d309	1.0689403
111	0x4027c635	2.6214726
112	0xc0426d30	-3.0379143
113	0x3f2d5dba	0.6772114
114	0xc0503373	-3.2531402
115	0x3f004cca	0.5011717
116	0xc0244857	-2.5669153
117	0x403ac4e9	2.9182684
118	0xc0521265	-3.2823727
119	0xbe39c3b4	-0.18141061
120	0x3e88bbb5	0.2670571
121	0x3fb34507	1.400544
122	0x408c754c	4.3893185
123	0x3f65f71d	0.8983019
124	0x3ea1192f	0.31464526
125	0x401c2683	2.4398506
126	0x403b309c	2.924842
127	0x3f2b5af4	0.6693566
128	0x3fb26a3a	1.3938668
129	0x3db144aa	0.08655675
130	0xbe2ddb33	-0.16978149
131	0xbe3cbe6a	-0.18432012
132	0xbefc68ae	-0.49298614
133	0x3e95b2aa	0.29237872
134	0xbeee5cdf	-0.4655523
135	0x401b1a95	2.4234974
136	0x3f200657	0.62509674
137	0xbf2e2d1c	-0.6803758
138	0xbfc0cc67	-1.5062379
139	0xc0761611	-3.8450968
140	0x3effe97c	0.49982822
141	0xbfcd09c6	-1.6018608
142	0xbfbd57f4	-1.4792466
143	0xc005712e	-2.085033
144	0x4082e89e	4.0908957
145	0xbf4e9469	-0.80695206
146	0x3f86bd23	1.052647
147	0x40220658	2.5316372
148	0x3f84702f	1.0346736
149	0xc08529be	-4.1613455
150	0x40646c38	3.5691051
151	0x3fc344c4	1.5255361
152	0xbfbbea2e	-1.4680841
153	0xc003026f	-2.0470235
154	0x3ec32d2d	0.38120404
155	0xc03a4ff1	-2.9111292
156	0xbff19e01	-1.8876344
157	0xc048cf25	-3.137643
158	0x3f8ba003	1.0908207
159	0x3e03bf32	0.12865904
160	0x3f3692e7	0.71317905
161	0x3fbde5a9	1.4835712
162	0xbfd4c4e2	-1.6622584
163	0x4004ecea	2.07696
164	0xbec71360	-0.3888197
165	0x40086197	2.1309564
166	0x3fdb8ac1	1.7151719
167	0xbfa97b93	-1.3240837
168	0x3f627819	0.88464504
169	0xbf6fc77a	-0.9366375
170	0xbf82fef6	-1.0234058
171	0x402075bb	2.5071857
172	0xbf5d75e6	-0.86508024
173	0xc08c4c79	-4.384335
174	0x3e4a7402	0.19770816
175	0x3ebe0208	0.37110925
176	0x3e4b6219	0.1986164
177	0xc03c229b	-2.9396122
178	0xbfc14222	-1.5098307
179	0xc05e8b2d	-3.4772446
180	0x3f4a19f8	0.78945875
181	0xc01e66ab	-2.4750164
182	0x3eae376a	0.34026653
183	0x3ee726b9	0.4514673
184	0x3ea12ff2	0.31481892
185	0xbe9cd21c	-0.3062905
186	0xc00c1960	-2.1890488
187	0xc007f42a	-2.1242776
188	0xbe044d5f	-0.1292014
189	0x3f2ac792	0.6671077
190	0x3fcdad2d	1.6068474
191	0x3e7b27d2	0.24526909
192	0xbfbeb6ea	-1.4899571
193	0xbf8a356d	-1.0797554
194	0xc05188be	-3.273971
195	0xbf71f255	-0.94510394
196	0x3f66096c	0.89858127
197	0xbfaf4ec9	-1.3695918
198	0x40873749	4.2254987
199	0xbebedfd3	-0.3728014
200	0x3f22ed22	0.63643086
201	0xc04eaff8	-3.2294903
202	0xc03d8dfe	-2.9617915
203	0x3de549c5	0.11195711
204	0x40967723	4.702043
205	0xbfec2e2e	-1.8451593
206	0xbf72c4af	-0.94831365
207	0xbfcc5a71	-1.59651
208	0xbf8eb6c0	-1.1149521
209	0x3fdef65a	1.741893
210	0xc0368cb3	-2.8523376
211	0xc0276520	-2.6155472
212	0xbf12c425	-0.5733054
213	0x408e1dfc	4.44116
214	0xbeb5b9e9	-0.354934
215	0x3f751176	0.9572977
216	0x4024e562	2.5765004
217	0xbfea3958	-1.829875
218	0xbf992e99	-1.1967345
219	0x3ec50251	0.3847833
220	0x3facbdeb	1.3495458
221	0x4092cc0b	4.5874076
222	0xba97c667	-0.0011579514
223	0x402968d5	2.6470234
224	0x3fea5a74	1.8308854
225	0xbffc2298	-1.9698057
226	0xbfbd36ea	-1.4782383
227	0xbf756bee	-0.9586781
228	0xc015f9d3	-2.343373
229	0x3f8a1aef	1.078947
230	0xbfcfed13	-1.6244224
231	0xbf797256	-0.9744009
232	0xc010ef6a	-2.2646127
233	0xbf7ab4c9	-0.97932106
234	0xbfcc04d7	-1.5938977
235	0x3fdd7878	1.7302389
236	0x400bc8c2	2.1841283
237	0xbfdafa94	-1.710772
238	0x3f7ceb53	0.98796576
239	0x40aa4bd7	5.321758
240	0xbfc84a2c	-1.5647635
241	0x3f467399	0.7752014
242	0x3f8ddef4	1.1083665
243	0x3fc29f4e	1.5204866
244	0x3f2a8fba	0.6662556
245	0x3f4f6492	0.81012833
246	0xbe67054a	-0.22560611
247	0xbf37a90b	-0.71742314
248	0xc054f49a	-3.3274293
249	0x408adf27	4.3397403
250	0x3fc29cb7	1.5204076
251	0xbfcf8b7b	-1.6214441
252	0x3f0b07ef	0.5430898
253	0x3fffb678	1.997756
254	0xc00c8192	-2.1954083
255	0xbf9edc8c	-1.2411056

fc3.bias f4 [6]
0	0x3c8abad9	0.016934799
1	0x3e851853	0.2599512
2	0xbed53559	-0.41642264
3	0x3cfa0ed8	0.030524656
4	0xbf0a2e40	-0.5397682
5	0xbe72904c	-0.23687857
