demo/2_2_tran1_obs1/critic_2_15.pth (torch, 108592 bytes, 5 tensors)

fc1.weight f4 [148, 28]
00000000: dd6c 30c0 988c 8d3e 6b70 5ebf fa31 2640
00000010: 8f58 51be 37e2 86c0 386a 20bd 04bc 1fbd
00000020: f26d 693d fb19 e73c 5960 37bd b8a6 12bc
00000030: a893 0540 a4d7 4740 03d4 083f 86fb 2640
00000040: cf0a 3541 1965 d0c0 8270 2e3e 91e9 153c
00000050: 43aa ed3c 78e1 c43d 8fd9 47c0 f664 253e
00000060: ebd6 c93e 66f8 773d df15 5fc0 10a5 f9bf
00000070: 60d1 a9bf 6327 603f 2811 9440 94ba 6940
00000080: 555f e640 3b3e 65c0 2b08 45be e75a 9b3d
00000090: 0e21 c73e f357 98be fdb2 0f3e 48cf 31bc
000000a0: 6736 1a41 ccb4 d140 ad41 bfc0 1eca 9040
000000b0: 628c 64bf d3cf f1bf a657 023c a9bc 25be
000000c0: fb77 d9bd a778 a53d bbbf 343f 2295 e340
000000d0: 62a5 4ec0 eafa 8140 a49a 98c0 d8dd 18c0
000000e0: f314 d9bf 45ab 07c0 8d21 c3bf 46e5 26c0
000000f0: b60c 1bbe 26c5 72bf 612c 393d bcdb 1b3d
00000100: 378a 8dbd 613f db3c fe2a 923d 5652 8f3d
00000110: 8ad6 3540 00da 0ebf fa0e 403f e5aa 8640
00000120: 361d 0541 8a44 24be 9f00 0cbd a995 96bd
00000130: e8ff c4bd 48e7 763d 57f8 ccbe c2f6 993f
00000140: 115a 5dbf e2fe 423f 303c e1bf 015c ec3e
00000150: 7f72 15be 5930 a2c0 0f02 c0bf b245 7cbf
00000160: 5b70 a33f 7bae bebf 1a0a 97be 84ce 26be
00000170: 83d4 cdbd 3a69 3f3e e0e9 0cbe 7012 a63c
00000180: b46c 5641 065b a240 13c9 08c1 ee18 0341
00000190: 2b3c a4bf 0e7a 65bf 5020 8e3d 39fa b83d
000001a0: fb6f 8cba cf8c 3cbe ddfc 9240 cfe7 9340
000001b0: 7ce4 7dbf 8bbb 81be f544 9ac0 9657 cc40
000001c0: a128 983f 7b4b ccc0 bea4 2d40 ab16 98c0
000001d0: 6ddb 0740 d106 fbbe 1c4d ab3d d9b6 313e
000001e0: cc33 13be 9d44 a13d c885 10bd 6120 0bbe
000001f0: 7fc3 71c0 40f8 f93f 8e02 79c0 c264 c440
00000200: cd9c 8fc0 4ac8 42c0 e2d8 d3bd 0a28 26be
00000210: 519d 75bc 70a8 0e3d 0ce3 25bf d065 d53f
00000220: 9188 6d40 40ca 5bbf 7a21 cfbf 749f 2e40
00000230: c714 1c3f aeb6 b53e f1ae c4bc d89a adbe
00000240: 5b9f b8bf d750 1f40 db25 283d 9971 60bd
00000250: c90f 2dbc 5cdb ef3d 7018 603d 5822 793d
00000260: bb55 c0bf 9a88 8240 8098 1abf b2c8 efbf
00000270: 351b 9941 9406 46c1 57d3 cbbd 8e0f a83c
00000280: 3cba 14be 7fc3 3c3e 7c54 83bf fe6e 0fbf
00000290: 5461 33bf 3294 02c0 c8fb 6abe d8b3 ab3e
000002a0: 8c0f 24be 194c 853f 082d ad3e c21f 4540
000002b0: 1737 67bf 21d6 08bf b463 1abd 6dfb 87bb
000002c0: 4b90 83bd 4dba ad3d ab48 bfbc 9bc5 eebd
000002d0: 66fc a5bf 17ba 55bf 9746 1bc0 70e0 eebf
000002e0: 07de b03f 34ba f9c0 dc64 63bc e14e 17be
000002f0: 5447 30be e17c 94bc b6da 733f d2e2 f33e
00000300: d1ad 403f f1b1 a73f 3c2f 17bf 64b9 aabf
00000310: 579a ff3c 0bfe e93f d0bc eebd 6105 30c0
00000320: 89be 8a40 d002 d4bf 7dd3 a6bf 444f 89bf
00000330: e3f3 96bf b5a2 fabd 7213 153e e796 cebd
00000340: 9435 8740 3638 d23f 66da cbc0 ce14 f840
00000350: 27dc 8540 a72d aac0 c19a dcbd 93fe 27be
00000360: f17f bcbd 6199 97bd 5ebd 91bc a2be 61c0
00000370: 4b22 6f3f d0ce dd3f 4ea3 4b3e 9a85 f03f
00000380: 2501 10bd 9530 89be 02ed 1ebf 7375 463e
00000390: 00f9 b6bf f77d 913f 1df0 eebc 64d3 0bbd
000003a0: e184 fe3b d0df 283d eaa9 05bc 6965 193d
000003b0: 8e47 4ec0 ab90 693f 9733 febf 7795 e13f
000003c0: 22e2 82c1 43f5 1ac0 65e4 c3bd 544d 4ebd
000003d0: ac5b 6ebd ad68 fcbd 8d80 f33e 5d55 03bf
000003e0: a3e4 8ebe 6cec 7a3e 4c3b 10bf 1e7c b83f
000003f0: 0d56 813f 76b7 b03f 328d 903e b8bc 76c0
-2.7566445 0.27646327 -0.86890286 2.5968003 -0.20443939 -4.215114 -0.039163798 -0.038997665
0.056989618 0.02821063 -0.04476962 -0.008950882 2.0871372 3.1225367 0.53448504 2.6091018
11.315139 -6.512341 0.17035106 0.009149925 0.029011851 0.09613317 -3.1226537 0.16151795
0.39421782 0.060539626 -3.48571 -1.9503498 -1.3267021 0.875601 4.6270943 3.6520128
7.199137 -3.5819232 -0.19241397 0.075856976 0.38892406 -0.297546 0.14033122 -0.010852642
9.638282 6.55332 -5.976767 4.5246725 -0.8927671 -1.8891548 0.007955467 -0.1618525
-0.106185876 0.08079653 0.7060506 7.1119547 -3.2288442 4.061879 -4.768877 -2.3885403
-1.6959518 -2.1198285 -1.5244614 -2.6077437 -0.15141568 -0.94832075 0.04520834 0.038051352
-0.06911128 0.02676362 0.07137106 0.06998126 2.8412194 -0.5580139 0.7502285 4.208361
8.319632 -0.1604177 -0.03418028 -0.07352764 -0.09619123 0.06027916 -0.40033218 1.202843
-0.86465555 0.7617017 -1.7596493 0.46163943 -0.14594458 -5.068402 -1.5000628 -0.98543847
1.2768663 -1.4896997 -0.29499894 -0.16289717 -0.10050299 0.18692484 -0.13761091 0.020272464
13.401539 5.0736113 -8.54909 8.193586 -1.2830862 -0.89639366 0.06939757 0.09032101
-0.0010714525 -0.18413089 4.593367 4.622047 -0.99176764 -0.25338396 -4.8209176 6.3856916
1.1887399 -6.384214 2.71318 -4.752767 2.1227677 -0.49028638 0.08364317 0.17354907
-0.14375228 0.07874415 -0.035283834 -0.1358657 -3.7775571 1.9528885 -3.890781 6.1372995
-4.4878907 -3.0434747 -0.103441015 -0.16226211 -0.01499112 0.034828603 -0.6479957 1.6671696
3.7114604 -0.85855484 -1.6182091 2.7284822 0.60969204 0.35490936 -0.0240092 -0.339072
-1.4423631 2.489309 0.041051727 -0.054795835 -0.0105628455 0.11711761 0.054710805 0.06082377
-1.5026163 4.079175 -0.60388947 -1.8733122 19.138285 -12.376606 -0.09952419 0.02051523
-0.14524168 0.18433951 -1.0260158 -0.56028736 -0.70070386 -2.0402951 -0.2294761 0.33535647
-0.16021556 1.0413848 0.3382342 3.0800633 -0.90318435 -0.53451735 -0.03769274 -0.0041498453
-0.06424006 0.084828 -0.02335008 -0.11658784 -1.2967651 -0.83487076 -2.4261835 -1.8662243
1.3817757 -7.80398 -0.013879027 -0.14776184 -0.1721471 -0.018125953 0.952556 0.47633988
0.7526522 1.3101178 -0.5905645 -1.3337827 0.031201525 1.8280653 -0.11657107 -2.7503283
4.3357587 -1.6563358 -1.3033291 -1.0727315 -1.1793178 -0.12238065 0.14558199 -0.10087376
4.2252903 1.6423404 -6.37041 7.7525396 4.183124 -5.318073 -0.107717045 -0.16405706
-0.092040904 -0.074023016 -0.017790493 -3.5272603 0.934117 1.7328739 0.19886515 1.8790772
-0.03515734 -0.26794878 -0.62080395 0.19380741 -1.4294739 1.1366566 -0.02916723 -0.034137145
0.0077673052 0.04122907 -0.008158186 0.037450228 -3.2231174 0.9123637 -1.9859494 1.7623738
-16.360416 -2.4212196 -0.09565047 -0.050366715 -0.058192894 -0.12324653 0.47559014 -0.5130213
-0.2790881 0.2450425 -0.5634048 1.4412878 1.0104386 1.3805988 0.28232723 -3.8552685

fc1.bias f4 [148]
00000000: dc9c 33bd dec8 1bc0 d6a8 68bf f24f dcc0
00000010: 32b3 1e3e a863 3dbe 05ec 9b3f cc11 a3c0
00000020: 3a51 67be 9a8b 0540 285f 07c0 bea9 1bc0
00000030: 588f c3c0 926c 1cc0 9434 47c0 9712 72bf
00000040: 5c94 22c0 8644 483d fec3 d63e 0143 8bc0
00000050: cec6 0fc0 96da f7c0 8ee2 93c0 0c5d 0cc0
00000060: 949d a9c0 0783 a0c0 0d47 38bf c09e 3dc0
00000070: 30eb 133e c0ee 2ebf 8199 4bbf 7845 90c0
00000080: 3ba6 7dc0 e164 42c0 8ab2 4fbe 54fb a9be
00000090: afb7 01c0 0e75 97bf 458a c53e cb4d a13d
000000a0: 842e 02c0 90f5 b5c0 edbf c53f 502d 2ec0
000000b0: 0e94 d7bb ce76 24bf a1c7 ccc0 f2bf 0d3f
000000c0: 7f32 bebf 7b53 afbf 53ed 0340 ce5b 92c0
000000d0: 0b3f b1c0 a3ca ad3e 5036 a7c0 add3 e83f
000000e0: a786 1fc0 eb66 a23f 7236 fbbe 51fa 033f
000000f0: 07d9 b5be a411 bdc0 1841 a2c0 7d1d 87c0
00000100: 64f1 b5bf 97b4 93be c43f 6ec0 be74 43bf
00000110: 9883 dcbf 865d 73bf 506b cfc0 18a9 7ec0
00000120: 01ae 43c0 8447 87c0 9d82 983f 3e30 9ebf
00000130: 7fc9 55c0 f8f7 2a3f 634d 2dc0 c188 63bf
00000140: a3af 3ec0 ad95 5ebf c681 79bf 9f0d b7be
00000150: 1b5a 90bf 4b56 15c0 8d83 3cbf e9c1 5cc0
00000160: 6915 393f c80a 3cbf e159 01c0 b9ec 8dc0
00000170: 8a74 abbe 82c9 32c0 71f2 e4bf b78b 15c0
00000180: f8d8 fcbf 2d7c 103f 4c2e 3ac0 74c1 16c0
00000190: 028c 9fc0 8ee7 333f 38c5 15bf 9cb4 98c0
000001a0: 8b77 16c0 cecd 69c0 0e8c 303f 24e7 8dbf
000001b0: 9afb 31bf 5f9d 82c0 4ff6 e0bf 4332 14be
000001c0: 43ae 0cc0 ab3c b4bf 8b9d 993f dc82 0840
000001d0: 796b bf3e 0f59 1fbf 55ee b9c0 f4ad 1340
000001e0: cc61 e7bf 5c05 e6bf 31ec 1d40 c54c 63c0
000001f0: 1a55 ddc0 8440 b4c0 b02b c63f 8166 d7be
00000200: e858 62bf b7eb 423e a64f 73c0 a8fa 593e
00000210: 5e21 693e ffb8 ad3f a97b 81bf e1cd 6fbf
00000220: 6d93 d8bf 8451 dfbe d6c8 273f 3347 b93d
00000230: b8e1 4740 20ff 5dc0 0408 0dc0 d3f7 63bf
00000240: 3fcc 4dc0 c1c9 36bf d887 1cc0 bfde 94c0
-0.043850765 -2.434135 -0.90882623 -6.884759 0.15498045 -0.18495047 1.2181402 -5.0959225
-0.22589579 2.0866456 -2.1151829 -2.4322352 -6.111248 -2.4441266 -3.112584 -0.94559616
-2.5403051 0.048893474 0.41946405 -4.351929 -2.246509 -7.745433 -4.6214056 -2.1931791
-5.3004856 -5.0159945 -0.71983415 -2.9628143 0.14445186 -0.68333054 -0.79531103 -4.50848
-3.963271 -3.0374072 -0.20282951 -0.3319956 -2.0268362 -1.1832597 0.38582054 0.07876166
-2.034089 -5.686226 1.5449196 -2.7215157 -0.006578929 -0.6424378 -6.399369 0.5537101
-1.485916 -1.3697351 2.0613601 -4.5737066 -5.5389457 0.33943662 -5.22538 1.8189598
-2.4925935 1.2687658 -0.49064976 0.5155383 -0.3551714 -5.9084034 -5.070446 -4.2223496
-1.4214292 -0.28848717 -3.722642 -0.7635001 -1.7227659 -0.9506458 -6.4818497 -3.9790707
-3.0574954 -4.22748 1.191486 -1.2358472 -3.3404233 0.6678462 -2.7078483 -0.88880545
-2.97947 -0.8694714 -0.97463644 -0.3575258 -1.1277498 -2.333392 -0.7363823 -3.4493353
0.72298294 -0.7345395 -2.0211108 -4.435147 -0.3348735 -2.793549 -1.7886487 -2.3366525
-1.9753714 0.5643948 -2.9090757 -2.3555574 -4.985841 0.702752 -0.58504057 -4.772047
-2.3510463 -3.6531863 0.68963706 -1.1086164 -0.6952454 -4.0817103 -1.7575167 -0.14472298
-2.198136 -1.4081014 1.2001203 2.132987 0.37386683 -0.6224527 -5.8103433 2.3074923
-1.807672 -1.7970386 2.467541 -3.5515606 -6.9166384 -5.6328754 1.5482082 -0.42070392
-0.8841691 0.1903523 -3.8017364 0.21287024 0.22766635 1.3572081 -1.0115863 -0.9367352
-1.6919991 -0.4361688 0.65540826 0.09046783 3.1231518 -3.4686966 -2.2036142 -0.89050025
-3.2155912 -0.714016 -2.4457912 -4.6521907

fc2.weight f4 [148, 148]
00000000: df65 10c0 5175 c83f 8cf9 7440 dfb3 48c0
00000010: 7e29 69c0 31ad dbbf a887 de3f 9ded 4140
00000020: d172 7e3f 3907 2cbf 4ebd 7e40 3540 44c0
00000030: 7907 cdc0 feab a6bf 9b2d 2fc0 54f1 5cc0
00000040: ac07 3d40 ad58 b5bf 3874 29c0 17f5 93bf
00000050: 8353 7640 76d4 c53c 107c a040 0bfd 46c0
00000060: 370b 3440 81f6 c1c0 3011 a7c0 488f 50c0
00000070: 2d85 973e 2ba7 76c0 463f 30c0 cc41 9e40
00000080: a026 3840 b950 38c0 9754 afbf 41b5 a73f
00000090: 6196 8ac0 a157 2bbf 60a9 8dbf 1621 0440
000000a0: 0c86 043f 3169 49bf 76d4 7540 f5c7 7e40
000000b0: abbb 86be 801b 00c0 e2f0 da3e 9c92 4dc0
000000c0: 6295 51c0 6dc9 88c0 0096 fbbf f14e 1c40
000000d0: 46d6 93c0 3aa2 3cc1 6cd5 f33f 08ca d93f
000000e0: 3e82 1e40 9609 4440 7f3b 3340 f775 f8be
000000f0: a11e 33c0 24e1 45c0 a63c 20bf cf03 8f40
00000100: 3135 313f 08ff e73f 0907 b2c0 0ae3 563f
00000110: 136b d640 de0e 75c0 9116 08c0 a66a 8abf
00000120: d794 7240 dc11 0ec0 1a94 5b40 43dd 8a40
00000130: c735 1d40 94b4 f9c0 d360 b9c0 e82c 2141
00000140: c0d0 26bf 49db 8bbf 6f5d 853f ed10 6640
00000150: aea7 1a3f 5d1f 7d40 e302 e5c0 9b25 d040
00000160: 7ce4 da40 9e3b 1b40 e65e d440 5d37 47c1
00000170: e4ee 99bf 3196 8340 900e 33c0 4909 97bf
00000180: 8727 8ac0 b538 943f c3e4 b53f 4c92 03c1
00000190: d5a2 0741 85e6 a840 86c7 2340 e23c b6c0
000001a0: 4323 b4c0 9e41 b240 2cad 913f 9f01 05c1
000001b0: f11f 8e3f a2b4 3dbf 7842 8240 02c2 8dc0
000001c0: fefd a340 8341 c9bf fdb0 9c40 d7ba 5a40
000001d0: c2db 3241 94c9 4cbf 389e 753f 344f 1c40
000001e0: fcba 2140 96f5 abbf 4b63 b7be 2c08 6d40
000001f0: 7dbd c0c0 cce3 b540 e431 d9bf 8c99 2141
00000200: 5729 91bf a09c 5bbe 4724 b03f 66ed 32c0
00000210: 276e 01c0 2299 ddbe bf5e 8f3e b91a 03c1
00000220: a197 a640 2179 e93f 658b d4bf b1c2 623f
00000230: beb4 81c0 37ac a8bf f01e cabf c32b 92c0
00000240: 9ace 10c1 c6bb c4bf 5d74 0241 f6cb b6bf
00000250: 7936 8abd 15cd e43c ca88 6ebd 9d9a fdbc
00000260: 8f37 c2bd 9887 91bd 7103 94bc 1f02 c9bd
00000270: ac1a 9dbd 4f44 943c ba2a dc3b eb4e a9bd
00000280: 2f26 ff3b 00e1 d7bd 3501 133c 8b9b 8cbd
00000290: 0184 5cbd 4e2c b93c dab7 703d 50e6 8abd
000002a0: 4660 c23c e42b cbbd ca8d 50bd 0c1c 133d
000002b0: e6d1 083c 7603 80bd ccb6 babc 5bff 57bd
000002c0: aae2 6b3c 5d88 e93b 2412 773a de63 8bbd
000002d0: 4394 f3bd b378 29bd 925a bbbc 30d2 163d
000002e0: e821 9fbd c3c4 873d 6438 a7bd 617f 92bb
000002f0: 4b2c b73c c56c b3bd adfb 16bd 76d8 72bb
00000300: 1563 ddbc 261b e1bd b38e ad3c 449d bfbd
00000310: 0b1d 89bd 3811 4abd 60c2 8a3c 3dfe 91bd
00000320: 8917 30bd 535d 103d ce11 f6bd 975e db3c
00000330: d038 ef3c 0d3c 84bb aef6 243d 492e a8bd
00000340: 12f0 07bd 50dd 34bd dc09 58bd cd40 c7bd
00000350: 639e d53b f0e1 b6bc 29a8 e13c 4e30 8cbd
00000360: 8a69 d43c de13 5d3c 0907 9fbd b24d 62bc
00000370: 514e 93bd 0fa9 03bd 1434 923c a5b6 b6bd
00000380: 0dc3 8ebd 4301 e9bc 9e1b fa3c c223 13bd
00000390: 1bf4 a1bd f1ca 3bbd c721 a4bc 8fb6 a0bd
000003a0: e1b1 93bd 411c 0d3d 3b65 8dbc 52c3 e6bd
000003b0: 14f7 59bc 1829 8bbd c9bd 213c 7240 52bc
000003c0: 8d22 943c e1c6 54bd 0bdd afbd ad0f 9ebc
000003d0: 9d81 81bc 8fe5 1dbc 944f dfbc c629 813c
000003e0: e2dc 6bbd e7e3 11bd 5228 26bd 1888 2bbd
000003f0: 3ec6 9d3c 2f3f c0bd 7665 123d 451a 7fbd
-2.2562177 1.5660802 3.8277311 -3.1359785 -3.6431575 -1.7162229 1.7385149 3.0301278
0.99393946 -0.6719852 3.9803042 -3.066419 -6.407162 -1.3021238 -2.7371585 -3.4522295
2.9535933 -1.4167687 -2.6477184 -1.155917 3.8488472 0.02414916 5.0151443 -3.1091945
2.8131845 -6.061341 -5.220848 -3.2587452 0.29593793 -3.8539531 -2.753862 4.945532
2.8773575 -2.879927 -1.369769 1.3102189 -4.330857 -0.66930586 -1.1067314 2.0645194
0.5176704 -0.78676134 3.8410926 3.9809544 -0.26315054 -2.0016785 0.42761904 -3.2120733
-3.2747426 -4.274588 -1.9655151 2.4423182 -4.6199064 -11.789606 1.9049506 1.701478
2.4766994 3.063085 2.8005064 -0.485275 -2.7987444 -3.0918665 -0.6259254 4.469215
0.6922179 1.8124704 -5.563359 0.83940184 6.7005706 -3.8290324 -2.1263773 -1.0813797
3.7903345 -2.21984 3.4309144 4.3395095 2.4564073 -7.803293 -5.7930694 10.073463
-0.6516228 -1.0926296 1.0419139 3.594783 0.6041211 3.9550393 -7.1566024 6.5045905
6.840391 2.4255137 6.6365843 -12.451016 -1.2026029 4.112084 -2.7977638 -1.1799709
-4.317325 1.1579806 1.4210438 -8.223217 8.477254 5.2781396 2.559053 -5.694932
-5.6293044 5.57051 1.1380973 -8.312896 1.1103498 -0.7410375 4.070614 -4.4299326
5.124755 -1.5723118 4.896605 3.4176538 11.178652 -0.79995084 0.9594455 2.4423342
2.5270376 -1.3434322 -0.35817942 3.7036238 -6.023131 5.684057 -1.696835 10.099987
-1.1340741 -0.21446466 1.3761071 -2.7957397 -2.0223482 -0.43280894 0.28001973 -8.194024
5.2060094 1.8240091 -1.660504 0.88578326 -4.0533133 -1.3177556 -1.5790691 -4.567842
-9.05044 -1.5369804 8.153409 -1.4280994 -0.06748671 0.027929822 -0.05823592 -0.030957514
-0.09483253 -0.071059406 -0.018068047 -0.09814858 -0.07671103 0.018098978 0.0067189606 -0.082670055
0.0077865343 -0.10540962 0.008972456 -0.06865605 -0.053836826 0.022604134 0.058769085 -0.0678221
0.023727547 -0.09920481 -0.05091647 0.03591542 0.008350825 -0.0625066 -0.022792242 -0.05273376
0.014397303 0.0071268515 0.00094250054 -0.068061575 -0.11893513 -0.041374873 -0.022870336 0.036821544
-0.07770139 0.06629326 -0.081650525 -0.004470751 0.022359988 -0.087609805 -0.03686111 -0.003705529
-0.027024785 -0.10991506 0.021186208 -0.09356168 -0.06694993 -0.049332827 0.016938388 -0.0712857
-0.042991195 0.03524525 -0.12015115 0.026778502 0.029201895 -0.004035479 0.040274315 -0.08211953
-0.033187933 -0.044156373 -0.052743778 -0.09729157 0.0065191253 -0.022324532 0.027546005 -0.06845151
0.025929231 0.013493506 -0.07765014 -0.013812469 -0.07192672 -0.03214365 0.017847098 -0.089215554
-0.06970797 -0.028442984 0.030530747 -0.035922773 -0.079078875 -0.045847837 -0.020035638 -0.0784732
-0.07211662 0.034450773 -0.017260185 -0.11267723 -0.013303537 -0.067949474 0.009871908 -0.012832748
0.018082881 -0.05194748 -0.085870825 -0.019294584 -0.015808875 -0.009637251 -0.027259625 0.01576699
-0.057583697 -0.035617735 -0.040565796 -0.041877836 0.019259568 -0.09387051 0.035741292 -0.062280912

fc2.bias f4 [148]
00000000: 3f55 f6bf 03c5 84bd 6ab7 133e 63dc 67c0
00000010: b4c6 02bf cd52 34c0 7854 28bd 9bf1 5cbc
00000020: a142 a9bd 3bd6 2fc0 314b 9640 baf8 34c0
00000030: 1704 30c0 03c6 ba3f 43f2 c1bd cbe4 8e3f
00000040: 9ca5 acbf 60f7 e6bd a332 0dbe 8cdf 84bf
00000050: bc88 2abf ebcc 2dbd bd32 97bd 544a 7bc0
00000060: 300f d8bc e256 1cc0 2f99 15c0 7c6b aebf
00000070: 793d 83c0 dc44 c6bc d65e 20be c80f b9bf
00000080: 09a8 07c0 50b1 6cbf 1028 533f 0ff4 efbc
00000090: 8c06 6cbe c559 9c40 824b b940 5175 a340
000000a0: d853 58c0 b090 193f ca41 00be 3f67 8fbd
000000b0: ce1a 97bd 3806 0cc0 79cb 18bc 9039 d5bc
000000c0: e685 94c0 e663 423f 21e0 613f 3071 56bf
000000d0: ad60 0ac0 e07d 16c0 a76d 923f 8aa1 9bbf
000000e0: fde5 96bf 1991 86bf 79d3 ecbd 2ac4 08c0
000000f0: a764 b4bf 97a8 abbe 383d 69bf 327e 3dbd
00000100: 3541 8d3f a66a 283d 0c26 80c0 3b92 64c0
00000110: d0fc 8fbd 4dcc 7ac0 8bee debb d19f 03c0
00000120: 046b 01bd 421c 1ebe ceef ffbf 8e38 efbd
00000130: e39c debf 437c 15bc bc93 6dbd d0aa 26c0
00000140: 297e 9cbd 7cfb d1bd 91ac 85bf 6aee e8bd
00000150: 80b5 023d 6bbf 1cbf 7eec bbbc 4d41 773f
00000160: cde3 c43f f901 9c3f 4bd3 ccbd 3ad9 b440
00000170: 818a 03be 7a1e 2abe 0b58 7c3f d879 9dbd
00000180: 4a96 95bd b724 cdbc a8da d3bf e639 3fbd
00000190: 2b8b 06be 8bdf 8abf 53b7 05bf 055a 5e3c
000001a0: cba7 86bf 506c 04c0 25e5 4ebd 2f89 82bf
000001b0: aa0f 97c0 7796 efbc 5624 a0bf f1c4 acbc
000001c0: 3cfc 66bf 587b 7fbf 750f fbbe 11ac 3cc0
000001d0: e40d 64bf 830c 933f 27b8 dfbe f320 e9be
000001e0: 63a4 b4bd c9f9 30be f7aa 50bd d0fc 1fc0
000001f0: 87ae edbd 1125 0b3a cb5a 5bbd f29b cabd
00000200: b7dc dfbd bf23 cbbf 02a4 9ac0 46be 19be
00000210: 8cea 41c0 4e96 fdbd a233 2bbe 1dd3 a7c0
00000220: ab0b 0dbe d29f cfc0 d084 983e 81f9 0cc0
00000230: c980 b1bf 9c1c aabd 549f 86bf f53f 58bf
00000240: e8b5 17c0 2444 2c3d d052 abbb c919 c1bf
-1.9244765 -0.064828895 0.14425436 -3.6228263 -0.51084447 -2.8175538 -0.04109618 -0.013485338
-0.082646616 -2.7474506 4.6966786 -2.827681 -2.7502496 1.4591678 -0.09470036 1.1163572
-1.348804 -0.11277652 -0.13788848 -1.0380721 -0.6661489 -0.042431753 -0.073827244 -3.9264116
-0.02637443 -2.442803 -2.3374746 -1.3626552 -4.101254 -0.024202757 -0.15661177 -1.4457941
-2.119631 -0.9245806 0.82483006 -0.02929118 -0.23049372 4.885958 5.7904673 5.108071
-3.3801174 0.599864 -0.12525097 -0.070021145 -0.073781595 -2.1878796 -0.009325855 -0.026028425
-4.641345 0.7593368 0.8823262 -0.8376646 -2.1621506 -2.3514328 1.1439713 -1.2158673
-1.1788937 -1.051303 -0.11563773 -2.136973 -1.4093217 -0.3352706 -0.9110904 -0.046262927
1.1035525 0.041117333 -4.0046444 -3.5714252 -0.07030642 -3.9187195 -0.006803339 -2.0566294
-0.0315962 -0.15440467 -1.9995058 -0.11680709 -1.7391628 -0.009123865 -0.05800222 -2.6041756
-0.07641251 -0.10253045 -1.0443288 -0.11373599 0.031911373 -0.6122958 -0.022939917 0.96584016
1.5382019 1.2188102 -0.100012384 5.651517 -0.12845804 -0.16613188 0.9857184 -0.076892555
-0.07304056 -0.025041921 -1.6551104 -0.046686076 -0.13139026 -1.084947 -0.52232856 0.013571267
-1.0519956 -2.0691109 -0.050511498 -1.0198115 -4.720662 -0.029246552 -1.2511089 -0.021090003
-0.9022863 -0.9979758 -0.4903523 -2.948002 -0.89083695 1.1488193 -0.43695185 -0.4553295
-0.08820417 -0.17282785 -0.050944295 -2.4998055 -0.11605554 0.00053079525 -0.053553384 -0.098930255
-0.1093077 -1.5870284 -4.8325205 -0.1501399 -3.0299406 -0.12382184 -0.16718915 -5.2445207
-0.13773982 -6.4882593 0.29788828 -2.2027285 -1.3867427 -0.08306238 -1.0517373 -0.8447259
-2.3704777 0.04205717 -0.005228378 -1.5085994

fc3.weight f4 [1, 148]
00000000: f7cc cec0 573e 223d 2a71 2341 3b84 53c0
00000010: 6bc2 00c1 7ef4 fec0 1314 70bc 8a11 8c3c
00000020: 29c5 083b c209 46c0 68b0 4b40 f0e8 a9c0
00000030: 27ce 8ac0 2c97 0d41 99ea a4bc b012 e3c0
00000040: 3f8e 8ac0 060f 25bb 8bcd 1b3c f732 8ec0
00000050: 0003 93c0 1cd5 473d b6ef 423b 9484 8fc0
00000060: 45cd 3eba df09 5ec0 1e93 9cc0 c959 24c0
00000070: cd0b f5c0 9037 9f3c 49fe 563d f680 7bc0
00000080: 45dc 05c0 c228 88c0 7db1 a2c0 b0a3 abbc
00000090: efb7 d33c 6afe 4a41 4cea 5f41 44c6 a141
000000a0: cd5d 94c0 3b66 34c1 94b0 f4ba bf0c aa38
000000b0: a5a9 09bc 3fc7 1ec0 1a73 233b b62e cd3c
000000c0: 8ff6 86c1 404b acc0 bd10 57c0 6792 95c0
000000d0: 9e6b 96c1 f18f 43c0 5d6f edc0 1c5e 17c0
000000e0: 8c62 8ac0 d02c c5c0 eb48 cfbc 7b8a 94c0
000000f0: 1069 04c1 0b60 8bc0 8331 ff40 68b2 793c
00000100: 530e 40c1 8ed1 ff3b 70b8 debf 2164 ffc0
00000110: 0090 23bc c6ba 83c0 be83 3bbc b733 92c0
00000120: 37be 26bc 0f8d 2a3b 2914 4ac0 6bb9 283c
00000130: 4db2 bec0 dd64 cc3c 9f86 983c 5829 6fc0
00000140: 343f 61bb f0a6 41c0 18aa 09c0 0cbb 6c3c
00000150: 68ca f43c a0f2 84c0 dc96 763c 7cb1 9dc0
00000160: 4e3d 2341 cc62 0d41 4bde a23b 5ed9 8341
00000170: 0dfa cabb 2c5f b93c 3a89 1941 25a5 983c
00000180: 496e 013c 70df 393b 7a27 84c0 ed39 0f3d
00000190: 1853 adc0 8cc9 02c1 0f03 a4c0 e62a e03c
000001a0: 23ec 30c0 6732 c5c0 1f71 e03c 05be 90c0
000001b0: 50b3 81c0 55cf f93c 97bb 60c0 bbb3 d0bc
000001c0: dd7e 6ec0 ddca 0dc1 2dd8 52c0 4634 efc0
000001d0: a713 98c0 4683 7fc0 4246 91c0 db84 2941
000001e0: 6f40 8d3c 0b4c 57c0 7c44 003b ba96 3bc0
000001f0: a90f e4bc 7999 803b 350b b03c d04f 7dbd
00000200: 0d6d 9dbc 724a a5c0 cfb7 4bc0 9cd9 513c
00000210: 159d 28c1 1ece 30bc bc96 963b 27f6 96c0
00000220: b6c0 103d a0d0 a0c0 f8d4 56c0 019e 4cc0
00000230: 359d d2c0 a810 d23c 961a d2c0 d6db 85c0
00000240: 70ea 91c0 b7f3 253d e716 343a bd1a 1cc0
-6.46252 0.039610233 10.215128 -3.3049457 -8.047465 -7.967345 -0.014653224 0.017098207
0.002086947 -3.0943456 3.182642 -5.3096848 -4.337665 8.849407 -0.020131396 -7.096031
-4.329864 -0.0025185957 0.0095094545 -4.4437213 -4.594116 0.04878722 0.002974493 -4.484934
-0.00072785123 -3.4693525 -4.8929586 -2.56798 -7.6576905 0.019435674 0.0524886 -3.9297462
-2.0915692 -4.2549753 -5.084166 -0.020952076 0.025844542 12.687113 13.994701 20.22181
-4.6364503 -11.274959 -0.0018668347 8.108606e-05 -0.008402263 -2.480911 0.0024940432 0.025046688
-16.87039 -5.384186 -3.3603966 -4.6741214 -18.802547 -3.0556605 -7.419844 -2.365119
-4.3245296 -6.1617203 -0.025303325 -4.6419044 -8.27565 -4.355474 7.974794 0.015240289
-12.003497 0.0078069633 -1.7400036 -7.980973 -0.009983063 -4.1165495 -0.011444984 -4.568813
-0.010177187 0.002602402 -3.1574805 0.010298113 -5.959265 0.02495044 0.01861888 -3.7368984
-0.0034369947 -3.025814 -2.1510067 0.014448892 0.029881671 -4.1546173 0.015050616 -4.9279156
10.202467 8.83662 0.004970347 16.481136 -0.006194359 0.02262839 9.596003 0.018633435
0.007899829 0.002836194 -4.129819 0.03496735 -5.4163933 -8.174206 -5.1253734 0.027364206
-2.7644126 -6.1624026 0.02739769 -4.5231957 -4.0531387 0.030494371 -3.5114496 -0.025476327
-3.7264931 -8.862027 -3.2944443 -7.475131 -4.752399 -3.9923873 -4.5398264 10.594935
0.017242638 -3.3640163 0.001957207 -2.9310746 -0.027839499 0.0039245454 0.021489719 -0.061843693
-0.019217039 -5.1653376 -3.1830938 0.01280823 -10.53835 -0.01079133 0.0045956057 -4.717548
0.035340033 -5.025467 -3.3567486 -3.1971438 -6.5816903 0.025642708 -6.5657454 -4.1830854
-4.559868 0.040515628 0.0006869868 -2.439132
