demo/2_2_tran1_obs1/critic_2_33.pth (torch, 108592 bytes, 5 tensors)

fc1.weight f4 [148, 28]
00000000: 10ea c0bf 7c45 4cc0 9d64 3640 9991 15bf
00000010: 12fd 9040 670d 82c0 f63f 483f 4856 2540
00000020: 9d69 bd3f b979 3f3f e035 7c3e 0aec 11bf
00000030: e5ce a240 aca3 ccbf 5465 11c1 f342 7f40
00000040: ee4c 6941 7452 69c1 8270 2e3e 91e9 153c
00000050: 43aa ed3c 78e1 c43d 85ec c540 a2c9 8fc0
00000060: 175a 9ac0 6ffc 0ec0 f73c 5541 8430 0640
00000070: 2e38 8f3e 9d87 e0c0 7790 be40 a5dc 99c0
00000080: e5c1 803f 4e0a 4ec0 9d39 833c f159 dfbd
00000090: 64b1 cd3d 2f39 443e 5ad7 5e3e f844 343d
000000a0: 0414 6e40 4738 4741 bfd9 88c0 c7af 303f
000000b0: 76c8 30c1 20f1 39c0 a657 023c a9bc 25be
000000c0: fb77 d9bd a778 a53d 59b7 c9c0 974e 8ec0
000000d0: 675a 8140 5496 b3c0 785e 28c1 a112 4ec0
000000e0: d28e 8240 8801 c9c0 bc5b 2940 b640 2cbf
000000f0: ede1 a6bf 44f2 e2c0 6e2c f9bd 1bc2 8dbd
00000100: acf0 da3e 4a66 00bd 7d08 753d 542e 46be
00000110: 245b c73d e8bc 2f40 f9e1 f33f 7fb6 ee40
00000120: 33bb 8640 2c56 45c1 9f00 0cbd a995 96bd
00000130: e8ff c4bd 48e7 763d 4639 48bd 5ae8 73bf
00000140: e1d7 5d40 981d 1bbf 043c 08c1 f649 5040
00000150: 95ad 453f 0a1f bebf 4d47 4cc0 7fad 70c0
00000160: 6d9d a53f ef8c bac0 aeea 57be c406 963e
00000170: 2be0 6a3f bac8 e2be 2d4a c93e e742 d23e
00000180: ad3f 8a41 cd58 8740 6468 a1bf c971 e140
00000190: db39 9040 9ec5 bebd 5020 8e3d 39fa b83d
000001a0: fb6f 8cba cf8c 3cbe f8b4 4940 63dc 3540
000001b0: bafc 9fbe 7e5a 3540 2e61 bd3f 6bd7 f840
000001c0: b175 e6be 6bf2 0ac0 b9b2 2dbf 6df3 48c0
000001d0: 3ce7 663f 76dc c140 abff 2fbd 81d1 c83e
000001e0: 1ebb 42be 3236 9b3d 8156 46be c7f4 7c3e
000001f0: 24d9 a03e 9dd5 0740 4ee9 1940 5f7c 2d41
00000200: 1bbb ffc0 b7cb 3dc0 e2d8 d3bd 0a28 26be
00000210: 519d 75bc 70a8 0e3d 81f2 47c0 5b9f 43c0
00000220: 3479 7fbf 860e f2c0 b696 14c0 33e1 c7bd
00000230: a629 1240 9a8c ffc0 e7b9 16bf 8a7b ec3e
00000240: 2264 a7bd d9f4 ed3f e1c8 603e 2d61 41bd
00000250: 58bb dfbe 2762 89be 0675 73bd 1d11 0cbe
00000260: 5cf1 3bc0 5870 7c40 1a01 b9c0 9bea 4040
00000270: 4f1b e441 0111 16c1 57d3 cbbd 8e0f a83c
00000280: 3cba 14be 7fc3 3c3e 9c20 93c0 cc4c 2a40
00000290: 93be 95be 72ac 61bf 84d2 3f3f 5899 063e
000002a0: 127b 8dc0 3dc8 9140 ade4 c33f 7682 943f
000002b0: 3341 3b3d f478 c8c0 7313 663e bd31 123f
000002c0: cc72 b1bd cd37 13be 0987 e2bd 47b5 f93d
000002d0: 2e5f 9f3f 306e 9f40 cf06 1740 8e5e 00bf
000002e0: a152 2640 abaf 89c1 dc64 63bc e14e 17be
000002f0: 5447 30be e17c 94bc fbbc 63be 20aa f640
00000300: f51a 3540 ae97 8b40 6125 98c0 9eb8 01c0
00000310: b467 0bc0 1d82 f8be 0e88 9940 a59e 9940
00000320: 9926 c8be 3ae4 82c0 1ec1 a5be 6556 483e
00000330: 6eed e63d 21e5 88be b2db f2bd f9e2 783d
00000340: 67c1 b140 debf 453d 82c8 9ac0 9637 1c41
00000350: 2869 6e40 9fba c5c0 c19a dcbd 93fe 27be
00000360: f17f bcbd 6199 97bd bd06 4ac1 5459 2d41
00000370: 6947 00c0 d90a 8ec0 c0dc b33e 1a71 7d40
00000380: c7da 78c0 7086 b73f e07b cd3f 70fb 5e3d
00000390: 56e7 c23f 0abc da3f bf2f c8be 04bb fe3d
000003a0: 7c51 2abe e402 a0be 5c67 dfbc aaa7 533d
000003b0: 4e1b 88c0 75e6 7240 8eb0 51c0 6b06 bfc0
000003c0: 920c b8c1 e4ed a340 65e4 c3bd 544d 4ebd
000003d0: ac5b 6ebd ad68 fcbd 5667 c7c0 1363 3040
000003e0: 665f 9e3f 49c8 c5bf 6cb9 323f 8c68 1c3f
000003f0: 5d51 1bc0 3701 8cc0 ab8f 4d3e 793c 61c0
-1.507143 -3.191741 2.849891 -0.5842529 4.5308924 -4.064136 0.78222597 2.5833912
1.4797856 0.7479511 0.24629927 -0.5700079 5.0877557 -1.5987449 -9.087238 3.9884613
14.581282 -14.58263 0.17035106 0.009149925 0.029011851 0.09613317 6.185122 -4.4933634
-4.8234973 -2.2341573 13.327384 2.0967112 0.2797255 -7.0165544 5.955135 -4.808184
1.0059172 -3.219379 0.016018683 -0.10905827 0.100436 0.19162439 0.21761838 0.044011086
3.7199717 12.45124 -4.2765803 0.69018215 -11.048941 -2.905342 0.007955467 -0.1618525
-0.106185876 0.08079653 -6.3036313 -4.4470935 4.0422854 -5.6121006 -10.523064 -3.219887
4.079934 -6.281437 2.646224 -0.6728624 -1.3037697 -7.0920734 -0.121666774 -0.06921788
0.42761743 -0.03134755 0.05982255 -0.1935361 0.097341806 2.745905 1.9053336 7.4597774
4.2103515 -12.333538 -0.03418028 -0.07352764 -0.09619123 0.06027916 -0.048882745 -0.95276415
3.4663012 -0.6059203 -8.514652 3.2545142 0.7721799 -1.4853222 -3.1918519 -3.7605894
1.2938668 -5.829704 -0.21085617 0.29302037 0.91748303 -0.44293767 0.39314404 0.41066667
17.281092 4.22959 -1.2609982 7.04514 4.5070624 -0.09315036 0.06939757 0.09032101
-0.0010714525 -0.18413089 3.1516705 2.8415763 -0.31247503 2.8336482 1.4795282 7.776296
-0.45011666 -2.171046 -0.67850834 -3.1398575 0.90196586 6.0581617 -0.042968433 0.3922234
-0.19016692 0.07578696 -0.19368936 0.2470275 0.31415665 2.122413 2.4048648 10.842864
-7.99159 -2.9655588 -0.103441015 -0.16226211 -0.01499112 0.034828603 -3.1241763 -3.0566013
-0.99794316 -7.564273 -2.3216987 -0.0975975 2.283792 -7.9859133 -0.58877414 0.46188003
-0.08173396 1.8590347 0.21951629 -0.047211815 -0.4369762 -0.26832697 -0.059437774 -0.13678403
-2.9366064 3.944357 -5.7813845 3.0143192 28.513334 -9.379151 -0.09952419 0.02051523
-0.14524168 0.18433951 -4.5977306 2.6609373 -0.2924696 -0.88153756 0.74930596 0.13144433
-4.421273 4.555693 1.5304161 1.1602314 0.045716476 -6.264765 0.22468357 0.57107145
-0.08664474 -0.14376755 -0.11060912 0.12192779 1.2450922 4.9822006 2.3597906 -0.5014428
2.5987933 -17.210775 -0.013879027 -0.14776184 -0.1721471 -0.018125953 -0.22240059 7.708267
2.8297703 4.3622656 -4.754563 -2.0268931 -2.1782045 -0.4853677 4.797858 4.800616
-0.39091948 -4.0903597 -0.323739 0.19564207 0.11275755 -0.2673731 -0.1185831 0.060763333
5.5548587 0.048278682 -4.836976 9.763571 3.7251682 -6.179031 -0.107717045 -0.16405706
-0.092040904 -0.074023016 -12.626645 10.834309 -2.0043585 -4.438824 0.35129356 3.9600282
-3.888353 1.4337902 1.6053429 0.05443901 1.5226848 1.7088635 -0.39098927 0.12438014
-0.16632646 -0.31252205 -0.027270965 0.05167357 -4.253333 3.795316 -3.276401 -5.9695334
-23.006138 5.1227894 -0.09565047 -0.050366715 -0.058192894 -0.12324653 -6.2313643 2.756047
1.2372863 -1.5451747 0.6981418 0.61097026 -2.426841 -4.3751483 0.20074336 -3.519316

fc1.bias f4 [148]
00000000: 80c8 8fc0 ec6a c6bf 2a30 3bbe de53 ccc0
00000010: f131 1140 ee00 07bf 38ae 1b40 cbfe d1c0
00000020: 849e e9be 991c da3f 862d 0a3e 5b26 6dbe
00000030: ca20 cbc0 9822 87bf 2ca6 37c0 b189 eabf
00000040: 0560 2cbf bd74 ff3f 711b d73f aff1 67bf
00000050: b0e9 e7bf 1b7f 31c1 02b6 aebf 17ef 433e
00000060: d591 e8c0 a47e 33c0 4f56 c0bf 2a0e 0ac0
00000070: 42de 64bf 7226 bfbf bfae 98bf 4b23 b2c0
00000080: 5fe8 02c1 1c5f 05c0 3b97 00c0 3489 f43e
00000090: 16f2 a0bf 05d4 a4bf f4f9 8dbe db14 a0bf
000000a0: 73c1 e1c0 a19e 21c1 0571 a43f 2a11 403d
000000b0: d67e 4d3f 414c 29c0 484e 0cc1 7197 413f
000000c0: 95cf ca3f 0264 d6be 9d41 4040 940a dcc0
000000d0: c0e9 6ec0 a32b dfbe 8e39 8dc0 4ed0 0e40
000000e0: d9b3 8d40 bd5e 9c3f ff60 943d 3555 2f40
000000f0: 2f12 60bf 556d 1cc1 48b2 bec0 1a33 86c0
00000100: f7dc c7c0 9f97 0a40 83ae 3bc0 104d 103f
00000110: f583 b2c0 ff3e 713f b7cc 00c1 aec6 b3bf
00000120: 9bdc fbc0 8340 4bc0 8de8 4440 c4b0 0fc0
00000130: ad18 b9c0 6bd1 883f 2c3e 673f ca18 82bf
00000140: 05ff 15c0 9e44 323f e7fb 2c40 d09f 923d
00000150: 82db aebf 0295 3fc0 fca4 37bf 5d13 b9bf
00000160: a708 1d40 c463 e03e 5a1f b5bf 820b 29c0
00000170: b8d5 2fc0 9b3b e7be d5a0 4cbf 1fd8 d9c0
00000180: 348b abc0 fa6b 7d3f 7707 d7c0 def2 06c0
00000190: 27da c2c0 1758 a03e dad4 75bc e568 e8c0
000001a0: 3c2c ddc0 0dd4 ebc0 544b c43e 81d3 9bbf
000001b0: 093d 89bf 7020 75c0 149b 9ebf dd2f 1ec0
000001c0: 72e2 6cbf 1082 7fbf 7341 7dbf 7c1e 9e3f
000001d0: 1197 b83c db4c b93e da9a c8c0 9a1d 1e40
000001e0: 29d1 72bf b832 5e3e d70c 4440 9184 d1c0
000001f0: eb61 f3c0 ef56 9ebf bf6b 64be 0047 22c0
00000200: 89c2 15bf e536 61be e900 fcbf bdf0 903f
00000210: 02dc 40bf 1093 3b40 f48c 0540 ec68 c9bf
00000220: a98c 04c0 0117 853f 8700 74bd 9731 86bf
00000230: 4e16 eb40 e955 97c0 3662 d33d 3fdf 2fbf
00000240: 5e8d 1dc0 5f53 29c0 54e4 8bc0 58aa bcc0
-4.493225 -1.550138 -0.18280092 -6.3852377 2.2686732 -0.52735794 2.4325085 -6.5623527
-0.4562875 1.7039977 0.13493928 -0.23159163 -6.3477526 -1.0557432 -2.8695173 -1.832327
-0.67334014 1.9957501 1.680525 -0.90603155 -1.8118191 -11.093532 -1.3649294 0.19134174
-7.267802 -2.8046045 -1.5026339 -2.1571145 -0.8940164 -1.4933608 -1.1928328 -5.566808
-8.181731 -2.08393 -2.0092304 0.47760928 -1.2573879 -1.2877203 -0.27729762 -1.2506365
-7.0548644 -10.101228 1.2846991 0.04689137 0.8027166 -2.6452792 -8.769112 0.75621706
1.5844599 -0.41873175 3.0040047 -6.8762913 -3.733017 -0.4358798 -4.4132757 2.231464
4.428204 1.2216412 0.07245063 2.7395756 -0.87527746 -9.776692 -5.959263 -4.193738
-6.2457232 2.1655042 -2.9325264 0.5636759 -5.578608 0.9423675 -8.049979 -1.4045007
-7.8706794 -3.1758125 3.0766938 -2.245164 -5.784262 1.0688909 0.9032924 -1.0163815
-2.3436902 0.6963595 2.702875 0.07159388 -1.3660738 -2.9934697 -0.7173612 -1.4459034
2.453653 0.43826115 -1.4150193 -2.6413274 -2.7474194 -0.45162663 -0.7993291 -6.807632
-5.3607426 0.98992884 -6.719661 -2.1085734 -6.08913 0.31317207 -0.015004361 -7.2628045
-6.9116497 -7.369635 0.3833872 -1.2173921 -1.0721751 -3.8301048 -1.2391076 -2.4716713
-0.9253303 -0.99807835 -0.9892799 1.2353053 0.022532972 0.3619145 -6.268903 2.4705567
-0.94850403 0.21699035 3.0632837 -6.5474324 -7.605703 -1.237028 -0.22306727 -2.5355835
-0.5849996 -0.21993597 -1.9687778 1.1323467 -0.75335705 2.930851 2.086728 -1.5735145
-2.0710852 1.0397645 -0.059570815 -1.0483884 7.3464727 -4.729237 0.103214666 -0.6870002
-2.4617534 -2.6457136 -4.371622 -5.895794

fc2.weight f4 [148, 148]
00000000: 1986 9c3f 96ac fd3e ed09 e93e 58ca c6bf
00000010: 0dfc bbc0 d3d1 f23f 330d eac0 808b 6bc0
00000020: fd8b 6a40 df24 263f 86df 90bf 759a e9c0
00000030: 1ec2 92c0 65fc 703f 1150 e93f 4898 8cbc
00000040: bc64 e3bf cd03 493f 8d2a 763f e361 bb3e
00000050: e2ca 0341 03ed bd3f 20db 9d3c ffc4 ccc0
00000060: 46eb ab3f 7efd cbbf 06e0 68c0 c009 f7c0
00000070: 3c25 0c3f a633 64c0 4cd8 a8bf e4ca a440
00000080: 6408 5840 fe2a 78bf 381e 7640 ec8c 4940
00000090: 529c ff40 569c 1bc0 1c88 e2bf 9925 edbf
000000a0: b019 ee3f ce53 3fbf 0844 09c1 e28a 0a40
000000b0: 876a 01c1 9853 27c1 086c 2040 c190 b240
000000c0: c8af a8bd 1c6d 0b41 6c92 4ac0 2c82 0b40
000000d0: 3e53 1640 fd81 01c1 f3b8 d340 a0c6 65c0
000000e0: a7a4 f6bc 50f0 b440 134d 6640 ea30 8440
000000f0: ed54 41c1 1770 1ac0 0bdc 7340 6b5e d940
00000100: 8b5f 613f 1272 1740 4b78 bc3f c2d8 4abf
00000110: c893 ff40 f1b9 8340 4f3e 51bf 7f65 f8c0
00000120: a305 52c0 f1f9 79c0 a52a b8c0 6109 0e41
00000130: 0672 2ac0 12ea b1c0 ee10 34c1 7666 e140
00000140: 3b67 5dc0 c3a9 42be f947 96c0 4366 1340
00000150: 5f61 94c0 c2ac d040 e684 57c1 ac20 89c1
00000160: 951a 0a41 8be9 43c1 a597 d5c0 40ba 1dc0
00000170: 9f00 44c1 66ad 2ec0 1a84 4e41 43d4 8f3f
00000180: d3d3 e0bf e780 04c0 2f97 0c40 ab3e 71c0
00000190: fb75 1c41 1324 1d40 2fb0 ed40 7997 e7c0
000001a0: c768 8bc0 dc7a 6640 5330 83c1 c151 0240
000001b0: 8194 1641 28ce 9a40 2e20 0dc0 f39f 9340
000001c0: 7502 7740 8b17 4dbf c461 bf41 73d9 db40
000001d0: ebb0 0cbf 27d1 b23e cd75 ba3f b730 c6bf
000001e0: 6cfe 8041 daa7 3b41 eb1a 2cbe b39e 8940
000001f0: 4b06 a7c0 83be 0440 6c4e cbc0 31f1 3441
00000200: 9ed4 c9c0 7711 8c40 4f11 3740 cb71 12bf
00000210: 2cfe ee3f 992c 5b40 28d8 6d40 14e6 e8bf
00000220: b863 ce40 e819 d23f 7985 68c0 8fb8 2440
00000230: ece0 2fc0 aab4 e7bf bf10 313f 6e7e d3bf
00000240: a661 07c0 9564 2f3e 8beb 0a41 587b 0640
00000250: 7936 8abd 15cd e43c ca88 6ebd 9d9a fdbc
00000260: 8f37 c2bd 9887 91bd 671e 4cbd 1f02 c9bd
00000270: ac1a 9dbd 4f44 943c ba2a dc3b eb4e a9bd
00000280: 2f26 ff3b 00e1 d7bd 3501 133c 8b9b 8cbd
00000290: 0184 5cbd 4e2c b93c dab7 703d 50e6 8abd
000002a0: 4660 c23c e42b cbbd ca8d 50bd 0c1c 133d
000002b0: e6d1 083c 7603 80bd ccb6 babc 090e adbd
000002c0: 6348 8ebc 5d88 e93b 2412 773a de63 8bbd
000002d0: 4394 f3bd b378 29bd 22ca 5fbd 56ab a53b
000002e0: e821 9fbd b36c 0d3d 6438 a7bd 617f 92bb
000002f0: e91a 1abc c56c b3bd adfb 16bd 76d8 72bb
00000300: 63ce 70bd 261b e1bd b38e ad3c d655 00be
00000310: 0b1d 89bd 3811 4abd 60c2 8a3c 3dfe 91bd
00000320: 8917 30bd b207 643b ce11 f6bd 975e db3c
00000330: d038 ef3c 4ea4 12bd 3f67 0b3c 492e a8bd
00000340: 12f0 07bd 50dd 34bd dc09 58bd cd40 c7bd
00000350: 639e d53b 738d 5dbd 29a8 e13c b13e cdbd
00000360: 7140 bfbb ceaf 95bc 0907 9fbd b24d 62bc
00000370: 514e 93bd 0fa9 03bd 540b 64bc a5b6 b6bd
00000380: 0dc3 8ebd 7b9d 76bd 9e1b fa3c c223 13bd
00000390: 8002 e3bd f1ca 3bbd bd2d 54bd 8fb6 a0bd
000003a0: e1b1 93bd 21f6 2f3b 3b65 8dbc 52c3 e6bd
000003b0: 14f7 59bc 1829 8bbd c9bd 213c 7240 52bc
000003c0: 562e 60bc e1c6 54bd 0bdd afbd ad0f 9ebc
000003d0: 9d81 81bc 3696 29bd 944f dfbc c629 813c
000003e0: e2dc 6bbd e7e3 11bd 5228 26bd 1888 2bbd
000003f0: 3ec6 9d3c 2f3f c0bd 7665 123d 451a 7fbd
1.2228423 0.49545735 0.45515385 -1.55305 -5.874518 1.8970283 -7.314111 -3.6803894
3.6647942 0.6490001 -1.1318214 -7.3001046 -4.586196 0.94135123 1.8227559 -0.017162457
-1.7765117 0.78521425 0.9615868 0.3659812 8.237032 1.4837955 0.019269526 -6.3990474
1.3431175 -1.5936735 -3.6386733 -7.71994 0.54744315 -3.5656524 -1.3191009 5.149767
3.3755121 -0.969406 3.8455944 3.1492262 7.987832 -2.431417 -1.7697787 -1.8527099
1.8601589 -0.7473725 -8.579109 2.1647267 -8.088508 -10.457909 2.5065937 5.58017
-0.082366526 8.714138 -3.165187 2.17982 2.3488307 -8.094235 6.616327 -3.590248
-0.03010781 5.654335 3.5984542 4.130971 -12.083234 -2.4130914 3.8103054 6.7927756
0.8803641 2.3663373 1.472421 -0.79236996 7.9867897 4.116448 -0.817357 -7.7623897
-3.281594 -3.9058802 -5.7552056 8.87729 -2.6632094 -5.559823 -11.254133 7.0437574
-3.4594257 -0.19010071 -4.6962857 2.3031166 -4.636886 6.5210886 -13.469946 -17.140953
8.63149 -12.244517 -6.6747613 -2.4644928 -12.250152 -2.7293334 12.907251 1.1236652
-1.7564644 -2.0703676 2.1967275 -3.76945 9.778804 2.4553268 7.427757 -7.2372403
-4.35654 3.6012487 -16.398596 2.0362399 9.411256 4.8376656 -2.205089 4.613275
3.859525 -0.8011405 23.922737 6.870294 -0.54957455 0.34925196 1.45672 -1.5483617
16.12423 11.728479 -0.16807143 4.3006225 -5.219518 2.074128 -6.353323 11.308885
-6.3072042 4.377132 2.8604314 -0.57204884 1.8671317 3.424597 3.7163181 -1.8195214
6.4496727 1.6414156 -3.6331465 2.5737646 -2.7481031 -1.8102009 0.6916618 -1.6522958
-2.115335 0.17128213 8.682506 2.1012783 -0.06748671 0.027929822 -0.05823592 -0.030957514
-0.09483253 -0.071059406 -0.04983368 -0.09814858 -0.07671103 0.018098978 0.0067189606 -0.082670055
0.0077865343 -0.10540962 0.008972456 -0.06865605 -0.053836826 0.022604134 0.058769085 -0.0678221
0.023727547 -0.09920481 -0.05091647 0.03591542 0.008350825 -0.0625066 -0.022792242 -0.084499426
-0.017368501 0.0071268515 0.00094250054 -0.068061575 -0.11893513 -0.041374873 -0.05463613 0.005055825
-0.07770139 0.03452749 -0.081650525 -0.004470751 -0.00940583 -0.087609805 -0.03686111 -0.003705529
-0.058790576 -0.10991506 0.021186208 -0.12532744 -0.06694993 -0.049332827 0.016938388 -0.0712857
-0.042991195 0.0034794626 -0.12015115 0.026778502 0.029201895 -0.035801224 0.0085085025 -0.08211953
-0.033187933 -0.044156373 -0.052743778 -0.09729157 0.0065191253 -0.054089975 0.027546005 -0.10021723
-0.0058365394 -0.018272307 -0.07765014 -0.013812469 -0.07192672 -0.03214365 -0.013918716 -0.089215554
-0.06970797 -0.06020878 0.030530747 -0.035922773 -0.11084461 -0.045847837 -0.051801432 -0.0784732
-0.07211662 0.0026849585 -0.017260185 -0.11267723 -0.013303537 -0.067949474 0.009871908 -0.012832748
-0.013682922 -0.05194748 -0.085870825 -0.019294584 -0.015808875 -0.041403018 -0.027259625 0.01576699
-0.057583697 -0.035617735 -0.040565796 -0.041877836 0.019259568 -0.09387051 0.035741292 -0.062280912

fc2.bias f4 [148]
00000000: ff9e 80c0 57d3 c5bd 6ab7 133e 7cb3 bebf
00000010: 470f 50c0 020a 61c0 7854 28bd 9bf1 5cbc
00000020: a142 a9bd f900 1dc0 f678 4c41 deb8 8fbf
00000030: 5970 c8c0 3934 bc40 43f2 c1bd fc6a 733f
00000040: 0886 41c0 60f7 e6bd a332 0dbe 1088 1bc0
00000050: 3c99 863f ebcc 2dbd 7395 b1bd a1cb 83c0
00000060: 300f d8bc 852b d5c0 0639 4fc0 ff54 33c0
00000070: 38b0 1cc1 033e 65bd d65e 20be 1138 fbbf
00000080: d38c 46c0 14ba 9ec0 3474 3dbe 0ff4 efbc
00000090: 8c06 6cbe 1824 0b41 9ee9 1941 2248 1041
000000a0: 957c 63c0 aa46 09c0 ca41 00be 3f67 8fbd
000000b0: ce1a 97bd 0639 a5c0 79cb 18bc 76b9 6cbd
000000c0: 814a 99c0 7134 a5c0 6991 4ac0 46b1 ba3f
000000d0: 375f 15c0 8364 b2c0 0c38 abbd 77d6 b4bf
000000e0: 3fab dbbf 05dc 55c0 79d3 ecbd e9ed 58bf
000000f0: 4ee3 1cc0 4618 dfbf ad1b 493c 327e 3dbd
00000100: e79f 9fbe 4bc5 d13c 91f0 afc0 e2dd 96c0
00000110: d0fc 8fbd 1124 b6c0 0226 ccbc 4103 f1bf
00000120: 046b 01bd 421c 1ebe 98ec 86c0 8e38 efbd
00000130: 5e46 57c0 437c 15bc bc93 6dbd a908 a9c0
00000140: 297e 9cbd 40a0 13c0 c0db e9c0 6aee e8bd
00000150: 80b5 023d 49aa 99c0 61b8 28bd e1f0 f7bf
00000160: 780c c540 e4f1 8140 4bd3 ccbd 1cf7 1741
00000170: 818a 03be 7a1e 2abe 0b58 7c3f d879 9dbd
00000180: 4a96 95bd b724 cdbc 89e7 1dc0 e639 3fbd
00000190: ca20 a4c0 853b d7bf 74e1 1bbf 055a 5e3c
000001a0: 439d aebf c241 55c0 25e5 4ebd ee42 09c0
000001b0: 27d5 dcc0 7796 efbc 139b 6bc0 f1c4 acbc
000001c0: ff96 41c0 a96d 61bf d456 99c0 1aed d8c0
000001d0: a9e3 17c0 4060 d73f 39e9 34c0 70da 7040
000001e0: 63a4 b4bd 220d a5c0 f7aa 50bd d09a 32c0
000001f0: 87ae edbd 1125 0b3a cb5a 5bbd f29b cabd
00000200: 5e75 10be f520 26c0 1a3d 11c1 46be 19be
00000210: cdc6 1ec0 cdbe 09be a233 2bbe 946b bcc0
00000220: ab0b 0dbe 58d7 23c1 b3ae 0dc0 8eed 86be
00000230: 3472 a6c0 9c1c aabd 567b 55c0 63e3 75c0
00000240: 53f0 11c1 2444 2c3d d052 abbb 209b 77c0
-4.0194087 -0.096594505 0.14425436 -1.4898524 -3.2509325 -3.5162358 -0.04109618 -0.013485338
-0.082646616 -2.4531844 12.7795315 -1.1228292 -6.2637143 5.881375 -0.09470036 0.9508512
-3.0238056 -0.11277652 -0.13788848 -2.4301796 1.0515513 -0.042431753 -0.08671083 -4.118607
-0.02637443 -6.6615624 -3.2378554 -2.8020627 -9.793022 -0.055967342 -0.15661177 -1.9626485
-3.1023452 -4.9602146 -0.18501359 -0.02929118 -0.23049372 8.696312 9.619535 9.017611
-3.554479 -2.144938 -0.12525097 -0.070021145 -0.073781595 -5.163211 -0.009325855 -0.057794057
-4.7903447 -5.1626515 -3.1651251 1.458535 -2.3339365 -5.5747695 -0.083602995 -1.412795
-1.7161635 -3.341554 -0.11563773 -0.8473802 -2.4513736 -1.7429283 0.012274665 -0.046262927
-0.31176683 0.025606772 -5.498116 -4.7145853 -0.07030642 -5.6919026 -0.024920467 -1.8829118
-0.0315962 -0.15440467 -4.216381 -0.11680709 -3.3636699 -0.009123865 -0.05800222 -5.282307
-0.07641251 -2.306656 -7.308075 -0.11373599 0.031911373 -4.802037 -0.041191462 -1.9370385
6.157772 4.0607777 -0.100012384 9.497829 -0.12845804 -0.16613188 0.9857184 -0.076892555
-0.07304056 -0.025041921 -2.4672568 -0.046686076 -5.1290026 -1.6815039 -0.6089089 0.013571267
-1.3641742 -3.3321385 -0.050511498 -2.14471 -6.9010196 -0.029246552 -3.68134 -0.021090003
-3.024841 -0.88057953 -4.791849 -6.778943 -2.3732703 1.6826248 -2.8267348 3.7633324
-0.08820417 -5.157853 -0.050944295 -2.790699 -0.11605554 0.00053079525 -0.053553384 -0.098930255
-0.14107272 -2.5957615 -9.077417 -0.1501399 -2.4808838 -0.13451691 -0.16718915 -5.888132
-0.13773982 -10.240074 -2.2137878 -0.26353115 -5.201441 -0.08306238 -3.3356528 -3.8420036
-9.121173 0.04205717 -0.005228378 -3.868843

fc3.weight f4 [1, 148]
00000000: a4e2 f2c0 4f87 003c 2a71 2341 9d49 e9c0
00000010: 604e f4c0 579b 11c1 1314 70bc 8a11 8c3c
00000020: 29c5 083b 9f33 fbc0 788b a642 5ccf d2c0
00000030: 4b59 19c1 10d1 0a40 99ea a4bc c560 d4c1
00000040: a19f d2c0 060f 25bb 8bcd 1b3c 38a9 4dc1
00000050: 54cc 0ac1 1cd5 473d 2418 893b 1447 bbc0
00000060: 45cd 3eba e1c6 d1c0 4271 aac0 98ee 88c0
00000070: 08a5 c0c0 4401 4abc 49fe 563d 9819 92c0
00000080: 1fd7 80c0 3de9 3ec1 feff 72c0 b0a3 abbc
00000090: efb7 d33c f30f 6b41 53d8 8241 ebdb aa41
000000a0: 19e8 8cbf 9bfa 2ac1 94b0 f4ba bf0c aa38
000000b0: a5a9 09bc bf68 08c0 1a73 233b ee2a dcbb
000000c0: c467 81c1 c8c9 afc0 49aa 98c0 3721 95c0
000000d0: a1c1 82c1 9ab8 c6c0 5ebd d6c0 f876 3ac1
000000e0: febb 1fc1 9924 0dc1 eb48 cfbc 0aea d9c0
000000f0: 01e1 0ec1 73a5 99c1 48b9 d73f 68b2 793c
00000100: e280 80c1 d613 ab3c f98f fabf 097f 09c1
00000110: 0090 23bc aeac 86c0 7bd2 1ebc 5647 33c1
00000120: 37be 26bc 0f8d 2a3b 1d95 9cc0 6bb9 283c
00000130: d402 c2c0 dd64 cc3c 9f86 983c 7cda 1bc0
00000140: 343f 61bb b156 eac0 9b0e ebc0 0cbb 6c3c
00000150: 68ca f43c 1d30 38c1 105e b2bb 14e7 d5c0
00000160: 507c 0541 7691 bb40 4bde a23b cb2f 9241
00000170: 0dfa cabb 2c5f b93c 3a89 1941 25a5 983c
00000180: 496e 013c 70df 393b 8a32 c2c0 ed39 0f3d
00000190: b7e7 ecc0 1d79 ddc0 b0f5 15c1 e62a e03c
000001a0: 1939 07c1 9699 e9c0 1f71 e03c 2e91 e0c0
000001b0: 7d45 a2c0 55cf f93c f735 22c1 bbb3 d0bc
000001c0: 1493 a0c0 5ed3 4dc1 2d46 dcc0 6572 fbc0
000001d0: 9ca0 01c0 a41f 0fc0 69cf 74c1 f221 2e41
000001e0: 6f40 8d3c 23e9 43c0 7c44 003b dc5f f7c0
000001f0: a90f e4bc 7999 803b 350b b03c d04f 7dbd
00000200: c475 4d3c a074 14c1 4acb c6c0 9cd9 513c
00000210: 7fa6 43c1 ff21 1fbc bc96 963b 8d9c dcc0
00000220: b6c0 103d cec2 d1bf 77b7 b8c0 2a17 04c0
00000230: 620a b6c0 a810 d23c 669b dbc0 333e a1c0
00000240: c1c5 a9c1 b7f3 253d e716 343a db74 14c1
-7.590166 0.00784476 10.215128 -7.290236 -7.6345673 -9.100425 -0.014653224 0.017098207
0.002086947 -7.8500514 83.2724 -6.5878124 -9.5843 2.1690102 -0.020131396 -26.54725
-6.581986 -0.0025185957 0.0095094545 -12.853813 -8.674885 0.04878722 0.004183786 -5.8524265
-0.00072785123 -6.555527 -5.3263254 -4.279125 -6.0201454 -0.012329403 0.0524886 -4.565624
-4.02626 -11.931943 -3.7968745 -0.020952076 0.025844542 14.691394 16.355627 21.357382
-1.100833 -10.686183 -0.0018668347 8.108606e-05 -0.008402263 -2.1313932 0.0024940432 -0.006718985
-16.175667 -5.4933815 -4.770787 -4.6603045 -16.344545 -6.2100344 -6.710616 -11.654045
-9.983397 -8.821435 -0.025303325 -6.809819 -8.929933 -19.205786 1.6853418 0.015240289
-16.062931 0.020883482 -1.9575187 -8.593514 -0.009983063 -4.208579 -0.009693737 -11.204916
-0.010177187 0.002602402 -4.8932023 0.010298113 -6.062845 0.02495044 0.01861888 -2.4352102
-0.0034369947 -7.3230824 -7.345533 0.014448892 0.029881671 -11.511746 -0.005443342 -6.684458
8.34285 5.8615065 0.004970347 18.273336 -0.006194359 0.02262839 9.596003 0.018633435
0.007899829 0.002836194 -6.0686693 0.03496735 -7.4032855 -6.9210343 -9.372482 0.027364206
-8.45144 -7.2999983 0.02739769 -7.017722 -5.0709825 0.030494371 -10.138175 -0.025476327
-5.017954 -12.864103 -6.8835664 -7.857714 -2.0254278 -2.2363062 -15.300637 10.883287
0.017242638 -3.0611045 0.001957207 -7.7304516 -0.027839499 0.0039245454 0.021489719 -0.061843693
0.012540285 -9.278473 -6.2123156 0.01280823 -12.228148 -0.009712695 0.0045956057 -6.89411
0.035340033 -1.6387575 -5.7723956 -2.0639138 -5.6887674 0.025642708 -6.8627195 -5.0388427
-21.22156 0.040515628 0.0006869868 -9.278529
