demo/4_2_4tran2_3_act2/actor_4.pth (torch, 83208 bytes, 6 tensors)

fc1.weight f4 [128, 22]
000000 08 c3 55 3f 2b 46 d6 3e 58 ef 8b be 17 65 a3 3e
       0.8350072 0.4185041 -0.27331042 0.31913063
000010 f1 1a d6 be 6e be cc bd 78 eb 99 3d 9e 21 5c 3d
       -0.4181743 -0.09997259 0.07515615 0.053742997
000020 1a ab a5 3c 49 ce e3 3a dd 92 28 3c 6e d5 34 3d
       0.02022319 0.0017380203 0.010288921 0.044148855
000030 99 73 e8 3e 8a da 84 bf c6 5d f7 3e af fd b4 be
       0.45400694 -1.0379193 0.4831373 -0.35349795
000040 e9 0f 14 40 d4 00 1c bf 6e af ee 3d 12 fa 94 bc
       2.313471 -0.60938764 0.11654554 -0.018185649
000050 62 76 1b 3e 76 fb fe 3d 59 33 13 bf 2f d0 f9 3b
       0.15181878 0.12450306 -0.57500225 0.0076236944
000060 8b 0f 81 be 88 84 87 bd ed fd 94 be 8d d9 3d 3f
       -0.2520717 -0.06617075 -0.2909998 0.7416008
000070 3f dc 03 3d c1 d6 14 bd 1b 0b 91 b9 55 98 a9 3c
       0.032192465 -0.036337618 -0.0002766483 0.02070252
000080 39 7c fb 3c 88 49 4f bc a9 71 dd 3d 0f 21 d5 bf
       0.030698882 -0.012651809 0.108126946 -1.6650714
000090 a2 0a 68 bd 0b 63 9e be 89 93 3a 3e a8 ba be 3e
       -0.056650765 -0.3093494 0.18220343 0.37251782
0000a0 6b 80 2f bd f9 f6 12 bd af f0 4d bc 4e 79 86 3e
       -0.04284708 -0.035880063 -0.0125695905 0.26264423
0000b0 24 cd a7 3f e5 97 92 be 95 dd 03 bd a1 ce 61 bf
       1.3109479 -0.2863151 -0.03219374 -0.88205916
0000c0 71 4c 95 be 48 ba 94 be 0d 5e 18 3e b8 6f 93 3c
       -0.29159883 -0.2904837 0.14879628 0.017997608
0000d0 62 1d cf 3d 55 25 80 bd 10 c8 6d 3d dd 7d 7c 3d
       0.10113026 -0.062571205 0.058052123 0.06164347
0000e0 44 80 2d bf 3e 1d 8f bf 0c 48 96 3f d7 5b b0 bf
       -0.6777384 -1.1180799 1.1740737 -1.3778027
0000f0 12 f8 e6 bf 7c bc 3d 3e 37 60 7a 3e cf cd 60 3e
       -1.8044455 0.18528932 0.24450766 0.2195351
000100 c7 e5 34 bc 1d 20 0b be ee 85 00 3f 4b cc 0c 3c
       -0.011041111 -0.13586469 0.5020436 0.008593629
000110 1f 10 24 be 2f 0a 0b 3e 27 19 64 3e e9 1b 2e 3e
       -0.16021775 0.13578103 0.2227522 0.17002834
000120 e1 3e 2f 3c fc 17 bf 3b c5 de 79 3c 0e 39 46 3b
       0.010696144 0.0058317166 0.015250866 0.003024641
000130 8e 26 7b 3d 89 87 2c bc 08 b6 72 bf 70 74 c3 be
       0.061316065 -0.010530361 -0.9480901 -0.38174772
000140 15 4c ea be ef 18 bc 3f e5 d8 c0 3f e9 3c 8a 3f
       -0.4576117 1.4695109 1.5066191 1.0799838
000150 56 a3 74 3e 5c e3 f5 3c 90 9c df 3d 14 c0 f2 bd
       0.23890433 0.03001564 0.10918534 -0.11853042
000160 cb 7f 14 bf 86 2a 84 3e 2c ab 59 be 67 84 c9 3e
       -0.58007497 0.25813693 -0.21256703 0.39358827
000170 ff 3d 6f 3d ce c6 33 bf 02 27 b4 3c 3b 3d d5 3c
       0.058408733 -0.70225227 0.021991257 0.026030174
000180 7f b9 db 3d b0 96 81 bd 19 df 1f bd 07 cf 8f bb
       0.1072874 -0.063275695 -0.039031122 -0.0043886933
000190 2d 0b bf ba 41 a9 de bd b9 42 1b be 6e 66 8c bf
       -0.0014575474 -0.10872126 -0.15162171 -1.0968759
0001a0 5d bc 74 3f d3 f3 50 3e 3e 71 6d 3e 18 61 4b 3c
       0.9559992 0.20405512 0.2318773 0.012413286
0001b0 76 56 66 be 95 8f 18 be 76 02 2b bf 2c df ec be
       -0.2249392 -0.14898522 -0.6680063 -0.46264017
0001c0 68 ef 54 be 89 13 a0 bf ba e2 5d be cb 62 04 bf
       -0.20794451 -1.2505962 -0.2166852 -0.51713246
0001d0 d8 9a 1e bd 5c ef 72 3c c9 38 25 bd 0d 6f 5f bc
       -0.03872189 0.014827576 -0.040337358 -0.013637316
0001e0 15 f8 8e 3c cc e7 3a 3d 58 8a de bd b9 0a dc 3e
       0.01745228 0.045631215 -0.10866231 0.4297693
0001f0 ec c1 3d 3e c2 12 df bb 16 c9 25 40 71 a1 bf 3e
       0.18531007 -0.006807656 2.5903983 0.37427858
000200 77 5b 86 be 90 e9 ab be 45 3b 05 3f 94 e6 d6 3e
       -0.26241657 -0.33576632 0.52043563 0.41972792
000210 cf 72 90 3f 22 80 d7 bf ee 9a 75 bd 15 54 14 be
       1.1285037 -1.6835978 -0.059962206 -0.144852
000220 72 cd 1c be d3 34 dc be ab 15 c8 bc 86 73 92 bc
       -0.15312746 -0.43009052 -0.024424395 -0.017877351
000230 fd a7 05 bd 1e 29 19 3d 12 fb b6 3c f4 66 3c 3d
       -0.03263091 0.037392728 0.022336517 0.04599662
000240 06 73 49 bf 6d 47 33 c0 3b 17 96 3e e9 6c 0e be
       -0.78691137 -2.8012345 0.29314598 -0.13908733
000250 07 8f 6d c0 e0 ac e0 bb 93 d1 d0 bd 07 b4 f4 bd
       -3.7118547 -0.006856546 -0.10196223 -0.119484
000260 b5 13 07 3e 8d f5 01 3e ab ef d5 bd 59 01 71 3d
       0.13191111 0.12691326 -0.10446104 0.058839176
000270 04 01 28 3e 81 8d 90 3e d9 f1 3a ba 12 71 22 3d
       0.16406637 0.2823296 -0.0007131375 0.039658614
000280 bc 52 ba 3c 6c 54 b1 ba 7e 43 c0 bc e0 08 7c bd
       0.022744529 -0.0013529188 -0.023469683 -0.0615319
000290 af aa 7e 3c 99 8f 89 3c 6e f8 72 bf 87 6b 0f 3f
       0.015543624 0.016792106 -0.94910324 0.5602345
0002a0 9e 08 02 3f 0d 35 0c 3f 05 8d 17 40 96 43 f7 bd
       0.507944 0.5476845 2.3679821 -0.12073438
0002b0 82 4e aa 3d 00 b4 81 be 75 04 64 bd 5b e0 32 3d
       0.083157554 -0.25332642 -0.055668313 0.043670993
0002c0 62 94 2a 3f 46 29 37 bd 3d b0 de bd 17 51 02 bf
       0.66632664 -0.044717096 -0.108734585 -0.50904983
0002d0 c6 d4 b0 bd f3 47 af 3d 4c 1f 6a bd 6d 84 41 bd
       -0.08634333 0.08558645 -0.057158753 -0.04724543
0002e0 11 36 a3 bc 24 e9 81 3d ae d8 7c bc 5b d8 8f 3c
       -0.019923242 0.06343296 -0.01543252 0.017559221
0002f0 19 1a e3 be 6c d7 d2 be 75 59 ff 3c df 75 8b 3f
       -0.44355848 -0.4117998 0.031170586 1.0895346
000300 d6 7b dc 3f a9 ba c8 3f 7d 59 81 bd 5b e4 a4 be
       1.7225292 1.5681964 -0.06315897 -0.3220547
000310 5c ff 1c 3d f4 20 0c 3e ee d2 98 3f 93 81 25 3d
       0.038329467 0.13684446 1.1939371 0.040406775
000320 2d 04 46 3e e3 af 01 3f c2 1a b6 3d 3b 28 fd 3e
       0.1933753 0.50659007 0.088918224 0.49444756
000330 23 e9 00 bd 19 e5 b4 3b 4f 48 6f bc f2 cb 51 3c
       -0.031472337 0.0055204746 -0.014604642 0.012804972
000340 9e be 92 3c 1c 1b c9 3d cb 33 dc be 89 39 10 3e
       0.017913159 0.09819624 -0.43008265 0.14084448
000350 c6 b9 a2 bd f1 a8 62 bf 89 82 2a bf 80 e2 91 3f
       -0.0794559 -0.88539034 -0.6660543 1.1397247
000360 71 24 a8 3e 4b fc 57 3e be 1a 0b be 0d ba bd be
       0.32840303 0.21092336 -0.1358442 -0.37056008
000370 9c 09 ce 3d dd 7a 2f be af 8e a4 be 15 51 1f 3f
       0.100604266 -0.17136712 -0.3214011 0.62233096
000380 0e 93 b1 3e 55 11 03 3e 92 15 d1 3b 2a dd f9 bc
       0.34682506 0.1279958 0.006380745 -0.030500967
000390 3e a1 41 3d e0 22 01 3d cd 44 a3 3b 2d af 37 bc
       0.047272913 0.0315274 0.004982567 -0.011211199
0003a0 58 73 ad 3e 3d 07 c7 bc 2d 64 ae bf ab 25 51 bf
       0.33877063 -0.024295444 -1.3624321 -0.816981
0003b0 ce be 06 3e b1 bb c6 3f 45 52 98 3d 73 da 93 3e
       0.13158724 1.5526029 0.07437567 0.288776
0003c0 4f 2f b8 be f8 46 4e be 0c ec 50 be 56 0f ca 3e
       -0.35973594 -0.2014426 -0.20402545 0.39464825
0003d0 61 30 17 be 1f 61 3b 3e e8 25 80 be 76 88 5d 3d
       -0.14764549 0.18298768 -0.2502892 0.054085217
0003e0 96 74 14 3d 91 6e 34 3d 08 3b 96 bc 0f b9 f8 bc
       0.036243998 0.044050757 -0.018338695 -0.03036168
0003f0 8b 10 b4 bc 6a 67 a0 bc 84 1e 8a 3f 4c 63 b5 bd
       -0.021980545 -0.019580562 1.0790563 -0.0885683

fc1.bias f4 [128]
000000 c3 2b ac bc 5c 41 02 3e aa 30 0b 3d cd 06 da 3e
       -0.021016961 0.12720245 0.033981957 0.42583314
000010 93 28 25 bd fc b4 b7 3e d1 5e a9 3e a5 a0 04 3f
       -0.040321898 0.35880268 0.33080152 0.51807624
000020 09 66 1b 3f a8 05 fe 3c 3c 8b f2 bd 0d e0 79 3b
       0.6070257 0.031008556 -0.11842963 0.003812793
000030 55 9d f6 3c d3 96 1b bd 1b be 7c 3e db 33 6c be
       0.030104319 -0.037985634 0.24681894 -0.23066656
000040 5b f5 8e 3d 3a 0f ae 3e 9c e5 b1 3e 4f 73 ad bd
       0.069803916 0.33995992 0.3474549 -0.08469259
000050 35 d7 ff 3d 6d 4d 05 3e 8a 74 73 be 69 06 35 3d
       0.12492219 0.13017817 -0.23774925 0.044195566
000060 07 74 e4 bd fd c3 37 bc 1f 4e 9a 3c a4 5b 10 3e
       -0.11154943 -0.011216161 0.01883608 0.14097458
000070 06 ae e4 3e 0a f4 d5 3e 7b 7a da bd 4e 3e 1c 3d
       0.4466402 0.4178775 -0.106678925 0.038145356
000080 da d6 4d be d0 ae 9e 3d 0c ae ae 3e 01 66 9b 3e
       -0.2010149 0.077481866 0.34117162 0.3035126
000090 7a 6a 38 be e1 72 e7 3e a7 f5 b4 3d 55 2c dc 3e
       -0.18009368 0.45204833 0.08835917 0.43002573
0000a0 45 e0 de bd 07 44 00 be e1 b6 9f 3e 8f ea 02 3e
       -0.1088262 -0.1252595 0.31194213 0.1278479
0000b0 d1 48 fa 3e e1 7a 88 bc d3 1e 08 3e c8 7b 25 be
       0.4888368 -0.016660156 0.13293009 -0.161605
0000c0 13 d9 a9 be 6b f0 24 bb dc 0e 28 3e bd 69 b4 3e
       -0.33173427 -0.0025167714 0.16411918 0.35236922
0000d0 83 ea 89 3e c0 23 56 bd 87 6b 03 3f 77 60 98 3e
       0.2693673 -0.052280188 0.5133595 0.29761097
0000e0 2b 00 6d 3e e2 9c 39 3e 48 92 ee 3d 58 fe 98 be
       0.23144595 0.18126252 0.11648995 -0.2988155
0000f0 d0 ff fb 3c 61 f9 1c 3e c0 9f 95 3e 16 d8 0f be
       0.03076163 0.15329506 0.29223442 -0.14047274
000100 6d 10 c7 bc 3d c9 af bd 47 c7 11 be f3 29 e9 3e
       -0.024299825 -0.08583305 -0.14236175 0.45539817
000110 64 b9 8d bd 19 ca f1 3e 41 1d e0 3c 19 9b b9 3e
       -0.06920126 0.472245 0.0273577 0.36251143
000120 7e ef ab 3e 44 d5 72 be a0 11 e4 bd 39 15 83 be
       0.33581156 -0.23714167 -0.11136174 -0.2560213
000130 6b 6c 82 3e dd bd 0b be e3 64 55 bd 4a fb 53 3d
       0.2547334 -0.13646646 -0.052098166 0.05175332
000140 16 5b 34 be d6 e6 99 3c b9 95 15 3e 91 eb 83 3e
       -0.17612872 0.018786829 0.14607896 0.2576566
000150 8c b8 03 3e 05 f1 09 3e 00 ae c0 3e 37 6c 84 bc
       0.12863368 0.13470848 0.3763275 -0.016164882
000160 d5 78 bd 3e fd 85 59 3e ed 12 c0 3e 8b 5e 77 bb
       0.3700625 0.21242519 0.3751444 -0.003774556
000170 8d 96 70 3e 5b 2f 3c bd e1 1a 87 3b 65 ac e5 be
       0.2349493 -0.0459436 0.0041230773 -0.4485809
000180 af 74 66 be 37 99 51 3e 4b 5a a9 be 9c 90 a1 3d
       -0.22505449 0.20468603 -0.330767 0.0788891
000190 fa 40 8b 3e 8e ed dd be 9e 0d b3 3c 4c fb 53 3e
       0.2719801 -0.43345302 0.02185708 0.20701331
0001a0 1f b7 83 3e a1 04 bf be 6b 2c 4b 3d 7d fb c7 bd
       0.25725648 -0.3730822 0.049602907 -0.097647645
0001b0 81 4e fb bd d6 0b d2 3d 18 b7 a9 3e fa 44 57 bd
       -0.12270833 0.10256164 0.33147502 -0.052556016
0001c0 61 a3 3a 3d 1c 82 00 3f 00 6e d8 3e f5 7e 7a bf
       0.045565967 0.5019853 0.42271423 -0.9784997
0001d0 d3 b4 8a 3d 5b 2a 27 3d ff 4c c1 bd 8f 98 80 3d
       0.06772771 0.040811878 -0.09438514 0.06279098
0001e0 df 15 df 3d a9 9d 30 3e f6 24 52 3e c9 0f 2d be
       0.108928435 0.17247643 0.20521912 -0.16900553
0001f0 c3 de 1d 3e 93 6b 20 3d 7e 54 da be 0f a5 ae bc
       0.15417008 0.03916509 -0.42642587 -0.02131894

fc2.weight f4 [128, 128]
000000 74 c7 b5 3e 92 59 e0 3d 78 ff 5c 3e e1 5a ed be
       0.35503733 0.10954584 0.21581829 -0.46358398
000010 62 78 8e 3e aa e1 52 bf 1a 07 e1 3e a4 15 1e 3e
       0.2782622 -0.82375586 0.4395073 0.15437943
000020 dc 61 af be 71 1f 01 3e 68 0d 06 bf 24 af 39 3e
       -0.34254348 0.1260965 -0.52364206 0.18133217
000030 30 5e f2 3e 96 90 af bf 95 68 31 3f 54 91 2a 3e
       0.47337484 -1.3715999 0.69300205 0.16657001
000040 74 4a 24 3f 25 11 47 3f c7 05 8f bd 11 f1 b2 bd
       0.64176106 0.77760535 -0.06983524 -0.08737386
000050 a7 14 73 3e bf 13 34 3b 8b 29 06 bf 6a c2 ba 3f
       0.23738347 0.002747759 -0.5240714 1.459058
000060 90 61 3a 3f 58 a9 8a be f0 4b 84 3f d4 e3 fc be
       0.7280512 -0.27082324 1.0335674 -0.4939257
000070 e1 7a 98 3e 63 f2 72 be 64 1e 27 bf ac 6f 8a be
       0.2978125 -0.23725276 -0.6528075 -0.27038324
000080 c3 9a 27 3f 03 76 5a 3f 67 5c 17 3f cd fe 6b 3e
       0.6547052 0.8533632 0.5912537 0.23046418
000090 a3 07 a7 3e e6 a6 c3 be 38 93 1c 3e 6e 3c fe 3d
       0.32623014 -0.3821327 0.15290534 0.1241387
0000a0 87 91 a4 3d ef 5f 73 bd 81 a8 30 be 8f 73 b1 3e
       0.0803557 -0.05941766 -0.17251779 0.34658477
0000b0 13 a2 db be 10 dc f0 be e3 00 19 3e e5 4a 1a bf
       -0.4289709 -0.47042894 0.14941745 -0.6027053
0000c0 d6 72 15 3f ca 85 1b bf 74 91 ae bc 04 23 9f 3c
       0.5837835 -0.6075102 -0.021309592 0.019425876
0000d0 b8 2e d6 3d 2a 87 e1 be ad e3 93 3e 00 16 c3 bd
       0.1045813 -0.44048434 0.2888464 -0.095256805
0000e0 40 aa 5d 3f bf 18 3b 3e 6b 38 81 bd 61 12 ef bf
       0.86587906 0.18271159 -0.06309589 -1.8677484
0000f0 d4 6f 29 3e d1 6e 30 3e 85 04 97 be 01 60 2e 3e
       0.16546565 0.17229773 -0.29495636 0.1702881
000100 15 79 90 3f 90 1b dc 3e d0 5f 67 bd 65 76 30 3e
       1.1286951 0.4298978 -0.05648786 0.17232664
000110 bf 98 6c bd 9c 20 6d bf e4 15 2f bf d1 3e f3 bd
       -0.057762858 -0.9262788 -0.6839278 -0.11877216
000120 bc 44 5c 3e fa d9 3f bd 68 96 7d 3d 65 f6 fb bd
       0.21510595 -0.046838738 0.061911017 -0.123028554
000130 91 03 11 be 51 52 89 3e 46 7c 2c 3f 6c 0f 00 bd
       -0.14161517 0.26820615 0.67377126 -0.031264707
000140 ec e7 1d bd d8 2b 9b be 3d e0 6e be ea 18 9e be
       -0.038551256 -0.30306888 -0.23327728 -0.30878383
000150 c7 f3 6d 3e 74 71 5a bf 03 5f 16 3f 08 de 28 bf
       0.23237525 -0.85329366 0.58738726 -0.6596379
000160 92 60 0c be 26 5c 77 be cb d7 38 bb 6c e4 54 3e
       -0.13708714 -0.24156246 -0.0028204795 0.20790261
000170 ce cb f6 3b 2e 28 5a 3f 99 b9 95 3e 59 a2 9e 3f
       0.0075316196 0.8521756 0.29243162 1.2393295
000180 f9 1d d9 be 22 3b 31 3e c6 59 d1 3e 43 2c f4 3e
       -0.4240568 0.17307714 0.40888804 0.4769002
000190 91 60 10 3e 53 80 91 be 4c 16 de be 82 74 f7 be
       0.14099337 -0.28418216 -0.43376386 -0.48331076
0001a0 56 a4 3c 3f c2 83 a0 3e 15 93 a7 3d 5f c1 db 3e
       0.73688257 0.31350523 0.081823505 0.42920968
0001b0 34 77 85 be 9e 6f 04 be 8d dc 8e be 2d 09 64 be
       -0.26067507 -0.12933204 -0.27902642 -0.22269125
0001c0 49 c9 c8 3d d2 25 8f 3e ca 2c 76 3d 5f ec 1d bf
       0.09804017 0.27958542 0.060101308 -0.616888
0001d0 da 61 91 c0 35 ba ca be 63 db 60 be 35 ca 94 3f
       -4.543195 -0.3959519 -0.2195869 1.1624209
0001e0 4a 50 16 3d a0 92 85 be cb 6b ec bc 58 41 9a 3e
       0.036697663 -0.26088428 -0.028859993 0.30127978
0001f0 36 05 7f be 10 99 63 3e 1d 97 a7 bd 01 6c 7f bc
       -0.24904332 0.22226357 -0.081831194 -0.015589715
000200 e3 6d 06 3e bc 0b 76 be 8b b3 b8 3e d1 95 29 bf
       0.13127856 -0.24027914 0.3607448 -0.66244227
000210 01 ae 9d 3d eb 81 a8 bb b5 ea 3d 3f 91 2d 9b 3e
       0.07699204 -0.0051424406 0.7418626 0.30308202
000220 62 66 6b be a6 db 20 3e 77 12 89 bf d2 7d 9a 3e
       -0.22988275 0.15708789 -1.070876 0.30174118
000230 f7 88 19 3e 7d 6f 6b 3d 0a 2a 2b 3e 82 1e ae 3e
       0.14993654 0.05747937 0.16715255 0.3400765
000240 2c 4a 83 3f 7f fb e1 3e aa e4 0a bf 55 e1 6e 3e
       1.025701 0.4413719 -0.54255164 0.23328145
000250 1e a0 7d be 57 fb ed 3e 29 49 d1 be 9d a6 b0 3e
       -0.24768111 0.4648082 -0.4087613 0.34502116
000260 2c c6 8a 3e 34 1e eb 3e bb be 4f 3e 4b 06 65 3c
       0.27104318 0.4592148 0.20287602 0.013978551
000270 a7 76 af 3e 44 75 b3 bc 3e 74 31 be 54 ae c2 be
       0.34270212 -0.021906503 -0.17329499 -0.38023627
000280 ff ff c4 3e 5e 32 8f 3e ad b2 c2 be 1c 88 ad bf
       0.3847656 0.27968115 -0.38026944 -1.3557162
000290 74 e0 34 3d ed 1f 7d 3e 04 75 ba be 1f 35 6a 3e
       0.044159368 0.2471921 -0.364174 0.22871827
0002a0 5a 05 ae be d4 b5 ab bc 3b 0d e0 3e 73 4b d0 be
       -0.33988458 -0.020960726 0.43760094 -0.40682563
0002b0 81 cf fe 3d 7c 6a 9c bc c8 4a 76 3e 83 a5 ac 3d
       0.12441922 -0.019093744 0.24051964 0.08430006
0002c0 11 25 96 3e 9c 24 c6 be 5d ba d4 3d 49 3e 64 3d
       0.29325154 -0.38699806 0.103871085 0.055723462
0002d0 39 ad 02 3f 26 e6 60 bd c5 a4 ab be b8 4a 2e be
       0.51045567 -0.054906987 -0.33524147 -0.1702069
0002e0 2a 5b 59 3f 1a 72 8e 3c 86 26 83 bc 6f cd 8d bf
       0.8490473 0.017388392 -0.01600958 -1.1078318
0002f0 71 45 4f 3d 97 a9 66 3e c7 00 ca be 85 5f 41 3e
       0.050603334 0.22525631 -0.39453718 0.18884094
000300 db 44 89 3e 05 72 0c 3e 8c 9b 28 3f 3f 3c 14 3d
       0.26810345 0.1371537 0.65862346 0.036190268
000310 20 84 ac 3e 43 1d 90 3f fa 8f 2e bf 25 02 34 be
       0.33694553 1.125893 -0.6818844 -0.17578943
000320 00 fd eb be 09 d5 33 3e fb 10 b7 3e 0a e7 8f bd
       -0.4609146 0.17561735 0.35755143 -0.07026489
000330 c6 10 a3 bd f2 ad f9 bd 37 01 3f 3f da ea 92 bf
       -0.07962184 -0.121913806 0.7461123 -1.1477921
000340 ee 0c 02 3e cd 68 a0 3f 88 5f d0 be d8 33 08 3f
       0.12700245 1.2531983 -0.40697885 0.5320411
000350 54 f8 cb bd 8f d8 62 be 9b 79 8f bc ba b5 aa 3e
       -0.09959474 -0.22152923 -0.01751404 0.3334177
000360 aa 5a c6 3e bd ad f7 3e d4 41 4d bd 1c e4 9a 3d
       0.38741046 0.4837474 -0.050111607 0.0756304
000370 4e 41 2d 3e 7f a9 53 3e 18 a3 38 3f 17 28 b7 be
       0.16919443 0.20670126 0.7212386 -0.35772774
000380 65 e8 33 bf 16 ad 49 3e fb 62 54 bf af 4e 1d be
       -0.7027648 0.19694933 -0.8296353 -0.15362047
000390 0e 4e 41 be ab 19 b4 3d 3b e5 82 bf 7a 18 57 bf
       -0.18877432 0.08793958 -1.0226206 -0.84021723
0003a0 c1 5a f5 3c 50 bd 22 3f e3 ea 15 3f 2f 55 19 3f
       0.029950501 0.6357012 0.58561534 0.59895605
0003b0 90 c6 2e 3e 9a b8 e2 3e 75 b2 3a 3e 11 22 69 3f
       0.17067933 0.44281465 0.18232138 0.91067606
0003c0 6f 2a da be dd 65 03 be e4 89 8e 3e 68 a6 c6 be
       -0.426105 -0.12831827 0.27839577 -0.38798833
0003d0 b6 ef 23 40 6a c7 51 3e 55 02 d2 3e aa 44 9f be
       2.5615058 0.20486227 0.41017404 -0.31107074
0003e0 27 a5 96 be 03 a2 b5 3d b1 72 32 3e 92 ac ac bd
       -0.29422876 0.08868792 0.17426564 -0.08431353
0003f0 8d 0d 03 bd 78 22 96 bf a3 df 23 bf 0c b0 f7 3e
       -0.031995345 -1.1729269 -0.6401312 0.483765

fc2.bias f4 [128]
000000 f8 cb 1a 3e 74 7d 80 3e 90 90 10 3e a4 03 db 3c
       0.1511687 0.25095713 0.14117646 0.026735134
000010 e7 1b 72 3d 20 97 3d 3e 7d d5 c3 3d 0d 4d b1 3e
       0.05910864 0.18514681 0.09562204 0.34629098
000020 e0 b8 56 3e 9a 9c ae 3e 56 58 b8 3d a3 ef 0c 3e
       0.20968962 0.34103853 0.09001224 0.13763289
000030 43 7f c4 bb b9 4f dc 3c c5 6e 6f be d0 63 b9 bd
       -0.005996616 0.026893483 -0.23382099 -0.09052241
000040 be 66 d1 3e 94 c8 d2 3d 1f 01 95 3e c6 de 6e 3e
       0.408987 0.102921635 0.29102418 0.23327169
000050 7d 76 25 3e 1c db 81 3e 6f 50 83 3e 44 6d 96 3d
       0.16158481 0.2536248 0.25647303 0.073450595
000060 ee 6f 42 3d 34 51 77 3e 81 81 c0 3d 34 db f0 bd
       0.047470026 0.2415207 0.09399701 -0.1176056
000070 66 44 03 be 4c f4 69 3e 41 ae 34 3e 61 2d 28 3d
       -0.1281906 0.22847098 0.17644598 0.0410589
000080 69 cc 9d be d7 aa 67 3e 53 12 f0 bc 67 ba ad 3e
       -0.30820015 0.22623764 -0.029305613 0.33931276
000090 43 f7 5f be b8 01 64 3e 50 99 30 3e f5 ba fb 3d
       -0.21871667 0.2226628 0.17245984 0.122915186
0000a0 17 6d 83 be 96 b2 78 3e 4e f5 a8 3e 56 9c 9a 3e
       -0.25669166 0.24286875 0.32999653 0.301974
0000b0 3c 29 64 3e a9 9b 80 bb e9 be ef bc 0e 13 61 be
       0.22281355 -0.003924806 -0.029265838 -0.21979925
0000c0 16 b2 02 3e 96 ab 99 3d 5b ca 2a 3e 44 39 54 3e
       0.12763247 0.075034305 0.16678755 0.2072497
0000d0 65 b9 ae bd d3 89 92 3e 55 48 09 bf 89 c4 9c 3d
       -0.08531455 0.28620777 -0.53625995 0.076546736
0000e0 f3 65 b1 3d ae d6 86 3e 86 76 44 3e d6 a0 a1 bd
       0.086620234 0.26335663 0.19185838 -0.07892005
0000f0 f6 45 23 3b d1 3b 02 3c 12 92 05 3d 88 6c 39 3e
       0.0024913526 0.007948832 0.032610007 0.18107808
000100 49 2b a6 bd 49 4d 4e 3d 46 22 0c 3e f7 9a 6d bd
       -0.08113725 0.050366674 0.1368495 -0.058009114
000110 93 64 5d 3d 83 f7 2a 3e f7 2a 9f 3e f3 c3 0f 3d
       0.054050993 0.1669598 0.31087467 0.03509898
000120 09 cb 7f 3e 73 fb 06 3e 86 3a 50 3e a4 aa 7a be
       0.24979796 0.13181858 0.20334825 -0.24479157
000130 73 ef b8 3d 2c 66 b0 3d 0f 0f 39 be 62 df 00 3e
       0.09030046 0.08613238 -0.1807215 0.12585214
000140 86 42 c2 bd ed 38 ab 3e 62 fe 95 bd 2f ad e2 3c
       -0.094853446 0.33441868 -0.0732391 0.027670471
000150 57 28 eb 3d a0 1c 81 bd bf 85 ef 3d e8 dd 75 3c
       0.114823036 -0.06304288 0.11695432 0.01500652
000160 23 4a 70 be de b4 8b bc 6c 16 74 bd 03 4d a5 3d
       -0.23465781 -0.017054018 -0.059591696 0.080713294
000170 85 21 41 bd 0e 3e 92 bd 1a 10 ae bd 53 2e 30 be
       -0.047151107 -0.07140742 -0.08499165 -0.17205171
000180 b5 65 bb bd 28 8d 39 bd 5c 13 34 bd 9a 53 9b 3e
       -0.091502585 -0.045300633 -0.043963775 0.3033722
000190 9e 46 ca bd a0 9c a2 bd c3 b1 5a 3e 42 3d cb 3d
       -0.098767504 -0.0794003 0.21356873 0.099237934
0001a0 a3 08 38 3c 7b 33 39 be 85 8d 49 3e 39 16 8f 3e
       0.011232528 -0.18086044 0.19682892 0.27946642
0001b0 b5 da a0 bd 67 15 d4 3e 9b 89 d5 bc dd 37 c3 3d
       -0.07854215 0.4142258 -0.026066592 0.095321395
0001c0 b7 5f 06 3e 8f 1d 88 3e 56 ea 4f bd 69 62 b2 3d
       0.1312245 0.2658505 -0.05076059 0.087101765
0001d0 b3 4e e0 3c 8c 25 7a 3d 89 a4 94 3d d7 e0 86 be
       0.027381277 0.061070964 0.07257945 -0.26343414
0001e0 c8 6a 8a 3e f6 be 11 be ca 35 c6 bd 7f cd 49 3e
       0.27034593 -0.14233002 -0.09678228 0.19707297
0001f0 8d dd 8c 3e dd 70 b0 3d 4d 1a 96 3c 6f ae 73 bd
       0.2751278 0.08615277 0.018323088 -0.059492525

fc3.weight f4 [6, 128]
000000 96 f3 a7 be 1a b8 c4 bf 6e 60 8c 3f 2e 68 bb bd
       -0.3280303 -1.5368683 1.0966928 -0.0915073
000010 5b 5d 2c be 16 d3 3e 3f 62 22 5a 40 8f 5e 23 40
       -0.16832487 0.7454084 3.4083486 2.5526464
000020 40 46 08 bf 49 cf 4d bf 6b 28 e5 3f 3c 29 08 be
       -0.53232193 -0.8039442 1.790296 -0.1329698
000030 e4 15 b3 3f 82 b4 40 be d8 ae 8b bf 34 96 86 3d
       1.3991055 -0.18818858 -1.0912733 0.06571618
000040 bd a5 d2 3e de f7 dc 3d 63 2c 2d bf ca 30 1b 3f
       0.41142073 0.107894644 -0.67645854 0.6062132
000050 98 30 97 3f 53 4a d7 3c ca b3 cb bf ae 10 b7 3e
       1.1811705 0.026280558 -1.5914242 0.35754913
000060 ae 45 f9 3f 0b 67 c7 bd 2a 11 cb 3e 2e 6d d2 bf
       1.947439 -0.09736451 0.39661533 -1.6439569
000070 e2 aa 1f 3f e1 02 34 3f 58 53 84 bf b9 b9 48 c0
       0.6237012 0.7031689 -1.0337934 -3.1363356
000080 25 28 97 bf fb 67 14 bf 46 c9 6c bd 1e 28 16 3f
       -1.1809126 -0.5797116 -0.057809137 0.58654964
000090 c7 a2 35 bf ec f1 e3 bf 78 cb 59 bd 31 bf c2 3f
       -0.70951504 -1.7808204 -0.05317256 1.5214597
0000a0 ef a8 11 3f 62 bf 87 bf 8d 5f 08 c0 54 3d 09 bf
       0.568984 -1.060528 -2.130832 -0.53609204
0000b0 08 1a d9 bf d3 25 c8 3d e9 7f 35 be 21 cf 99 3f
       -1.6961069 0.097728394 -0.17724575 1.2016336
0000c0 35 7b 5a bf ca ee 9c bf 01 d4 03 40 33 e3 c3 3e
       -0.8534425 -1.2260373 2.0598147 0.38259277
0000d0 65 87 ea bd 0e 7c 08 3d d4 15 9e bf c5 a5 7b 3d
       -0.11451606 0.033321433 -1.2350411 0.061437387
0000e0 d1 12 ca bf ff 1f df be c5 d3 f9 bf 92 45 ab be
       -1.5786992 -0.435791 -1.9517752 -0.33451515
0000f0 b0 b1 2d 3e f5 22 26 3f 1c 8d 81 3f 4a 73 f3 bf
       0.16962314 0.6489709 1.0121188 -1.9019558
000100 8e 3e 0d 40 02 4b 86 3f 7a 7b 4c be 05 b2 ae bf
       2.206943 1.049164 -0.19968978 -1.3648077
000110 17 2f 3f 3f 1e e8 d1 3f 15 c3 4e 3f 89 01 1e 3f
       0.7468123 1.6398962 0.8076642 0.6172109
000120 07 ba 79 40 84 41 0e 3f 04 6b ca 3e 89 fc fa be
       3.9019792 0.5556872 0.3953477 -0.49020794
000130 4a 98 0b 3e 11 43 e7 bf 7e 78 3d be 91 00 f3 3f
       0.13632312 -1.8067342 -0.18502995 1.8984548
000140 01 04 b1 be b6 07 f3 bf 37 37 c5 bb b5 b0 61 bf
       -0.34573367 -1.8986728 -0.006018545 -0.8816026
000150 da 85 35 c0 01 ab ff bf ff 9c 81 3f 0f 65 a3 be
       -2.8362947 -1.9974061 1.0126036 -0.3191304
000160 3c 4a cd be 7c 5c 7e bc c4 17 01 c0 48 b4 da be
       -0.400957 -0.01552498 -2.0170755 -0.4271567
000170 f2 cd 25 bf 7f 77 3b 3e d7 6c 1d bd e0 c1 60 3f
       -0.6476737 0.18307303 -0.038433876 0.8779583
000180 8a 0f 3e 3f b7 d1 c6 bf 94 7c 1c c0 0f d6 06 40
       0.7424246 -1.553275 -2.4451036 2.106815
000190 06 bd 23 3f 3a ba 90 bf fe 7b c0 3f 1c 60 68 3e
       0.639603 -1.1306832 1.503784 0.22692913
0001a0 e8 f5 4c bf c9 4e d6 3e 52 94 82 bf 91 8a 24 40
       -0.80062723 0.41856983 -1.0201514 2.5709574
0001b0 b7 d7 21 bf 2e 53 79 3f 19 43 f9 3f eb a4 db bf
       -0.6321978 0.9739255 1.9473602 -1.7159704
0001c0 5c 7d 46 bf b0 ac 81 3e ae 7b af bf ac 3f 3e bf
       -0.77535033 0.25327063 -1.3709619 -0.74315906
0001d0 41 5e 56 bf 27 c5 c8 bd 14 cf 0e 3f c7 ec 06 c0
       -0.8373757 -0.09803229 0.55784726 -2.1082017
0001e0 09 c6 0e 3e b0 bc 53 3f 6a 5c 57 3f 8c 95 15 3f
       0.13942732 0.8270979 0.8412539 0.58431315
0001f0 e0 0c 02 be fd ca 69 3f 7b d6 01 be f4 13 9e bd
       -0.12700224 0.9132536 -0.12679474 -0.077186495
000200 f4 58 10 3e b4 18 74 3f f8 18 3f bf c7 4e 2a be
       0.14096433 0.95350194 -0.74647474 -0.16631614
000210 93 f6 71 3e e6 9d 56 3e 63 b5 7f bf 94 68 88 be
       0.23629217 0.20958671 -0.9988615 -0.26642287
000220 4a f1 4f bf cb 74 93 3f 13 05 e1 bf e0 64 c0 be
       -0.8122755 1.1520017 -1.7579674 -0.37576962
000230 25 aa c5 bf d1 cb b1 be 71 8a 8e 3f 35 f8 dd be
       -1.5442549 -0.34725812 1.1135999 -0.4335343
000240 f5 f0 bc be 4c 5d 5c 3e 03 bd a7 3e 4e 47 13 3f
       -0.36902586 0.21519965 0.32761392 0.5753068
000250 17 9f 88 3f 26 bc a5 be cb 46 b1 3f 3d f7 51 3f
       1.067355 -0.32370108 1.3849729 0.8201788
000260 27 83 19 3f 77 1e 6e 3f f2 bb 29 bd 62 4c fc be
       0.5996575 0.93015236 -0.041439004 -0.49277025
000270 9d 00 2e 3f 95 38 0c 40 03 1f 2d 40 e6 a4 25 40
       0.67969686 2.1909535 2.7050178 2.5881896
000280 ce 94 ec 3f 51 04 7e bf 3c 88 29 3d a7 16 2c 3f
       1.8482912 -0.99225336 0.04138969 0.67222065
000290 76 fe 3d 3f fb 84 21 40 98 a2 b6 3f 5d f8 7f 40
       0.742164 2.5237415 1.426837 3.999534
0002a0 f5 72 2d 3f 8d 4a 8c bf af a0 b8 3f d9 82 2e be
       0.67753536 -1.0960251 1.4424037 -0.17042102
0002b0 43 29 27 3f 14 59 bf be 92 79 3f 3f a2 87 c2 bf
       0.65297335 -0.3737265 0.74794877 -1.5197642
0002c0 65 b5 9b bf c4 30 89 3f 04 45 b4 3e 0b 54 b1 bf
       -1.2164732 1.0718007 0.35208905 -1.3853773
0002d0 c7 9a 05 bf d8 c9 f1 be a4 c9 79 bf 25 de 28 c0
       -0.52189296 -0.47224307 -0.97573304 -2.6385586
0002e0 e1 01 ca 3f 58 4f d7 bf 85 8d b8 3f e8 ee db be
       1.5781823 -1.6821089 1.4418188 -0.42955709
0002f0 05 ba d6 be 4d 8a 23 40 98 70 fa bf 48 b3 ce 3f
       -0.41938797 2.5553162 -1.9565611 1.6148462
000300 2a 1d 95 be 61 d9 bb be 22 f7 f4 bf e7 bb a1 3e
       -0.29123813 -0.36689284 -1.9137919 0.3158867
000310 3e 2a 3e c0 c6 f2 c5 3e 0d 73 97 3f 87 06 80 3f
       -2.9713283 0.38661784 1.1831986 1.0001992
000320 a3 3f 14 3f 64 09 92 bf 0b 3a 1c 3f 6c 14 16 bf
       0.579096 -1.1409116 0.61026067 -0.5862491
000330 bb e9 4b be 6b 05 00 bf 11 61 ef bd 85 2a be 3f
       -0.1991338 -0.5000827 -0.11688436 1.4856726
000340 11 bc 0b be b2 12 b8 bf 9a 1c 68 3c 30 f7 6a 3f
       -0.1364596 -1.4380705 0.014166975 0.9178343
000350 20 d6 c3 3f f7 fa f3 3d df 17 10 c0 49 20 c4 40
       1.5299721 0.11913102 -2.251457 6.128941
000360 c0 55 71 3f d4 6b 25 bd 7e d5 ac 3e b8 d5 f3 3f
       0.9427147 -0.040386036 0.33756632 1.9049597
000370 6f 2b ab 3f 55 6e 82 3f 0f 6c 9b bc 7f 2a 2b bf
       1.337263 1.0189921 -0.018972425 -0.6686172
000380 f5 75 24 be aa 3b 5a 3e 5e 75 fc 3f fd 4c 2f 40
       -0.16060622 0.21311823 1.9723318 2.739074
000390 83 98 32 bf 3a 7e 04 bf b6 bf 19 bf 60 0f 0e c0
       -0.69763964 -0.51755106 -0.6005815 -2.2196884
0003a0 3d d4 07 be 0e 00 5b bf d9 af 01 3e 2f 8a 7c 40
       -0.13264556 -0.8554696 0.12664737 3.945934
0003b0 2f 91 11 3e 44 d7 a4 3e 82 92 62 c0 af 52 c5 3f
       0.1421554 0.32195485 -3.5401921 1.5415858
0003c0 91 20 f0 bf 7c bc 21 bf 71 5e ae 3f 6f 69 92 3f
       -1.8759938 -0.6317823 1.3622571 1.1438426
0003d0 51 3d 8b 3e b0 0e 1d 3e e2 8b 1d be b2 46 25 3f
       0.27195218 0.15337634 -0.15385392 0.64561
0003e0 2b 31 23 c0 68 48 10 bd ed 38 dc bf 1d be 0a 3f
       -2.549876 -0.035225302 -1.7204872 0.5419634
0003f0 79 34 c1 bd 70 e0 7a be 36 4d ad bf 4f 16 2f be
       -0.094338365 -0.24499679 -1.3539188 -0.17098354

fc3.bias f4 [6]
000000 cb b2 43 3d 40 e6 83 bd b7 04 af bd 44 d2 4c bd
       0.047777932 -0.06440401 -0.08545821 -0.050005212
000010 8c 12 23 be b9 42 a6 3c
       -0.15925044 0.020295488
