demo/2_2_2/actor_8.pth (torch, 83208 bytes, 6 tensors)

fc1.weight f4 [128, 22]
000000 d6 48 89 3e 1b 12 25 3f 12 77 d8 be 32 85 c3 be
       0.26813382 0.6448075 -0.42278343 -0.38187557
000010 2c cb 22 be fd c9 5c bd 3c 90 9c 3b 7d e8 65 3c
       -0.15897816 -0.05390357 0.0047779363 0.01403248
000020 96 62 d1 bc 7d 3f 3d 3c 87 57 40 3d 24 d1 8d 3b
       -0.025559705 0.011550781 0.046958473 0.00432791
000030 ce e3 88 be e5 ab a6 3e 6f 4b 00 bf 8b 89 1c 3f
       -0.267363 0.3255302 -0.501151 0.61147374
000040 73 15 ad bf dc 8d aa bf a5 01 14 be 6b 23 be bd
       -1.3522171 -1.3324542 -0.14453752 -0.09284099
000050 e5 97 9e 3d cb 49 35 3e 6c 3a 40 3f 44 6d 07 3e
       0.07743815 0.17703931 0.75089145 0.13225275
000060 27 c8 4d be e8 36 ec be 51 40 c0 be ea 16 89 bf
       -0.20095883 -0.4613564 -0.3754907 -1.0710118
000070 6f 6d 08 3c b0 f1 81 bd 0e 98 43 3d 6d 8d ca 3c
       0.008326872 -0.06344926 0.047752433 0.02472564
000080 0f b8 05 3c 17 dd 2d 3d 25 aa 1e be ed f9 c1 bf
       0.008161559 0.042447176 -0.15494592 -1.5154396
000090 85 ee 87 3e d6 fb 4d 3d d0 25 21 bf eb 93 08 bf
       0.26549163 0.050288998 -0.6294832 -0.53350705
0000a0 e1 b4 37 3c 09 db df bd 72 be 13 3d 89 d7 4b be
       0.0112125585 -0.109304495 0.036070295 -0.19906439
0000b0 40 97 ee 3e 70 e2 44 3e 37 00 bf be 71 ff 53 bf
       0.4659977 0.19227004 -0.3730485 -0.8281165
0000c0 b9 6c 22 bf e9 ef 88 be b6 e1 7a 3c 59 30 5d bd
       -0.6344715 -0.26745537 0.015312603 -0.054001186
0000d0 fa 2b 73 bd 46 39 92 3b 6a 8d e4 bc 8f 81 ba 3c
       -0.05936811 0.004462394 -0.027899463 0.022766856
0000e0 f6 dd 24 be 97 14 4c bf b9 1c fe 3b 15 af 14 be
       -0.16100296 -0.7971892 0.007754889 -0.14519913
0000f0 0c 08 b9 3f 0a c9 0c 3f 29 52 01 be 1a e9 83 3d
       1.4455581 0.5499426 -0.12628998 0.06440945
000100 50 b3 ef 3d 97 71 dc bc ce d8 4b be 73 09 a9 3e
       0.11704123 -0.026909633 -0.19906923 0.33015022
000110 60 94 5c be 63 3e 07 3f 0e 28 81 be 94 4b 45 be
       -0.21540976 0.5282957 -0.25225872 -0.19267112
000120 2f 9c 35 3c a3 29 2f 3c cb 99 df bc 4e db 8a bc
       0.0110846 0.010691079 -0.027295014 -0.016950276
000130 a1 39 49 bc 8c d2 0a bc 5e cb 33 be 2a 34 c8 3c
       -0.012281806 -0.00847305 -0.17558047 0.024438936
000140 fc c4 e2 be 96 18 17 bf de 9c a8 3f 47 13 2e bf
       -0.44290912 -0.5902189 1.3172872 -0.67998165
000150 a7 73 23 3d 71 1c 13 bd d3 b4 0f bd 6a df c7 bd
       0.039905217 -0.035915796 -0.035084557 -0.0975941
000160 dd d8 cb 3e 86 72 9b 3d 17 84 c1 3c 57 35 7c 3e
       0.3981389 0.07590203 0.023622556 0.24629723
000170 3d 6e 9b 3d dd 59 ac bd 91 be 2a bb 32 ec 74 bc
       0.07589386 -0.084155776 -0.0026053528 -0.0149488915
000180 2e 02 fa bb 1c c0 81 b9 1e a8 ad bb db a6 6b bc
       -0.0076296544 -0.0002474793 -0.005299582 -0.014383043
000190 30 e8 59 3f ce 64 17 bd 35 56 33 bf dd 70 67 bf
       0.85119915 -0.03696137 -0.70053416 -0.9040659
0001a0 82 73 c5 3e 41 7d 0c 40 ed 67 24 be 94 66 28 be
       0.38564688 2.195145 -0.1605527 -0.1644538
0001b0 a5 77 40 bc 00 1e 03 3d cb 86 1d bf f5 19 12 be
       -0.0117472755 0.032011032 -0.615338 -0.14267714
0001c0 22 e9 a8 bd d1 22 94 be 37 fe 2d be c8 25 d1 be
       -0.082475916 -0.28932813 -0.16991507 -0.40849137
0001d0 4c 29 f6 3c 68 8a 00 bd c9 38 5a 37 b3 d2 a4 3b
       0.030048989 -0.031381994 1.3007034e-05 0.00503
0001e0 85 0b f0 bc 02 3c 68 bc 8c bc e2 bd c0 7f 8c 3f
       -0.029302368 -0.014174463 -0.11071119 1.0976486
0001f0 9f e0 84 3e c8 cb 68 bf 84 0b ac bf c6 30 b6 3e
       0.25952622 -0.90935946 -1.3441014 0.35584086
000200 e0 bf 98 bd 13 f0 32 be fe c1 39 bd c8 aa 3a 3d
       -0.07458472 -0.17474394 -0.04535102 0.045573026
000210 6f dc a6 3f c4 4e a8 be 54 0e 8c 3d 04 26 17 3f
       1.3036021 -0.32872593 0.068386704 0.5904238
000220 ca f2 84 bd a4 79 02 be 8c 3f 85 bc 28 29 fa bc
       -0.06491621 -0.12741715 -0.016265653 -0.030537203
000230 23 01 03 bd dd bf b5 bc 80 0b 74 3c 7a d5 da 3a
       -0.031983506 -0.022186214 0.01489532 0.0016695701
000240 c0 ff 36 be fc e4 a4 bf 80 d0 39 3e 08 c1 8f be
       -0.17870998 -1.288238 0.18145943 -0.2807696
000250 77 1d 85 bf 1a b0 45 3f 1b 50 4c be 05 43 38 be
       -1.0399617 0.77221835 -0.19952433 -0.17994316
000260 9c 21 31 bd 0b 74 ef 3d 59 fc b3 3e ce b0 fd 3e
       -0.043244943 0.11692055 0.35153463 0.49548954
000270 69 68 f4 bc 19 2a 95 bf 7c b2 94 be 6e c0 70 be
       -0.029834943 -1.1653472 -0.29042423 -0.23510906
000280 43 1b 9e bc 13 ef ae 3b 98 ed eb bb 29 c5 d2 3c
       -0.019300109 0.0053385585 -0.0071999542 0.025728779
000290 db 16 b0 3c 73 bf 15 3d 73 1d 17 bf 0b 97 c4 3e
       0.021495273 0.036559533 -0.5902931 0.38396487
0002a0 60 db 80 3e f3 f7 cb 3d 3e 4e bb bf 58 38 d6 3f
       0.2516737 0.09959402 -1.4633253 1.6735945
0002b0 33 24 45 3e 09 21 9e 3d e6 05 45 be 01 21 0a 3e
       0.1925209 0.07721145 -0.19240531 0.13489152
0002c0 65 5d e4 bd 86 2c 48 3f 47 22 78 bd 61 f4 88 bf
       -0.11150626 0.7819294 -0.060579564 -1.0699579
0002d0 01 34 e3 3d 5d a5 4a 3e e0 a6 3f 3c 2a fc 57 bd
       0.11093903 0.19789644 0.011697501 -0.052730717
0002e0 8b d7 1c 3d f5 29 44 3d 42 21 95 bc e2 fe ff bb
       0.038291495 0.047891576 -0.018204335 -0.007812367
0002f0 4a 04 d2 be 76 38 77 bd da c8 23 3f 26 28 f8 3e
       -0.41018897 -0.06035658 0.6397835 0.4846813
000300 c0 4e b8 bf 4c 05 d6 3d 44 e6 19 be 57 5c f0 bd
       -1.4399033 0.10450229 -0.15029246 -0.117363624
000310 fe 6d fe bd c6 37 95 3d 4c a1 02 be 28 4a e0 be
       -0.12423323 0.072860286 -0.12756842 -0.43806577
000320 a8 2f 00 3e b1 55 a3 3f 6f 16 fb be 9b 4d 01 bf
       0.1251818 1.2760526 -0.49040553 -0.5050904
000330 cd d7 b4 3c 1d 66 9c bd 0e 9a 6f bc 06 5d 67 3c
       0.022075558 -0.07636664 -0.014624132 0.0141213
000340 48 db 24 bc 4e dd a1 3c 3c f3 36 3f 3c fc 52 bf
       -0.010062046 0.019758847 0.71464896 -0.8241613
000350 f2 51 cf 3e 93 7d 14 be b0 cd ca bc bb d7 06 bc
       0.40492207 -0.14501028 -0.024756283 -0.008230145
000360 e3 c4 2a be aa da e4 bd 32 4a 30 3e c4 2c 31 be
       -0.16676669 -0.11174519 0.17215803 -0.17302233
000370 c8 1a 84 3c 0b f1 c9 3e 81 85 bc bc 88 6a 7a 3d
       0.016126052 0.39441714 -0.023012878 0.061136752
000380 f3 f8 94 be 24 3d 5b 3e 91 72 81 bd 66 e0 de bc
       -0.29096183 0.21410042 -0.0632068 -0.02720661
000390 7a ec 0c bc 41 dc 08 3e 63 02 08 bd 84 59 ad 3d
       -0.008601302 0.1336527 -0.0332054 0.084643394
0003a0 bb 9d a3 3e 25 de 3d 3f ff ab b1 3d 31 5b 3b bf
       0.31956276 0.7416709 0.08675384 -0.7318602
0003b0 49 63 c3 3f be b2 1b be 92 0e b9 bd 9e 6c 80 3d
       1.5264674 -0.15204903 -0.09035982 0.06270717
0003c0 67 2c 90 3d b6 c9 23 3e de 91 ca be 87 b8 8b 3e
       0.07039719 0.15994915 -0.39564413 0.2728922
0003d0 0e 69 72 be ca 2b 2d 3e 23 5d 98 be 1f ed 95 bf
       -0.23672888 0.16911235 -0.29758558 -1.1712989
0003e0 c3 40 f5 bc d2 08 11 bd fb 50 3c 3d 27 d8 d9 ba
       -0.029938107 -0.035408802 0.045975666 -0.0016620205
0003f0 45 c7 80 3c fc ca 0d bc 10 ed 04 bb 1e c6 77 3e
       0.01572002 -0.008654352 -0.0020282902 0.2419667

fc1.bias f4 [128]
000000 54 c4 07 be 92 6d 06 3e 69 58 08 3f 1c 4f 5a 3e
       -0.13258487 0.13127735 0.53259903 0.2131924
000010 c5 31 77 be 44 8b d5 3e 58 d0 d7 3d d1 4a c3 3e
       -0.2414008 0.41707814 0.10537785 0.38143018
000020 66 74 bb 3e ec 46 d1 3b 40 13 4e be 30 6c c1 3e
       0.36612242 0.0063866284 -0.20124531 0.37777853
000030 9d 67 5f 3d 33 22 af bc 80 67 e6 3d 66 ee 19 3e
       0.054542173 -0.021378612 0.1125021 0.15032348
000040 fd ad 02 3d 39 85 cc 3e 7b 4a d8 3e 88 e0 6e 3e
       0.03190421 0.3994539 0.42244324 0.2332784
000050 44 fd 8a 3d c4 69 04 3f 79 1f cb 3b 4d 1d 99 bd
       0.06786588 0.51723886 0.00619882 -0.07476292
000060 bd 69 07 be f2 60 d9 3c 0b fb 7b 3e c4 1d 88 bc
       -0.1322393 0.026535485 0.24607484 -0.016615756
000070 de 8a a8 3d d9 40 aa 3d ab e9 48 3d 78 43 da 3e
       0.08229612 0.0831315 0.04905097 0.426296
000080 83 92 3c 3d 38 49 17 3e 15 42 83 3e ae 9c 3d 3d
       0.046038162 0.14774024 0.25636354 0.046292
000090 20 65 c8 3d 9b c4 c8 3d 87 5e e7 bd e7 9e e1 3e
       0.09784913 0.098031245 -0.112973265 0.44066545
0000a0 8c b1 df 3e 21 ed b7 bd 07 73 00 3f 5e b8 2a 3f
       0.43690145 -0.089807756 0.5017552 0.6668757
0000b0 0d 53 7f 3e 4e b7 c5 3d e2 eb 89 3d 71 32 e8 3e
       0.24934025 0.09654103 0.06734444 0.45350984
0000c0 d4 63 4e 3e 88 39 5a 3e fe e1 b6 3e f5 9b 05 bc
       0.20155269 0.21311009 0.35719293 -0.008154859
0000d0 64 3e 07 3d b6 0d 83 3e 8c c1 09 3e 34 7b 87 3e
       0.033018485 0.25596398 0.13452739 0.26461184
0000e0 a0 09 dc 3e 05 33 80 3e c0 c5 e7 bd e8 b5 a8 3c
       0.42976093 0.25038925 -0.11317015 0.020594552
0000f0 58 9c 23 3e de d7 24 3e 4b 8e 83 3e bd 7a 5a 3d
       0.15977609 0.16097972 0.25694498 0.05333971
000100 3a 55 04 be cb de 7c 3e 05 69 be 3e b1 ac 5e 3e
       -0.12923136 0.24694364 0.371895 0.21745564
000110 f6 ed 0a 3f 35 5a 12 3f 5b 1b ec 3d 13 d0 ac 3e
       0.5426935 0.57168895 0.11528655 0.33752498
000120 29 e4 99 3e 3d 4e 5a ba 30 3e a1 3e 91 da 88 3e
       0.30056885 -0.00083276985 0.31492758 0.26729253
000130 29 70 8e bd da fa 75 3e cd 42 ab 3e 95 76 8c 3e
       -0.069549866 0.24021474 0.33449402 0.2743422
000140 79 a8 95 3e 1d 7f 17 3d 99 ee 2d 3e f9 4c 18 3f
       0.29230097 0.03698646 0.16985549 0.5949245
000150 7d a2 06 3f 88 98 dc 3d da f8 45 3e 53 34 2c 3e
       0.5259169 0.107712805 0.1933321 0.16816835
000160 1e 75 b4 3d 36 06 03 be 26 3d 12 3f 98 ec 21 be
       0.08811401 -0.12795338 0.57124555 -0.1581291
000170 28 20 d6 3d 83 33 2b 3e 6f c0 97 3e 58 50 9c 3e
       0.10455352 0.16718869 0.29639003 0.30530047
000180 91 0e 7b 3e 57 98 24 3e 38 cc 9d 3e d0 a0 bd 3d
       0.24517275 0.16073738 0.3081987 0.09259188
000190 c4 d1 23 3e 16 21 e1 3e f1 c7 0c be 18 2f 69 bd
       0.15997988 0.43970555 -0.13748147 -0.056929678
0001a0 d6 af 8f 3e 68 b8 8c 3e 44 f9 9c 3e fb 08 ad 3d
       0.2806384 0.2748444 0.30658925 0.084489785
0001b0 3f c6 c2 3e f3 f6 89 bd a5 be 7f 3e dd 27 72 3d
       0.38041875 -0.06736555 0.24975069 0.059120048
0001c0 d8 29 c1 3e 0f 18 1c 3d dc 40 f8 3d 49 8e 61 bd
       0.37727237 0.03810888 0.12121746 -0.055067334
0001d0 ac ff ab 3d cc 80 27 3e 3d 33 79 3e 83 6f 87 3d
       0.08398375 0.16357726 0.24335952 0.06613066
0001e0 0b c1 b0 3e 8b eb 8e 3e 48 ab 74 3d af d8 c6 3e
       0.3452228 0.2791408 0.05973366 0.3883719
0001f0 9d c8 0d bd 2c b5 85 3e d1 1f af 3d 17 91 63 3e
       -0.034615148 0.26114786 0.085509904 0.22223316

fc2.weight f4 [128, 128]
000000 a5 d0 11 3f e4 d6 bf be c2 90 1e 3f d5 c2 76 be
       0.5695899 -0.37468636 0.6193963 -0.2409776
000010 9f ff a1 3e df 8d 36 3f cd 1e 11 be 36 79 2d bf
       0.31640336 0.7131023 -0.14171906 -0.6776308
000020 ba 31 ec be 51 39 75 bf ab 9c 60 be e5 3f 70 3e
       -0.46131688 -0.9579058 -0.21934764 0.23461874
000030 47 25 25 be 46 ba 83 be b0 1c 06 3f e3 b7 a5 bf
       -0.16127501 -0.25728053 0.52387524 -1.2946743
000040 ec 65 35 bf 5e 82 71 bd 24 81 10 bf 4b 2f 8b 3f
       -0.70858645 -0.05896222 -0.5644705 1.0873808
000050 f2 28 19 3f 51 7b 7d be d7 d4 e0 3f ca bb 85 bf
       0.598281 -0.24754073 1.7564954 -1.0447934
000060 8b bf 0c bf 15 8e 27 be 53 a0 0b c0 55 10 a2 be
       -0.5497977 -0.16362794 -2.1816604 -0.31653085
000070 70 e3 d6 be ed 46 c1 3e 3d a3 05 bd 09 75 1d 3d
       -0.41970396 0.37749425 -0.03262638 0.03844169
000080 a8 93 76 3d e1 9b 31 bf bc 92 ea 3e 16 10 7c 3f
       0.06019941 -0.6937848 0.45815074 0.98462045
000090 d7 b2 90 be 1c ac 70 3d a5 ed 79 be b2 66 c1 be
       -0.28261444 0.058757886 -0.2440706 -0.37773663
0000a0 db ac 7c 3d d2 1e 19 be af 24 f9 3e 23 e0 e5 3e
       0.061688285 -0.14953163 0.486608 0.44897565
0000b0 4d fe a2 bc 6f 4e eb 3c 56 d9 5f 3f 72 da fd 3d
       -0.01989665 0.028723923 0.87441003 0.12395181
0000c0 14 e3 7e bf 33 a8 72 be a1 5e 01 3f ed dc ed 3e
       -0.99565244 -0.23696975 0.5053502 0.46457615
0000d0 b3 88 3b bf 5e 7b 15 3f 70 8b ec bd b2 dc f4 bd
       -0.7325546 0.5839137 -0.11550033 -0.11956157
0000e0 39 44 2c 3f e7 05 80 3e 77 d8 36 bf 50 e2 2f 3f
       0.672916 0.25004503 -0.7142405 0.687047
0000f0 41 09 e4 3e e3 b3 23 3f 44 43 0f 3e f3 00 41 be
       0.4453831 0.6394636 0.13990504 -0.18848018
000100 8a 88 22 3e 03 1a 81 3e 09 38 fa 3e d2 cd 7d be
       0.15872398 0.25215158 0.48870876 -0.24785545
000110 dd d2 07 3d 7e be 70 bf 61 c6 88 bf fc 48 5c 3f
       0.03316008 -0.9404067 -1.068554 0.86048865
000120 4f 36 a7 3f 8b e4 ab 3b c9 96 4f bd 19 43 8f 3f
       1.3063449 0.0052457503 -0.05068091 1.1192352
000130 38 94 62 bf f8 bd 7c bf 4b 11 b4 3d bf 28 03 bf
       -0.88507414 -0.9872737 0.08792361 -0.5123405
000140 92 52 2c be c0 6d 8f be 34 f2 a7 3e 79 b0 72 3f
       -0.16828373 -0.2801342 0.32801974 0.94800526
000150 9b 4e da 3d 8d 61 95 3b 6d dc ad 3d 36 ef de be
       0.10659524 0.004558748 0.084893085 -0.43541878
000160 2f c7 bb 3e d5 93 2a bf 5a a1 02 bf 98 bc bd 3b
       0.36675403 -0.66631824 -0.5102745 0.0057903044
000170 6c 2c 9c 3e 92 72 90 3e a2 5c 82 3d e7 27 02 bf
       0.3050264 0.2821241 0.063653246 -0.50842136
000180 54 98 4f be 1a 4b 23 3d a1 0a 9c 3f 21 76 28 bf
       -0.20272952 0.039866544 1.2190744 -0.6580525
000190 7c 0c 9e be 69 00 6b 3d 20 5a 99 be f7 ea 9d 3e
       -0.308689 0.057373438 -0.29951572 0.30843326
0001a0 1f 2d 71 bf eb 2c 27 3f b2 c9 cc bc 02 35 3e 3e
       -0.94209474 0.65302914 -0.02499852 0.18574908
0001b0 f9 22 44 be 28 51 ca bf bb 4d 40 3e cb df fc 3e
       -0.19153966 -1.5806017 0.18779652 0.4938949
0001c0 c0 a9 b4 be 3a 15 95 bf bf 28 91 be e4 23 5e 3f
       -0.3528576 -1.1647103 -0.283514 0.86773515
0001d0 92 b9 89 bf f9 c7 90 3d c7 81 b5 be 94 b8 fa 3d
       -1.0759757 0.07069392 -0.35450575 0.12242237
0001e0 9a 13 3c 3e 13 ed 18 be 8f 9f 44 bf 4d 39 ca 3d
       0.18366852 -0.14934187 -0.7680597 0.098742105
0001f0 ab 57 99 3f 67 89 3d be f7 62 7f 3d 65 25 50 be
       1.1979879 -0.18509446 0.06235024 -0.20326765
000200 ca cc 39 3e 4a fb 50 3f bc f9 89 3e 49 a3 be bc
       0.18144527 0.81633437 0.26948345 -0.02327122
000210 5d 8f 77 3f ea 31 20 3f d6 60 a6 be 91 91 fa bd
       0.9670313 0.6257616 -0.32495755 -0.12234796
000220 2c 6d 41 be 3b 7b b8 3f 72 d0 36 bd 2a 9e dd 3e
       -0.18889302 1.4412607 -0.044632383 0.43284732
000230 6e c0 1b 3f f5 4f b0 3e 34 44 87 3e fa c2 1a be
       0.608405 0.34436002 0.26419222 -0.1511344
000240 b2 56 33 3e ce 40 51 3d 2e 1b a8 3e 03 34 e9 be
       0.1751354 0.051087193 0.32833236 -0.45547494
000250 a4 1c c9 3d e5 e9 3d 3e f1 30 b2 bf 25 04 c2 3e
       0.09819916 0.18546255 -1.3921186 0.37893787
000260 08 66 7b be 57 59 84 be 12 19 b1 3b 38 83 11 3f
       -0.2455064 -0.2584941 0.0054046 0.5684085
000270 d3 1a 3c bd 5a 06 18 3e b4 99 7c be 10 4a 07 bd
       -0.04592402 0.14846173 -0.24668008 -0.033029616
000280 da 33 2e 3d d9 57 1f be f2 9b 05 3c a3 ff 67 3f
       0.04252992 -0.15560855 0.008154856 0.90624446
000290 c2 d1 eb be da 31 d2 3e 29 75 54 bc d5 74 2f 3f
       -0.4605847 0.4105366 -0.012967386 0.68537647
0002a0 52 ea bf 3d 30 7e 24 bf 88 e7 3b 3d 68 2f a1 3e
       0.09370865 -0.64255047 0.045875102 0.3148148
0002b0 d9 09 80 be dc c2 3e 3f c4 23 06 3f fd 81 b1 3d
       -0.25007513 0.7451608 0.52398324 0.086673714
0002c0 9c a0 ed 3e 98 b3 ad bf b8 29 1f be db 99 a5 3d
       0.46411598 -1.3570433 -0.15543258 0.08085986
0002d0 6d cc 9d 3e 7b 08 a0 3d 6d b9 c7 3e 84 7f a0 3e
       0.30820027 0.078141175 0.39008656 0.31347287
0002e0 ea ed 19 3e 96 9a 77 bd d5 d2 98 3f c6 6a 71 3d
       0.15032163 -0.06045016 1.1939341 0.058939718
0002f0 d1 f6 8d be 6d 85 b6 bf 4f 07 1c bd aa 3a 65 3e
       -0.27727368 -1.4259468 -0.038092908 0.2238566
000300 8d f8 49 3f 17 5d e4 bd 54 26 ef be df 56 0b 3f
       0.78894883 -0.11150568 -0.4670893 0.5442943
000310 c9 e0 ad be 58 73 9d 3e 72 34 6c 3e a0 54 1c be
       -0.3396056 0.30752063 0.23066881 -0.15266657
000320 c4 2b cc 3d 7c 1d 1b be 5b 57 ff 3c 39 e0 c6 3e
       0.09969285 -0.15147966 0.031169584 0.38842943
000330 0a 7c 4b 3e 05 9c 8b bd 57 45 75 be 20 1e 31 3d
       0.19871536 -0.06816868 -0.23952232 0.04324162
000340 4a 0f cf 3d d2 35 39 c0 50 73 c1 bd 02 f7 d6 bd
       0.10110338 -2.89391 -0.09445822 -0.10496332
000350 fb a6 03 3d 17 f0 94 bc 63 5f 58 3e b9 34 21 be
       0.032141667 -0.01818089 0.21130137 -0.15742768
000360 95 25 99 3e d9 1d 99 be c0 df bf 3e f7 b0 c9 bd
       0.29911485 -0.29905584 0.37475395 -0.098482065
000370 52 5b d5 bd f5 b9 81 3e 53 73 a0 3e 50 03 f0 3d
       -0.104178086 0.25337186 0.31337985 0.11719382
000380 75 d6 a3 be af 1c ae 3d 88 08 44 3f 5e b7 17 bf
       -0.31999555 0.08501565 0.7657552 -0.5926417
000390 29 1b 53 3e 24 35 da bd 94 7b 86 3f 6c f7 b1 bf
       0.2061583 -0.10654667 1.0506463 -1.3903632
0003a0 ca bf ba be 90 7c 14 3f 41 f9 0a be 40 2f 67 be
       -0.36474448 0.5800257 -0.13571645 -0.22576618
0003b0 37 4a 20 3e 44 6a 8d bf 3b f8 09 3e 89 99 eb 3c
       0.1565331 -1.1048055 0.13473599 0.028759735
0003c0 15 da d1 3e 8c fa a0 3e 63 6f 90 3d aa 7c ef bc
       0.40986696 0.31441152 0.07052495 -0.02923425
0003d0 62 a7 88 3f 2d 03 10 bd 24 9f 4b 3f 47 9a 16 3e
       1.0676081 -0.03515928 0.79539704 0.1470729
0003e0 78 fc f5 3b c9 11 7e bb 16 d1 73 bd ba 77 7d be
       0.0075069033 -0.0038767925 -0.05952557 -0.24752703
0003f0 4d 86 8d 3d 6e 22 47 3e f3 0d 6c 3e 84 87 87 3e
       0.069103815 0.19446728 0.23052196 0.26470578

fc2.bias f4 [128]
000000 7a 63 4a 3e 99 08 28 3e f2 c5 35 be 6d f9 ec 3d
       0.1976451 0.1640953 -0.17751291 0.11571012
000010 57 1b 44 3c 3e 39 1d be 0a 16 02 3b da 32 90 3c
       0.011969409 -0.15353867 0.0019849562 0.017602373
000020 0a fc 1c 3e 86 14 31 3e 3e de 17 3e 69 c4 1e bd
       0.1533052 0.17292985 0.14830872 -0.03876153
000030 de 75 00 3c d8 48 50 bd 20 e0 9a 3d 54 88 ff 3d
       0.007840602 -0.05085072 0.0756228 0.124771744
000040 74 bc 03 3d 37 29 be 3d 95 f3 5c bc 3e b1 68 3d
       0.032162145 0.09285205 -0.013485809 0.056809656
000050 c5 02 29 be d0 fa 8c 3d 52 bf 58 bd e2 a7 a5 3c
       -0.16504963 0.06883776 -0.052916832 0.020221654
000060 57 23 57 3d d1 2d 03 3e f7 49 69 3e 69 cb 43 3c
       0.052523937 0.12810446 0.22782122 0.011950352
000070 27 bc 08 3e 84 9d e6 3d 39 59 19 3e b3 bd 8a 3d
       0.13353024 0.112605125 0.14975442 0.067744635
000080 af fe 85 3e 09 47 1e 3e ac ee 8f 3d 43 16 f3 3d
       0.2617087 0.15456785 0.07027945 0.118694805
000090 a2 72 48 3d 2b 80 8f 3e 24 df 98 3d ab ec 65 3e
       0.048937447 0.28027472 0.07464436 0.22453563
0000a0 ea c5 5b bc cf 07 36 3e 52 9b 9c bc a6 ba 98 bd
       -0.013413886 0.17776416 -0.019117031 -0.07457475
0000b0 24 23 87 bd 72 53 ff bd 65 35 89 3e 6a db 6e 3d
       -0.065984994 -0.12467088 0.2679855 0.05831472
0000c0 bc 06 b3 3e cc f1 c3 ba 5b 89 f0 bd 9f 40 b0 bc
       0.34966075 -0.001494938 -0.117449485 -0.021515189
0000d0 b4 af 2b be a8 a6 1e be c8 90 76 3e c2 f4 1a 3e
       -0.16766244 -0.15493262 0.24078667 0.1513243
0000e0 3e 63 9c 3e 1b 4e 36 3e 05 e2 94 bc 59 96 8d 3d
       0.30544466 0.17803232 -0.01817418 0.06913442
0000f0 84 c7 11 be ae 90 45 3e 83 51 fd bd e3 5f 95 3e
       -0.14236265 0.19293472 -0.12369063 0.29174718
000100 cc da 42 3e dd f5 71 3e 79 46 6c 3e d8 e7 84 3e
       0.19028777 0.23628946 0.23073758 0.25958133
000110 5a 7a f5 3d 50 db 2c be d0 d1 42 be 18 32 10 be
       0.11986227 -0.16880536 -0.1902535 -0.14081609
000120 cd 5b 6d bc 67 29 35 bb 20 e9 36 3e eb e9 0f ba
       -0.014487219 -0.0027643086 0.17862368 -0.00054898736
000130 b6 ea 2f 3e 76 6f 47 3e 38 cd 83 3e 3e 8b 21 3d
       0.17179379 0.19476113 0.25742507 0.039439432
000140 6a b0 53 3e 40 98 72 3d bd c6 23 3d 51 b9 f7 bc
       0.20672765 0.05922723 0.039984453 -0.030239733
000150 b1 f0 08 be 00 63 06 3e c3 32 b6 3d c8 dc 7a 3d
       -0.13373066 0.13123703 0.08896401 0.06124571
000160 c1 91 98 3d c7 fe 40 3e 26 0a a2 bd 73 86 c7 3d
       0.07449675 0.1884719 -0.07912092 0.09742441
000170 5a 52 db 3d 47 e7 8e 3e e2 aa 82 bd 64 ef 6d 3e
       0.10709067 0.27910826 -0.063802496 0.23235852
000180 df 9d 13 bc 63 71 bd 3d d1 39 30 3e b9 53 92 3c
       -0.009009807 0.092501424 0.17209555 0.017862188
000190 24 bd 60 3d bd b7 b1 bc eb e2 e5 3c 89 38 35 be
       0.05486788 -0.021694059 0.028062304 -0.17697348
0001a0 f1 01 49 3e 38 de 0c bd 74 48 d2 3d f2 79 1d bd
       0.19629647 -0.03439161 0.102677256 -0.038446374
0001b0 39 32 37 3d 95 61 04 3d 4b 76 99 bd d9 1f cf bc
       0.04472563 0.032319624 -0.07493266 -0.02528374
0001c0 70 60 e4 bd 46 a3 2a 3d 40 7b 19 be 51 60 0b 3e
       -0.111512065 0.041659616 -0.14988422 0.1361096
0001d0 bb 7f 1a be b9 a2 5b 3c 09 2d f6 3d bd 9c 71 bd
       -0.15087788 0.013405495 0.120203085 -0.058987368
0001e0 62 a0 5f 3d 8b 5e db 3d 62 f8 dd 3d 2b 46 e7 3d
       0.054596312 0.10711392 0.10838391 0.1129268
0001f0 58 08 21 3d 98 94 9e bd a1 38 df 3d 66 a5 16 3e
       0.039314598 -0.07743186 0.10899473 0.14711532

fc3.weight f4 [6, 128]
000000 77 e5 87 3f 1d 28 9a be 3e ff 05 be 83 eb 7b bf
       1.0616902 -0.3010873 -0.13085648 -0.9840624
000010 b4 51 1a bd 14 d1 aa be 99 ea 68 3d 4a ab 60 bf
       -0.037675574 -0.3336264 0.056864355 -0.87761366
000020 c6 c2 40 be 35 68 1e 40 87 6b 36 bf ad 45 60 3f
       -0.188243 2.4751103 -0.71257824 0.87606317
000030 03 60 fa be 2c 8d 83 bf d4 c3 bf 3e a0 1a ba bf
       -0.48901376 -1.0277457 0.37454093 -1.4539375
000040 40 c9 a3 3e c9 ec 97 3e d8 a1 07 3f 50 c9 1e be
       0.3198948 0.2967284 0.5298133 -0.15506482
000050 79 61 8e bf c0 35 b5 3e 30 ec 3a be a3 e3 94 3e
       -1.1123496 0.3539257 -0.18254161 0.29079923
000060 57 79 17 bf 0a 60 bf bd 54 13 b8 3e f7 0d e4 3f
       -0.59169525 -0.0934449 0.35952246 1.7816762
000070 0a 26 72 bd 25 f1 28 bf ea fb 7b 3f 73 d3 61 c0
       -0.059118308 -0.6599296 0.98431265 -3.5285308
000080 6b 04 0c 3e d6 95 eb be 75 5a 42 3e 7c 10 ea 3e
       0.1367356 -0.46012753 0.18979819 0.45715702
000090 52 ab 01 3f 00 63 d5 3f 33 40 26 3e 92 cd 41 3e
       0.5065204 1.6670837 0.16235428 0.18926075
0000a0 84 7b 7b bf 85 3a 25 3f 28 26 99 3f 6e 1f 8b 3f
       -0.98235345 0.6454242 1.1964769 1.0868967
0000b0 a2 83 3c bf fb 4e 8a bf 9c a2 3c 3f ad 08 1b 40
       -0.73638356 -1.0805353 0.7368562 2.4224045
0000c0 81 a1 bd 3f 7f 26 d6 be b2 24 db 3f 5a 2f 95 3e
       1.4814912 -0.41826245 1.7120574 0.2913769
0000d0 1d 91 60 bf d7 d3 88 3f 74 ea 84 be 4f 18 13 bf
       -0.87721425 1.0689648 -0.25960124 -0.57458967
0000e0 20 c0 03 bf 31 45 0d 3f c6 79 a4 bc 47 25 0f 3e
       -0.51465034 0.551837 -0.020077597 0.13979064
0000f0 b0 81 dd be de bf 6b bd 5b e5 1b bf cf 3d 7f 3f
       -0.43263006 -0.057556026 -0.60896844 0.9970369
000100 48 9d 33 c0 43 5d 8a bf d1 e8 2d bf a9 67 0a c0
       -2.8064747 -1.0809711 -0.67933375 -2.162577
000110 30 47 c6 3e ef 6a 4b 3f 7f 4f 7c c0 89 dd 7e be
       0.38726187 0.7946004 -3.942352 -0.24889196
000120 21 5b 3c be cd a9 da 3d a5 88 a2 3f 4f 29 be 3d
       -0.18394138 0.10676918 1.2697951 0.09285223
000130 8d d4 87 bf 01 9f 4d 3f ff 79 a9 3d 35 2b aa 3f
       -1.061174 0.80320746 0.08275222 1.3294436
000140 e8 f1 69 be 9a d9 b6 be 99 53 dc be b6 c0 65 c0
       -0.22846186 -0.35712892 -0.4303253 -3.5898871
000150 79 6d 94 bd 73 ea 4e 3f 60 45 3b 3e 34 50 38 bd
       -0.07247443 0.8082649 0.18288183 -0.044998363
000160 fb a8 84 3f fe 6e 8f bf 89 7c 44 bf 5a 44 85 3d
       1.0364069 -1.1205747 -0.76752526 0.06507178
000170 bc 4b 4c 3e 64 36 1a bf 85 11 11 3f 3b 84 87 bf
       0.19950765 -0.60239244 0.5666736 -1.0587229
000180 05 cb a9 bf 91 64 84 be 9f 25 5f 3e 59 9a 99 be
       -1.3265082 -0.25857976 0.21791695 -0.3000057
000190 59 af 66 bb 66 33 82 be c2 f2 91 be 60 58 89 be
       -0.003519973 -0.2542984 -0.28505522 -0.26825237
0001a0 e4 8d 86 3f eb 9c af 3e 97 4e 9c 3e 41 92 19 bf
       1.0512052 0.34299406 0.3052871 -0.5998879
0001b0 9b 6e 05 bf d3 55 dc 3d 3e f7 94 bd 83 88 b8 bf
       -0.52121896 0.10758557 -0.0727372 -1.441666
0001c0 d8 47 9c bf 97 a8 21 3f 88 69 9c bf 2f 27 2c 3e
       -1.2209425 0.6314787 -1.2219706 0.16811822
0001d0 c6 84 1f be a6 4d 0d be 25 e4 26 40 9c 57 4d bf
       -0.15577993 -0.13799152 2.6076748 -0.80211806
0001e0 b8 b9 34 bf a6 9d 19 bf 02 32 14 3e bf e5 49 3e
       -0.70595884 -0.6000618 0.14472201 0.19716547
0001f0 e5 9e 98 bf a2 52 89 3f be b5 cf 3e 2b a6 18 c0
       -1.1923491 1.0728343 0.40568346 -2.385142
000200 66 be f0 40 f0 12 fa 3e c6 21 c4 bc b4 17 43 3d
       7.523242 0.48842573 -0.023941886 0.047630027
000210 6c 6e 50 3d 84 21 a8 3e 9c b2 7b 3d 12 58 19 bf
       0.050886557 0.3283807 0.061449632 -0.5990001
000220 41 ce 00 3f 83 2f 0b bf 7a 79 d6 3e b9 a9 61 bf
       0.5031472 -0.5436937 0.41889554 -0.881496
000230 78 a0 3c 3f bd 9a c1 bd 37 3b ed 3e d1 f8 29 bf
       0.73682356 -0.09453342 0.4633424 -0.6639529
000240 81 aa 9d bf c8 a2 80 bf eb c8 a5 bf 2f f0 4a bf
       -1.2317659 -1.0049677 -1.295194 -0.7927274
000250 dc aa b0 3d bd 2d 1f bf 03 d9 83 bc 9f 1c 0a be
       0.08626339 -0.62179166 -0.01609469 -0.1348748
000260 09 06 78 bf 21 47 45 3f 69 2b 98 3e 40 15 63 be
       -0.9688421 0.7706166 0.2972062 -0.22176075
000270 38 f8 2c bf c9 84 cb be bf fe 54 3e f9 1a ad be
       -0.6756625 -0.39749745 0.20800303 -0.3380964
000280 ad 55 cb 3f 66 6d 8b bf cf e4 7f 3e 0a 48 b7 3e
       1.5885521 -1.0892761 0.24989627 0.3579715
000290 95 f8 b9 bf f6 7a 60 3f 63 ed a0 3e 5a 19 dd 3d
       -1.4528986 0.87687624 0.31431112 0.10795851
0002a0 3f a9 09 c0 64 15 30 bf 6f 64 e0 3d 54 18 af bc
       -2.150955 -0.6878264 0.10956656 -0.021373905
0002b0 da 5b 32 bd 4c 93 9c be 6d 6a 87 3f a9 26 7d bf
       -0.043544628 -0.3058113 1.0579354 -0.98887116
0002c0 49 37 35 be 15 f6 27 3e b9 9e 18 c0 d5 20 3d bf
       -0.17696871 0.16402467 -2.3846877 -0.7387822
0002d0 51 c7 0c bf 35 a0 64 3e 80 00 dd 3e 16 55 16 3f
       -0.5499163 0.22326739 0.43164444 0.5872358
0002e0 6c 0b e7 bb 18 f6 77 bf 9d d1 04 3d 8e 3c af 3e
       -0.007050922 -0.96859884 0.032426465 0.34225887
0002f0 4c 0a 2b bf b3 f2 95 3f 24 65 21 bf cf 8c 27 3e
       -0.66812587 1.1714691 -0.63044953 0.16362308
000300 87 4b 13 3f 7c db 0e 3f d0 b3 94 3f 8c ce ba bf
       0.5753712 0.55803657 1.1617374 -1.4594283
000310 20 02 93 be e7 64 e4 3e c9 95 b6 bf 0b ff 8e 3c
       -0.2871256 0.44608232 -1.4264461 0.017455598
000320 36 4d 41 3e 74 16 b2 3e 34 87 47 bf 4e 17 ce 3c
       0.1887711 0.34782755 -0.7794068 0.025157597
000330 39 d3 86 3f 3e eb 24 3f da fa 96 be 3e d4 1a bf
       1.053321 0.6442145 -0.2948826 -0.60480106
000340 45 b4 1e bf ab f5 79 3e 2b d5 df 3e 12 20 67 3e
       -0.6199382 0.24410121 0.43717322 0.22570828
000350 d2 45 49 bf e7 69 ae 3e c0 24 60 bf f4 43 ba 3e
       -0.7862216 0.34065172 -0.87556076 0.3637997
000360 1b 68 58 bf 61 0a 0b bf 08 30 b9 bf bf db cc 3e
       -0.8453385 -0.5431271 -1.4467783 0.40011403
000370 ba 54 2f 3f 23 2b 95 3f fc bc b7 3f 77 87 b1 3f
       0.6848866 1.1653789 1.4354548 1.3869466
000380 76 ed ba bd 71 fe f4 bf 77 35 d1 3e 2e d7 67 3e
       -0.09127323 -1.9140149 0.40861103 0.22640678
000390 d9 bd ed 3e 90 a7 66 3e e1 06 cb be 45 30 8d bf
       0.46433905 0.22524858 -0.39653686 -1.1030356
0003a0 a2 ed 0d 3f 37 67 81 3e 38 85 ef bd b9 35 6b 3f
       0.55440724 0.2527406 -0.11695331 0.9187885
0003b0 be 00 d6 be 57 83 62 bf 52 7c 8d bd e1 e6 59 be
       -0.4179744 -0.8848166 -0.06908478 -0.2127948
0003c0 a0 14 6c be e1 6e 05 bf c5 12 5b bf 52 9f 25 3e
       -0.23054743 -0.5212231 -0.85575515 0.16174057
0003d0 dd d6 41 3f bb f3 d3 3f cd 73 02 bf f2 ef 8e be
       0.7571848 1.6558756 -0.5095795 -0.2791744
0003e0 10 51 b0 be 6e f2 c1 3c 8e 91 1d bf 2d 94 04 3f
       -0.34436846 0.02367517 -0.61550224 0.517886
0003f0 a3 ea 86 3e a4 3d 1a 40 c2 c2 ec 3e e3 e9 6f bf
       0.2635089 2.4100122 0.46242338 -0.9371626

fc3.bias f4 [6]
000000 34 b7 06 3e d5 c0 35 3e 42 83 d1 3d 73 59 08 be
       0.13155824 0.17749341 0.102301136 -0.13315372
000010 91 d4 a1 bd 8a d2 b3 3d
       -0.07901872 0.087803915
