demo/4_2_2tran2_3_act2/actor_7.pth (torch, 83208 bytes, 6 tensors)

fc1.weight f4 [128, 22]
00000000: 3248 b33f 792d 6dbe ea6c 993d 0fbb 79be
00000010: ee47 09bf e734 27bd 780a 003e 8443 be3d
00000020: 13a9 323e f2d1 7abd 12fc 403d db5f aaba
00000030: 996a 363f 5cf1 a2bf cbe3 1c3f 5e3e 07bf
00000040: f7d4 d23f 34ee 17bf 9b4a f13d d98b 8abc
00000050: 2629 1a3e b05d fc3d b039 423e 6981 ad3e
00000060: bba8 c7be b361 413e c735 41be ae8b cc3e
00000070: 4de2 ab3c 277c b7bc c544 07bd e763 a43c
00000080: 1663 c1bc eb10 ad3d 1e1e 9a3e df97 03c0
00000090: 2192 bebe cdd8 05bf a3c8 483f f0db ce3c
000000a0: 8ce9 cc3d 7f2f db3d 8b33 1fbe c63f f53d
000000b0: 6c5e 923f a95a d7be 2094 36be 018e 10bf
000000c0: 6fa5 ddbc 9564 dfbe 1004 30bd bce5 24bd
000000d0: 922f d33d 15a0 173e 63f3 0a3c c3e5 cebd
000000e0: ed7f 90be 6327 89bf 4e54 183f d05e 2fbf
000000f0: 2154 06c0 a0e5 bebe b191 6b3e c900 523e
00000100: c915 603b 99a3 f8bd 3073 dc3d 2eeb 893e
00000110: ea39 c2bd 2957 853e 4220 0f3e ff26 423d
00000120: 269c a2bd 238c 243d bd7e 4c3d 416f 9a3c
00000130: c7aa 21bd 349a 173d f7f7 93bf e54f 50bf
00000140: e24e 0abe 648f 893f d850 e13f 18f2 523f
00000150: b96e f23d f761 b9bd bf3a 6b3e 9404 033b
00000160: 60af edbe 0d41 143f a550 37be 1b31 893b
00000170: f134 31bd 5485 2bbf 45a2 5cbd b9d0 b13d
00000180: bf04 ba3c e526 36be 0404 45bd e629 a6bd
00000190: b5b2 fabe b472 6abe 4ba5 9e3d 42ad 9dbf
000001a0: 89a6 933f 94a7 0cbe 675f b63c 62e7 49be
000001b0: b816 7bbc ad56 783d b651 b33e 4f5c a0be
000001c0: 4429 d2be 19a9 58bf fb19 363d cf89 05bf
000001d0: 3434 103d 0ca8 9dbd 65f4 62bd e837 4ebd
000001e0: 4a37 fa3b 7a85 ce3c 58ee 0d3a dbb5 f0bd
000001f0: 161e 90bf dfa3 be3e 3209 ee3f 38cf 583f
00000200: d8dc 0c3d 7f91 1fbd 59fa 643e a1ba fb3d
00000210: 46bd 1e3f ad39 403e 1e94 77bd 33a2 d33e
00000220: 4c79 853d 0320 63be 016e b73d e103 67bb
00000230: c71e c5bc 42d8 55bc 5804 d6bd 4558 c43c
00000240: a57a 7ebe 8794 d3bf a515 673f 36b9 f8bd
00000250: fee5 15c0 d1bc 86bf 65b8 613e 6bcb 4f3e
00000260: cf10 43be bc2e 48be 39c6 55bf da3d e23e
00000270: db31 c83d 6126 893e 99af f4bd d9d1 0bbe
00000280: e843 c2bd 300b 683d 0e1a 2a3d 0e1d e03c
00000290: 11a7 34bd c41c 12ba 740a 1dbf c423 db3f
000002a0: f54f 9d3c b7a4 983e 1d67 3640 acb6 56bf
000002b0: bdf3 4d3e e59b 0abe 14cd 31be 8229 98bd
000002c0: 7b5c bcbc bde5 693d 5c74 b4bd fd9b debd
000002d0: e595 50bd c9fe 613e 9408 2e3d f50c 913c
000002e0: bf81 1c3e c131 16bd 2172 76bd cba7 38bd
000002f0: 37eb 32bf 4132 95be a703 963d 905e 713f
00000300: 7e25 863f cb4a af3f f4f5 eabc 613c 93be
00000310: 4060 7c3b 29a5 d13d bed2 43be a8fb 643e
00000320: 1f16 9abd a960 f63e e409 08be 7135 f63e
00000330: 80bf 1a3c 5a87 f43d 88b8 13bd 249c d03c
00000340: bc4d dc3d ec19 97bc 94fb 0abf d23e 293f
00000350: f2b7 b3be 9bec 8bbf 0871 31bf eba6 2c3f
00000360: d5f5 083e 5547 853c a7e2 703d ed20 34be
00000370: dc39 c03d fdb4 043b 5846 d9be 9832 023e
00000380: 3a35 153e 2e7c 84bc b7a0 f8bd 624b 273d
00000390: 8c5f 64bd 9f5b 913c cd39 b63b 532c 34bd
000003a0: d02e e0bc 6228 b73e fb41 8fbf 9d88 66bf
000003b0: fd53 fc3d 8693 9e3f 8fc1 4dbe 3896 5c3c
000003c0: 93ed acbd ea42 973d 6e25 bbbe d0f2 743e
000003d0: a8ab 7dbe 490f cebe 6ca8 65be 3c43 7b3e
000003e0: 9e54 12bd 27f3 13bd 7864 883d 7241 f33d
000003f0: e185 babc 0ed6 68bd 8906 833f 8f67 633f
1.4006407 -0.23161878 0.07491477 -0.24387763 -0.5362538 -0.040821936 0.12503994 0.09290221
0.17447309 -0.061235376 0.047115393 -0.0012998538 0.71256405 -1.2729907 0.61285084 -0.5282954
1.6471242 -0.59347844 0.11781808 -0.016912388 0.1505476 0.12322557 0.18967319 0.33887795
-0.3899592 0.18884926 -0.1886817 0.39950317 0.020981932 -0.022398068 -0.033024568 0.020067168
-0.023606818 0.084504925 0.30101103 -2.0561445 -0.37220863 -0.52283937 0.7843115 0.025251359
0.10005483 0.107024185 -0.15547006 0.119750544 1.1435065 -0.42061356 -0.17829943 -0.5646668
-0.027056424 -0.43631425 -0.042972624 -0.040258154 0.10311808 0.1480716 0.0084808795 -0.10102417
-0.282226 -1.0715145 0.5950364 -0.6850405 -2.0988848 -0.37284565 0.23004796 0.20508112
0.0034192672 -0.12140579 0.10764158 0.2693724 -0.094837025 0.2604306 0.13977149 0.04740047
-0.07939939 0.040172707 0.049925555 0.018851878 -0.039469507 0.037012294 -1.1560048 -0.8137191
-0.13506654 1.0746884 1.7602797 0.82400656 0.11837525 -0.090518884 0.22971629 0.0019991742
-0.46422863 0.5791176 -0.17901857 0.004186762 -0.04326338 -0.6700032 -0.05386569 0.08682389
0.022707341 -0.17788275 -0.048099533 -0.0811346 -0.48964468 -0.22895318 0.07746371 -1.2318499
1.1535197 -0.13735801 0.022262288 -0.19717172 -0.015325241 0.060629535 0.35023278 -0.31320426
-0.41047108 -0.8463302 0.04445837 -0.52163404 0.035206035 -0.07698068 -0.055408854 -0.050346285
0.0076359855 0.025210131 0.0005414239 -0.11753436 -1.1259181 0.372344 1.8596556 0.8469119
0.0343903 -0.038957115 0.22361125 0.12291456 0.6200756 0.18772002 -0.06044399 0.41334686
0.06517276 -0.2218018 0.089565285 -0.0035250115 -0.024062527 -0.013052048 -0.10450047 0.023967871
-0.24851473 -1.6529702 0.902674 -0.12144701 -2.3421626 -1.0526372 0.22042997 0.20292442
-0.1904938 -0.19549078 -0.8350559 0.44187814 0.09775134 0.26787093 -0.11947555 -0.1365427
-0.09485608 0.056651294 0.041528754 0.027357604 -0.04410464 -0.00055737444 -0.61344075 1.712029
0.019203166 0.29813167 2.8500435 -0.83872485 0.2011251 -0.13536032 -0.17363387 -0.07429792
-0.022993317 0.05710386 -0.08811256 -0.10869596 -0.0509242 0.22069849 0.04248865 0.017706374
0.15283869 -0.036668543 -0.060167436 -0.045081895 -0.6989016 -0.29139903 0.073249154 0.94284916
1.0480192 1.36947 -0.028681733 -0.28757003 0.0038509518 0.1023658 -0.1912336 0.22361624
-0.075237505 0.4812062 -0.13285023 0.48087648 0.009445071 0.11939879 -0.036064655 0.025465079
0.10757014 -0.018444978 -0.5429013 0.6611148 -0.35101277 -1.0931581 -0.69313097 0.67442197
0.13375027 0.016269365 0.058809903 -0.17590685 0.09386036 0.002024948 -0.4243648 0.12714612
0.14571086 -0.016172495 -0.12140029 0.040843375 -0.055755183 0.017743884 0.0055610896 -0.043987583
-0.027366072 0.35772997 -1.1192011 -0.90052205 0.12320707 1.238877 -0.20093368 0.013463549
-0.08443751 0.0738581 -0.36551994 0.2392075 -0.24772513 -0.40246037 -0.22427529 0.24537367
-0.03572523 -0.03612056 0.06659788 0.11877717 -0.022768917 -0.056844763 1.0236369 0.8882989

fc1.bias f4 [128]
00000000: afa3 b6bc 4bae 80bc bd69 463d 15de 0b3f
00000010: 6557 2d3e 37ea 7d3d 4eaf 093c c1d6 cc3e
00000020: 4a91 123f 2614 673e c1a4 203e 9c99 303d
00000030: db05 dc3d 9e68 b9bc 182b 933e bf81 5dbe
00000040: 5f98 1cbb a760 e63e f484 9f3e 12c2 2fbe
00000050: ec83 8b3d d295 ddbd e538 81be f169 83bd
00000060: 7b5a 56bd 0c40 753d 733c 7cbd ad60 423e
00000070: 8f12 f73e ce4f 263e 5da3 16be 6400 173e
00000080: dc26 77be a755 a13d 59c5 733e 1852 b13e
00000090: a85c 68be aa04 c23e e2cd 29be 3321 d83e
000000a0: 495e c1bc 686e 87bd a99c 983e 7426 173e
000000b0: 60a4 0b3f 3e7b a53d 0d35 373e 8c9a 33bd
000000c0: 0164 293d 04ce 703e c65d b73d 0c6c 033f
000000d0: 9d99 363d 2822 a63e a5df 023f c24e bf3e
000000e0: 2b47 953e 6d31 443e c1a7 e6bc 599a b7be
000000f0: 4c95 13be f133 343e 06d2 7f3e b184 c4bd
00000100: 625e 9abd f471 09be e730 16be 61eb bb3e
00000110: e3cc db3d 3499 0f3f 2cb3 593d 98db 073e
00000120: c13d ed3e a353 73be aeac ddbd c2eb 0abe
00000130: 09a9 193e b204 b1bd 7259 43bc 44dd dc3d
00000140: f781 abbd 11f1 323d 257e 0a3e 8d76 613c
00000150: 5be9 e63d c484 753e bfe1 0e3f fd11 4ebe
00000160: 1bd6 f63e ce88 763e 0695 f13e cea4 503c
00000170: 8998 183e 55f3 db3d a502 7ebe 0415 ebbe
00000180: 9819 6dbe fb80 f5bb 95f4 44be 2937 cabd
00000190: 8921 cb3e 7a35 d0be 6364 213d da3e b73e
000001a0: 001a 193d 2b57 adbe ec2e 833e 9418 0fbd
000001b0: 02ea 783d 597c 0e3e bd51 873e 2208 adbc
000001c0: f144 263e da4d bd3e fe53 ca3e fd00 95be
000001d0: bd1d 96bd 7f1c dfbd 4a2b c7bd 873a 923b
000001e0: d80b dc3d 1be6 2a3e c2dd 333e 1666 36be
000001f0: 4e2c 873e 33c1 ffbd 8d83 cbbe 09e6 0e3d
-0.022294847 -0.01570811 0.048440684 0.54635745 0.1692787 0.061990943 0.008403612 0.40007594
0.57252944 0.2256628 0.15687849 0.043115243 0.10743304 -0.022632893 0.28743815 -0.21631525
-0.0023894531 0.44995615 0.31156123 -0.17163876 0.068122715 -0.108195916 -0.2523872 -0.06416691
-0.052332383 0.059875533 -0.061581086 0.18982191 0.48256347 0.1624138 -0.14710756 0.14746243
-0.24135917 0.07877665 0.23805751 0.34632945 -0.22691596 0.37894183 -0.16582444 0.4221283
-0.023604529 -0.06612855 0.29807022 0.14760762 0.5454769 0.08080147 0.17891331 -0.04384856
0.041355137 0.23516089 0.08953433 0.5133674 0.04458009 0.32447934 0.51122504 0.37364775
0.2915586 0.1915948 -0.028156163 -0.35859945 -0.14412421 0.17597939 0.24982461 -0.095956214
-0.07537533 -0.13422376 -0.14667092 0.36703017 0.107324384 0.56093144 0.053149387 0.13267362
0.46336177 -0.23762374 -0.10823952 -0.13566497 0.15005888 -0.08643474 -0.011923181 0.107843906
-0.08374398 0.04368693 0.13524683 0.013761175 0.11274978 0.23976427 0.5581321 -0.2012405
0.48210225 0.24075624 0.47184008 0.012734605 0.14901938 0.10739771 -0.24805696 -0.4591447
-0.23154294 -0.0074921823 -0.19233926 -0.09873802 0.39674023 -0.406658 0.039402377 0.3579014
0.03737831 -0.33855566 0.25621736 -0.03493555 0.060770042 0.13914622 0.2642955 -0.021122042
0.16237237 0.3697346 0.39517206 -0.29102316 -0.07329891 -0.10894107 -0.097250536 0.0044625434
0.107444465 0.16689341 0.17565063 -0.1781238 0.2640099 -0.12488022 -0.39748803 0.034887347

fc2.weight f4 [128, 128]
00000000: b28a f73e bc68 18bf cbd1 693d 50f9 8abf
00000010: d3a5 8a3e 88f0 5ebf ef4f 063e c782 7b3d
00000020: 4fc2 80bf 6a5a 5abd 40bd cebe 9cec 673e
00000030: d270 fc3d 41d8 fcbf d8f4 33be fb48 f0be
00000040: 0f5c 9a3f b5f0 963f 8509 d3be c92e 90be
00000050: f04d 413e 9d8d 0dbf 05de 533f 4e79 d23f
00000060: d8f3 943e 3921 d93e 199b b73f b64b 01c0
00000070: be73 af3e a530 d2bd 0c29 983f 5baf a2bd
00000080: cfc0 393f 8e35 733f e8ea c2bd 2c0f a3bf
00000090: 72bd f1bd 0b43 61bf 4a13 183e 22db b4be
000000a0: 5374 06be 1287 25bf 02ba ff3e 4f6b b73e
000000b0: 71f5 8bbf 2910 b0bf 1018 703f f4ad a2bd
000000c0: a72a bcbe 6374 c4bf 19ec 9bbe 2fa5 8cbe
000000d0: 1e7f 333f f20f d23e a9f9 a8be e0c8 48bf
000000e0: 33b9 3e3f 2565 4f3f 5c15 ad3c ab04 e0bf
000000f0: 9b85 93be cf26 273e c0c0 aa3e fa67 783e
00000100: 6ac3 5b3f aa1f 9e3e 6b2e c23e 8e05 ed3f
00000110: c45c dc3d 55da f4be 078f 973e 321f 1abf
00000120: 0d50 51bf 5a5b b5bc 92cc 903f 3ebb 703f
00000130: 1cbe a3bc 441f 4c3d 9e8e 953f 63d5 98bd
00000140: 0721 20bd 446d cdbf 1407 85bf 2b4f ffbe
00000150: 3a92 ff3c 5d2f 3cbf f9ae f4be 4a6a c5be
00000160: 97f8 a23d 503a 80be aec7 81bf 3ff6 943e
00000170: d272 8abe 6478 aebd 7abd ce3e de4b 873f
00000180: 29bf 11bd 7169 953e ea29 1abb f145 8cbe
00000190: 1951 953d cfb7 ddbe 56ba 193e faf5 cf3e
000001a0: 1499 3c3f 7ad7 393f 2ab3 943e daf7 50bf
000001b0: ad6a c5bd 53c9 5a3f 9495 30bf 5693 bf3e
000001c0: 057c 37bf aa33 3ebe e835 b5be 13a5 36be
000001d0: c637 e2bf a89a cfbe 6656 4bbe c831 a03e
000001e0: d2e2 e9bf 63b6 f4be f841 2fbf 6312 0e3f
000001f0: 0b7b 4d3f d49d 163f 5afe 25bf ece3 e33b
00000200: 6c19 613e 943f d8bd 0cb6 9c3e 2ead 85be
00000210: 5326 59bd 684e e43d a173 603e 4267 b13e
00000220: 9f6b 193d 66b5 eb3d ea3d 65bf 9147 9a3e
00000230: e180 01bd 48ac 18bf 7522 53be 116f 623e
00000240: c921 343f 06ef 0a3f b678 b23d d723 913e
00000250: c544 223e 1bde 05bd 08dd 833e 8bff ee3d
00000260: 0755 94be c55f 263d 9955 433e 3af8 a0be
00000270: 9788 963e f8a3 0dbe 8c2d b9bd 359c 68be
00000280: fc7b a63e 9d7f 453e 2ae5 8bbe cd09 8fbe
00000290: 7a37 bebd b669 a13e 7add 043f 19cd a33e
000002a0: d78a a4bd 6401 35be aff6 0a3e ba65 77bf
000002b0: 16a1 733e 60ac 13be 6c65 593f 2bcf 613e
000002c0: 8bf7 ddbe 75cb 673f d14e 72bd 866d 103d
000002d0: 7526 133e bee5 983d bf21 11be 6672 cabd
000002e0: 8ade 833e 9a2c 133f f370 21be 3fe6 bcbe
000002f0: 2d35 20bf 7131 d93d db50 f1be 19e9 033e
00000300: 5f13 693e b1dd 0d3e e4f8 dc3e e51a 10be
00000310: b4de ed3d af92 483f faae 87bf 2c62 fbbe
00000320: af55 13bf 6927 b03e 1281 153d 8e32 5f3e
00000330: 8469 51bd 1aad bcbd eb3e fb3e 9b44 abbf
00000340: d020 aa3e b387 c23e 13c9 eb3d 43bb c03e
00000350: 92f7 a8bc f0ed fcbe ea17 903d 74d7 30bd
00000360: d3a0 8c3e efda 7d3e e480 65bd bbec 1b3d
00000370: 02fb c53d 7c2d 2c3e b94d 913f b3dc aebe
00000380: 189d 0d3e a180 c03e d84b 86be bd41 b5bd
00000390: ebee 703d 2336 d73d 4038 b1be 89b6 1a3e
000003a0: edc2 b53d 8c7e af3e 26f5 e93e 7558 ab3d
000003b0: 0f88 35be 8e31 7a3e c148 83be 819e d83e
000003c0: 7841 d0bd 5726 08be 31b0 8e3e 4440 d6be
000003d0: c06e ed3f 13bc af3e 7c44 813d fa32 99be
000003e0: 7d1e 2a3e ecb4 1fbb ff59 6ebf a265 9a3e
000003f0: b835 c83e 004d 203e 658a aebe 7b86 083f
0.48348004 -0.5953481 0.05708484 -1.0857334 0.2707964 -0.8708577 0.1311643 0.061404016
-1.0059298 -0.05330888 -0.4037876 0.22648853 0.12326206 -1.9753495 -0.17573869 -0.4693068
1.2059344 1.1792208 -0.412182 -0.28160694 0.18877387 -0.5529421 0.8276065 1.6443269
0.29092288 0.4240816 1.4344207 -2.020246 0.34267992 -0.102631845 1.1887527 -0.07943603
0.7255983 0.9500359 -0.09517461 -1.2739005 -0.11803712 -0.87992924 0.14851108 -0.35323435
-0.13130312 -0.64659226 0.499466 0.35824057 -1.0934278 -1.3754932 0.93786716 -0.07943335
-0.3675129 -1.5348018 -0.30453566 -0.27469775 0.7011584 0.4102779 -0.33002976 -0.7843151
0.7450134 0.8101371 0.021128349 -1.7501425 -0.2881287 0.16323398 0.33350182 0.24258414
0.85845053 0.30883533 0.3792604 1.851732 0.10759881 -0.47822824 0.2960131 -0.6020385
-0.8176277 -0.022138286 1.131243 0.9403571 -0.019988112 0.049834505 1.1684148 -0.07462575
-0.039093997 -1.604897 -1.0392785 -0.49865088 0.031197656 -0.7350977 -0.47789744 -0.38557655
0.07957571 -0.2504449 -1.0139062 0.2909412 -0.27040726 -0.085190564 0.40378934 1.0570028
-0.035582695 0.29182008 -0.0023523518 -0.2739711 0.07290859 -0.43304297 0.15012488 0.40617353
0.7367108 0.72594416 0.2904294 -0.8162819 -0.096394874 0.85463446 -0.6897824 0.37417096
-0.71673614 -0.18574396 -0.3539269 -0.17836408 -1.7673271 -0.4054768 -0.19857177 0.3128798
-1.8272345 -0.477954 -0.68460035 0.55496806 0.80265874 0.58834577 -0.64841235 0.0069546606
0.21982354 -0.105590016 0.3060764 -0.26108688 -0.053015064 0.11147767 0.21919109 0.34649092
0.03745615 0.115092084 -0.895476 0.30132726 -0.03161705 -0.5963788 -0.20618613 0.22112681
0.7036405 0.5427097 0.0871443 0.28347656 0.15846546 -0.03268252 0.2575457 0.11669835
-0.2897112 0.040618677 0.19075622 -0.31439382 0.29401085 -0.1383208 -0.090418905 -0.22715838
0.32516468 0.19286962 -0.27323276 -0.27937165 -0.09287925 0.31525964 0.51900446 0.31992415
-0.08034294 -0.17676312 0.13570665 -0.966396 0.23791918 -0.14421225 0.8492038 0.22051685
-0.43352923 0.90544826 -0.059157196 0.0352607 0.14370139 0.07465695 -0.1417303 -0.09885101
0.2575572 0.5748993 -0.15765743 -0.36894414 -0.6258114 0.10605133 -0.47132 0.12881888
0.22761296 0.138541 0.43158638 -0.1407276 0.11614743 0.7834882 -1.0600274 -0.49098337
-0.5755262 0.34405068 0.036500044 0.21796629 -0.05112602 -0.09212704 0.4907144 -1.3380312
0.3322816 0.37994155 0.11512961 0.3764287 -0.020625863 -0.49400282 0.07035811 -0.043174222
0.2746645 0.24790548 -0.056031123 0.03806756 0.096670166 0.16814226 1.1351844 -0.34152755
0.13829458 0.37598136 -0.2622974 -0.08850429 0.0588216 0.10508373 -0.34613228 0.15108694
0.0887507 0.34276235 0.45694846 0.08366481 -0.17727683 0.24432966 -0.25641444 0.4230843
-0.10168737 -0.13295875 0.27868798 -0.41845906 1.8549423 0.34323177 0.063118905 -0.29921705
0.16613193 -0.0024369312 -0.93106073 0.30155665 0.39103484 0.15654373 -0.34089962 0.533302

fc2.bias f4 [128]
00000000: bb12 783d 7171 893e 31f6 083e 9175 5dbd
00000010: 8153 053d 2fc8 023e 46c3 603c 2334 f43d
00000020: 41fc 293e 2344 c63e 7bd3 043e a96b d83c
00000030: 6dcf 253d 1e44 2fbc 2335 44bd 2a39 0abd
00000040: a495 783e d469 293e 8bcf 7f3e 1f52 753e
00000050: f06c dd3d 768b 4f3e b20b 823e c7c5 d6bd
00000060: 2834 063e 7dc2 323e 6909 233b 051b 893d
00000070: a459 debb f9b6 813d 45cb 153e 1fb7 513e
00000080: 1d27 163d 1397 173e 5877 0f3e b247 8b3e
00000090: ea0d a5be f941 fd3d 3b4d 8c3c 1340 ebbd
000000a0: e768 0cbe 1e66 923e 9dab 8b3e daa3 873e
000000b0: fdc4 963e 065e b13b 4aed c63b 8167 f9be
000000c0: 9240 943d 5ed1 0cbc 730e 04be 5582 2b3e
000000d0: 1142 1fbe 99cb 883e 4c77 49be b91c b7bc
000000e0: 1c2e bd3d b9c3 f43d 0334 443e 0924 02be
000000f0: 25c4 bb3c bf45 ef3d a5b6 583e 2f4b 933e
00000100: 05e8 f43d 540e de3a 2e26 253e 1de6 0dbd
00000110: 8d85 503e a485 eb3d 631f cf3e a4d7 0fbc
00000120: 5f03 233e 7714 c3bc 8cba 8b3c adab fabc
00000130: 59a4 813e 3ef7 cebd 9abb 44be a043 083e
00000140: 0edf 23be aa7f 853e 62fe 95bd 77d8 d6bb
00000150: df74 263e 6f79 84be c76e 8c3d bf24 5c3d
00000160: 3b1b 993c 4791 473c 8dff c5bc e715 c23d
00000170: aa76 053e 280c 95bd ac8e a7bd ac56 57be
00000180: 231a 113e edc8 dabb 701d 703e bb28 813e
00000190: d786 4bbd 3a4d 193d b774 dfbb 39a2 ef3c
000001a0: 85d9 c03d f5ca afbe b2f7 093e ecd9 2b3e
000001b0: 4d6f fbbd 0e08 e73e ba1e 60be 0eb0 0a3e
000001c0: 192d b33d fdd8 773e 02d0 3bbd 0e13 883d
000001d0: b528 7fbd b9d2 6f3e f658 eb3c 572e c63d
000001e0: beb1 253e 09a8 aebd fd98 e3bd 509c 8d3e
000001f0: 929e 513e 93f3 773d a0c6 95bc cac1 34be
0.060564738 0.2684436 0.13375165 -0.0540672 0.03255034 0.12771676 0.013718432 0.11924007
0.16600133 0.3872386 0.12971298 0.026418524 0.04048102 -0.010697393 -0.047902238 -0.033745922
0.24275833 0.16544276 0.24981515 0.23957108 0.10811794 0.20268044 0.25399548 -0.10486942
0.13105834 0.17457004 0.0024877435 0.06694607 -0.0067855883 0.063337274 0.14628322 0.20480011
0.036658395 0.14803724 0.1401037 0.27203137 -0.32237178 0.12366099 0.01712667 -0.114868306
-0.13711892 0.28593534 0.27279368 0.26492196 0.29447165 0.00541282 0.0060707675 -0.4871178
0.07238878 -0.008594839 -0.12896137 0.16748936 -0.15552546 0.26717833 -0.19674414 -0.022352563
0.0923731 0.11951394 0.19160466 -0.12709059 0.022920677 0.11683225 0.21163423 0.28768298
0.11958317 0.0016941526 0.16127846 -0.03464328 0.20363446 0.11500099 0.40453634 -0.00877944
0.15919255 -0.02381347 0.017056726 -0.03059944 0.253207 -0.101057515 -0.1921219 0.13307047
-0.16003057 0.26073962 -0.0732391 -0.0065565663 0.1625552 -0.25873896 0.068570666 0.05374598
0.018689742 0.012180633 -0.024169708 0.09476834 0.13033548 -0.07277709 -0.081815094 -0.21029156
0.14170127 -0.0066767843 0.2344873 0.25226387 -0.04968914 0.037427165 -0.0068193334 0.029252158
0.094164886 -0.3433453 0.13473395 0.1678235 -0.12277088 0.45123333 -0.21886721 0.13543722
0.08748836 0.24203868 -0.04585267 0.066442594 -0.06229468 0.23420228 0.028728943 0.096768074
0.16181085 -0.08528144 -0.111131646 0.2765832 0.20470646 0.060535025 -0.018283188 -0.1765205

fc3.weight f4 [6, 128]
00000000: 8b16 613f bb07 9abf f11c 913e 3be8 4abf
00000010: 58c0 aa3e 4e91 d33f a488 de3f e97e c43f
00000020: 4ec6 7b3d ba6b 20bf 29ab be3f 4deb 553d
00000030: eb44 c13f 291b ebbc 2a74 06bf a8ab 003e
00000040: 4b1a 4f3f 6935 55bf 3b3e a2bf 76c4 fb3e
00000050: bc08 833f 6549 313e 8c92 69c0 a9a1 cc3f
00000060: a781 5c3f 8a32 e73f a6ec 7a3e 3959 63be
00000070: 27c6 c73e e076 6d3f 07cd c63d 971b 073f
00000080: 35d1 e2bf 9660 0c3f bab0 4cbf 770a 943e
00000090: c852 74bf 58ca 78bf 440c 83bb be12 b6bf
000000a0: 998b 1340 6bcb 7c3f 8a42 1dbf a127 22bf
000000b0: 03a7 6ebe 0234 603e 3634 033f 621d fa3e
000000c0: c863 08bf 7e5c d9bc 612e dc3f 1914 e3bd
000000d0: 20ad 913d f28a e83e b233 52bf 3b69 45bc
000000e0: 5d52 bfba 3e6f f2be 8bac fabf e363 253e
000000f0: 5947 683e 2098 5e3f be5d cf3e 8243 f8bf
00000100: ff90 793e 1a9d 233f 4907 dcbe 5fff 59bf
00000110: 3130 263f b930 af3f f738 133f 8e51 7f3f
00000120: 0116 2d3f 16c1 b63e a83c 903f fda6 a83e
00000130: 48c9 d8bf 963a aebd 35b7 02bf 88c5 3f3e
00000140: 7249 ebbe 2f78 c33d 3737 c5bb ebf2 2ebf
00000150: ae83 c3bf b64f 63bf cfa2 a23f 671f 7c3f
00000160: cad4 03bf 4824 7cbd ac03 88bf ec90 b7bf
00000170: e765 03bc b647 f63f d76c 1dbd ebb8 503f
00000180: 276e 38bf 201a f6bf ce44 cbbf 7de6 313e
00000190: 0296 e23e 703f 60bf f122 4b40 6adf 843f
000001a0: bc8f 7bbf 860f 6e3f 1426 17bf 616b a440
000001b0: 8c97 063e ebe1 363f 3f5a 91bd 4523 c7bf
000001c0: af8c edbe 6d02 2f3e 1a7a 42c0 7e94 bfbf
000001d0: 4dd7 93be 3b1d 043c 7c48 c73e e5f0 bf3f
000001e0: 6cbf 70bd 118e fabe c24f bebf 5d34 923f
000001f0: df51 f43d 05cf 9a3d 9bb9 0b3f 1dbe b33e
00000200: 8bf2 95bd 7841 9c3f 407a 873e cfe2 cdbe
00000210: 5a62 4ebe 8626 543e 7486 cabd 7717 e23e
00000220: 14fd f13c 739d e13f 29db afbf ad40 2fbf
00000230: 73ab 6e3e 81a8 4dbe 3da7 c3bc 3682 7abe
00000240: 6133 49bf 421b 8abf 477d 74bf 3294 563f
00000250: e039 3740 fc70 2bbe 5010 0940 3c2d ce3d
00000260: 4396 47bd d92e 673f e35a 013d b7e2 56bf
00000270: 150b 093e a7fd f93f 6ba8 9340 efaa c93f
00000280: dd9e 803e cc64 0ebf 665e 533f 4b82 443f
00000290: bd40 71bf b11b 223f 7321 d33f 4876 f63f
000002a0: 5fba c73f e112 32bf 4f89 82bf f704 863e
000002b0: 1a66 9e3f 9ca6 80be 9de4 57bd 767d d8bf
000002c0: 5db6 e1bf f48a 4e3c 92cf 0f40 e09f 51bf
000002d0: 83b3 d3be c3dd 26bf 07fd b0be 04d9 36bd
000002e0: 06e8 713f 50ed f2bf e013 9b3f 2125 10be
000002f0: 3312 3dbe 78bd 3d3e 010a 94bf 6e8c c53f
00000300: bd64 0dbe e600 f6bd 23a2 28c0 f7ce 34bf
00000310: be88 49be 08c7 1dbd 47d4 3c3f f1d5 8d3f
00000320: 0b3a f83f 2cc5 21bf 992b 0bbe 270f c63d
00000330: a5e4 b7bc 936e d3bc 9012 49be c7c6 0c40
00000340: 546c 83be b642 ebbf 9a1c 683c 9821 2f3e
00000350: df8e a73f e788 66be 9c33 ffbf d84f 3540
00000360: bd32 45bd f887 a1be 0a97 49be e121 6f3e
00000370: 298b 32bf 9421 2d3f 0f6c 9bbc 7254 9cbe
00000380: d373 c93e 1f95 d03f 3ef1 0740 4f00 3d40
00000390: 9326 7cbe 748d d1be a8d0 95bf 31c9 0abf
000003a0: 72bc b4bd 9642 f8bf 8269 933f 2e45 7240
000003b0: c5db 0f3f a58f d73e 7807 3ac0 e304 7a3e
000003c0: 2135 a4bf 242f 08bf 100d c03f 0fc6 b83f
000003d0: 9b72 0cbd afcf b7be 46d5 c63e f2d8 10c0
000003e0: 3a05 e3bf 62dc 013f 0c82 863f 1776 2a3f
000003f0: 331a f63d bd38 62be 0402 85be 4113 1dbf
0.8792502 -1.2033609 0.28342393 -0.79260606 0.33349872 1.6528718 1.738545 1.535123
0.061468415 -0.6266438 1.4895984 0.052226353 1.5099157 -0.028699474 -0.52521 0.12565482
0.80899495 -0.8328462 -1.2675241 0.49173325 1.023704 0.17313154 -3.6495695 1.5986835
0.86135334 1.8062298 0.24504337 -0.22202004 0.39018366 0.92759514 0.097070746 0.52776474
-1.7720095 0.5483488 -0.79957163 0.28914234 -0.95438814 -0.9718375 -0.003999265 -1.422447
2.3053954 0.9874789 -0.61429656 -0.6334172 -0.23305897 0.2189484 0.5125154 0.48850542
-0.53277254 -0.026533362 1.7201654 -0.11087818 0.07113099 0.45418507 -0.8211013 -0.012049015
-0.001459669 -0.47350496 -1.9583906 0.16151385 0.22683467 0.86950874 0.40501207 -1.9395602
0.24371718 0.6391159 -0.42974308 -0.8515529 0.64917284 1.3686744 0.57508796 0.9973382
0.676117 0.35694188 1.1268511 0.32939902 -1.6936426 -0.08507268 -0.510608 0.18727696
-0.45954472 0.095444076 -0.006018545 -0.68339413 -1.527456 -0.88793504 1.2705935 0.98485416
-0.51496565 -0.061558038 -1.062612 -1.4341102 -0.008019901 1.9240634 -0.038433876 0.8153216
-0.7204308 -1.9226723 -1.5880373 0.1737308 0.44255072 -0.875968 3.1740077 1.038068
-0.98266196 0.92992437 -0.5904248 5.138108 0.13143748 0.71438473 -0.07097291 -1.5557638
-0.46396396 0.17090769 -3.0387025 -1.4967191 -0.288752 0.00806361 0.3892249 1.499539
-0.058776304 -0.48936513 -1.486809 1.142223 0.11929678 0.07559017 0.54580086 0.35105982
-0.07321652 1.220748 0.26460457 -0.40212104 -0.20154706 0.2071782 -0.09888926 0.44158527
0.029539622 1.7626175 -1.3738757 -0.6845806 0.2330759 -0.2008381 -0.023883456 -0.24463734
-0.78594023 -1.0789568 -0.9550366 0.8381988 2.8629074 -0.16742319 2.1416206 0.100672215
-0.048727285 0.9030586 0.031580817 -0.8393969 0.13383134 1.9530534 4.614309 1.575529
0.25121203 -0.55622554 0.82565916 0.7676131 -0.9423941 0.63323504 1.6494583 1.9254847
1.5603751 -0.69560057 -1.0198153 0.26175663 1.2374909 -0.25127113 -0.052708257 -1.6913288
-1.7633778 0.012606371 2.247044 -0.81884575 -0.41347894 -0.6518213 -0.34568045 -0.044640556
0.94494665 -1.8978672 1.211544 -0.14076664 -0.18463974 0.18529308 -1.1565553 1.5433481
-0.1380796 -0.1201189 -2.634896 -0.70628303 -0.19681069 -0.03851989 0.7376141 1.1080915
1.9392713 -0.63191485 -0.1359085 0.09670859 -0.022447893 -0.025809562 -0.19635987 2.1996324
-0.25668585 -1.8379734 0.014166975 0.17102659 1.3090476 -0.22513162 -1.9937625 2.8329983
-0.04814409 -0.31549048 -0.19686523 0.23352768 -0.6974359 0.6762936 -0.018972425 -0.30533177
0.3934618 1.6295508 2.1240993 2.9531438 -0.2462409 -0.40928233 -1.1704302 -0.54213244
-0.088250056 -1.939532 1.1516573 3.7854724 0.56194717 0.4210178 -2.9067059 0.24415927
-1.2828714 -0.5319693 1.5003986 1.4435443 -0.034288984 -0.35900638 0.3883459 -2.2632413
-1.773597 0.507269 1.0508437 0.6658644 0.12016716 -0.22091956 -0.259781 -0.61357504

fc3.bias f4 [6]
00000000: 7537 ed3c dfc1 663d 8f53 c7bd 9d18 dfbb
00000010: e78f 6ebd a1e7 853d
0.028957108 0.056337234 -0.097327344 -0.006808354 -0.058242705 0.0653832
