demo/4_2_2tran2_3_act2/actor_5.pth (torch, 83208 bytes, 6 tensors)

fc1.weight f4 [128, 22]
0	0x3f34e64c	0.70663905
1	0x3d6a47bc	0.057197317
2	0xbeb72af0	-0.35774946
3	0xbecd5758	-0.401057
4	0xbecd0e29	-0.40049866
5	0x3e4c6113	0.19958906
6	0x3e5eedf0	0.21770453
7	0xbde4877b	-0.11158653
8	0x3d8682e6	0.06567936
9	0xbd5b2cf6	-0.053509675
10	0x3e1c9203	0.15290074
11	0x3d6ab499	0.057301138
12	0x3e42be4c	0.19017905
13	0xbef73216	-0.482804
14	0x3f03d9f6	0.51504457
15	0xbe5f9e9d	-0.2183785
16	0x3feff15a	1.874553
17	0xbd1ea0df	-0.038727637
18	0xbdd6df1c	-0.104917735
19	0xbe7569ed	-0.23966189
20	0x3ebf21c2	0.37330443
21	0x3eb12466	0.34598082
22	0x3eccfe39	0.40037706
23	0xbf6492cd	-0.892865
24	0xbf0677dd	-0.52526647
25	0xbf4920f5	-0.78565913
26	0xbd8fe07a	-0.070252374
27	0x3fa5fa4f	1.2967013
28	0xbb2d8242	-0.0026475345
29	0xbd20a4c3	-0.03921963
30	0xbcac1da4	-0.021010228
31	0xbd208651	-0.039190594
32	0xbd36f52d	-0.04466741
33	0x3cd2652c	0.025683008
34	0xbdb6ad44	-0.089197665
35	0xbf951b0c	-1.1648879
36	0xbeee19a0	-0.46503925
37	0xbfb80ef0	-1.4379559
38	0xc013ebcc	-2.311267
39	0xbf174c5a	-0.5910088
40	0xbd2b9d90	-0.04189831
41	0xbd0f1040	-0.034927607
42	0xbc5d7f2e	-0.0135190915
43	0x3e85fef3	0.26171073
44	0x3f6e2565	0.9302581
45	0xbef2aec8	-0.47398973
46	0xbdfab2b7	-0.122411184
47	0x3d3de9d6	0.04636558
48	0x3baeb966	0.00533216
49	0xbf1eb557	-0.6199545
50	0x3d1e5e3c	0.038664088
51	0x3d3a653b	0.045506697
52	0x3c6a68e5	0.014307235
53	0xbc7cf080	-0.015438199
54	0x3ce8ba24	0.028409071
55	0x3d606411	0.05478293
56	0xbf417023	-0.7556173
57	0xbf4059b3	-0.7513687
58	0x3faf165f	1.3678702
59	0xbfbadb0d	-1.4598099
60	0xc00ae5c5	-2.170274
61	0x3f029bb4	0.51018834
62	0x3ce4ca8b	0.027928611
63	0x3b41f32a	0.00295944
64	0x3e52762f	0.20552896
65	0x3da54d53	0.08071389
66	0xbe815ffb	-0.2526854
67	0x3e8ca226	0.2746746
68	0xbec2e31d	-0.380639
69	0xbe39121b	-0.18073313
70	0xbe81cda6	-0.2535221
71	0xbdd00055	-0.10156313
72	0x3b750d3c	0.0037391922
73	0xbcc290ca	-0.023750681
74	0xbc9f3365	-0.019433687
75	0x3d85e696	0.065381214
76	0x3e0ae842	0.13565162
77	0xbe4bc84f	-0.1990063
78	0xbf7a64ee	-0.97810256
79	0xbf08cfd1	-0.534421
80	0xbdb27ee0	-0.08715606
81	0x3f42b932	0.76063836
82	0x3fbaa01a	1.4580109
83	0x3f1e4fd2	0.61840546
84	0x3da33235	0.079685606
85	0xbe044e58	-0.12920511
86	0x3e8969e1	0.26838592
87	0x3d26a918	0.040688604
88	0xbfab02ad	-1.3360192
89	0x3f1de864	0.61682725
90	0xbe88c901	-0.26715854
91	0xbd4479b6	-0.047967635
92	0x3e37fdb7	0.17967878
93	0xbf3f3c8d	-0.7470177
94	0x3d764705	0.060126323
95	0xbda33857	-0.0796973
96	0xbcdc1e3e	-0.02686989
97	0x3d70c7e9	0.0587844
98	0xbdc28b75	-0.094992556
99	0x3dd6ff55	0.104979195
100	0xbf5b6845	-0.8570598
101	0xbf3509f0	-0.7071829
102	0x3e5fb1e2	0.218452
103	0xbec83ac4	-0.39107335
104	0x400d1193	2.2041976
105	0x3d3d35f7	0.046194043
106	0x3d398d3a	0.0453007
107	0xbe3254c9	-0.17415155
108	0xbd1d232f	-0.03836363
109	0x3d19f969	0.03759137
110	0x3e3b177f	0.18270682
111	0xbf312715	-0.6920026
112	0xbe2fa1a6	-0.17151508
113	0xbf2a492a	-0.6651789
114	0x3f3d9777	0.7405924
115	0xbfd2674e	-1.6437776
116	0x3c7a0213	0.015259284
117	0x3d0ff135	0.035142142
118	0xbdcac96e	-0.09901701
119	0x3a3181ae	0.0006771338
120	0xbd52274c	-0.051307008
121	0xbdad23b5	-0.08454076
122	0xbe97b211	-0.2962804
123	0xbfdc5381	-1.7212983
124	0xbf0c5fbb	-0.54833573
125	0x3dba08fc	0.09083745
126	0xbee08203	-0.4384919
127	0x3ee590e6	0.4483711
128	0xbec48af1	-0.38387254
129	0xbeea1759	-0.45720938
130	0x3f245062	0.64185154
131	0x3f0a88ed	0.5411518
132	0x3f70d0f0	0.94068813
133	0xbe15f71b	-0.14645045
134	0x3ea2005f	0.31640908
135	0x3eaa7e33	0.33299407
136	0xbf23ab95	-0.6393369
137	0xbf26c905	-0.6515048
138	0xbad971d0	-0.0016589705
139	0x3cc3919b	0.023873141
140	0x3bf4dcf2	0.007472628
141	0x3d4cf1ec	0.050035402
142	0x3c86c3da	0.016450811
143	0xbcade09d	-0.021225268
144	0xbe1c7c2c	-0.15281743
145	0xbf778314	-0.96684384
146	0x3f7ffed0	0.9999819
147	0x3edbc7c6	0.42925853
148	0xc047a9c9	-3.1197379
149	0xbfa01001	-1.2504884
150	0x3cd89c54	0.02644173
151	0x3c124970	0.008928642
152	0x3b657c7c	0.0035016825
153	0xbac41b22	-0.00149617
154	0xbdb1c42b	-0.08679994
155	0xbe430596	-0.190451
156	0x3ec36110	0.3815999
157	0xbfdcf8e1	-1.7263452
158	0xbdb1cace	-0.0868126
159	0xbf00e44a	-0.5034834
160	0x3c6b0c01	0.014346124
161	0x3c14231d	0.009041575
162	0x3b8f5589	0.0043742103
163	0xbd6173d7	-0.055042114
164	0xbc659681	-0.014012934
165	0xbcf59772	-0.029979441
166	0xbf9a6580	-1.2062225
167	0x3ec10720	0.37700748
168	0x3ea143a1	0.3149691
169	0xbd35814f	-0.04431277
170	0x4045ccbe	3.0906215
171	0xbe450c79	-0.19243039
172	0x3dd803b8	0.10547584
173	0xbe6c8e6f	-0.23101209
174	0xbd9fb7fe	-0.077987656
175	0x3caedca5	0.021345446
176	0x3d617711	0.05504519
177	0x3ebf0a9a	0.37312776
178	0xbdc44d75	-0.09585086
179	0xbf38300b	-0.7194831
180	0xbcf52343	-0.02992404
181	0xbc2cd0f6	-0.010547867
182	0xbae0979d	-0.0017135028
183	0xbdb81a8a	-0.08989437
184	0xbdb65c9f	-0.08904385
185	0x3cb558bb	0.022137037
186	0x3ceeafd2	0.029136572
187	0xbdc0fdf5	-0.094234385
188	0xbf0b3fa8	-0.54394007
189	0xbef5058b	-0.4785579
190	0x3e64240c	0.22279376
191	0x3f58f248	0.8474469
192	0x3fa30461	1.2735711
193	0x3f87f105	1.0620428
194	0x3d0ab675	0.03386541
195	0xbe666f20	-0.22503328
196	0xbd7069f2	-0.058694787
197	0x3d23188e	0.03981834
198	0x3f9f4f3c	1.2446055
199	0x3e6eb923	0.23312812
200	0xbe72c62a	-0.23708406
201	0x3f5d8b7c	0.8654096
202	0xbea8f22f	-0.3299727
203	0x3f6e6879	0.9312816
204	0x3d885eaf	0.066586845
205	0x3cd56947	0.026051177
206	0x3d38ebd2	0.04514677
207	0x3ba05e12	0.0048940266
208	0x3b8d0d54	0.0043045674
209	0xbc7a2fd1	-0.015270189
210	0xbe60f7dd	-0.21969552
211	0xbefeb0a7	-0.4974415
212	0xbe90e004	-0.2829591
213	0xbf86142a	-1.0474904
214	0xc0022d93	-2.0340316
215	0x3f513802	0.81726086
216	0x3e163f46	0.14672574
217	0x3cef8546	0.029238354
218	0x3d3bbeb9	0.045836184
219	0xbe416a40	-0.18888187
220	0x3f112e96	0.5671171
221	0xbdd44f13	-0.10366645
222	0xbf013fd3	-0.50488013
223	0x3f2bba20	0.6708088
224	0x3eb8cea7	0.36095163
225	0xbd9c317b	-0.07626625
226	0xbd10e6b3	-0.035376262
227	0x3cdad66c	0.026713572
228	0xbd55a0ef	-0.05215543
229	0xbc9e0c00	-0.019292831
230	0x3c532b80	0.012888789
231	0xbd158cc0	-0.036511183
232	0xbea10e37	-0.31456158
233	0x3ca8fc17	0.020628018
234	0xbfacd71d	-1.3503147
235	0xbf352fb1	-0.70775896
236	0xbe0ef2f1	-0.13959862
237	0x3f2e3041	0.6804238
238	0xbc423a26	-0.011854684
239	0x3e4f673e	0.20254228
240	0xbe8c0958	-0.2735088
241	0xbdebf5e4	-0.11521509
242	0x3e90dd53	0.28293857
243	0x3f86b68d	1.052446
244	0xbb927da3	-0.0044705435
245	0x3ec7f85d	0.39056674
246	0xbea7294e	-0.326487
247	0x3f878fb6	1.0590732
248	0x3d20a2f4	0.039217904
249	0xbcfe8752	-0.031070385
250	0xbb2c17d4	-0.002625932
251	0xbd3aa155	-0.045564014
252	0xbc2a548c	-0.010396134
253	0x3ccca134	0.024979211
254	0x3fa4b40b	1.2867445
255	0xbe1b4da6	-0.1516634

fc1.bias f4 [128]
0	0x3e4d48ab	0.20047252
1	0x3e014706	0.1262475
2	0x3e804809	0.25054958
3	0x3f15c368	0.5850129
4	0x3e15c2ce	0.14625093
5	0x3ef5e28a	0.48024398
6	0x3e4f3ec5	0.20238788
7	0x3efdcca9	0.49570206
8	0x3f028e89	0.5099874
9	0x3e59c972	0.21268252
10	0xbd03e52a	-0.03220097
11	0x3e5c217a	0.21497145
12	0x3ea8d0ae	0.3297171
13	0x3e186422	0.14881948
14	0x3eec68c0	0.46173668
15	0xbd81b96d	-0.06334195
16	0x3e8623e2	0.2619925
17	0x3f255c69	0.6459413
18	0x3e815ffc	0.25268543
19	0xbdb7c484	-0.08973029
20	0x3f132d61	0.5749112
21	0x3e4e29fc	0.20133203
22	0xbe2d36e3	-0.16915469
23	0x3e88c2e9	0.26711205
24	0x3de215e0	0.110393286
25	0x3e2ab076	0.16668877
26	0xbd730095	-0.059326727
27	0x3d8ab717	0.06773203
28	0x3ee1139d	0.43960276
29	0x3e9d9414	0.30777037
30	0xbe0bc8b3	-0.1365078
31	0x3a93f7ec	0.0011289096
32	0xbe273fcf	-0.16332935
33	0x3e86d1aa	0.26331836
34	0x3e294ebe	0.16533944
35	0x3ef5b93b	0.47992882
36	0xbdb5a3e9	-0.08869154
37	0x3f009ad1	0.5023623
38	0x3e4ce91a	0.20010796
39	0x3f23f424	0.64044404
40	0xbe82e65d	-0.25566378
41	0xbca6301f	-0.020286618
42	0x3f09019e	0.5351809
43	0x3e0248e4	0.12723118
44	0x3f14fba5	0.5819648
45	0x3e2bf953	0.16794328
46	0x3e82d219	0.25550917
47	0xbdc3669b	-0.09541055
48	0x3db4bf32	0.0882553
49	0x3dab7402	0.08371736
50	0xbd0ea2d4	-0.034823254
51	0x3efbcd97	0.4918029
52	0x3eb05536	0.3444001
53	0x3ee9afc5	0.45641914
54	0x3ecde44a	0.40213233
55	0x3eda1fa5	0.42602268
56	0x3e9d0156	0.30665082
57	0x3e23b1de	0.1598582
58	0xbd3a8e18	-0.045545667
59	0xbd8bc572	-0.06824769
60	0x3dd2aece	0.102872476
61	0x3eed9185	0.46400085
62	0x3df11900	0.117723465
63	0xbc640531	-0.013917253
64	0x3d242eda	0.040083744
65	0xbd8276ef	-0.06370341
66	0xbdb1da01	-0.08684159
67	0x3eebb045	0.4603292
68	0x3d89ea33	0.06734123
69	0x3ed2c1fd	0.41163626
70	0x3de7603a	0.11297651
71	0x3f04ad77	0.51827186
72	0x3eec3a12	0.46138054
73	0xbe0c0636	-0.13674244
74	0xbe81956b	-0.2530931
75	0x3de6b91c	0.112657756
76	0x3ea515ff	0.32243344
77	0xbe85a8b1	-0.26105264
78	0xbe545d2c	-0.20738667
79	0xbebd54db	-0.36978802
80	0xbe24d418	-0.16096532
81	0x3e8e6372	0.27810246
82	0xbe57514d	-0.21027108
83	0xbe1efd14	-0.15526229
84	0x3e674355	0.22584279
85	0x3db91002	0.090362564
86	0x3e97a9b2	0.29621655
87	0xbe90b9a8	-0.28266644
88	0x3ec89430	0.39175558
89	0x3e030a19	0.1279682
90	0x3e90545e	0.28189367
91	0x3dfb3f20	0.122678995
92	0x3e78afd3	0.24285822
93	0x3e85a610	0.26103258
94	0x3cc2478a	0.023715753
95	0xbd12245d	-0.03567921
96	0xbeb35ea2	-0.35033137
97	0x3e621c86	0.22081193
98	0x3e4e7b22	0.20164159
99	0x3dc51a65	0.09624175
100	0x3e99f71a	0.30071336
101	0xbece2b3a	-0.40267354
102	0xbe12ddb5	-0.14342387
103	0x3e4647df	0.19363354
104	0x3e338840	0.17532444
105	0xbd84f8d9	-0.064927764
106	0x3e5b68fb	0.21426766
107	0x3ccdd7bb	0.025127282
108	0x3dffb17f	0.124850266
109	0x3e00b868	0.12570345
110	0x3f1a030a	0.6016089
111	0x3c87aa8e	0.016560819
112	0x3ddb5b87	0.10710817
113	0x3ee0eaf7	0.43929264
114	0x3f0e58dd	0.55604345
115	0xbece943d	-0.40347472
116	0xbcbd4656	-0.023104828
117	0x3e3a8366	0.18214187
118	0x3e00e82b	0.12588565
119	0x3cace65d	0.02110594
120	0x3e371b65	0.17881544
121	0x3defea8c	0.11714658
122	0x3ea47b68	0.32125401
123	0xbed43063	-0.41443166
124	0x3e691813	0.2276309
125	0xbe1fcf8d	-0.15606518
126	0xbeed01ae	-0.46290344
127	0x3bc6984e	0.0060606366

fc2.weight f4 [128, 128]
0	0x3e4d1629	0.20027985
1	0xbf854353	-1.0411171
2	0x3f1789de	0.59194744
3	0xbf07cc6f	-0.53046316
4	0x3eca1a86	0.3947336
5	0xbf7c8dc7	-0.98653835
6	0x3e733cf9	0.23753728
7	0x3e53db73	0.20689182
8	0xbef154e0	-0.47135067
9	0x3e70af6a	0.23504415
10	0xbf21c68a	-0.6319357
11	0x3f079be4	0.52972245
12	0x3ee383a4	0.4443637
13	0xc00199e8	-2.0250187
14	0x3f3df21d	0.7419756
15	0x3d3c019a	0.045899965
16	0x3f8158f0	1.0105267
17	0x3fe2d1d5	1.7720286
18	0xbedb8f1e	-0.42882627
19	0x3e8c90ee	0.27454323
20	0xbd2a9ccb	-0.041653436
21	0xbefb228f	-0.49049804
22	0xbf1bb78c	-0.60826945
23	0x3f6d65c8	0.9273343
24	0x3f82ce77	1.0219258
25	0xbc5518c5	-0.013006394
26	0x3f211f67	0.6293854
27	0xbf7231bf	-0.94607157
28	0x3eaa0e91	0.33214238
29	0xbd5ed28b	-0.05440001
30	0xbf6819da	-0.90664446
31	0x3dba3c06	0.0909348
32	0x3f4c88b9	0.7989612
33	0x3f44f6fe	0.7693938
34	0xbebc0955	-0.3672587
35	0xbe974bdd	-0.29550067
36	0x3df080c1	0.11743308
37	0x3e51c92d	0.20486899
38	0x3e86781a	0.26263505
39	0x3e9dda14	0.30830443
40	0x3f5c258f	0.8599481
41	0xbd6925c1	-0.05692077
42	0xbd61265c	-0.054968223
43	0x3f4e27ff	0.8052978
44	0xbed1ff3b	-0.41015038
45	0xbe09556b	-0.1341149
46	0xbef040a0	-0.46924305
47	0xbf49adf1	-0.7878104
48	0x3e484d92	0.1956084
49	0xbfb6b92a	-1.4275258
50	0xbd43fa46	-0.0478461
51	0x3cbb388a	0.022854108
52	0x3e5930cc	0.21210021
53	0xbe794034	-0.24340898
54	0x3e983630	0.29728842
55	0x3e18d6cf	0.14925693
56	0x3f69defe	0.91355884
57	0xbf4216a7	-0.75815815
58	0xbe0f0cb1	-0.13969685
59	0xbfac1442	-1.3443682
60	0xbcec952c	-0.028879724
61	0x3e01c77a	0.1267375
62	0xbf87a2c5	-1.0596548
63	0x3eb89b76	0.36056107
64	0x3f66a22e	0.90091217
65	0x3f2e2464	0.6802428
66	0x3ec0a308	0.37624383
67	0x3f1eac94	0.61982083
68	0xbea5d325	-0.32387653
69	0xbf9334e3	-1.1500515
70	0xbe7fd498	-0.24983442
71	0xbf18ad94	-0.5963986
72	0xbf5c42ef	-0.8603963
73	0x3ce2f959	0.027706789
74	0x3ed2431c	0.41066825
75	0xbea0ffd4	-0.3144518
76	0xbd74d224	-0.05977072
77	0x3eadc48c	0.33939016
78	0x3e29538d	0.16535778
79	0x3e8fae69	0.28062752
80	0x3eb1a506	0.34696215
81	0xbf3b5ecb	-0.7319152
82	0x3f83e411	1.0303975
83	0xbea29621	-0.31755164
84	0x3e0edd15	0.13951524
85	0xbe438864	-0.19094998
86	0x3f531eeb	0.8246905
87	0xbe6eb682	-0.23311809
88	0xbce730ea	-0.028221566
89	0xbf185994	-0.59511685
90	0xbf06b87f	-0.5262527
91	0x3ec6cf06	0.3882982
92	0x3e07e180	0.13269615
93	0x3f7317b6	0.94958055
94	0x3f37a2bf	0.71732706
95	0x3f9b627e	1.2139432
96	0xbf047298	-0.51737356
97	0x3f08356f	0.53206533
98	0xbf189f39	-0.59617954
99	0xbe3fe88a	-0.1874105
100	0x3d14d88e	0.036339335
101	0xbe43a7da	-0.19106999
102	0xbf872e26	-1.0560958
103	0xbc957df8	-0.018248543
104	0x3f358ce7	0.70918125
105	0x3f24e9dd	0.6441935
106	0xbe023f98	-0.12719572
107	0x3e0eabc1	0.13932706
108	0xbe716c34	-0.23576432
109	0xbf74bc8f	-0.9560022
110	0xbf072e16	-0.52804697
111	0x3f78470a	0.96983397
112	0xbf0ded40	-0.5544014
113	0x3ee2f23e	0.4432544
114	0x3ea0c06c	0.31396806
115	0xbf71d6f3	-0.9446861
116	0xbf217f66	-0.6308502
117	0xbed1081e	-0.40826505
118	0x3cbacadb	0.022801807
119	0x3f5e6ea7	0.8688759
120	0xbe665ad9	-0.22495593
121	0x3cff5c60	0.031171978
122	0x3eb0fc64	0.3456756
123	0xbf42fd52	-0.76167786
124	0xbedbc834	-0.4292618
125	0xbe5bf4bd	-0.21480079
126	0xbf167e41	-0.587864
127	0x3e2c5e2d	0.168328
128	0x3d89c73a	0.067274526
129	0x3de67047	0.11251884
130	0x3f0543bb	0.52056473
131	0xbe422eb0	-0.18963122
132	0x3e809294	0.2511183
133	0xbf3cecaa	-0.7379862
134	0x3e07ee2a	0.13274446
135	0xbd466a51	-0.048441235
136	0x3da10f97	0.07864302
137	0x3e6f0c5d	0.2334456
138	0xbeddd3c5	-0.4332563
139	0x3e84f130	0.2596526
140	0x3df2745a	0.118385985
141	0xbf445dc1	-0.7670556
142	0xbe026b15	-0.12736161
143	0xbc2eb3fd	-0.01066303
144	0x3f615a05	0.88027984
145	0x3e760f5b	0.24029295
146	0x3ecb533f	0.3971195
147	0x3ed8bbb5	0.4233071
148	0x3f12f4de	0.5740489
149	0xbe927c51	-0.2861047
150	0xbc54883e	-0.012971936
151	0xbd8809f4	-0.066425234
152	0x3ebace95	0.36485735
153	0x3ecc47cf	0.39898536
154	0x3e5554d9	0.20833148
155	0xbea29f20	-0.31762028
156	0x3e7b3a01	0.24533845
157	0x3e1e1e82	0.15441325
158	0xbf1f96c6	-0.62339437
159	0x3ee550f2	0.4478832
160	0x3dd1e902	0.10249521
161	0x3e0d51cb	0.13800733
162	0x3f59e054	0.8510792
163	0xbed55c56	-0.4167201
164	0xbe8c44f9	-0.27396372
165	0x3f273f7f	0.6533126
166	0xbc9e70f7	-0.019340975
167	0xbd2e8b03	-0.04261304
168	0xbf4ff7cd	-0.8123749
169	0x3bec4783	0.0072106733
170	0x3e91fc88	0.2851298
171	0x3f789ee3	0.9711744
172	0x3db15d5d	0.08660386
173	0x3e894441	0.26809886
174	0x3f42fc17	0.7616591
175	0x3e8b91f5	0.27259794
176	0x3d19094e	0.03736239
177	0x3f061362	0.52373326
178	0xbe261eaa	-0.16222635
179	0xbcfbb897	-0.030727668
180	0xbf79919a	-0.97487795
181	0x3e693e08	0.2277757
182	0xbe01679e	-0.12637183
183	0x3e28f93c	0.16501325
184	0xbde2aff5	-0.110687174
185	0xbdfbf79e	-0.123030886
186	0x3d87b260	0.06625819
187	0xbec0d02d	-0.37658826
188	0xbf741acc	-0.9535339
189	0x3db42b80	0.087973595
190	0xbf672fdf	-0.9030742
191	0x3e459e89	0.19298758
192	0x3e2b073b	0.16701977
193	0xbc762f7b	-0.015025969
194	0x3f38042c	0.71881366
195	0xbf33120c	-0.6994941
196	0x3e797db3	0.24364357
197	0x3f44be56	0.7685293
198	0xbeabcd96	-0.33555287
199	0x3cf5af55	0.029990831
200	0xbf7d9394	-0.9905331
201	0x3f06ef05	0.52708465
202	0xbe86251c	-0.26200187
203	0xbc6994e7	-0.0142566925
204	0xbdede5b6	-0.116160795
205	0xbe9d030e	-0.30666393
206	0x3f4e3219	0.8054519
207	0xc01f123e	-2.4854884
208	0xbe7f3d3e	-0.24925706
209	0x3f45ffb7	0.77343315
210	0x3ca65156	0.020302456
211	0xbf081028	-0.5314965
212	0x3e11aab8	0.1422528
213	0xbf2e36fe	-0.6805266
214	0x3df4bcf8	0.119501054
215	0x3de73a11	0.11290372
216	0x3f2c89de	0.6739787
217	0x3e0d82d6	0.13819441
218	0xbe7062f7	-0.23475252
219	0x3e6f7d69	0.23387684
220	0x3ea400a7	0.32031748
221	0xbe8d3055	-0.27575937
222	0x3f218bd7	0.63104004
223	0xbecf8f32	-0.40538937
224	0x3de9c5ef	0.11414706
225	0x3ea3cb41	0.31991008
226	0xbdf0dba3	-0.117606424
227	0xbd30db62	-0.04317797
228	0x3e805840	0.2506733
229	0x3e9b4db1	0.3033271
230	0xbf41faf1	-0.7577353
231	0x3ebe9885	0.37225738
232	0x3d2660db	0.040619712
233	0x3ed1f485	0.41006866
234	0x3f0ef270	0.5583868
235	0x3d0e6fe5	0.03477468
236	0x3f1467cf	0.579709
237	0x3c5a177b	0.013311262
238	0x3e20643f	0.15663241
239	0x3f109c5a	0.56488574
240	0xbe50eabe	-0.20402047
241	0xbaf4228c	-0.0018626018
242	0x3e8582f0	0.2607646
243	0x3e6afcf4	0.22948056
244	0xbe8e4e52	-0.2779413
245	0xbd5e33a7	-0.05424848
246	0x3e8fb3ba	0.28066808
247	0x3d7ab72c	0.061209843
248	0xbf82bcf6	-1.0213916
249	0x3dacd7a8	0.08439571
250	0xbdd0ea96	-0.10200994
251	0x3f333dfd	0.7001646
252	0xbf8fa422	-1.1221964
253	0xbe8beaa4	-0.27327454
254	0xbe12d7ca	-0.1434013
255	0x3ebbf791	0.36712316

fc2.bias f4 [128]
0	0x3e2cc040	0.16870213
1	0x3e7049d6	0.23465666
2	0x3e4f153c	0.20222944
3	0x3e2e620a	0.17029586
4	0xbd43706e	-0.047714643
5	0xbc35089d	-0.011049417
6	0x3e237911	0.15964152
7	0x3ed761bd	0.42066756
8	0x3df501ce	0.11963235
9	0x3ecd05a4	0.40043366
10	0x3e268cd0	0.16264653
11	0x3e3e6781	0.18594171
12	0x3d9a2408	0.07526404
13	0x3d4bc2e3	0.049746405
14	0x3a950232	0.0011368452
15	0x3cc83bbd	0.024442548
16	0x3ec82a77	0.39094898
17	0x3e725923	0.23666815
18	0x3ec6d3f3	0.3883358
19	0x3db06e31	0.08614767
20	0xbcfe5dd4	-0.0310506
21	0x3e5ad3d9	0.21369876
22	0x3e848b54	0.2588755
23	0x3e0875b6	0.13326153
24	0x3e6ba45e	0.2301192
25	0x3e423b47	0.18967925
26	0x3e39e4f9	0.18153752
27	0x3e317009	0.17327894
28	0x3d24ce9e	0.040236108
29	0x3ec21dd3	0.3791338
30	0x3e84a02e	0.25903457
31	0x3e7868d1	0.24258734
32	0x3c45a55d	0.012063351
33	0x3db87231	0.09006155
34	0xbcd94098	-0.026520059
35	0x3e5cc5c5	0.21559818
36	0xbda3cc29	-0.07997925
37	0xbdb6bb52	-0.08922447
38	0xbc11219c	-0.008858111
39	0x3e4abfa9	0.19799675
40	0xbe071a56	-0.1319364
41	0x3e2d4bec	0.16923493
42	0x3eb2238e	0.3479275
43	0x3e9bd56e	0.3043627
44	0x3e8ff232	0.28114468
45	0x3cd2df47	0.025741233
46	0x3dbbaaaa	0.09163411
47	0xbf0a3f60	-0.5400295
48	0x3dfb8c2f	0.12282597
49	0xbc0ff3eb	-0.008786182
50	0x3d99a791	0.07502664
51	0x3e899702	0.26873022
52	0xbdf4c792	-0.119521275
53	0x3ea8caae	0.32967132
54	0xbec4ba68	-0.38423467
55	0x3c9863a3	0.018602198
56	0xbcdb3a18	-0.0267611
57	0x3e950b61	0.29110244
58	0x3e868efc	0.26280963
59	0xbdc9d2f2	-0.09854688
60	0x3d777910	0.06041819
61	0x3e563ae4	0.20920902
62	0x3e11b491	0.14229037
63	0x3db26438	0.087105215
64	0x3dff003c	0.124512166
65	0xbe7469c3	-0.2386847
66	0x3e8321f5	0.25611845
67	0x3dbc7040	0.092010975
68	0x3e792e08	0.24333966
69	0x3e251afa	0.16123572
70	0x3eef5a3e	0.46748537
71	0x3da97b36	0.08275454
72	0x3de0a877	0.10969632
73	0x3ce38e44	0.027777798
74	0x3e8fa038	0.28051925
75	0x3e179e19	0.14806403
76	0x3e77512f	0.24152063
77	0x3ba2360d	0.004950291
78	0xbedbafef	-0.42907664
79	0x3db0abb6	0.08626501
80	0xbe6b55b9	-0.2298192
81	0x3ea462be	0.32106584
82	0xbd9c7fa9	-0.07641537
83	0xbc403fbf	-0.011733948
84	0x3e2a9f38	0.166623
85	0xbcc42313	-0.023942506
86	0x3e149a1f	0.14511918
87	0x3e2f8f20	0.17144442
88	0xbb05384e	-0.002032775
89	0xbc8bb4de	-0.017054018
90	0x3e1967c9	0.14980997
91	0x3e32b697	0.17452465
92	0x3e1806e5	0.1484638
93	0x3bb3db26	0.005488771
94	0xbdab756d	-0.083720066
95	0xbecbddb6	-0.3981759
96	0x3e67b73b	0.2262849
97	0x3d1b9bbe	0.037990324
98	0x3e179b6b	0.14805381
99	0x3d171ec1	0.036894564
100	0x3c46e526	0.012139594
101	0x3d6adeb2	0.057341285
102	0x3db9be5e	0.09069513
103	0x3df242a7	0.11829119
104	0x3dae11c2	0.08499481
105	0xbe71fc2c	-0.23631352
106	0x3db37163	0.08761861
107	0x3e12bd27	0.14329968
108	0xbe94018d	-0.28907433
109	0x3ee6e7b1	0.45098642
110	0x3dc9b6c8	0.09849316
111	0x3e0bc62e	0.13649818
112	0x3e74b522	0.23897222
113	0x3eb5cd74	0.3550831
114	0xbd428318	-0.047488302
115	0xbd2da337	-0.042391982
116	0x3e325de5	0.1741863
117	0x3e05fb05	0.13084038
118	0x3d4a623d	0.049410094
119	0xbe18b9c3	-0.14914612
120	0x3ea6ecf1	0.32602647
121	0xbbb6c533	-0.005577707
122	0xbe87584d	-0.26434556
123	0x3e6c7177	0.23090158
124	0x3da32a90	0.079671025
125	0x3c2177de	0.009855239
126	0x3e3fce8a	0.18731132
127	0xbe778301	-0.24171068

fc3.weight f4 [6, 128]
0	0xbf3e1bef	-0.74261373
1	0xbfcb4e33	-1.588324
2	0x3eab1cba	0.33420354
3	0xbf9b458c	-1.2130599
4	0x3eae3169	0.34022072
5	0x3fa3acef	1.278715
6	0x3fdd72e3	1.7300686
7	0x402924d1	2.642872
8	0x3fbf9bbb	1.49694
9	0xbd9233d8	-0.07138795
10	0x40548883	3.320832
11	0xbdec9e4d	-0.11553631
12	0x40589de8	3.3846378
13	0x3e4997cd	0.19686814
14	0xbf9ca13e	-1.2236707
15	0x3e159a10	0.14609551
16	0x3ec26524	0.3796779
17	0x3eb1e9d9	0.34748724
18	0xbfa52c1c	-1.2904086
19	0x3f05f908	0.52333117
20	0x3fb35d85	1.4012915
21	0x3f893995	1.0720698
22	0xbfa88a76	-1.3167255
23	0x3fcbe4c0	1.5929184
24	0x3e597562	0.21236184
25	0xc006f1c8	-2.1085072
26	0xbe1d96e2	-0.15389588
27	0xbfbd009e	-1.4765813
28	0x3f2d8538	0.677814
29	0x3fb95741	1.4479753
30	0x408051fa	4.010007
31	0x3f24d634	0.6438935
32	0xbf9cf0d5	-1.2260996
33	0xbf2830e9	-0.6569963
34	0xbd6cc946	-0.057809137
35	0x3f096d27	0.5368218
36	0xbe47f463	-0.1952682
37	0xbf96532f	-1.1744136
38	0xbcb7fec6	-0.022460353
39	0xbf8704f6	-1.0548389
40	0xbf397828	-0.7244897
41	0x3df74a6d	0.120747425
42	0x3d0ad9a7	0.033898976
43	0xbfa0008f	-1.250017
44	0xbeb02d09	-0.3440936
45	0x3e869bbd	0.26290694
46	0x3fce201d	1.610355
47	0x3d8c1874	0.068406016
48	0xc039d948	-2.9038868
49	0xbcf16654	-0.02946774
50	0x3d728db9	0.05921719
51	0xbd32e9c7	-0.04367998
52	0x3daed8bb	0.08537432
53	0x3c9e054e	0.019289639
54	0xc0d691a8	-6.7052803
55	0x3f1a323a	0.6023289
56	0xbfe52aa6	-1.790364
57	0xbfa0e48a	-1.2569745
58	0xc02c1bbe	-2.6891932
59	0x3eac3c3f	0.33639714
60	0x3e82582d	0.25457898
61	0x3f597b9f	0.84954256
62	0xbf091855	-0.5355275
63	0xbfc24fb4	-1.5180573
64	0x3ee679ca	0.45014793
65	0x3fd51ac7	1.6648797
66	0xc04ee65f	-3.2328107
67	0x3fc66bde	1.5501668
68	0x3f55ca5f	0.8351192
69	0x3fba5703	1.4557804
70	0x3f8f197b	1.1179651
71	0x3f1e71aa	0.6189219
72	0x3fbb8b2a	1.4651845
73	0x3e5d4148	0.21606934
74	0x3f1317e3	0.57458323
75	0x3eb53b08	0.353966
76	0x3efc871c	0.4932183
77	0xc0211742	-2.5170445
78	0xbfced072	-1.6157362
79	0x400828e2	2.1274953
80	0xbfcdf2a3	-1.6089672
81	0x3e7a288a	0.24429527
82	0xbbc53737	-0.006018545
83	0xbd0b9a2a	-0.03408257
84	0xbf8c225a	-1.0947983
85	0xbf402407	-0.75054973
86	0x3f5bdc50	0.85883045
87	0x40442cc6	3.0652328
88	0x3fdbe8ef	1.7180461
89	0xbc7e5c7c	-0.01552498
90	0xc00ded14	-2.217595
91	0xc02218d1	-2.5327647
92	0xbe4569a5	-0.19278581
93	0x3f8ed82b	1.1159719
94	0xbd1d6cd7	-0.038433876
95	0xbfc259ae	-1.5183618
96	0xbee4aac9	-0.4466155
97	0xbfab4340	-1.3379898
98	0xc0104823	-2.2544029
99	0xbd5fbb31	-0.05462188
100	0x3ec9547d	0.39322272
101	0xbf56912f	-0.8381528
102	0x3f84eb62	1.0384333
103	0x3f0c049a	0.5469452
104	0xbf3b9828	-0.73279047
105	0x3f23c377	0.6397013
106	0x3e4c2c6c	0.1993882
107	0xbf21dfe7	-0.6323227
108	0x3f3c1ffe	0.73486316
109	0x3eb9f366	0.3631851
110	0xbf53a9ae	-0.82680786
111	0xbfc0c288	-1.5059366
112	0xbf0ac4c4	-0.5420649
113	0x3f1bf38e	0.6091851
114	0x3e10057f	0.14064597
115	0xc0130995	-2.2974598
116	0xbe66eea9	-0.22551979
117	0x3e8b7fb2	0.2724586
118	0x3e2ebff8	0.17065418
119	0xbee2d87f	-0.44305798
120	0xbe625ff3	-0.22106914
121	0x3e19237a	0.1495494
122	0x3dde4812	0.1085359
123	0x3f574558	0.84090185
124	0xc00de5bc	-2.2171469
125	0x3e038ddd	0.12847085
126	0x3f4641fc	0.77444434
127	0xc00a06b5	-2.1566594
128	0xbe867cf0	-0.26267195
129	0x3f8ea183	1.114304
130	0xbd99c42d	-0.07508121
131	0xbe49aa7e	-0.19693944
132	0xbe9abd35	-0.30222479
133	0x3fe95633	1.8229431
134	0xbeed3606	-0.4633028
135	0x3d8cbc85	0.06871895
136	0x3cc9ff9e	0.02465802
137	0x3face21b	1.3506502
138	0x4002b44e	2.042255
139	0xbee28f03	-0.44249734
140	0xbf544850	-0.8292284
141	0xbe56aba9	-0.2096392
142	0x3ed73223	0.4203044
143	0xbeb01045	-0.34387413
144	0x3e97bc40	0.2963581
145	0x3ea25211	0.31703237
146	0x3cc76af4	0.024342991
147	0xbfbcdad5	-1.4754282
148	0x3ffcb8ae	1.974386
149	0x3ee304a2	0.44339472
150	0x3e94a824	0.2903453
151	0x3e930c9a	0.28720552
152	0xbe4ef057	-0.2020887
153	0x40044872	2.0669217
154	0x3efa4039	0.48877123
155	0xbe80dd0f	-0.25168654
156	0x3e4c7f14	0.19970351
157	0x3f8d5820	1.1042519
158	0x40aee1c7	5.4650607
159	0x3fda4367	1.705182
160	0x3f6954aa	0.9114481
161	0xbe71e9fe	-0.23624417
162	0x3d3a7123	0.04551805
163	0x3f10e8aa	0.5660502
164	0xbeb13338	-0.3460939
165	0x3f9e8bf8	1.2386465
166	0x3fe8a9e0	1.8176842
167	0x3fbbebf5	1.4681383
168	0x3e936bd3	0.287932
169	0xbf30e9ad	-0.6910656
170	0xbf85ba62	-1.0447505
171	0x3b89796a	0.004195382
172	0x3f505305	0.8137668
173	0xbead51ef	-0.33851573
174	0x3f07f4e8	0.5310807
175	0xc00f9432	-2.2434201
176	0xbfd70e46	-1.6801231
177	0x3c4e8af4	0.012606371
178	0x3f5888ce	0.8458375
179	0xbf37d608	-0.7181096
180	0xbeec227c	-0.4612006
181	0xbec634d4	-0.3871218
182	0xbf547ac5	-0.8299983
183	0xbe2979fc	-0.1655044
184	0x3f7520d5	0.9575322
185	0xbff9f717	-1.9528531
186	0x40135f98	2.3027096
187	0xbe754326	-0.23951396
188	0xbe88a849	-0.2669089
189	0x3ddbdceb	0.10735496
190	0xbfae37e8	-1.3610811
191	0x3fcca158	1.5986738
192	0xbde10cfc	-0.10988805
193	0x3f9635cf	1.1735171
194	0xbf556dff	-0.83370966
195	0xbb1f5311	-0.0024310986
196	0xbebafa50	-0.36519098
197	0xbf44b56d	-0.76839334
198	0x3e493e85	0.19652756
199	0x3f04da4d	0.518956
200	0x3eaad12e	0.33362716
201	0xbf529261	-0.82254606
202	0x3e55dae4	0.20884281
203	0x3dd1ab7e	0.10237788
204	0xbf08699f	-0.53286165
205	0x3de06fbd	0.109588124
206	0xbdbb86fe	-0.09156607
207	0x3faed9d0	1.3660221
208	0xbeeed10e	-0.4664387
209	0x3ff534fb	1.9156793
210	0x3c681c9a	0.014166975
211	0x3c1122a2	0.008858355
212	0x3f92e0b7	1.1474828
213	0x3e5bb5bf	0.2145605
214	0xbfb85b8a	-1.4402936
215	0x403475dd	2.8196938
216	0xbfe31bcb	-1.7742857
217	0xbd256bd4	-0.040386036
218	0xbe905edb	-0.2819737
219	0xbf3c38af	-0.7352399
220	0xbe4e7d0f	-0.20164894
221	0x3f87a859	1.0598251
222	0xbc9b6c0f	-0.018972425
223	0xbfcaba80	-1.5838165
224	0x3f9cc599	1.2247802
225	0x3f077d79	0.5292583
226	0x3f83ff6e	1.0312326
227	0x40042746	2.064897
228	0xbebe836e	-0.37209648
229	0xbeb372c0	-0.35048485
230	0xbfbbc00e	-1.4667985
231	0xbefa6f3b	-0.48912987
232	0xbdaece8b	-0.08535489
233	0xbee42908	-0.44562554
234	0xbf36c214	-0.7138989
235	0x409de64a	4.9343615
236	0x3f2c51e4	0.67312455
237	0x3ddf4f36	0.1090378
238	0xbf93be39	-1.1542426
239	0x3ea97533	0.33097228
240	0xbf928a4d	-1.1448456
241	0xbe6e505f	-0.23272847
242	0x3eaedd51	0.34153226
243	0x3fe89c19	1.8172637
244	0x3c9ecd64	0.019385047
245	0xbfb51fd4	-1.4150338
246	0x3de7fe27	0.113277726
247	0x3f771481	0.9651566
248	0xc0513dd8	-3.2693996
249	0x3f84bb1c	1.0369601
250	0x3f193886	0.5985187
251	0x3f793216	0.9734205
252	0xbefeb87c	-0.49750125
253	0x3f51587b	0.81775635
254	0x3f2c4f68	0.67308664
255	0x3ef25ad4	0.4733492

fc3.bias f4 [6]
0	0x3ddd1ebe	0.10796879
1	0xbd35e8c1	-0.044411425
2	0xbdb3095b	-0.08742019
3	0x3ddbf304	0.10739711
4	0xbd67266f	-0.056433138
5	0x3d2d8e44	0.042372003
