demo/4_2_2tran2_3_act2/critic_1_6.pth (torch, 108582 bytes, 5 tensors)

fc1.weight f4 [148, 28]
0	0xbfc21e89	-1.5165569
1	0x404d5e46	3.208879
2	0x3d5ad365	0.053424258
3	0xc01180d2	-2.2734876
4	0x3dc803b3	0.097663306
5	0x3fbaf14f	1.4604892
6	0xbdcb575c	-0.09928772
7	0xbb5c9826	-0.0033660023
8	0xbc1a3590	-0.009412184
9	0xbd3c1a75	-0.04592367
10	0xbd5d3865	-0.05400886
11	0x3dac0718	0.083997905
12	0x3fc62db0	1.5482693
13	0x411ae80f	9.681655
14	0x3f32ed71	0.69893557
15	0x3f5d22c4	0.86381173
16	0x40d60cad	6.6890473
17	0x3f83d8f9	1.030059
18	0xbf41768a	-0.755715
19	0xbf5184c2	-0.818432
20	0x3f171456	0.59015405
21	0x3f4e7cc3	0.8065912
22	0xbfe28726	-1.7697494
23	0x3f33304b	0.69995564
24	0xc0a77e75	-5.2341866
25	0xc0269160	-2.602623
26	0x3e24bebf	0.16088389
27	0x406e5548	3.7239552
28	0x403aee05	2.9207776
29	0xbfc95c97	-1.5731381
30	0x3ec2e8a4	0.38068116
31	0xc05db06d	-3.4638932
32	0xbe85e067	-0.26147768
33	0x401d9981	2.4624941
34	0xbdded0d5	-0.10879675
35	0x3c39a943	0.011331859
36	0xbd04f36e	-0.032458715
37	0xbdacaf76	-0.08431904
38	0xbd24bc73	-0.04021878
39	0x3cdd6d3f	0.027029632
40	0x3e5bab8b	0.21452157
41	0xc088ebd0	-4.2787857
42	0xbfb1b9b3	-1.3884796
43	0xc008c86c	-2.1372328
44	0xc092caff	-4.58728
45	0x401081ed	2.25793
46	0xbdac82e8	-0.08423406
47	0x3df57e6b	0.11987003
48	0xbce1fc62	-0.027586166
49	0xbda46c7e	-0.08028506
50	0xbf525cb7	-0.8217272
51	0x4061fb9d	3.5309823
52	0x3f8d95d6	1.1061351
53	0xc03112d1	-2.7667735
54	0x3c977373	0.018487668
55	0x3fbe8823	1.4885296
56	0xbfc37b10	-1.5271931
57	0xc0b7a855	-5.7392983
58	0x3ea57ca1	0.32321647
59	0x413bf607	11.747565
60	0xc04b7258	-3.178854
61	0xbffd6339	-1.9795905
62	0x3f164298	0.58695364
63	0x3eb4ed1c	0.3533715
64	0x3eb8193e	0.35956758
65	0x3ef0d123	0.4703456
66	0xbef52b65	-0.4788467
67	0x3e8eccbe	0.2789058
68	0x4030faf9	2.7653182
69	0xc055d21e	-3.3409495
70	0xc07c20b4	-3.939496
71	0xbec73730	-0.38909292
72	0x40293d26	2.6443572
73	0xc0601919	-3.5015318
74	0xbe1700c7	-0.1474639
75	0xbe2710eb	-0.16315047
76	0x3dee077e	0.11622523
77	0x3d01e8c6	0.03171613
78	0x3fda4d73	1.7054886
79	0xc10b2593	-8.696673
80	0xbfd56b2d	-1.6673332
81	0x401ab78d	2.417453
82	0xc1909e47	-18.077284
83	0xc104ed58	-8.307945
84	0xbfbbbf78	-1.4667807
85	0xbfc7b2ae	-1.5601404
86	0x3f208ada	0.6271187
87	0x3f2ed885	0.6829913
88	0xbf2b21b2	-0.6684829
89	0xbf015ed7	-0.5053534
90	0x3ed8546a	0.42251903
91	0xbe28483c	-0.16433805
92	0xbd866ed0	-0.065641046
93	0x3f0104fc	0.5039823
94	0xbea6af83	-0.3255578
95	0xbd4087a3	-0.047004353
96	0x401fc113	2.4961593
97	0xc00687b4	-2.1020327
98	0xc08ec231	-4.461205
99	0x400fbd72	2.2459378
100	0xc047deb7	-3.1229684
101	0x3fa5bfa0	1.2949104
102	0x3f8026c1	1.0011827
103	0x3f7ee24f	0.9956407
104	0xbf342b2d	-0.7037838
105	0xbf415626	-0.7552208
106	0x406bc029	3.6836035
107	0xc0105a0c	-2.255496
108	0xc040ec6c	-3.01443
109	0xbfb5bb50	-1.4197788
110	0x3ec46cd1	0.3836427
111	0x3fe09991	1.7546865
112	0x3e595e18	0.212273
113	0xbf5f893a	-0.87318766
114	0xbe2e6a98	-0.1703285
115	0x40a8da4b	5.276647
116	0x3f066af2	0.52506936
117	0xbf0d1b05	-0.55119354
118	0xbbf3b6a2	-0.007437543
119	0xbe1891a0	-0.14899302
120	0x3df0b3c4	0.117530376
121	0x3ddcd4e9	0.10782797
122	0xbdc93a87	-0.09825616
123	0xbcf7b153	-0.030235922
124	0xbeb5a55b	-0.3547772
125	0xbec5cf6d	-0.38634816
126	0xbe6cb116	-0.23114428
127	0xbf5b772b	-0.8572871
128	0xc02bc0f9	-2.683653
129	0x3d9c4498	0.07630271
130	0x3fd5ab9d	1.6692997
131	0x3fe2e847	1.7727135
132	0xbfd16b77	-1.6360921
133	0xbfe47fc7	-1.7851495
134	0x3f8db544	1.1070943
135	0xc0117f4a	-2.273394
136	0x3f3647ac	0.7120311
137	0x40185652	2.3802686
138	0x3f198793	0.59972495
139	0xbf46f591	-0.77718455
140	0xc004e617	-2.0765436
141	0x409124e6	4.535754
142	0xbfd77a28	-1.6834154
143	0x3db53fe5	0.088500775
144	0x3ffd3873	1.9782852
145	0x400fda24	2.2476892
146	0xbec6fc62	-0.38864428
147	0x3ec83c7e	0.39108652
148	0x3e8dd184	0.2769891
149	0x3e995f23	0.29955396
150	0x3e1e428e	0.15455076
151	0xbe5680b8	-0.2094754
152	0xbfb79904	-1.4343572
153	0x400a5ca9	2.1619055
154	0x3f9e9baf	1.2391261
155	0xbf174447	-0.5908856
156	0xc0c58421	-6.172379
157	0x4012be84	2.2928782
158	0xbe23d5c2	-0.15999511
159	0x3dedf627	0.116192155
160	0x3e46d15b	0.194158
161	0xbd83cde8	-0.06435758
162	0xbfd0654b	-1.6280912
163	0x407417a7	3.8139436
164	0xc06510d1	-3.5791514
165	0x4016aef7	2.354429
166	0x40810b42	4.0326242
167	0xc101e365	-8.118016
168	0x4085d724	4.1825123
169	0xbf3149b1	-0.6925307
170	0x3eefeb7d	0.4685935
171	0x40073242	2.1124425
172	0xbeb90926	-0.36139792
173	0xbfa46a75	-1.2844988
174	0x3e8516ee	0.25994056
175	0xbebfbfb0	-0.37450933
176	0xbd6efa51	-0.05834419
177	0x3dc46913	0.09590354
178	0x3e0f4e8f	0.13994811
179	0x3ea70dd2	0.32627732
180	0xc026e3d1	-2.6076548
181	0xc117ca5a	-9.486902
182	0xbfa88a23	-1.3167156
183	0x3fa14986	1.2600563
184	0xc12bf97d	-10.74841
185	0x3d1f29e5	0.038858313
186	0xbec4dd80	-0.3845024
187	0xbf2a2476	-0.66461885
188	0x3ece4901	0.40290073
189	0x3f07c9f6	0.5304254
190	0xbf9229d2	-1.1419013
191	0x401f15b4	2.4856997
192	0x41078db8	8.472099
193	0xbf875f03	-1.057587
194	0x40d61be2	6.6909037
195	0x402e130c	2.7199125
196	0x40031a08	2.0484638
197	0x3f7c2529	0.984942
198	0xbf522d4c	-0.8210037
199	0x3f233057	0.63745636
200	0x3eb2a8f2	0.3489452
201	0x409546a4	4.664873
202	0xbd564a41	-0.052316908
203	0xbd9acbea	-0.07558425
204	0xbc937ea2	-0.01800472
205	0x3d9cfbe8	0.07665235
206	0x3d833e6f	0.06408393
207	0x3dbf43a4	0.09339073
208	0xbf14c89f	-0.58118623
209	0xbfd8d245	-1.6939169
210	0x3fc9b6cc	1.575891
211	0xbfd46b85	-1.6595312
212	0x3e7ad6ad	0.24495955
213	0x403afcc2	2.921677
214	0x3d33efcd	0.043929864
215	0x3ab92d46	0.0014127872
216	0xbcf5c56e	-0.030001368
217	0xbd866349	-0.06561906
218	0x40d5869f	6.6726832
219	0xbe2743c1	-0.1633444
220	0x409b37da	4.850568
221	0x40b3ad21	5.614884
222	0x4088b4fe	4.272094
223	0x40482e18	3.1278133
224	0x4057cea1	3.3719866
225	0xc00282db	-2.0392368
226	0xbf1a7bda	-0.6034523
227	0x3dc297dd	0.09501622
228	0x3f6fdaa9	0.93693024
229	0x3f382ea1	0.7194615
230	0xbe099570	-0.13435912
231	0xbe706870	-0.2347734
232	0x3cf112de	0.029427942
233	0x3c6d2284	0.014473561
234	0xbb2c8826	-0.0026326268
235	0x3e1aedd7	0.15129791
236	0xc0a6c7e3	-5.2119
237	0xc0b0a609	-5.520268
238	0xc093e729	-4.621968
239	0x4023d918	2.5601254
240	0xbee621c9	-0.4494765
241	0xbf443e8c	-0.7665794
242	0xbc994880	-0.018711329
243	0xbe0a5edf	-0.13512753
244	0x3d848bf1	0.06472004
245	0x3d9b9c19	0.07598133
246	0x3fd75a42	1.682442
247	0xc068d62d	-3.6380723
248	0xbf9992b7	-1.1997899
249	0x4050b85c	3.2612524
250	0x40342c0f	2.8151891
251	0x3df03ca8	0.11730319
252	0x3eddc6c4	0.4331571
253	0xbf4bd131	-0.79616076
254	0x3f1e28b3	0.6178085
255	0x40b53a6a	5.6633806

fc1.bias f4 [148]
0	0x3f2f9672	0.68588936
1	0xbf660762	-0.89855015
2	0xbf1d2c5f	-0.6139583
3	0xc07ef9ef	-3.9840047
4	0xbf967807	-1.175538
5	0xbe97eda3	-0.2967349
6	0xbf12eede	-0.5739573
7	0xbedc321d	-0.43006983
8	0x3f10bf52	0.5654193
9	0x3f970354	1.1797891
10	0x3fa6cc1b	1.3031038
11	0xc00c4dae	-2.1922412
12	0x3c95ca74	0.018285014
13	0xc03ad46a	-2.9192147
14	0xbfe2c872	-1.7717421
15	0xbe399c8a	-0.18126121
16	0xbf03c8ae	-0.5147809
17	0x40c8867d	6.266417
18	0xbf33fe91	-0.7031031
19	0xbf31acb1	-0.6940413
20	0x3fab203c	1.3369212
21	0x3ec387a7	0.38189432
22	0x3f8b5f83	1.0888523
23	0x4026038c	2.5939665
24	0x3fbd2939	1.4778205
25	0x3fb9a501	1.450348
26	0xbf9447ae	-1.1584375
27	0x4069e531	3.6546137
28	0xbf342e2c	-0.7038295
29	0xc0163aef	-2.347347
30	0xbe85c9ff	-0.26130673
31	0x3fa3033b	1.2735361
32	0xbe2bdea7	-0.16784154
33	0x3e3e485c	0.1858229
34	0xbfce1468	-1.6099977
35	0x3c34ecd5	0.011042793
36	0x408d7c55	4.4214272
37	0x3dfa7a5a	0.12230368
38	0xbfcd9e1e	-1.6063879
39	0xbf810fa2	-1.0082896
40	0x3f93c36a	1.1544011
41	0xbe9c1ce1	-0.30490783
42	0xbf85575b	-1.0417284
43	0xbd0e492c	-0.03473775
44	0xbe1f6750	-0.15566754
45	0xbf04de7f	-0.51902
46	0xbbdc299a	-0.0067188265
47	0xbd992ca9	-0.074792214
48	0x40658b61	3.586632
49	0xbd06b937	-0.03289148
50	0x3d2b6fad	0.04185455
51	0xbd21078f	-0.03931385
52	0xbe289772	-0.16464022
53	0x3f6bd8b7	0.92127556
54	0xbf68d6f1	-0.90952975
55	0x3e706228	0.23474944
56	0xbf766a98	-0.962564
57	0x3f64452e	0.8916806
58	0xbeabb281	-0.33534625
59	0x3ee0a325	0.4387447
60	0x3fdd890f	1.7307452
61	0xbfd622cf	-1.6729373
62	0xbf5497fd	-0.83044416
63	0xbe91c1cf	-0.28468177
64	0xbf2f9897	-0.6859221
65	0xbd8b34d0	-0.067971826
66	0x3fcc05ee	1.593931
67	0x3e9d0e6d	0.30675068
68	0xbf370585	-0.714928
69	0x3f4cf94b	0.8006789
70	0x3c5406a4	0.012941036
71	0xbf57bdce	-0.84273994
72	0xbfa92ec2	-1.3217394
73	0xbee67e00	-0.45018005
74	0x3fa157f3	1.2604965
75	0x3f940770	1.156477
76	0x3fb8ef15	1.4447962
77	0xbf806075	-1.0029436
78	0x3e513f00	0.20434189
79	0x3fbaab73	1.4583572
80	0xbf85bd17	-1.0448331
81	0xbf879332	-1.0591795
82	0xbf51daaa	-0.8197428
83	0xbf909701	-1.1296083
84	0x402c0f8b	2.6884487
85	0x3edc5f24	0.43041337
86	0x3e9fb0a1	0.31189445
87	0xc0807026	-4.01369
88	0xbfc6c3b4	-1.5528474
89	0x3ecc303b	0.39880547
90	0x3f20896c	0.6270969
91	0xbfb4b357	-1.411723
92	0x3f80669e	1.0031316
93	0x3f1e3c5b	0.61810845
94	0xbf5cb677	-0.8621592
95	0x3ec466c1	0.38359645
96	0x3f157d70	0.5839453
97	0xbf3d871d	-0.7403429
98	0x40a99710	5.2996902
99	0x3fdb01d6	1.7109935
100	0x3f585754	0.8450825
101	0x3f83eba5	1.0306288
102	0x3fa4c161	1.2871515
103	0x3f240613	0.6407177
104	0xbf5c8333	-0.86137694
105	0xc035da4e	-2.8414493
106	0x3e068e78	0.13140285
107	0xbee6a234	-0.45045626
108	0x3fb44771	1.4084302
109	0xbf23c774	-0.63976216
110	0x408c902b	4.3925986
111	0x3f0a4497	0.5401091
112	0xbec2f917	-0.38080665
113	0x3f8778f7	1.058379
114	0xc003f9b1	-2.062115
115	0xbd99d21a	-0.07510777
116	0x3f0b8947	0.54506344
117	0x3f13dfb6	0.5776323
118	0xbdd44bae	-0.10365997
119	0xbf54c6fb	-0.8311612
120	0x3f49a224	0.7876303
121	0x3f11f09f	0.57007784
122	0xbd4df980	-0.05028677
123	0x3ded1399	0.115760036
124	0x3f7a1604	0.97689843
125	0xbf57fdd8	-0.8437171
126	0x3e66105b	0.22467177
127	0xbfac89f9	-1.3479606
128	0x3fdf3986	1.743943
129	0x3f808dfc	1.004333
130	0x3fccbac7	1.59945
131	0x3eb41be6	0.35177535
132	0x3f367fe7	0.71288913
133	0xbffeaa60	-1.9895744
134	0xbe24be3c	-0.16088194
135	0x3f903d29	1.1268665
136	0x400b6507	2.1780412
137	0x3e052d87	0.13005649
138	0x3e17c3b9	0.14820756
139	0x3dc8088c	0.09767255
140	0xbe44d46d	-0.19221659
141	0xbd77259e	-0.06033861
142	0xbf9efd6e	-1.2421091
143	0xbfd06f56	-1.6283977
144	0xbfe0cb04	-1.7561955
145	0xbe959302	-0.2921372
146	0xbf2b86db	-0.6700265
147	0x3b888743	0.004166515

fc2.weight f4 [148, 148]
0	0xbf9440f5	-1.1582323
1	0x3fdf18ec	1.742948
2	0x3fc20cb5	1.5160128
3	0xc0825ad9	-4.07359
4	0xbfd2b4f6	-1.6461475
5	0x3faff3ea	1.3746312
6	0xbfa887b6	-1.3166416
7	0x3fc2b9bb	1.521293
8	0x41934563	18.40888
9	0xc020058f	-2.5003393
10	0xbdec73f7	-0.11545556
11	0x3ea81861	0.328311
12	0x40ae9b13	5.45643
13	0x3f837dda	1.0272782
14	0x401d7bcd	2.4606812
15	0xc0072b96	-2.1120353
16	0xbfe943cd	-1.8223816
17	0x3e61edd9	0.22063388
18	0x3f0af34a	0.5427748
19	0x3f47b4ed	0.78010446
20	0x3f0b151e	0.543291
21	0xbf658ca1	-0.8966771
22	0xbf28744a	-0.65802443
23	0xbf5b32bb	-0.85624284
24	0xbee0bd17	-0.43894264
25	0xbf968d64	-1.1761899
26	0x3fd0bff0	1.6308575
27	0x3e42e5c4	0.19032961
28	0x3ee59386	0.44839114
29	0x405e18a1	3.4702532
30	0xbf68eb1d	-0.90983754
31	0xbe82920b	-0.25502047
32	0x411e72e7	9.903052
33	0x3f177c2e	0.5917386
34	0x40a0b4e3	5.022081
35	0x412246aa	10.142252
36	0x3dea2150	0.11432135
37	0x4003b033	2.0576293
38	0xc002cc2c	-2.0437117
39	0xbfb75ae4	-1.4324613
40	0x3f17afa5	0.5925239
41	0xbf83af10	-1.02878
42	0x410c0589	8.751351
43	0xc03329ba	-2.7994218
44	0x40fea436	7.9575453
45	0x408bcab5	4.3684945
46	0x3f1bd8a5	0.6087745
47	0xbff0615c	-1.8779712
48	0x3d9aa2b9	0.07550568
49	0x3fac9c29	1.3485156
50	0x3f51b7c9	0.8192106
51	0xc027b695	-2.620519
52	0x3f070e60	0.5275631
53	0xbee59548	-0.44840455
54	0x3f216d53	0.6305744
55	0xc0e518cd	-7.1592774
56	0x4064c8cf	3.5747564
57	0x3c4cd02e	0.012500806
58	0x3f67b971	0.90517336
59	0x402b10ff	2.6729124
60	0xbe215f97	-0.15759121
61	0x3fc761f3	1.5576767
62	0x417f790a	15.967051
63	0x40377c2e	2.8669543
64	0x3ff67f55	1.9257609
65	0x3d944a8d	0.07240782
66	0xbf70035c	-0.93755126
67	0x3f359307	0.7092747
68	0xbeac1902	-0.3361283
69	0xbe67b553	-0.22627763
70	0x3f97ed64	1.1869321
71	0x3f038f27	0.5139031
72	0xbf902726	-1.1261947
73	0x3f04940a	0.5178839
74	0xbe8fda6a	-0.28096324
75	0xbf5793ec	-0.84210086
76	0x3e12b769	0.14327778
77	0x3eebe8fc	0.4607619
78	0x4029e870	2.6548119
79	0xbee01c08	-0.43771386
80	0x3f34b574	0.70589375
81	0xc03b2ed7	-2.9247339
82	0x3fd617f4	1.672606
83	0x4036efe8	2.8583927
84	0x3e2d3c79	0.169176
85	0x3da5b819	0.080917545
86	0x4008ab84	2.1354685
87	0x3f2615f0	0.64877224
88	0x40081da8	2.12681
89	0x40236ea0	2.553627
90	0x3ec40d4e	0.382914
91	0x3e944745	0.28960624
92	0xbd69fd78	-0.057126492
93	0x4039c15d	2.902427
94	0x41028a33	8.15874
95	0x41624eba	14.14422
96	0xbf0916ce	-0.5355042
97	0x3fe17e1a	1.7616608
98	0xbdee5301	-0.116369255
99	0xbe99fcde	-0.30075735
100	0xbeda39aa	-0.4262212
101	0x3acbdbd8	0.001555319
102	0xbe9d7a28	-0.3075726
103	0x3f07f6b9	0.53110844
104	0x3fecd940	1.85038
105	0x4013e7e7	2.3110292
106	0x3fb8959b	1.4420656
107	0x3f458840	0.77161026
108	0xbeeda317	-0.4641349
109	0xbff5541d	-1.9166294
110	0x3e253922	0.16135076
111	0x3fd0195c	1.6257739
112	0x409a54c9	4.8228498
113	0xbec21b47	-0.37911436
114	0x3fd535ae	1.6657007
115	0x4011b468	2.2766361
116	0xbf8f5592	-1.1197989
117	0xbec8cfa6	-0.39220923
118	0xbe650204	-0.2236405
119	0x40068b4e	2.1022525
120	0xbe067930	-0.13132167
121	0x409f14dd	4.971297
122	0x3eea5b42	0.4577275
123	0xbd6efb69	-0.058345232
124	0x40044bd4	2.0671282
125	0x3f9a9f93	1.2079948
126	0x3f6b24d8	0.91853094
127	0x3f5aa14a	0.8540236
128	0xbf9ead99	-1.2396728
129	0x3ddc691c	0.107622355
130	0xbf25af49	-0.6472059
131	0xbfff09f6	-1.9924915
132	0x3f7cb563	0.98714274
133	0x3fb73d3a	1.431556
134	0x3fad5659	1.3541976
135	0xbf482dc0	-0.7819481
136	0xbf2b826d	-0.6699589
137	0x4114e9c1	9.307069
138	0xbfc7bd5e	-1.5604665
139	0x3f95236c	1.1651435
140	0x401c7063	2.4443595
141	0xbf782f02	-0.9694673
142	0x3f99e226	1.202214
143	0x3ea7c920	0.32770634
144	0x400b1a2e	2.173473
145	0xc0337796	-2.804174
146	0x4093b32e	4.6156225
147	0x419c7678	19.557846
148	0xbb9b131a	-0.0047325017
149	0xbda63ea7	-0.08117419
150	0x3d687828	0.056755215
151	0xbce5911d	-0.028023297
152	0x3c9bea93	0.019032752
153	0x3cd34d63	0.025793737
154	0xbab651c3	-0.0013909865
155	0xbd69d727	-0.05708995
156	0xbc564336	-0.013077548
157	0xbd54abcc	-0.05192165
158	0x3c4216bd	0.011846242
159	0xbb1e0983	-0.0024114556
160	0x3d1fdb11	0.039027277
161	0x3d2a9e58	0.041654915
162	0xbdac3c05	-0.08409885
163	0x3ccc948a	0.024973173
164	0xbc7f47d8	-0.015581094
165	0xbda960ab	-0.08270391
166	0xbc4dadd1	-0.012553648
167	0xbd167db8	-0.03674099
168	0xbd8a8837	-0.06764262
169	0xbde73169	-0.11288721
170	0xbc173166	-0.009228086
171	0xbd3734d4	-0.044728115
172	0x3ca19bb2	0.019727562
173	0xbd8d42a0	-0.06897473
174	0x3c3c5fa4	0.011497412
175	0xbcf4b26c	-0.029870234
176	0xbd5298bf	-0.0514152
177	0x3c78812d	0.015167517
178	0x3a0c44a7	0.0005350806
179	0x3c07d386	0.008290177
180	0xbd832e6d	-0.064053394
181	0xbddb76cf	-0.1071602
182	0xbdba2a1a	-0.090900615
183	0xbdbe7d32	-0.09301223
184	0xbd7ab365	-0.06120624
185	0xbd895fbb	-0.06707712
186	0x3c112a2c	0.008860152
187	0xbcd0e72f	-0.025500862
188	0x3d3d9ddf	0.046293136
189	0xbd329566	-0.04359951
190	0xbdbe7e7d	-0.093014695
191	0x3acea3e2	0.0015765394
192	0x3cc5230c	0.024064563
193	0xbd0a1e7b	-0.033720475
194	0xbcc10cf1	-0.023565741
195	0xbb8699e3	-0.0041077
196	0x3b113583	0.002215714
197	0x3ccb76b0	0.024836868
198	0xbdc3b599	-0.095561214
199	0xbd61e904	-0.05515386
200	0x3d316185	0.043305892
201	0xbdd1cb20	-0.10243821
202	0x3d26b799	0.040702436
203	0xbddf2449	-0.10895593
204	0xbdac3dd3	-0.084102295
205	0xbbefc258	-0.0073168688
206	0xbb39224e	-0.0028249207
207	0x3d2fe5e9	0.04294387
208	0xbdd4738a	-0.103736
209	0xbb25fcc0	-0.0025327653
210	0xbb08e62c	-0.0020889146
211	0xbd917d93	-0.071040295
212	0xbdb28df1	-0.087184794
213	0xbdd63838	-0.104599416
214	0xbdc8cdda	-0.09804888
215	0xbdafd520	-0.08585572
216	0x3cfa662c	0.030566297
217	0xbd1ba563	-0.037999522
218	0x3cde8fae	0.027168121
219	0xbdeea3f6	-0.11652367
220	0xbd39c3ee	-0.04535287
221	0xbd2a9b46	-0.041651987
222	0x3c1e1f49	0.009651014
223	0x3d241ee3	0.04006852
224	0x3d1e6d65	0.038678546
225	0x3c00137d	0.007817146
226	0x3ced279d	0.028949553
227	0xbd8e53b7	-0.06949561
228	0x3ca77201	0.020440103
229	0xbcd45662	-0.025920097
230	0x3cfa5634	0.030558683
231	0x3cfa128a	0.030526418
232	0xbc3e5bc4	-0.011618558
233	0xbc7b3f19	-0.015334868
234	0xbddd68bc	-0.10810992
235	0x3c3c5ef9	0.011497253
236	0xbde6f108	-0.11276442
237	0xbe03e694	-0.12880927
238	0x3dc48c81	0.095971115
239	0xbc7941b0	-0.015213415
240	0xbd9a0634	-0.075207144
241	0xbc708b5d	-0.014681664
242	0x3b52572e	0.003209542
243	0x3ddb0fb5	0.10696355
244	0xbd043b04	-0.032282844
245	0xbcfa8442	-0.030580644
246	0xbda98d7b	-0.082789384
247	0xbdca49ec	-0.09877381
248	0xbd7f55d4	-0.06233771
249	0xbd122027	-0.035675194
250	0x3c2e2a38	0.010630183
251	0xbd77f85b	-0.060539585
252	0xbc1cce15	-0.009570618
253	0x3d629538	0.055318087
254	0xbcae6cfe	-0.021292206
255	0x3d3908bd	0.04517435

fc2.bias f4 [148]
0	0xbe6745a2	-0.22585157
1	0x3d48afc8	0.048995763
2	0xbd86805f	-0.065674536
3	0xbdf2bb7a	-0.118521646
4	0xbd0e2a3c	-0.034708247
5	0xbbf8ba51	-0.00759057
6	0xbd8c0e24	-0.068386346
7	0xbe2a76af	-0.16646837
8	0xbd9ade8c	-0.07561979
9	0xbe8d468a	-0.2759288
10	0xbe9155ed	-0.2838587
11	0xc0646d40	-3.569168
12	0xbda40ec7	-0.08010631
13	0xbd86d31d	-0.065832354
14	0xbe88b208	-0.26698327
15	0xbe628157	-0.22119652
16	0x3c61aac6	0.013773626
17	0xbca15b32	-0.019696806
18	0xbd3cc087	-0.046082046
19	0xbe3f0195	-0.18652947
20	0xbe80f922	-0.25190073
21	0xbdf8bda0	-0.12145543
22	0x3f3b2da1	0.731165
23	0xbe7c1b36	-0.24619755
24	0xbfd057cf	-1.6276797
25	0xbe881829	-0.26580933
26	0xbd821070	-0.063507915
27	0xbe8ba864	-0.2727691
28	0xbb0b5a91	-0.0021263699
29	0xbd7a162c	-0.0610563
30	0xbe5337d8	-0.20626771
31	0xbe954cfe	-0.29160303
32	0xbd73de72	-0.059538312
33	0xbdaca647	-0.084301524
34	0xbdaf3c26	-0.08556394
35	0xbe77bbb6	-0.241927
36	0xbe6b5185	-0.22980316
37	0xbea4953c	-0.32145107
38	0xbdadeed3	-0.08492818
39	0xbddc3698	-0.107526004
40	0xbdcba456	-0.09943454
41	0xbea5452c	-0.32279336
42	0x3d1b6043	0.0379336
43	0xbe41a209	-0.18909468
44	0x4090d2b1	4.525719
45	0x3d0b4e30	0.034010112
46	0xbe8de2de	-0.27712148
47	0xbde6fb45	-0.112783946
48	0xbe87419f	-0.26417252
49	0xbc8a300f	-0.01686862
50	0xbe3d80de	-0.1850619
51	0xbe6acf54	-0.22930652
52	0xbd766e9e	-0.060164087
53	0xbdb8d5f2	-0.09025182
54	0xbd48050a	-0.04883293
55	0xbd496fc3	-0.04917885
56	0xbe924c47	-0.2857382
57	0xbe923759	-0.28557852
58	0x3d036825	0.03208174
59	0xbea6803d	-0.32519713
60	0xbd8db564	-0.06919363
61	0xbcfca445	-0.030840049
62	0xbe5d3e4a	-0.21605793
63	0xbe86dd2d	-0.2634062
64	0xbcc58f00	-0.02411604
65	0xbe75aa0f	-0.23990653
66	0xbe6df43f	-0.23237704
67	0xbe7ad412	-0.24494961
68	0xbd2bf5a5	-0.04198231
69	0xbde301f9	-0.11084361
70	0xbf8f7934	-1.1208863
71	0xbe3dddbf	-0.1854162
72	0xbe8b7983	-0.27241144
73	0xbcb3bca6	-0.02194054
74	0x382ca755	4.1163836e-05
75	0xbb68b7db	-0.0035509977
76	0xbda24fdd	-0.07925389
77	0xbf9f29ed	-1.243467
78	0xbe820753	-0.25396213
79	0xbe76f7f9	-0.24118032
80	0xbd1853d4	-0.03718932
81	0xbb058bfd	-0.002037763
82	0xbccb43ae	-0.024812546
83	0xbe6532bf	-0.2238264
84	0xbe804c84	-0.25058377
85	0xbe80ca5c	-0.25154388
86	0xbe3e1dd2	-0.18566063
87	0xbdc06e1b	-0.09396001
88	0xbdbd0b6c	-0.09230694
89	0xbe7310f8	-0.23736942
90	0xbe84200d	-0.25805703
91	0xbdb90dcb	-0.09035834
92	0xbdd32def	-0.103114955
93	0xbe33610a	-0.17517486
94	0xbe6cd337	-0.23127447
95	0xbddc7eff	-0.1076641
96	0xbd3396fe	-0.04384517
97	0xbe33d332	-0.17561033
98	0xbdc65fa9	-0.096862145
99	0xbe6f68ec	-0.23379868
100	0xbdeb6ffc	-0.11495969
101	0x3f838a09	1.02765
102	0xbe9d4ae8	-0.3072121
103	0xbe6ea80c	-0.23306292
104	0xbeb4f29d	-0.3534135
105	0xbe5e655f	-0.21718358
106	0xbe8f2b9c	-0.2796296
107	0x3b536b6b	0.003226007
108	0xbea3c0ce	-0.31983036
109	0xbe9b3108	-0.30310845
110	0xbfa768fb	-1.3078912
111	0xbc779fb6	-0.015113762
112	0xbe632591	-0.22182299
113	0xbda2d12f	-0.07950055
114	0xbd8b2d35	-0.06795732
115	0xbdf8b221	-0.121433504
116	0xbe8b9f2c	-0.27269876
117	0x3c9c0129	0.019043522
118	0xbe98903f	-0.2979755
119	0xbd825ba4	-0.06365135
120	0xbe83baeb	-0.25728545
121	0x3d512c1b	0.051067453
122	0xbd9ee8d0	-0.07759249
123	0xbe838fb6	-0.2569558
124	0xbe9960ec	-0.29956758
125	0xbea2f9eb	-0.31831297
126	0xbea2f2da	-0.31825906
127	0xbd6baa95	-0.057535727
128	0xbe68f14f	-0.22748302
129	0xbda2be2e	-0.0794643
130	0xbe644e92	-0.22295597
131	0xbe6e4b40	-0.23270893
132	0xbd274f62	-0.04084719
133	0xbe5d4248	-0.21607316
134	0x4090d2f4	4.525751
135	0xbd83ba3f	-0.06432008
136	0xbd61b605	-0.055105228
137	0xbdcfe35f	-0.101507895
138	0xbe6d9a1d	-0.23203321
139	0xbda9d80c	-0.08293161
140	0xbc2ecbfe	-0.010668753
141	0xbda4151b	-0.08011838
142	0xbe3770d4	-0.17914134
143	0x3d333d18	0.043759435
144	0x3bc44b5b	0.0059904284
145	0xbe67b328	-0.22626936
146	0xbe91769b	-0.284108
147	0xbf11f6e2	-0.5701734

fc3.weight f4 [1, 148]
0	0xc0804537	-4.008449
1	0x3d440053	0.04785187
2	0xbb063840	-0.0020480305
3	0xbc46b97e	-0.012129186
4	0x3ca9423a	0.020661462
5	0xbc827982	-0.01592708
6	0xbdc31e7b	-0.09527298
7	0xc07fa016	-3.9941459
8	0x3cb98acf	0.022649197
9	0xc0811f56	-4.035075
10	0xc082d319	-4.0882688
11	0xc18eb1ac	-17.836754
12	0x3cbd684c	0.023121022
13	0x3d58ba0a	0.052911796
14	0xc089afb9	-4.3027005
15	0xc0821ad8	-4.065777
16	0x3cf26dda	0.029593397
17	0x3b9006ca	0.0043953406
18	0xbca3b9d3	-0.019986069
19	0xc08559ac	-4.1671963
20	0xc08202f3	-4.06286
21	0xbb3890bf	-0.0028162447
22	0x4080ee32	4.0290766
23	0xc081d1ae	-4.0568457
24	0x415ad1ad	13.67619
25	0xc08ff38c	-4.49848
26	0x3d9091f3	0.070590876
27	0xc08563df	-4.1684413
28	0x3ce3a5f2	0.02778909
29	0x3c8c7d09	0.017149465
30	0xc0858f8d	-4.1737733
31	0xc0860534	-4.188135
32	0xbce7e49a	-0.028307248
33	0x3cf75fb3	0.030197
34	0xbc748c1c	-0.014925983
35	0xc0845400	-4.135254
36	0xc0834893	-4.102609
37	0xc081d69c	-4.0574474
38	0xbc05a74d	-0.008157563
39	0xbcbddada	-0.023175646
40	0x3e201a1b	0.15634958
41	0xc08692fd	-4.205443
42	0x3c68ddff	0.014213084
43	0xc08647a2	-4.1962442
44	0x40d90085	6.7813134
45	0x3d3d025b	0.046144824
46	0xc087cf4e	-4.2440557
47	0x3cae8d07	0.021307481
48	0xc07f31c1	-3.9874117
49	0xba6a14d6	-0.00089294964
50	0xc0823285	-4.068667
51	0xc08601fe	-4.187743
52	0x3d0b731c	0.034045324
53	0x3c5c8f72	0.013461934
54	0x3cf2ae2c	0.029624067
55	0xbca45fc6	-0.0200652
56	0xc08ac364	-4.3363514
57	0xc084ca14	-4.1496677
58	0xbc11f09c	-0.008907463
59	0xc085feda	-4.18736
60	0xbc9aa41f	-0.018877087
61	0x3abb9b41	0.0014313237
62	0xc0856e9e	-4.169753
63	0xc0843f9f	-4.1327662
64	0xbccee5be	-0.025256034
65	0xc0852cc1	-4.161713
66	0xc083462f	-4.1023173
67	0xc08276b7	-4.0769916
68	0xbc88036b	-0.016603192
69	0x3aede2a8	0.0018149214
70	0xc1bcc51c	-23.596245
71	0xc082b2be	-4.084319
72	0xc087d156	-4.2443037
73	0x3d1b2306	0.037875198
74	0x3c1533da	0.009106601
75	0x3cbe4f70	0.023231238
76	0x3c8ca390	0.017167836
77	0x424976ca	50.366005
78	0xc0862bf8	-4.1928673
79	0xc0845d12	-4.136361
80	0x3b564e3a	0.0032700435
81	0x3d0717c4	0.03298165
82	0x3d448d78	0.047986478
83	0xc07f52ba	-3.9894242
84	0xc08c43e4	-4.3832874
85	0xc085d0d7	-4.181743
86	0xc0891da7	-4.2848697
87	0x3d1e608d	0.038666297
88	0xbc8eda49	-0.01743807
89	0xc0833a58	-4.100872
90	0xc0824719	-4.071179
91	0xbcb8f007	-0.022575391
92	0xbb1f460f	-0.0024303233
93	0xc08227ad	-4.067343
94	0xc0819645	-4.0495934
95	0x3d30138a	0.042987384
96	0x3cd7938b	0.026315471
97	0xc0845216	-4.1350203
98	0xbc8c943a	-0.017160524
99	0xc084d1fa	-4.150632
100	0x3d23228c	0.03982787
101	0x41b2a1b0	22.328949
102	0xc08c742d	-4.3891816
103	0xc08261de	-4.0744467
104	0xc07fa83d	-3.9946434
105	0xc0866f0e	-4.2010565
106	0xc08715c7	-4.2214084
107	0x3ccbc557	0.024874372
108	0xc08281eb	-4.078359
109	0xc08229dd	-4.0676103
110	0xc21b3019	-38.79697
111	0xbcf2327b	-0.029565087
112	0xc081dc7b	-4.058164
113	0x3c0540bf	0.008133112
114	0x3d6ba840	0.057533503
115	0x3cc870c4	0.024467833
116	0xc084bc28	-4.1479683
117	0x3d5c81cb	0.053834718
118	0xc0826467	-4.074756
119	0x3d1d8bb6	0.038463317
120	0xc084b45a	-4.1470156
121	0x3ad039c7	0.001588636
122	0xc1b7408e	-22.90652
123	0xc0819db8	-4.050503
124	0xc087c79a	-4.2431154
125	0xc086489c	-4.1963634
126	0xc086293e	-4.1925344
127	0x3d83f00d	0.064422704
128	0xc08e0f91	-4.4394
129	0xbc118846	-0.008882588
130	0xc0862910	-4.1925125
131	0xc085a409	-4.176274
132	0x3b67d723	0.0035376034
133	0xc08709ca	-4.219945
134	0x40c58977	6.1730304
135	0x3ccea41e	0.025224742
136	0x3cdff8e6	0.027340364
137	0x3cc3316a	0.023827273
138	0xc07fde5e	-3.9979472
139	0xbcaeb478	-0.021326289
140	0x3d0cdfbd	0.03439306
141	0x3ca7428f	0.02041748
142	0xc0848d28	-4.142231
143	0x3d7ad3d3	0.061237168
144	0xba441124	-0.0007479361
145	0xc084dfe2	-4.1523294
146	0xc083f032	-4.1230707
147	0x41a1051f	20.1275
