demo/4_2_2tran2_3_act2/critic_1_4.pth (torch, 108582 bytes, 5 tensors)

fc1.weight f4 [148, 28]
000000 4e ad 2f c0 9f ac 32 40 a1 02 78 3f 97 ca a0 bf
       -2.7449527 2.791786 0.9687901 -1.2561826
000010 3d f1 dc 3e 6a 45 3d 3f 9e 91 36 be e2 99 ed 3c
       0.431528 0.7393404 -0.17828986 0.029004041
000020 31 27 1f 3e e8 80 25 bd fb 2d 47 3b 83 f6 07 3d
       0.15542294 -0.040406138 0.0030392397 0.033194076
000030 ba 7f f3 3e ae a3 0b 41 65 f3 ac 3f 3b 72 37 3f
       0.47558385 8.727461 1.3511778 0.71658677
000040 11 9f ec 40 1c 07 e0 3f 6e 3d 9e bd da 5b 0f be
       7.3944173 1.750217 -0.077265605 -0.13999882
000050 fb d9 b4 bd e8 3c 03 3e 0a 6f 95 bf 61 ae 8b 3f
       -0.08830639 0.12816203 -1.1674511 1.0912591
000060 fb 7b b1 c0 c6 d1 7f 3f 86 50 b5 3e 39 16 03 40
       -5.5463843 0.99929464 0.35412997 2.0482314
000070 d1 40 64 40 14 b9 c9 bf b8 1e a2 3f 16 96 81 bc
       3.566456 -1.5759606 1.2665625 -0.015818637
000080 ec ce 9e bf db 18 20 3f 42 c6 84 3d 0e 20 36 3d
       -1.2406898 0.62537926 0.06483127 0.044464163
000090 fc 97 f9 3d e9 4d 43 3d ad f6 17 bd 21 1b 2c 3c
       0.12187192 0.047681723 -0.037100483 0.010504515
0000a0 de 71 71 3f 48 f7 14 c1 45 fe 0f 3e e6 af 62 3e
       0.9431437 -9.310371 0.1406184 0.22137412
0000b0 bd e8 f3 c0 59 5a d9 3f 5d 42 83 be c9 ff 55 bd
       -7.6221604 1.6980697 -0.2563657 -0.05224589
0000c0 c4 fd 13 3e f9 0f bc 3d 64 7b 29 41 f2 d9 fc 3e
       0.14452273 0.09182734 10.592625 0.4938503
0000d0 1a f4 7b c0 a9 80 3c c0 8d 8b 07 41 24 2e 91 40
       -3.9367738 -2.9453528 8.47157 4.5368824
0000e0 ad e0 ee be 5c 64 db c0 fb 96 5b 3f 4e cf a2 40
       -0.4665579 -6.856001 0.8577725 5.0878057
0000f0 41 45 3f c0 06 4b 30 c0 c9 be 22 be 38 43 e1 be
       -2.988602 -2.754579 -0.15893091 -0.43996596
000100 ef 6f f6 3d 03 35 56 3e fc 2f c8 be 85 94 9c 3e
       0.120330684 0.2091866 -0.3909911 0.3058206
000110 cd f1 9e bf 60 80 35 c0 e2 19 81 bf 4e bb ab bf
       -1.2417542 -2.8359604 -1.0086024 -1.3416536
000120 f9 b1 ec bf 83 9e 75 bd 87 47 57 bf 63 4b 5b bf
       -1.8491813 -0.05996562 -0.8409352 -0.85661906
000130 d4 48 4f 3f 4d a6 39 3f 3e 61 c9 c0 dd c5 43 c1
       0.809705 0.7251938 -6.2931204 -12.235806
000140 db 1e eb 3f fd 82 17 c1 b1 17 80 c0 8b f6 03 40
       1.8368791 -9.46948 -4.002892 2.0619228
000150 d5 7a 4f 3f 4b ce e4 be 8f 2d 14 bd 0b 38 96 3f
       0.810468 -0.4468864 -0.03617626 1.1735853
000160 8d 02 5d 3f 80 2b 33 bf 0f 8b a3 3d 55 a0 75 bd
       0.8633202 -0.6998825 0.07985508 -0.059967358
000170 28 21 09 be 42 fb 33 3e db a5 5e 3d bb 9b 2c bd
       -0.13391554 0.17576316 0.05435739 -0.042140704
000180 6e 6c 98 3f 00 4a 25 c0 58 53 e3 bf c3 c7 09 40
       1.190809 -2.5826416 -1.775981 2.1528175
000190 2c 41 6c bf e3 72 4d 3f 7e e5 8b 3d 12 8b 80 3d
       -0.92286944 0.8025343 0.068308815 0.062765256
0001a0 91 9c 6a 3e d8 ef 35 3e b2 5a 19 41 07 60 89 bf
       0.22911288 0.17767274 9.584642 -1.073243
0001b0 09 2a f7 bf c6 2e d4 c0 6e 80 bc be 88 92 a5 40
       -1.9309703 -6.6307096 -0.36816734 5.174137
0001c0 17 7b c9 3e 7f e2 b7 be 49 8f 81 bf 3a 20 56 40
       0.39351723 -0.3591499 -1.0121852 3.345717
0001d0 90 5d 2b bd 16 59 83 3f 0d 55 1a be b8 e9 03 3d
       -0.041837275 1.0261562 -0.15071507 0.032205313
0001e0 69 2c f6 bf 81 58 91 bc 06 5a cb 3e c2 ca a5 3e
       -1.9232303 -0.017742397 0.3971712 0.32381254
0001f0 b4 1f 04 c0 74 6b e3 3e 70 3c 3d bf 08 8c 00 c0
       -2.064435 0.44417918 -0.73920345 -2.0085468
000200 da 5d 2f c0 d1 5c 92 3f 24 b5 d0 3b 68 e2 e0 3d
       -2.7401032 1.1434575 0.00636925 0.109806836
000210 1d d1 db 3c e9 61 fa bd 8c ac 25 3f bb 43 1b 41
       0.026833111 -0.12225706 0.6471641 9.704036
000220 34 a9 73 40 53 0e 6e c0 f3 9a 85 bf 0a ef 84 3f
       3.8072023 -3.7196243 -1.0437912 1.0385449
000230 81 5d 3e c0 10 3c 97 40 d5 64 bb bf a8 c9 bd be
       -2.974457 4.726082 -1.4640146 -0.37067914
000240 7e e6 1a 40 a3 97 c5 3f 19 52 bd 3d 4a 58 66 be
       2.4203181 1.5436901 0.092441745 -0.22494617
000250 41 a2 3e be ad 43 9e 3d 76 06 b2 3e 69 0c 00 3d
       -0.18616582 0.07727752 0.34770554 0.031261835
000260 d5 c9 32 3e 0c 05 a0 3f ad e4 b5 3d 3a e1 62 3f
       0.17459805 1.250154 0.08881507 0.8862492
000270 e7 cf 4b c0 69 64 e4 3f 91 ab 27 3d b0 5c a2 3e
       -3.1845644 1.7843143 0.040935103 0.3171134
000280 fd d4 dd bb 59 d4 87 be 31 0d 42 40 32 4f 9d c0
       -0.006769775 -0.26529196 3.0320551 -4.9159174
000290 85 63 eb c0 fb a8 2c 40 7b bc 49 c0 ea e5 00 c1
       -7.3558984 2.6978137 -3.152129 -8.056131
0002a0 07 a7 b3 40 9e e8 77 40 e8 a5 8a be 5d 20 66 3d
       5.614139 3.8735728 -0.270797 0.056183208
0002b0 70 fb 83 bf b4 97 94 3e b3 2b 0b 3e 6e 1a e2 3d
       -1.0311108 0.2902199 0.13590889 0.11040197
0002c0 f4 01 16 bd 4e 89 72 3d f1 0d db 3d 85 44 b9 3c
       -0.036622956 0.059212975 0.106960185 0.02261568
0002d0 f1 55 96 3f 18 ef 97 c0 11 c7 1a bf 29 a0 a3 3f
       1.1744977 -4.7479362 -0.6046 1.2783252
0002e0 bf 22 34 c1 78 6f bf 3d 09 c1 a6 3d b8 71 4b be
       -11.258483 0.09347433 0.08142287 -0.19867599
0002f0 b8 16 81 bd d0 11 84 3d 32 2e 40 40 97 a7 a3 40
       -0.063031614 0.0644871 3.0028195 5.1142077
000300 ae a3 7d 3f 30 c3 28 c0 6d 5f d8 bf ba 26 c7 3f
       0.9907788 -2.6369133 -1.6904122 1.5558693
000310 2b 29 e7 3f 22 b8 9b 3f f3 61 9f be 2e f9 3b 3f
       1.8059438 1.2165568 -0.31129417 0.73427093
000320 05 7b 3e 3e d6 6f 04 3d 0f 40 94 3f 66 0c 56 be
       0.18601616 0.032333218 1.1582049 -0.20903167
000330 ca 86 ad bf 2e bb d7 3e ad a6 f1 be 64 37 36 bf
       -1.3556759 0.42134994 -0.47197476 -0.7117827
000340 48 d1 d2 be d9 f7 70 bf 4d 9c 15 40 03 f0 ce bf
       -0.41175294 -0.94128186 2.3376648 -1.6166996
000350 a0 b0 85 3f c4 d5 7a 40 e1 28 d0 be 26 eb e5 be
       1.0444527 3.9192972 -0.40656188 -0.44905967
000360 e6 48 d7 3e 4b 0e c5 3e 43 33 de bf 10 25 97 bf
       0.42047805 0.38487467 -1.7359394 -1.1808186
000370 df a2 f5 3f 68 ef c0 40 4f 01 27 be 89 16 bb c0
       1.9190329 6.0292244 -0.16309093 -5.846501
000380 92 f0 ea 3d 71 dd d0 bb a4 06 f5 3e e2 89 c6 bd
       0.114716664 -0.006374054 0.4785663 -0.09694268
000390 f2 5f f5 3d 2b 58 1b bf 67 80 82 bd 31 55 0e bd
       0.11981191 -0.6068141 -0.06372147 -0.034749214
0003a0 7c 2d 0f bd fb 2e 23 3d f3 8e 81 3d 1e 32 ea bc
       -0.034955487 0.039839726 0.063260935 -0.02858835
0003b0 cb 89 90 c0 12 b0 a1 bf 0d e8 00 3f ce 18 a4 40
       -4.5168204 -1.2631857 0.5035408 5.128028
0003c0 13 82 ab 3f e6 48 92 3f 87 80 c6 3d 00 9a 9f bc
       1.339907 1.1428497 0.096924834 -0.019482613
0003d0 03 91 50 bd 8c 74 22 bd a2 31 73 bf 20 23 06 c0
       -0.050919544 -0.03966193 -0.9499761 -2.0958939
0003e0 8b e3 4c 3f 66 1c 44 3f e0 0e 04 40 fe cd 95 be
       0.80034703 0.7660583 2.063408 -0.29258722
0003f0 43 51 b2 be 46 ff 53 c0 6b 86 25 3f da 93 10 40
       -0.34827623 -3.3124557 0.6465823 2.2590241

fc1.bias f4 [148]
000000 10 b8 f3 3b ae f8 39 bf 2b 08 a3 3d f2 46 43 c0
       0.0074377134 -0.7264508 0.07960542 -3.0512052
000010 99 8a f9 3e 72 c8 fe be 85 1b 85 bf 31 06 a7 3c
       0.48738554 -0.49762303 -1.0399023 0.020388694
000020 1b 48 e6 3e a0 08 88 be 55 2b 5d 3f 4c be e3 be
       0.44976887 -0.2656908 0.86394244 -0.44481122
000030 ef e6 b6 be f7 ba 88 bf 48 df 06 c0 ec ca 9f 3f
       -0.35723063 -1.0682057 -2.107378 1.2483802
000040 52 2d 4b bf 53 49 bc 40 4c f6 ec be c7 fb 08 bf
       -0.7936603 5.8839507 -0.4628166 -0.5350918
000050 32 3c 61 be 8a a1 a8 3d 13 1f d1 3e a6 46 16 40
       -0.21995619 0.08233936 0.4084402 2.348062
000060 8f 4e f1 3f f4 52 16 3f aa 30 a9 bf f2 63 58 40
       1.8852099 0.58720326 -1.3217976 3.3811002
000070 62 79 b1 be d3 3a 2d c0 a2 47 c8 3e 65 ed 91 3f
       -0.3466292 -2.7067153 0.39117151 1.1400572
000080 93 3e 40 bf 34 b7 09 bf a1 0c 0d c0 20 8b 56 be
       -0.7509548 -0.5379517 -2.2038958 -0.2095151
000090 be a6 93 40 04 a3 14 bf 0e ac b4 3d b8 98 f2 bd
       4.6141043 -0.5806124 0.08821879 -0.11845535
0000a0 77 3d b7 be 7c 75 62 3f c6 06 e7 be 64 f4 56 3f
       -0.3578908 0.88460517 -0.45122355 0.8396666
0000b0 9c 9a ae be 0d 6f 81 bf 30 7b cf be 92 5d 6c bc
       -0.34102333 -1.0112015 -0.40523672 -0.014426606
0000c0 92 9d 85 40 e5 31 c5 bd 11 f3 b4 be f2 53 d0 3e
       4.1754847 -0.09628657 -0.35341695 0.40689045
0000d0 7e fc 90 bf 53 1d b0 3c b8 69 d4 be 40 d4 4b be
       -1.1327055 0.021498358 -0.41486907 -0.19905186
0000e0 28 e8 25 be 8d 88 07 3f b0 65 16 be 48 73 76 3d
       -0.16201842 0.52942735 -0.14687228 0.060168535
0000f0 02 f5 a3 3f d2 4a 1d c0 b1 3e 24 bf 98 88 50 be
       1.2809145 -2.4576917 -0.6415816 -0.20364606
000100 46 fc 97 bf 64 7f e1 be 7f d5 8f 3f 71 97 27 3c
       -1.1873863 -0.44042504 1.1237029 0.010228978
000110 b2 e4 b6 bf 7c e5 85 3f ae dd 30 be a5 98 f1 be
       -1.4288542 1.0460658 -0.17272064 -0.4718677
000120 9e 79 65 be d6 22 2e bf fd 89 5f 3f f1 73 27 3f
       -0.22409675 -0.68021905 0.8731993 0.6541129
000130 25 73 de 3f dc d1 a9 3e ba 5f 81 bf a4 a2 15 bf
       1.7378889 0.33167922 -1.0107338 -0.58451295
000140 46 a9 0e bf ce d7 47 be 7c 5b 02 bf 45 b4 bf bf
       -0.5572704 -0.19515917 -0.50920844 -1.4976889
000150 47 27 4f 40 15 7b 4c bd 64 60 ce bf 16 49 4e c0
       3.2367723 -0.049922068 -1.6123166 -3.2232108
000160 35 7c 5b bf 98 3f 23 bf ad 6c 8a 3e 14 a0 7b bf
       -0.857364 -0.6376891 0.27036038 -0.98291135
000170 eb 8e 99 3f 9a be 7a 3e a5 12 79 bf e8 e5 d1 3e
       1.199674 0.24486771 -0.97294074 0.40995717
000180 e1 05 4f be 25 fa 26 bf b3 7b 97 40 bb 13 dd 3f
       -0.20217086 -0.6522544 4.73385 1.7271646
000190 e0 be a2 3f ca 03 ca 3e 3c 7a a7 3f 86 56 2e be
       1.27145 0.39456016 1.3084178 -0.17025194
0001a0 1c 22 ec be 43 50 2f c0 2b 97 19 bf 9a 27 a6 bf
       -0.46119773 -2.7392738 -0.5999629 -1.2980835
0001b0 f8 a9 cc 3e 54 bf b6 3f ab c9 88 40 fa 61 1d 3d
       0.39973426 1.4277139 4.2746177 0.038423516
0001c0 5c d3 8d bc 27 bb 67 3f dc d5 48 c0 0d 4e 32 be
       -0.017312698 0.90519947 -3.138053 -0.17412587
0001d0 82 2e 2b 3f 6c 36 56 3f 2a ac 0d 3f 14 58 1c bf
       0.6686784 0.8367679 0.55340827 -0.61071897
0001e0 74 8b 91 3f 2a 45 9a 3e f3 92 20 bf 24 00 70 3e
       1.1370683 0.30130893 -0.62724227 0.23437554
0001f0 00 a1 b9 3a 7f 08 94 bf 4a ac 7c be c3 72 c2 bf
       0.0014162362 -1.1565093 -0.24675098 -1.5191272
000200 0b 18 b3 3f 2f d4 a4 3f b3 6f fb 3f 1d 55 e7 3e
       1.3991712 1.2877253 1.9643463 0.45182124
000210 b3 f0 96 3e 8a 54 0b bf 91 98 d0 bd 06 de ab 3f
       0.29480514 -0.5442587 -0.1018535 1.3427131
000220 d1 0b 75 3f 05 a6 c3 3e 6c b7 01 bf 90 d1 1a bf
       0.95721155 0.382126 -0.50670505 -0.60476017
000230 8c 39 cb bc 2c a5 ba 3f cb 4c f6 bf 07 5d 27 bf
       -0.024807714 1.4581656 -1.9242185 -0.65376323
000240 0d 92 8f bf 37 b0 0b 3f 1f b8 68 bd d7 dc 06 3f
       -1.1216446 0.5456576 -0.056816217 0.52680725

fc2.weight f4 [148, 148]
000000 22 7f 38 bf e1 da 2d 40 57 fc 91 3f 43 8a 94 c0
       -0.7206899 2.7164843 1.1405133 -4.6418777
000010 04 7c af 3e 10 69 97 3f 38 8f bc bf f6 15 0a 3f
       0.34274304 1.1828938 -1.4731207 0.5393976
000020 e0 05 8d 41 38 06 2d c0 76 7b 73 bd 31 7b d5 3f
       17.627869 -2.7035046 -0.059443913 1.667822
000030 2b 63 d2 40 27 3e 85 3f 4b 35 be 40 1e cf 46 bf
       6.5746055 1.0409592 5.9440055 -0.77659786
000040 01 ab 86 c0 b5 0f 60 3e 1c df 32 bc 46 2a 74 3f
       -4.2083745 0.21880992 -0.010917451 0.95377004
000050 05 dc 3c 3f 1f 5d 18 bf be 20 b9 be aa 2c 7d bf
       0.73773223 -0.5951709 -0.36157793 -0.98896277
000060 bf bb ad be da ad 4e bf a1 9d e4 3f 28 ff f5 3d
       -0.339323 -0.80734026 1.7860605 0.12011558
000070 4b 98 7e 3f b2 01 30 40 cd 6c 0b bf 74 6d 94 3d
       0.9945113 2.7501035 -0.5446289 0.07247439
000080 f8 60 39 41 2f 60 96 bb ad 12 88 40 40 72 27 41
       11.586174 -0.0045891027 4.2522798 10.465393
000090 0f 1b 78 3e a8 29 85 3f 66 cd 95 be 8c 68 7e bf
       0.24229072 1.0403337 -0.2925827 -0.99378276
0000a0 99 d4 9f 3e f8 22 85 be a0 a0 e6 40 b1 29 83 c0
       0.31216887 -0.26003242 7.2071075 -4.0988393
0000b0 b9 47 15 41 06 d6 1e 40 49 97 d8 3e b0 8e b6 bf
       9.33001 2.481813 0.4230292 -1.4262295
0000c0 1b 47 06 3e d5 18 4e 3f 6c d6 80 3f 74 9b 8c c0
       0.13113062 0.8050664 1.0065436 -4.393976
0000d0 6e 7d 14 bf 59 36 af be 95 83 aa 3f 05 bc 10 c1
       -0.5800389 -0.3422115 1.3321406 -9.045903
0000e0 30 47 f6 3f 3e af 15 be f8 41 ee 3e 97 cf 80 3f
       1.9240475 -0.14617631 0.46534705 1.0063351
0000f0 6c db 5e be be 30 ff 3e 5b 15 92 41 78 3e 1e 40
       -0.2176339 0.49841875 18.260427 2.4725628
000100 3d 8d 3e 40 09 b0 e8 3e b4 6d 86 be 23 49 03 bf
       2.9773705 0.45446804 -0.26255572 -0.5128347
000110 c5 91 04 40 71 95 21 be 4b 0e 02 3f 5a ab c6 3f
       2.071397 -0.15779664 0.5080306 1.5521042
000120 37 3c 0f c0 9b 3e d0 3e 93 7d 03 be c2 20 58 bf
       -2.2380502 0.40672764 -0.12840872 -0.84424984
000130 75 92 fc 3d 4d 86 52 be 4e db 31 40 23 6c 90 3f
       0.12332622 -0.20559044 2.7790103 1.1283001
000140 be 0e 2b 3f 87 7a 22 c0 ba 55 1e 3f 2d 5f f4 be
       0.6681937 -2.5387285 0.6184956 -0.47728863
000150 71 99 26 3e b9 65 98 3e 2b 05 a0 3f bb 6f 1d 40
       0.16269471 0.29765108 1.2501577 2.4599445
000160 1f 2f c5 3f 41 d6 26 40 cd 25 0c 3f 89 a5 b6 3f
       1.5405005 2.606827 0.5474518 1.4269267
000170 d7 83 47 be 8e 61 94 3e 75 e3 0a 41 9d 7c 9a 41
       -0.19483887 0.28980678 8.6805315 19.310846
000180 e2 67 43 bf fc 80 da 3f aa c2 20 3e 6c 94 93 be
       -0.7633039 1.7070613 0.15699258 -0.28824174
000190 4b 86 a3 be 1e ce 60 be 94 08 04 bf 0d 63 8d 3f
       -0.31938395 -0.21953627 -0.5157559 1.1045853
0001a0 e2 94 97 3f 33 d6 cb 3f 37 13 93 3e 33 19 6f 3f
       1.184231 1.5924743 0.28725597 0.93397826
0001b0 af 46 54 bf 12 c2 65 be 1e bc 72 3e 12 ea 07 3f
       -0.82920355 -0.22437313 0.23704574 0.5309154
0001c0 3e 10 d8 40 26 db 1c bf 8c a2 20 40 6f e5 47 40
       6.7519827 -0.61271894 2.509921 3.1233785
0001d0 71 d9 20 c0 fd 4f 6d be 0f f7 0a bf ae eb fa 3f
       -2.5132716 -0.23175044 -0.5428323 1.9603174
0001e0 f5 04 75 be 5a e7 63 40 b9 5c 42 3f 65 8f 05 bf
       -0.23927672 3.5609956 0.75922734 -0.5217193
0001f0 1f 80 ee 3f 58 83 6e 3f bc 97 a4 3f 80 81 3c 3f
       1.863285 0.93169165 1.2858806 0.736351
000200 f7 11 9d bf 5e 86 bd 3c 3f 39 88 bf 4e f1 07 c0
       -1.2271107 0.02313536 -1.064247 -2.124103
000210 04 b3 06 3f bf 3c 85 3f e2 2d 15 3f 11 e4 2c bf
       0.52616906 1.0409163 0.58273137 -0.675355
000220 20 09 07 c0 c4 06 1f 41 19 19 ed bf 86 a6 f3 3f
       -2.109932 9.939152 -1.8523284 1.9035194
000230 a1 8b dc 3f 5b 90 39 be 93 82 7a bf 2b 9f 41 3f
       1.7230111 -0.18121473 -0.9785549 0.75633496
000240 5a 15 95 3f 4f e2 49 c0 d1 28 ae 40 d5 2f 91 41
       1.1647141 -3.1544378 5.4424825 18.148355
000250 1a 13 9b bb a7 3e a6 bd 28 78 68 3d 1d 91 e5 bc
       -0.0047325017 -0.08117419 0.056755215 -0.028023297
000260 93 ea 9b 3c 63 4d d3 3c c3 51 b6 ba 27 d7 69 bd
       0.019032752 0.025793737 -0.0013909865 -0.05708995
000270 36 43 56 bc cc ab 54 bd bd 16 42 3c 83 09 1e bb
       -0.013077548 -0.05192165 0.011846242 -0.0024114556
000280 11 db 1f 3d 58 9e 2a 3d 05 3c ac bd 8a 94 cc 3c
       0.039027277 0.041654915 -0.08409885 0.024973173
000290 d8 47 7f bc ab 60 a9 bd d1 ad 4d bc b8 7d 16 bd
       -0.015581094 -0.08270391 -0.012553648 -0.03674099
0002a0 37 88 8a bd 69 31 e7 bd 66 31 17 bc d4 34 37 bd
       -0.06764262 -0.11288721 -0.009228086 -0.044728115
0002b0 b2 9b a1 3c a0 42 8d bd a4 5f 3c 3c 6c b2 f4 bc
       0.019727562 -0.06897473 0.011497412 -0.029870234
0002c0 bf 98 52 bd 2d 81 78 3c a7 44 0c 3a 86 d3 07 3c
       -0.0514152 0.015167517 0.0005350806 0.008290177
0002d0 6d 2e 83 bd cf 76 db bd 1a 2a ba bd 32 7d be bd
       -0.064053394 -0.1071602 -0.090900615 -0.09301223
0002e0 65 b3 7a bd bb 5f 89 bd 2c 2a 11 3c 2f e7 d0 bc
       -0.06120624 -0.06707712 0.008860152 -0.025500862
0002f0 df 9d 3d 3d 66 95 32 bd 7d 7e be bd e2 a3 ce 3a
       0.046293136 -0.04359951 -0.093014695 0.0015765394
000300 0c 23 c5 3c 7b 1e 0a bd f1 0c c1 bc e3 99 86 bb
       0.024064563 -0.033720475 -0.023565741 -0.0041077
000310 83 35 11 3b b0 76 cb 3c 99 b5 c3 bd 04 e9 61 bd
       0.002215714 0.024836868 -0.095561214 -0.05515386
000320 85 61 31 3d 20 cb d1 bd 99 b7 26 3d 49 24 df bd
       0.043305892 -0.10243821 0.040702436 -0.10895593
000330 d3 3d ac bd 58 c2 ef bb 4e 22 39 bb e9 e5 2f 3d
       -0.084102295 -0.0073168688 -0.0028249207 0.04294387
000340 8a 73 d4 bd c0 fc 25 bb 2c e6 08 bb 93 7d 91 bd
       -0.103736 -0.0025327653 -0.0020889146 -0.071040295
000350 f1 8d b2 bd 38 38 d6 bd da cd c8 bd 20 d5 af bd
       -0.087184794 -0.104599416 -0.09804888 -0.08585572
000360 2c 66 fa 3c 63 a5 1b bd ae 8f de 3c f6 a3 ee bd
       0.030566297 -0.037999522 0.027168121 -0.11652367
000370 ee c3 39 bd 46 9b 2a bd 49 1f 1e 3c e3 1e 24 3d
       -0.04535287 -0.041651987 0.009651014 0.04006852
000380 65 6d 1e 3d 7d 13 00 3c 9d 27 ed 3c b7 53 8e bd
       0.038678546 0.007817146 0.028949553 -0.06949561
000390 01 72 a7 3c 62 56 d4 bc 34 56 fa 3c 8a 12 fa 3c
       0.020440103 -0.025920097 0.030558683 0.030526418
0003a0 c4 5b 3e bc 19 3f 7b bc bc 68 dd bd f9 5e 3c 3c
       -0.011618558 -0.015334868 -0.10810992 0.011497253
0003b0 08 f1 e6 bd 94 e6 03 be 81 8c c4 3d b0 41 79 bc
       -0.11276442 -0.12880927 0.095971115 -0.015213415
0003c0 34 06 9a bd 5d 8b 70 bc 2e 57 52 3b b5 0f db 3d
       -0.075207144 -0.014681664 0.003209542 0.10696355
0003d0 04 3b 04 bd 42 84 fa bc 7b 8d a9 bd ec 49 ca bd
       -0.032282844 -0.030580644 -0.082789384 -0.09877381
0003e0 d4 55 7f bd 27 20 12 bd 38 2a 2e 3c 5b f8 77 bd
       -0.06233771 -0.035675194 0.010630183 -0.060539585
0003f0 15 ce 1c bc 38 95 62 3d fe 6c ae bc bd 08 39 3d
       -0.009570618 0.055318087 -0.021292206 0.04517435

fc2.bias f4 [148]
000000 66 1e b2 be c8 af 48 3d 5f 80 86 bd 7a bb f2 bd
       -0.34788817 0.048995763 -0.065674536 -0.118521646
000010 3c 2a 0e bd 51 ba f8 bb 24 0e 8c bd b0 f8 97 be
       -0.034708247 -0.00759057 -0.068386346 -0.2968192
000020 8c de 9a bd 2a 5b cb be d9 91 d1 be 57 ba 34 c0
       -0.07561979 -0.3971799 -0.40931585 -2.8238733
000030 c7 0e a4 bd 1d d3 86 bd 18 d9 ca be 41 1e ae be
       -0.08010631 -0.065832354 -0.39618754 -0.34007457
000040 c6 aa 61 3c 32 5b a1 bc 87 c0 3c bd 84 e0 9f be
       0.013773626 -0.019696806 -0.046082046 -0.3122598
000050 9d ad bd be a0 bd f8 bd 4b aa 81 3d 9f e8 bc be
       -0.3704652 -0.12145543 0.06331309 -0.36896226
000060 85 7a 58 bf 03 8a cd be 70 10 82 bd 66 29 c8 be
       -0.8456195 -0.40144357 -0.063507915 -0.39094085
000070 91 5a 0b bb 2c 16 7a bd 31 fe a8 be 9c d7 d0 be
       -0.0021263699 -0.0610563 -0.33006433 -0.40789497
000080 72 de 73 bd 47 a6 ac bd 26 3c af bd f2 4e b9 be
       -0.059538312 -0.084301524 -0.08556394 -0.36193043
000090 f5 d8 b9 be 0a 34 e6 be d3 ee ad bd 98 36 dc bd
       -0.36298338 -0.44961578 -0.08492818 -0.107526004
0000a0 56 a4 cb bd bd c6 e5 be 43 60 1b 3d aa 2d a2 be
       -0.09943454 -0.44878188 0.0379336 -0.31675464
0000b0 e7 5a 97 40 30 4e 0b 3d 30 18 d9 be 45 fb e6 bd
       4.7298465 0.034010112 -0.42401266 -0.112783946
0000c0 63 03 c7 be 0f 30 8a bc 4b 5c a0 be f4 d0 b4 be
       -0.3886977 -0.01686862 -0.31320414 -0.3531567
0000d0 9e 6e 76 bd f2 d5 b8 bd 0a 05 48 bd c3 6f 49 bd
       -0.060164087 -0.09025182 -0.04883293 -0.04917885
0000e0 47 5e d5 be b6 31 d5 be 25 68 03 3d c7 3d e5 be
       -0.4167349 -0.4163949 0.03208174 -0.44773695
0000f0 64 b5 8d bd 45 a4 fc bc 2f f8 ab be db a4 c5 be
       -0.06919363 -0.030840049 -0.33587787 -0.38602337
000100 00 8f c5 bc 14 6d bc be 39 ba b3 be 83 03 bb be
       -0.02411604 -0.3680197 -0.35103014 -0.36526117
000110 a5 f5 2b bd f9 01 e3 bd 4a fc 04 c0 06 c4 a3 be
       -0.04198231 -0.11084361 -2.0778985 -0.31985492
000120 c3 4b d2 be a6 bc b3 bc 55 a7 2c 38 db b7 68 bb
       -0.41073427 -0.02194054 4.1163836e-05 -0.0035509977
000130 dd 4f a2 bd cd 3c 99 bf b5 33 c2 be 96 1f bd be
       -0.07925389 -1.197168 -0.37930074 -0.3693816
000140 d4 53 18 bd fd 8b 05 bb ae 43 cb bc 1e 0c b0 be
       -0.03718932 -0.002037763 -0.024812546 -0.34384245
000150 18 66 c0 be 30 64 bf be 54 72 9f be 1b 6e c0 bd
       -0.3757789 -0.37381124 -0.31141913 -0.09396001
000160 6c 0b bd bd b3 8c b9 be a3 57 c3 be cb 0d b9 bd
       -0.09230694 -0.36240157 -0.381528 -0.09035834
000170 ef 2d d3 bd d5 0d 9e be 05 ba b5 be ff 7e dc bd
       -0.103114955 -0.30869928 -0.35493484 -0.1076641
000180 fe 96 33 bd b5 bd 9f be a9 5f c6 bd 78 5d b6 be
       -0.04384517 -0.31199422 -0.096862145 -0.35618186
000190 fc 6f eb bd c9 bd 4d bc 5f 0f e2 be e4 57 bd be
       -0.11495969 -0.012557455 -0.44152352 -0.36981118
0001a0 fe cf f2 be ed e6 b2 be 8e 43 d1 be 6b 6b 53 3b
       -0.4742431 -0.34941807 -0.40871853 0.003226007
0001b0 aa f6 e2 be 6e ef d9 be 02 b6 51 bf b6 9f 77 bc
       -0.44328815 -0.42565483 -0.81918347 -0.015113762
0001c0 66 84 b0 be 2f d1 a2 bd 35 2d 8b bd 21 b2 f8 bd
       -0.34476012 -0.07950055 -0.06795732 -0.121433504
0001d0 aa 7f c9 be 29 01 9c 3c 55 44 d8 be a4 5b 82 bd
       -0.39355212 0.019043522 -0.42239633 -0.06365135
0001e0 21 b2 c1 be 1b 2c 51 3d 7c 9f 38 bf 73 de c1 be
       -0.37831214 0.051067453 -0.72118354 -0.37865028
0001f0 65 a3 de be ab ac e3 be 1a 87 e6 be 95 aa 6b bd
       -0.43484035 -0.44467673 -0.4502495 -0.057535727
000200 8b 7c b7 be 2e be a2 bd 10 b2 af be e8 d8 b9 be
       -0.35837206 -0.0794643 -0.34315538 -0.362983
000210 62 4f 27 bd 1d ac b3 be 70 6d 97 40 3f ba 83 bd
       -0.04084719 -0.3509225 4.732109 -0.06432008
000220 05 b6 61 bd 5f e3 cf bd 7b c6 b5 be 0c d8 a9 bd
       -0.055105228 -0.101507895 -0.3550299 -0.08293161
000230 fe cb 2e bc 1b 15 a4 bd af 99 9a be f5 3f 40 3d
       -0.010668753 -0.08011838 -0.30195376 0.046935994
000240 5b 4b c4 3b c1 ee b1 be a6 9c d1 be e2 f6 11 bf
       0.0059904284 -0.34752467 -0.40939826 -0.5701734

fc3.weight f4 [1, 148]
000000 b6 49 9e c0 53 00 44 3d 40 38 06 bb 7e b9 46 bc
       -4.946498 0.04785187 -0.0020480305 -0.012129186
000010 3a 42 a9 3c 82 79 82 bc 7b 1e c3 bd 38 75 9e c0
       0.020661462 -0.01592708 -0.09527298 -4.951809
000020 cf 8a b9 3c 16 5c 9f c0 07 0c a0 c0 fe 22 9d c1
       0.022649197 -4.979991 -5.001468 -19.642086
000030 4c 68 bd 3c 0a ba 58 3d 1a 1c a6 c0 ee 07 a0 c0
       0.023121022 0.052911796 -5.1909304 -5.000968
000040 da 6d f2 3c ca 06 90 3b d3 b9 a3 bc 8c 56 a2 c0
       0.029593397 0.0043953406 -0.019986069 -5.073065
000050 d1 a9 9f c0 bf 90 38 bb 0f 98 3d 3d 14 de 9f c0
       -4.9894795 -0.0028162447 0.046287593 -4.995859
000060 9d e4 65 41 92 8d ac c0 f3 91 90 3d ff e0 a2 c0
       14.368314 -5.3922815 0.070590876 -5.0899653
000070 f2 a5 e3 3c 09 7d 8c 3c e1 c6 a3 c0 9f 1e a4 c0
       0.02778909 0.017149465 -5.118027 -5.128738
000080 9a e4 e7 bc b3 5f f7 3c 1c 8c 74 bc a1 02 a2 c0
       -0.028307248 0.030197 -0.014925983 -5.062821
000090 7f be a0 c0 46 e5 9f c0 4d a7 05 bc da da bd bc
       -5.023254 -4.9967375 -0.008157563 -0.023175646
0000a0 1b 1a 20 3e 03 c3 a3 c0 ff dd 68 3c d9 44 a3 c0
       0.15634958 -5.117555 0.014213084 -5.1021543
0000b0 90 64 de 40 5b 02 3d 3d 73 3f a4 c0 07 8d ae 3c
       6.9497757 0.046144824 -5.1327453 0.021307481
0000c0 db fe 9d c0 d6 14 6a ba 93 62 9f c0 e4 bb a2 c0
       -4.9373603 -0.00089294964 -4.980783 -5.085436
0000d0 1c 73 0b 3d 72 8f 5c 3c 2c ae f2 3c c6 5f a4 bc
       0.034045324 0.013461934 0.029624067 -0.0200652
0000e0 38 c3 a6 c0 72 ed a1 c0 9c f0 11 bc 00 af a2 c0
       -5.2113304 -5.060235 -0.008907463 -5.0838623
0000f0 1f a4 9a bc 41 9b bb 3a 94 e0 a2 c0 22 4a a2 c0
       -0.018877087 0.0014313237 -5.0899143 -5.0715494
000100 be e5 ce bc 85 02 a3 c0 07 5a a1 c0 5a 78 a0 c0
       -0.025256034 -5.0940576 -5.0422397 -5.0146914
000110 6b 03 88 bc a8 e2 ed 3a 94 3a 87 c1 d6 b1 a0 c0
       -0.016603192 0.0018149214 -16.903603 -5.0217085
000120 ac 96 a4 c0 06 23 1b 3d da 33 15 3c 70 4f be 3c
       -5.1433926 0.037875198 0.009106601 0.023231238
000130 90 a3 8c 3c 72 76 47 42 1d 3b a3 c0 c7 e5 a1 c0
       0.017167836 49.86567 -5.100966 -5.059299
000140 3a 4e 56 3b c4 17 07 3d 78 8d 44 3d 94 f3 9d c0
       0.0032700435 0.03298165 0.047986478 -4.9359837
000150 df 1a a8 c0 67 2c a2 c0 04 f8 a5 c0 8d 60 1e 3d
       -5.25328 -5.06792 -5.1865253 0.038666297
000160 49 da 8e bc 77 ee a1 c0 f5 05 a0 c0 07 f0 b8 bc
       -0.01743807 -5.0603595 -5.000727 -0.022575391
000170 0f 46 1f bb 1c 56 9f c0 44 19 9f c0 8a 13 30 3d
       -0.0024303233 -4.9792614 -4.971834 0.042987384
000180 8b 93 d7 3c d3 86 a1 c0 3a 94 8c bc a7 2e a2 c0
       0.026315471 -5.047708 -0.017160524 -5.068195
000190 8c 22 23 3d e5 57 f4 3c 22 14 a8 c0 3b 22 9f c0
       0.03982787 0.029827068 -5.2524576 -4.9729285
0001a0 cc 14 9e c0 30 d8 a2 c0 86 5b a3 c0 57 c5 cb 3c
       -4.9400387 -5.08889 -5.1049223 0.024874372
0001b0 1d d1 9f c0 3a 36 a0 c0 24 6c 15 c2 7b 32 f2 bc
       -4.9942765 -5.0066195 -37.355606 -0.029565087
0001c0 6c e2 9f c0 bf 40 05 3c 40 a8 6b 3d c4 70 c8 3c
       -4.9963894 0.008133112 0.057533503 0.024467833
0001d0 db e0 a1 c0 cb 81 5c 3d 59 f6 9f c0 b6 8b 1d 3d
       -5.058698 0.053834718 -4.9988217 0.038463317
0001e0 4c 45 a1 c0 c7 39 d0 3a d9 72 c7 c1 95 ac 9f c0
       -5.039709 0.001588636 -24.931078 -4.989817
0001f0 5e ce a5 c0 b7 2e a2 c0 41 84 a3 c0 0d f0 83 3d
       -5.1814413 -5.0682025 -5.1098943 0.064422704
000200 c8 3c a9 c0 46 88 11 bc bd 27 a4 c0 d6 19 a3 c0
       -5.2886696 -0.008882588 -5.129851 -5.096904
000210 23 d7 67 3b dd d5 a3 c0 cd 31 cb 40 1e a4 ce 3c
       0.0035376034 -5.1198564 6.349829 0.025224742
000220 e6 f8 df 3c 6a 31 c3 3c 18 97 9d c0 78 b4 ae bc
       0.027340364 0.023827273 -4.924694 -0.021326289
000230 bd df 0c 3d 8f 42 a7 3c dc db a1 c0 59 eb 83 3d
       0.03439306 0.02041748 -5.0580883 0.064413734
000240 24 11 44 ba f6 9e a1 c0 bc cf a1 c0 1f 05 a1 41
       -0.0007479361 -5.0506544 -5.056608 20.1275
