demo/4_2_2tran2_3_act2/critic_1_8.pth (torch, 108582 bytes, 5 tensors)

fc1.weight f4 [148, 28]
-1.3848474 3.4784307 -0.25325188 -1.9536158 -0.03219767 1.5850539 -0.12454451 0.24001622
-0.037561044 -0.07345352 -0.019848749 0.041095246 1.237236 9.184843 0.9915027 0.56748235
5.8165655 1.180046 -0.99659234 -1.0593219 0.83103216 1.0474825 -1.5177541 0.6800999
-3.9615963 -2.5504348 0.82243365 3.9595802 2.9067013 0.085291654 0.026117058 -2.2224135
-0.9131805 3.7732992 0.022892186 0.1888952 -0.069748245 -0.0350018 0.12184317 -0.029717285
-0.087407954 -4.5304656 -0.18597963 -2.6994755 -2.8061407 2.5215354 -0.69882524 -0.49469352
0.5869978 0.5342813 5.0191684 -0.4194114 -3.2145507 -2.1166017 -2.6166112 2.5010395
-1.0537177 -7.533888 1.1980213 8.359215 -4.025516 -1.7521423 0.46937385 -0.67581177
0.3402555 0.51063764 -0.058187176 -0.21898922 1.181336 -1.9935895 -2.3003116 0.35152522
4.582743 -0.42678282 -0.72506785 -0.7407568 0.69383115 0.6093084 3.90429 -17.48541
-3.8733256 9.631287 -8.134575 -3.9992993 -1.3270942 -1.4998213 0.6572637 0.69322854
-0.60923576 -0.48421076 0.38049603 -0.3355178 0.15761213 0.39947 -0.4146567 0.056636367
2.5652256 -2.1694102 -4.4770017 2.305492 -3.0634143 1.2353418 1.0607514 1.0552094
-0.7633604 -0.81479716 3.6748695 -3.0189567 -3.4908946 -0.88512045 0.33101788 2.0824654
0.13428117 -1.0305097 -0.15943383 5.0195193 0.4183108 -0.26615745 0.022077162 -0.15228026
-0.29462704 0.077487506 0.0038543278 -0.044951003 0.08515234 -0.72774523 -0.07617616 -0.7978923
-2.3875098 -0.023009507 1.8020772 1.905491 -1.7688699 -1.9179269 1.2560107 -1.4197292
0.4075917 1.209119 -0.9929716 -1.8631173 -1.3967704 4.66064 -1.8365468 -0.7015547
1.6770501 2.3176003 -0.106992416 -0.2250849 -0.42080227 -0.35615626 -0.041732095 -0.023820912
-1.9305912 2.5043077 1.6360914 -0.87576365 -5.757074 2.5995898 -0.4431721 -0.16699168
0.4773325 0.21881977 -1.7958581 4.2616024 -3.5767963 1.3287565 5.314987 -7.1870737
4.4990187 -0.15703394 0.8270158 2.2114415 0.3271532 2.3338397 0.13140967 0.5425344
-0.49840334 0.46044844 0.03642639 -0.3514855 -2.5897512 -9.887884 -1.6297253 0.5094296
-10.216929 -0.49880403 -0.365966 -0.64605933 0.38434827 0.5118738 1.2928427 -3.7189174
-5.522597 2.0432408 2.6062183 -3.2922983 1.8576736 0.6509763 -0.42113522 0.9486614
0.43810982 4.81031 -0.0030441296 0.07992926 -0.05792444 0.15101118 0.062718466 0.112343326
-0.6478794 -1.630197 1.5272218 -1.6397438 0.06719639 2.9315405 0.20074879 0.15823644
-0.18681583 -0.2224386 7.278835 0.4312215 4.5601635 3.932885 3.5583677 2.7102928
3.3237092 -2.2876046 -0.9593136 -0.2348675 0.94299823 -1.2680168 0.07103358 -0.19703059
0.13714242 -0.09409468 -0.009608414 -0.26577666 -5.4899545 -4.172523 -3.9341831 1.1148831
0.89630604 0.34658903 -0.5343604 -0.65077907 0.58037806 0.59163964 1.2282256 -7.2094274
-1.400042 2.225589 2.2791326 1.355819 0.6623994 -0.38558552 0.856279 4.66574
00000000: ae42 b1bf 9c9e 5e40 3baa 81be 1510 fabf
00000010: b4e1 03bd 0ce3 ca3f 3111 ffbd d0c6 753e
00000020: 9cd9 19bd cd6e 96bd d899 a2bc 7d53 283d
00000030: c05d 9e3f 1ef5 1241 1fd3 7d3f 8646 113f
00000040: 4e21 ba40 bf0b 973f ad20 7fbf dc97 87bf
00000050: 86be 543f e813 863f c445 c2bf 071b 2e3f
00000060: cb8a 7dc0 533a 23c0 038b 523f c369 7d40
00000070: 6507 3a40 64ad ae3d 71f3 d53c 063c 0ec0
00000080: 32c6 69bf bc7d 7140 6588 bb3c be6d 413e
00000090: 2bd8 8ebd 0c5e 0fbd e988 f93d aa71 f3bc
000000a0: f102 b3bd 93f9 90c0 7271 3ebe 35c4 2cc0
000000b0: cf97 33c0 d660 2140 36e6 32bf 7848 fdbe
000000c0: 7d45 163f a9c6 083f 079d a040 17bd d6be
000000d0: 33bb 4dc0 6776 07c0 8f76 27c0 0811 2040
000000e0: 39e0 86bf 9c15 f1c0 c358 993f 58bf 0541
000000f0: 07d1 80c0 3346 e0bf c551 f03e 0002 2dbf
00000100: f835 ae3e 26b9 023f ad55 6ebd b63e 60be
00000110: 0536 973f f12d ffbf 4e38 13c0 1dfb b33e
00000120: d5a5 9240 4783 dabe 0c9e 39bf 3da2 3dbf
00000130: eb9e 313f a3fb 1b3f e3df 7940 1fe2 8bc1
00000140: 91e4 77c0 c019 1a41 3827 02c1 85f4 7fc0
00000150: 39de a9bf 25fa bfbf 6f42 283f 6d77 313f
00000160: e0f6 1bbf 79ea f7be 60d0 c23e fdc8 abbe
00000170: 1365 213e 5587 cc3e e24d d4be 89fb 673d
00000180: a82c 2440 9ed7 0ac0 9943 8fc0 2e8d 1340
00000190: fb0e 44c0 ae1f 9e3f b4c6 873f 1a11 873f
000001a0: 966b 43bf 8c96 50bf 1031 6b40 9636 41c0
000001b0: d16a 5fc0 4197 62bf 2d7b a93e 1d47 0540
000001c0: 0181 093e bee7 83bf 9f42 23be e79f a040
000001d0: d52c d63e ca45 88be 2adb b43c 5bef 1bbe
000001e0: 5bd9 96be c5b1 9e3d e498 7c3b 8b1e 38bd
000001f0: 5a64 ae3d 834d 3abf 3f02 9cbd ab42 4cbf
00000200: f6cc 18c0 6f7e bcbc 77aa e63f 21e7 f33f
00000210: 546a e2bf a17e f5bf f5c4 a03f b0b9 b5bf
00000220: dcaf d03e 69c4 9a3f 6333 7ebf a17a eebf
00000230: 5fc9 b2bf f623 9540 f713 ebbf 1799 33bf
00000240: 94a9 d63f 9053 1440 d71e dbbd a87c 66be
00000250: 6573 d7be 1d5a b6be 46ef 2abd 1324 c3bc
00000260: 9d1d f7bf 9446 2040 716b d13f 0c32 60bf
00000270: f339 b8c0 ae5f 2640 74e7 e2be deff 2abe
00000280: ed64 f43e 4a12 603e aede e5bf 0c5f 8840
00000290: 3bea 64c0 b114 aa3f 6014 aa40 82fc e5c0
000002a0: f6f7 8f40 81cd 20be 4fb7 533f 4288 0d40
000002b0: a080 a73e a15d 1540 4290 063e 89e3 0a3f
000002c0: b92e ffbe e6bf eb3e d733 153d e8f5 b3be
000002d0: 7cbe 25c0 c634 1ec1 d79a d0bf fa69 023f
000002e0: 8b78 23c1 3e63 ffbe e55f bbbe 2564 25bf
000002f0: 4cc9 c43e 290a 033f df7b a53f be02 6ec0
00000300: 1db9 b0c0 75c4 0240 48cc 2640 04b5 52c0
00000310: 40c8 ed3f 62a6 263f 099f d7be 79db 723f
00000320: ee4f e03e 0fee 9940 0580 47bb f4b1 a33d
00000330: 2d42 6dbd ada2 1a3e 8a72 803d 4214 e63d
00000340: 6ddb 25bf 4caa d0bf 017c c33f 20e3 d1bf
00000350: 439e 893d 5c9e 3b40 1791 4d3e bc08 223e
00000360: a64c 3fbe f2c6 63be 37ec e840 10c9 dc3e
00000370: dcec 9140 63b4 7b40 4cbc 6340 7075 2d40
00000380: a7b7 5440 1d68 12c0 9395 75bf 1b81 70be
00000390: 5568 713f 604e a2bf 0e7a 913d 63c2 49be
000003a0: 106f 0c3e b6b4 c0bd 9c6c 1dbc e113 88be
000003b0: b5ad afc0 4f85 85c0 a8c9 7bc0 7db4 8e3f
000003c0: 5074 653f 1e74 b13e d8cb 08bf 7599 26bf
000003d0: a893 143f b275 173f 7f36 9d3f a1b3 e6c0
000003e0: 9434 b3bf 0d70 0e40 4fdd 1140 7a8b ad3f
000003f0: 0293 293f 776b c5be 1a35 5b3f be4d 9540

fc1.bias f4 [148]
0.9267666 -0.28395844 -0.03637984 -4.04363 -1.3083147 -0.013547054 -0.5925756 -0.5868997
1.0811031 1.6019056 1.5648973 -2.075225 -0.008230399 -3.1287718 -1.8380516 -0.902512
-0.5608129 6.170267 -0.66717035 -0.5173778 1.4687947 0.33154115 0.8563538 2.5974731
1.0983977 1.8988463 -1.9603493 3.6033337 -0.41816887 -2.28699 0.4112397 1.2423633
0.17329653 -0.4558007 -1.7546029 0.011541742 4.338664 0.35103527 -1.762648 -1.0884043
1.180855 -0.899211 -1.1282902 -0.6056304 -0.21273577 -0.465374 0.031034868 0.993482
3.5379958 0.122092955 0.13068192 0.25425032 -0.17614579 0.8063815 -1.6643436 0.27444887
-1.3470106 0.8656996 0.0056864107 0.16891104 1.20081 -1.8453337 -0.70363796 -0.5792851
-0.5930547 -0.04274487 1.732905 0.44708908 -0.49962986 0.54415315 1.0040065 -1.2256585
-1.6422325 0.5143599 1.2085867 1.0974799 1.4691161 -1.4083055 -0.028328728 1.9545279
-0.92596126 -0.912222 -0.6185433 -1.1398472 2.6076767 0.57945573 0.10797436 -3.976251
-1.800579 0.65713733 0.72941303 -2.0581758 1.0190681 0.4149487 -0.8538685 0.38128483
0.47775656 -0.9815204 5.2952466 1.5334067 0.7651839 1.0619677 1.9983011 0.6255431
-0.6100674 -2.8832536 -0.0853488 -0.45613036 1.4164108 -0.90482444 4.3447914 0.6435606
-0.3447654 0.8367535 -2.0955954 -0.46973765 1.576197 0.36459246 -0.6980099 -0.44419783
0.76145256 0.5310324 0.054713972 0.24605995 0.3111519 -0.6336581 0.19778885 -1.3045332
1.209121 0.74396557 1.6923071 -0.22057801 0.683356 0.0021394363 -0.13181056 1.1706759
2.1728334 -0.36811832 0.33005255 1.0033264 -0.16387218 -0.20088609 -2.1029367 -1.5532796
-2.0741582 -0.43936017 -0.946651 -0.1313078
00000000: 9340 6d3f 0063 91be 0703 15bd 6b65 81c0
00000010: db76 a7bf 76f4 5dbc 09b3 17bf 0f3f 16bf
00000020: 9661 8a3f 3e0b cd3f 8e4e c83f 7dd0 04c0
00000030: ccd8 06bc cc3d 48c0 4645 ebbf 070b 67bf
00000040: 6f91 0fbf d472 c540 adcb 2abf df72 04bf
00000050: 7701 bc3f c3bf a93e 013a 5b3f 003d 2640
00000060: 4c98 8c3f 650d f33f baec fabf 059d 6640
00000070: 3b1a d6be 0b5e 12c0 038e d23e c305 9f3f
00000080: a574 313e b65e e9be d496 e0bf 9319 3d3c
00000090: 56d6 8a40 e5ba b33e 739e e1bf d550 8bbf
000000a0: 4226 973f b132 66bf d06b 90bf 980a 1bbf
000000b0: 68d7 59be 8045 eebe d63c fe3c d654 7e3f
000000c0: 866e 6240 df0b fa3d 7bd1 053e 192d 823e
000000d0: 905f 34be 056f 4e3f 3609 d5bf 9084 8c3e
000000e0: d86a acbf 7d9e 5d3f 1255 ba3b 04f7 2c3e
000000f0: 24b4 993f e533 ecbf 9e21 34bf 074c 14bf
00000100: 6fd2 17bf 3f15 2fbd d5cf dd3f dce8 e43e
00000110: 7ccf ffbe 9f4d 0b3f 4983 803f 61e2 9cbf
00000120: ad34 d2bf 17ad 033f f8b2 9a3f 397a 8c3f
00000130: ff0b bc3f 5b43 b4bf a611 e8bc f82d fa3f
00000140: cc0b 6dbf 6287 69bf db58 1ebf 83e6 91bf
00000150: 2de4 2640 3657 143f a921 dd3d e57a 7ec0
00000160: 5f79 e6bf 273a 283f d0ba 3a3f 27b9 03c0
00000170: d370 823f 2874 d43e 2097 5abf c437 c33e
00000180: 829c f43e ec44 7bbf a972 a940 ac46 c43f
00000190: 18e3 433f 8fee 873f 55c8 ff3f 9823 203f
000001a0: 612d 1cbf 3a87 38c0 5acb aebd eb89 e9be
000001b0: f34c b53f 93a2 67bf 8808 8b40 63c0 243f
000001c0: 1785 b0be 7a35 563f 3c1e 06c0 7481 f0be
000001d0: d3c0 c93f ddab ba3e c7b0 32bf e66d e3be
000001e0: 8eee 423f bdf1 073f c21b 603d 24f7 7b3e
000001f0: 4d4f 9f3e 6b37 22bf 2989 4a3e f2fa a6bf
00000200: 7ac4 9a3f 8774 3e3f 859d d83f 34df 61be
00000210: 6bf0 2e3f c935 0c3b 59f9 06be b5d8 953f
00000220: b40f 0b40 017a bcbe a6fc a83e 006d 803f
00000230: 1cce 27be 15b5 4dbe 8496 06c0 ded1 c6bf
00000240: 02bf 04c0 d1f3 e0be b857 72bf 8d75 06be

fc2.weight f4 [148, 148]
-1.1859186 1.6459955 1.6710995 -3.9860291 -1.420237 1.426664 -1.316277 1.447356
17.26194 -2.3303466 -0.10792693 0.34344238 5.520478 1.214003 2.172849 -2.1125612
-3.3578358 0.20404115 0.5003131 1.2966598 0.4518966 -0.7834409 -0.979498 -0.8720082
-0.10241863 -1.2180011 1.9097123 0.18008803 0.5660353 3.7057526 -0.1254523 -0.24498521
9.757043 -0.20977886 6.5076027 10.112709 0.103245124 2.3624544 -2.4872122 -1.6367779
0.608792 -2.2173784 8.789828 -2.7016542 7.933953 4.3949933 0.5864842 -1.451334
0.14568979 1.4263687 0.8673259 -3.0464823 0.4707948 -0.3446184 0.853528 -7.1306257
2.9739358 -0.046463702 1.2580094 2.0774283 -0.109549336 1.788885 17.483952 3.0189877
2.0437963 -0.056224857 -1.0898638 0.65728617 0.15197691 0.15829414 1.3893104 1.0276132
-0.8656211 0.031136032 -0.35166845 -0.93975073 0.14787436 0.22549511 2.4775782 -0.24053591
0.04919863 -3.629894 1.4992168 2.8526828 0.17664677 0.08306893 1.6839836 0.5491174
2.1763008 2.4953885 0.45663562 0.88087827 -0.09111301 1.7928528 8.339201 14.073053
-0.44518566 2.3966372 -0.10530838 -0.4130071 -0.19668327 -0.017991003 -0.33888087 0.6064573
1.7818173 2.3054574 1.3610232 0.79245263 -0.41081506 -1.4809737 0.1675985 1.5414035
5.0731297 -0.36493626 1.7096149 1.9968398 -1.8080938 -1.6889305 0.42715412 1.760056
0.0695199 5.0645814 0.5528225 -0.086517245 1.9075545 1.3086381 0.96198606 0.92842746
-1.2032549 0.025733959 -0.7473229 -2.2429793 0.9154633 1.4833877 1.3908654 -0.7596771
-0.6679295 9.3219385 -1.5882949 1.1552186 2.8085604 -1.0569603 0.8960452 0.49639207
2.6469214 -2.8795261 4.1798964 19.894306 -0.0047325017 -0.08117419 0.056755215 -0.028023297
0.019032752 0.025793737 -0.0013909865 -0.05708995 -0.013077548 -0.05192165 0.011846242 -0.0024114556
0.039027277 0.041654915 -0.08409885 0.024973173 -0.015581094 -0.08270391 -0.012553648 -0.03674099
-0.06764262 -0.11288721 -0.009228086 -0.044728115 0.019727562 -0.06897473 0.011497412 -0.029870234
-0.0514152 0.015167517 0.0005350806 0.008290177 -0.064053394 -0.1071602 -0.090900615 -0.09301223
-0.06120624 -0.06707712 0.008860152 -0.025500862 0.046293136 -0.04359951 -0.093014695 0.0015765394
0.024064563 -0.033720475 -0.023565741 -0.0041077 0.002215714 0.024836868 -0.095561214 -0.05515386
0.043305892 -0.10243821 0.040702436 -0.10895593 -0.084102295 -0.0073168688 -0.0028249207 0.04294387
-0.103736 -0.0025327653 -0.0020889146 -0.071040295 -0.087184794 -0.104599416 -0.09804888 -0.08585572
0.030566297 -0.037999522 0.027168121 -0.11652367 -0.04535287 -0.041651987 0.009651014 0.04006852
0.038678546 0.007817146 0.028949553 -0.06949561 0.020440103 -0.025920097 0.030558683 0.030526418
-0.011618558 -0.015334868 -0.10810992 0.011497253 -0.11276442 -0.12880927 0.095971115 -0.015213415
-0.075207144 -0.014681664 0.003209542 0.10696355 -0.032282844 -0.030580644 -0.082789384 -0.09877381
-0.06233771 -0.035675194 0.010630183 -0.060539585 -0.009570618 0.055318087 -0.021292206 0.04517435
00000000: 2ecc 97bf fbaf d23f 97e6 d53f 1a1b 7fc0
00000010: 53ca b5bf ed9c b63f c47b a8bf f642 b93f
00000020: 7418 8a41 6624 15c0 cb08 ddbd aed7 af3e
00000030: c1a7 b040 7364 9b3f f50f 0b40 3434 07c0
00000040: c8e6 56c0 2af0 503e 8514 003f f3f8 a53f
00000050: fe5e e73e 958f 48bf 62c0 7abf ee3b 5fbf
00000060: dcc0 d1bd 76e7 9bbf 7471 f43f ff68 383e
00000070: b0e7 103f 0d2b 6d40 9176 00be 67dd 7abe
00000080: d91c 1c41 45d0 56be 483e d040 a8cd 2141
00000090: 2e72 d33d 7432 1740 7c2e 1fc0 f081 d1bf
000000a0: cbd9 1b3f 87e9 0dc0 23a3 0c41 e7e7 2cc0
000000b0: f1e2 fd40 c9a3 8c40 d423 163f 50c5 b9bf
000000c0: b42f 153e 4093 b63f 1209 5e3f 91f9 42c0
000000d0: 040c f13e d371 b0be d080 5a3f 162e e4c0
000000e0: f754 3e40 b950 3ebd 7406 a13f 96f4 0440
000000f0: 675b e0bd 2ffa e43f 22df 8b41 1837 4140
00000100: 8fcd 0240 094c 66bd a880 8bbf e843 283f
00000110: d69f 1b3e dc17 223e ecd4 b13f d488 833f
00000120: 5899 5dbf fe10 ff3c e30d b4be 8193 70bf
00000130: 606c 173e 31e8 663e a490 1e40 0c4f 76be
00000140: 8184 493d 2f50 68c0 56e6 bf3f 5b92 3640
00000150: e4e2 343e 0b20 aa3d c68c d73f f592 0c3f
00000160: 8348 0b40 72b4 1f40 25cc e93e 3d81 613f
00000170: 7599 babd 337c e53f 5e6d 0541 3a2b 6141
00000180: 60ef e3be 8162 1940 ecab d7bd ab75 d3be
00000190: 5767 49be de61 93bc cb81 adbe c940 1b3f
000001a0: 9712 e43f 9d8c 1340 0236 ae3f 2dde 4a3f
000001b0: 5a56 d2be 8c90 bdbf f19e 2b3e b64c c53f
000001c0: 1457 a240 edd8 babe a9d4 da3f 7298 ff3f
000001d0: 9e6f e7bf e02e d8bf f2b3 da3e 8449 e13f
000001e0: 7360 8e3d 0d11 a240 c685 0d3f f42f b1bd
000001f0: bf2a f43f 7481 a73f b844 763f 6cad 6d3f
00000200: 4204 9abf 06d0 d23c 8e50 3fbf f98c 0fc0
00000210: ce5b 6a3f a6df bd3f e107 b23f 337a 42bf
00000220: 6dfd 2abf a926 1541 3f4d cbbf 34de 933f
00000230: 74bf 3340 7a4a 87bf 3863 653f 1a27 fe3e
00000240: 2967 2940 284a 38c0 b6c1 8540 8a27 9f41
00000250: 1a13 9bbb a73e a6bd 2878 683d 1d91 e5bc
00000260: 93ea 9b3c 634d d33c c351 b6ba 27d7 69bd
00000270: 3643 56bc ccab 54bd bd16 423c 8309 1ebb
00000280: 11db 1f3d 589e 2a3d 053c acbd 8a94 cc3c
00000290: d847 7fbc ab60 a9bd d1ad 4dbc b87d 16bd
000002a0: 3788 8abd 6931 e7bd 6631 17bc d434 37bd
000002b0: b29b a13c a042 8dbd a45f 3c3c 6cb2 f4bc
000002c0: bf98 52bd 2d81 783c a744 0c3a 86d3 073c
000002d0: 6d2e 83bd cf76 dbbd 1a2a babd 327d bebd
000002e0: 65b3 7abd bb5f 89bd 2c2a 113c 2fe7 d0bc
000002f0: df9d 3d3d 6695 32bd 7d7e bebd e2a3 ce3a
00000300: 0c23 c53c 7b1e 0abd f10c c1bc e399 86bb
00000310: 8335 113b b076 cb3c 99b5 c3bd 04e9 61bd
00000320: 8561 313d 20cb d1bd 99b7 263d 4924 dfbd
00000330: d33d acbd 58c2 efbb 4e22 39bb e9e5 2f3d
00000340: 8a73 d4bd c0fc 25bb 2ce6 08bb 937d 91bd
00000350: f18d b2bd 3838 d6bd dacd c8bd 20d5 afbd
00000360: 2c66 fa3c 63a5 1bbd ae8f de3c f6a3 eebd
00000370: eec3 39bd 469b 2abd 491f 1e3c e31e 243d
00000380: 656d 1e3d 7d13 003c 9d27 ed3c b753 8ebd
00000390: 0172 a73c 6256 d4bc 3456 fa3c 8a12 fa3c
000003a0: c45b 3ebc 193f 7bbc bc68 ddbd f95e 3c3c
000003b0: 08f1 e6bd 94e6 03be 818c c43d b041 79bc
000003c0: 3406 9abd 5d8b 70bc 2e57 523b b50f db3d
000003d0: 043b 04bd 4284 fabc 7b8d a9bd ec49 cabd
000003e0: d455 7fbd 2720 12bd 382a 2e3c 5bf8 77bd
000003f0: 15ce 1cbc 3895 623d fe6c aebc bd08 393d

fc2.bias f4 [148]
-0.2525742 0.048995763 -0.065674536 -0.118521646 -0.034708247 -0.00759057 -0.068386346 -0.19319323
-0.07561979 -0.30263567 -0.31055343 -3.569168 -0.08010631 -0.065832354 -0.29362822 -0.24790454
0.013773626 -0.019696806 -0.046082046 -0.2132082 -0.278618 -0.12145543 0.76636285 -0.2729165
-1.6276797 -0.2924098 -0.063507915 -0.29944092 -0.0021263699 -0.0610563 -0.23294498 -0.31827083
-0.059538312 -0.084301524 -0.08556394 -0.26862648 -0.25650656 -0.34815207 -0.08492818 -0.107526004
-0.09943454 -0.349456 0.0379336 -0.21576722 4.5504603 0.034010112 -0.3037754 -0.112783946
-0.29089752 -0.01686862 -0.21176577 -0.25598782 -0.060164087 -0.09025182 -0.04883293 -0.04917885
-0.3123722 -0.31225544 0.03208174 -0.3518653 -0.06919363 -0.030840049 -0.2427352 -0.29009214
-0.02411604 -0.26660275 -0.2590869 -0.27166522 -0.04198231 -0.11084361 -1.1941268 -0.21211685
-0.29906487 -0.02194054 4.1163836e-05 -0.0035509977 -0.07925389 -1.2179248 -0.28063545 -0.26787832
-0.03718932 -0.002037763 -0.024812546 -0.2505543 -0.27722394 -0.27823073 -0.2123099 -0.09396001
-0.09230694 -0.26407942 -0.28475642 -0.09035834 -0.103114955 -0.20188019 -0.25799444 -0.1076641
-0.04384517 -0.20229757 -0.096862145 -0.26049724 -0.11495969 1.02765 -0.33383465 -0.25978163
-0.38013104 -0.24385165 -0.30628818 0.003226007 -0.34652632 -0.3298078 -1.288758 -0.015113762
-0.24853311 -0.07950055 -0.06795732 -0.121433504 -0.299378 0.019043522 -0.32467076 -0.06365135
-0.28396532 0.051067453 -0.11120911 -0.28365827 -0.32622036 -0.3449786 -0.34492356 -0.057535727
-0.2541029 -0.0794643 -0.2496313 -0.25939947 -0.04084719 -0.24273677 4.5504255 -0.06432008
-0.055105228 -0.101507895 -0.25877097 -0.08293161 -0.010668753 -0.08011838 -0.20582652 0.043759435
0.0059904284 -0.25295603 -0.310793 -0.5701734
00000000: 6851 81be c8af 483d 5f80 86bd 7abb f2bd
00000010: 3c2a 0ebd 51ba f8bb 240e 8cbd 72d4 45be
00000020: 8cde 9abd 10f3 9abe dc00 9fbe 406d 64c0
00000030: c70e a4bd 1dd3 86bd 7056 96be b0da 7dbe
00000040: c6aa 613c 325b a1bc 87c0 3cbd 4053 5abe
00000050: 05a7 8ebe a0bd f8bd 5b30 443f b6bb 8bbe
00000060: cf57 d0bf bdb6 95be 7010 82bd 5250 99be
00000070: 915a 0bbb 2c16 7abd 2189 6ebe 65f4 a2be
00000080: 72de 73bd 47a6 acbd 263c afbd 6989 89be
00000090: d454 83be fd40 b2be d3ee adbd 9836 dcbd
000000a0: 56a4 cbbd e6eb b2be 4360 1b3d 15f2 5cbe
000000b0: 5f9d 9140 304e 0b3d 7388 9bbe 45fb e6bd
000000c0: 85f0 94be 0f30 8abc 20d9 58be d610 83be
000000d0: 9e6e 76bd f2d5 b8bd 0a05 48bd c36f 49bd
000000e0: 40ef 9fbe f2df 9fbe 2568 033d b027 b4be
000000f0: 64b5 8dbd 45a4 fcbc 948f 78be f586 94be
00000100: 008f c5bc 2880 88be 0aa7 84be b417 8bbe
00000110: a5f5 2bbd f901 e3bd 26d9 98bf 2935 59be
00000120: 081f 99be a6bc b3bc 55a7 2c38 dbb7 68bb
00000130: dd4f a2bd f6e4 9bbf 73af 8fbe 5927 89be
00000140: d453 18bd fd8b 05bb ae43 cbbc a748 80be
00000150: 4cf0 8dbe 4274 8ebe c467 59be 1b6e c0bd
00000160: 6c0b bdbd 6b35 87be 98cb 91be cb0d b9bd
00000170: ef2d d3bd aeb9 4ebe d917 84be ff7e dcbd
00000180: fe96 33bd 1827 4fbe a95f c6bd e55f 85be
00000190: fc6f ebbd 098a 833f 60ec aabe 1902 85be
000001a0: 89a0 c2be 3fb4 79be ced1 9cbe 6b6b 533b
000001b0: e66b b1be 91dc a8be 06f6 a4bf b69f 77bc
000001c0: 777f 7ebe 2fd1 a2bd 352d 8bbd 21b2 f8bd
000001d0: 1348 99be 2901 9c3c 3f3b a6be a45b 82bd
000001e0: e763 91be 1b2c 513d 9ac1 e3bd a83b 91be
000001f0: 5b06 a7be 09a1 b0be d299 b0be 95aa 6bbd
00000200: c619 82be 2ebe a2bd 599f 7fbe 02d0 84be
00000210: 624f 27bd fd8f 78be 169d 9140 3fba 83bd
00000220: 05b6 61bd 5fe3 cfbd a17d 84be 0cd8 a9bd
00000230: fecb 2ebc 1b15 a4bd 30c4 52be 183d 333d
00000240: 5b4b c43b 7483 81be 4320 9fbe e2f6 11bf

fc3.weight f4 [1, 148]
-4.012343 0.04785187 -0.0020480305 -0.012129186 0.020661462 -0.01592708 -0.09527298 -3.9987164
0.022649197 -4.039319 -4.093986 -17.836754 0.023121022 0.052911796 -4.307805 -4.0690775
0.029593397 0.0043953406 -0.019986069 -4.170985 -4.066291 -0.0028162447 4.076632 -4.062204
13.67619 -4.5024204 0.070590876 -4.1732464 0.02778909 0.017149465 -4.1775765 -4.19262
-0.028307248 0.030197 -0.014925983 -4.1398487 -4.105573 -4.0614257 -0.008157563 -0.023175646
0.15634958 -4.209795 0.014213084 -4.199178 6.772158 0.046144824 -4.2483234 0.021307481
-3.991045 -0.00089294964 -4.0732265 -4.1941166 0.034045324 0.013461934 0.029624067 -0.0200652
-4.342125 -4.154924 -0.008907463 -4.19302 -0.018877087 0.0014313237 -4.1742544 -4.13748
-0.025256034 -4.1658907 -4.1074123 -4.0814223 -0.016603192 0.0018149214 -23.511879 -4.087274
-4.2484674 0.037875198 0.009106601 0.023231238 0.017167836 50.358192 -4.1988835 -4.141184
0.0032700435 0.03298165 0.047986478 -3.993497 -4.3887973 -4.186967 -4.2899237 0.038666297
-0.01743807 -4.1058764 -4.0747933 -0.022575391 -0.0024303233 -4.0721917 -4.053896 0.042987384
0.026315471 -4.139655 -0.017160524 -4.155545 0.03982787 22.328949 -4.395969 -4.078711
-3.9990442 -4.2063727 -4.226663 0.024874372 -4.0825386 -4.0701637 -38.768944 -0.029565087
-4.061858 0.008133112 0.057533503 0.024467833 -4.1520863 0.053834718 -4.0782795 0.038463317
-4.1511006 0.001588636 -22.69328 -4.0539308 -4.2467456 -4.2008495 -4.197967 0.064422704
-4.4465137 -0.008882588 -4.1969433 -4.180552 0.0035376034 -4.2249913 6.162864 0.025224742
0.027340364 0.023827273 -4.002007 -0.021326289 0.03439306 0.02041748 -4.1452346 0.061237168
-0.0007479361 -4.1559973 -4.128324 20.1275
00000000: 1d65 80c0 5300 443d 4038 06bb 7eb9 46bc
00000010: 3a42 a93c 8279 82bc 7b1e c3bd f8ea 7fc0
00000020: cf8a b93c 1a42 81c0 ef01 83c0 acb1 8ec1
00000030: 4c68 bd3c 0aba 583d 8ad9 89c0 e235 82c0
00000040: da6d f23c ca06 903b d3b9 a3bc b678 85c0
00000050: 0e1f 82c0 bf90 38bb c573 8240 93fd 81c0
00000060: add1 5a41 d413 90c0 f391 903d 3c8b 85c0
00000070: f2a5 e33c 097d 8c3c b5ae 85c0 f129 86c0
00000080: 9ae4 e7bc b35f f73c 1c8c 74bc a479 84c0
00000090: db60 83c0 33f7 81c0 4da7 05bc dada bdbc
000000a0: 1b1a 203e a4b6 86c0 ffdd 683c ab5f 86c0
000000b0: 85b5 d840 5b02 3d3d 44f2 87c0 078d ae3c
000000c0: 486d 7fc0 d614 6aba df57 82c0 3436 86c0
000000d0: 1c73 0b3d 728f 5c3c 2cae f23c c65f a4bc
000000e0: b0f2 8ac0 23f5 84c0 9cf0 11bc 382d 86c0
000000f0: 1fa4 9abc 419b bb3a 7e93 85c0 3c66 84c0
00000100: bee5 cebc fa4e 85c0 ec6f 83c0 039b 82c0
00000110: 6b03 88bc a8e2 ed3a 5418 bcc1 f3ca 82c0
00000120: 72f3 87c0 0623 1b3d da33 153c 704f be3c
00000130: 90a3 8c3c ca6e 4942 415d 86c0 9484 84c0
00000140: 3a4e 563b c417 073d 788d 443d 7495 7fc0
00000150: 0771 8cc0 a2fb 85c0 0e47 89c0 8d60 1e3d
00000160: 49da 8ebc 5763 83c0 b564 82c0 07f0 b8bc
00000170: 0f46 1fbb 654f 82c0 84b9 81c0 8a13 303d
00000180: 8b93 d73c 0e78 84c0 3a94 8cbc 3afa 84c0
00000190: 8c22 233d b0a1 b241 c7ab 8cc0 cd84 82c0
000001a0: 57f0 7fc0 9b9a 86c0 d340 87c0 57c5 cb3c
000001b0: 28a4 82c0 c83e 82c0 6613 1bc2 7b32 f2bc
000001c0: befa 81c0 bf40 053c 40a8 6b3d c470 c83c
000001d0: e4dd 84c0 cb81 5c3d 4481 82c0 b68b 1d3d
000001e0: d1d5 84c0 c739 d03a d68b b5c1 cdb9 81c0
000001f0: 57e5 87c0 5c6d 86c0 bf55 86c0 0df0 833d
00000200: d749 8ec0 4688 11bc 5c4d 86c0 15c7 85c0
00000210: 23d7 673b 2133 87c0 2f36 c540 1ea4 ce3c
00000220: e6f8 df3c 6a31 c33c 7110 80c0 78b4 aebc
00000230: bddf 0c3d 8f42 a73c c3a5 84c0 d3d3 7a3d
00000240: 2411 44ba eefd 84c0 3b1b 84c0 1f05 a141
