demo/4_2_2tran2_3_act2/critic_1_1.pth (torch, 108582 bytes, 5 tensors)

fc1.weight f4 [148, 28]
-1.2222514 2.6643887 0.9222048 -1.6760457 0.42552066 0.83209974 -0.2278671 0.15414144
0.26095632 -0.13075858 0.2561658 -0.14518782 1.3098505 9.383381 0.606015 1.2737747
8.154423 1.1953286 0.0009404333 -0.061803114 -0.16651022 0.04996269 -0.72917664 1.1434144
-7.8675723 -0.95899826 1.429706 5.1049814 4.8290296 -0.5609688 1.0359603 -3.6327214
-0.72004956 -0.61809736 0.13112043 0.031134775 -0.09078594 -0.6817094 -0.13916087 0.56682694
-0.08691438 -4.4881105 0.8112451 -0.6896452 -0.29824167 2.887115 -0.37096754 -0.16686565
0.25913936 0.20644306 6.354102 -0.060609333 -3.7724216 -8.747666 11.089256 5.9927707
-2.353382 -6.9619317 1.0977991 5.7279854 -3.5118973 -1.766909 0.08429585 -0.029797668
-0.25890043 -0.14391202 0.0074605844 0.07060845 -1.2768601 1.0539246 -1.7392939 -1.4620278
1.2806063 -0.6736977 -0.9561007 -0.97178566 0.9248722 0.8403407 -3.227372 -12.836014
1.8896825 -8.3337965 -4.4248667 2.8545897 -1.3656304 -1.4752711 -0.14273664 0.7380048
-0.60335225 -0.5158255 -0.26711643 -0.7563237 -0.03358359 -0.4631107 -0.39759797 0.01647527
1.1459196 -1.1362338 -1.7980784 1.9008105 -2.0987823 1.8118426 0.21066159 0.20512
0.08675364 0.03531572 2.3335738 -0.09776657 -2.8169801 -2.5565438 -2.1437788 1.4952765
0.21110806 -0.35086408 -0.4482269 3.8682873 0.81585366 0.49818224 0.048269615 0.06849136
1.2730029 -0.067674756 -0.78998274 -0.36167118 -0.8815451 1.4401731 0.6668326 -1.6525704
-4.783962 0.13526455 0.65343714 0.7568607 -0.62023133 -0.76930976 2.125901 7.4175487
5.8458457 3.049121 -2.6758363 3.0265293 -2.2186852 3.7862158 -0.9399812 0.5104478
2.7800422 1.0990026 -0.3556861 -0.015731912 0.07689596 0.01778101 -0.120629616 0.010959938
-0.06055622 0.8927179 0.7923853 -0.613551 -5.207956 2.7491565 0.16811742 0.44429722
-0.13395292 -0.39247277 5.83855 -7.4359517 -6.744846 4.5383515 -2.6138868 -10.804067
5.502669 0.7015531 0.08869971 0.8837445 -0.77327543 -0.9182041 -0.050108775 0.04127022
-0.23069566 0.0024169714 -0.30985838 0.021900227 -0.0490551 -7.75212 -0.68412006 0.9535287
-10.565897 0.14886045 0.09126288 -0.18884741 -0.07286612 0.054648075 0.42233124 2.5986953
1.6935886 -5.284555 -0.024570921 1.7609283 2.5760245 0.096082404 0.22830784 2.3032246
0.96280926 2.8705194 -0.26559424 -0.18321055 0.24172959 -0.07033731 0.15304609 -0.2084195
-0.014175038 -2.9303281 1.9384507 -1.1881669 0.6940045 2.8153825 0.12945837 0.086949624
-0.115539774 -0.151149 -0.69140965 -1.3579566 4.537279 5.606455 -2.3792791 -3.9119563
-0.27824086 -0.38842222 0.035069186 0.72432303 0.43074384 0.25656372 0.017553564 -0.0053092283
0.0064674355 0.042583205 -0.031576455 0.0535141 -5.2578077 -2.1835353 -0.32401103 4.193418
0.61998385 -0.5527711 0.009981542 -0.106434256 0.036025774 0.04728598 0.2261141 -1.6117401
-0.98927575 0.629666 1.6950979 0.08920316 0.32642275 -4.2285695 1.7371044 3.5380483
00000000: bc72 9cbf 5885 2a40 9d15 6c3f aa88 d6bf
00000010: d8dd d93e 7d04 553f fe55 69be 41d7 1d3e
00000020: 119c 853e 94e5 05be 2a28 833e 1eac 14be
00000030: 2ea9 a73f 5422 1641 cd23 1b3f 0d0b a33f
00000040: 8478 0241 8700 993f 6987 763a 4325 7dbd
00000050: a881 2abe ada5 4c3d 52ab 3abf 675b 923f
00000060: 27c3 fbc0 e980 75bf 9b00 b73f 025c a340
00000070: 6987 9a40 a79b 0fbf 599a 843f 827e 68c0
00000080: 2b55 38bf a13b 1ebf 6f44 063e 5b0e ff3c
00000090: fbed b9bd 8284 2ebf 3080 0ebe 921b 113f
000000a0: 2b00 b2bd 9a9e 8fc0 c2ad 4f3f 968c 30bf
000000b0: 22b3 98be 7ec6 3840 75ef bdbe d4de 2abe
000000c0: eaad 843e cf65 533e ce54 cb40 7e41 78bd
000000d0: 5b6f 71c0 71f6 0bc1 986d 3141 c7c4 bf40
000000e0: d09d 16c0 25c8 dec0 ae84 8c3f a84b b740
000000f0: edc2 60c0 132a e2bf 4da3 ac3d 3d1a f4bc
00000100: 998e 84be ac5d 13be eb77 f43b 2a9b 903d
00000110: 2770 a3bf 00e7 863f 2fa1 debf ba23 bbbf
00000120: e8ea a33f 7477 2cbf 04c3 74bf f2c6 78bf
00000130: 6dc4 6c3f 9120 573f 438d 4ec0 5060 4dc1
00000140: 1ee1 f13f 3b57 05c1 8298 8dc0 99b1 3640
00000150: facc aebf afd5 bcbf 8e29 12be e2ed 3c3f
00000160: 4b75 1abf 240d 04bf 7cc3 88be 6e9e 41bf
00000170: f28e 09bd d81c edbe f691 cbbe 25f7 863c
00000180: 7ead 923f 1c70 91bf 6f27 e6bf c24d f33f
00000190: 7352 06c0 75ea e73f acb7 573e fa0a 523e
000001a0: e4ab b13d 37a7 103d 4659 1540 d739 c8bd
000001b0: 6749 34c0 6a9e 23c0 ac33 09c0 3865 bf3f
000001c0: b62c 583e 75a4 b3be ff7d e5be 0592 7740
000001d0: c9db 503f be11 ff3e 5cb6 453d 3345 8c3d
000001e0: c2f1 a23f 1099 8abd 4f3c 4abf f72c b9be
000001f0: f1ac 61bf 9857 b83f 8bb5 2a3f 6d87 d3bf
00000200: 3716 99c0 ca82 0a3e a847 273f 9fc1 413f
00000210: 7bc7 1ebf 7cf1 44bf c30e 0840 8f5c ed40
00000220: 2b11 bb40 cc24 4340 e740 2bc0 a8b2 4140
00000230: f0fe 0dc0 5c51 7240 9ca2 70bf b5ac 023f
00000240: 36ec 3140 1eac 8c3f 7d1c b6be 36e0 80bc
00000250: a17b 9d3d 7ba9 913c a90c f7bd 5091 333c
00000260: cd09 78bd 2989 643f c3d9 4a3f ae11 1dbf
00000270: 93a7 a6c0 2ef2 2f40 f926 2c3e ed7a e33e
00000280: f42a 09be 31f2 c8be 67d5 ba40 51f3 edc0
00000290: c7d5 d7c0 2d3a 9140 ec49 27c0 75dd 2cc1
000002a0: dd15 b040 fc98 333f 32a8 b53d 143d 623f
000002b0: 61f5 45bf 6d0f 6bbf dc3e 4dbd f60a 293d
000002c0: 7c3b 6cbe 0d66 1e3b c2a5 9ebe 1b68 b33c
000002d0: 00ee 48bd 5e11 f8c0 7e22 2fbf 751a 743f
000002e0: ea0d 29c1 e06e 183e 08e8 ba3d 3761 41be
000002f0: d53a 95bd a9d6 5f3d cd3b d83e 0651 2640
00000300: 83c7 d83f 131b a9c0 f548 c9bc 1966 e13f
00000310: 96dd 2440 dac6 c43d 88c9 693e 0868 1340
00000320: ab7a 763f 97b6 3740 f8fb 87be 8c9b 3bbe
00000330: f687 773e 020d 90bd 1db8 1c3e ec6b 55be
00000340: 6b3e 68bc 7f8a 3bc0 271f f83f da15 98bf
00000350: 47aa 313f 3a2f 3440 bc90 043e a512 b23d
00000360: 1ea0 ecbd cec6 1abe 3900 31bf 86d1 adbf
00000370: 6431 9140 1468 b340 1c46 18c0 7e5d 7ac0
00000380: 9675 8ebe 47df c6be b5a4 0f3d 3c6d 393f
00000390: 758a dc3e 525c 833e 7ecc 8f3c 09f9 adbb
000003a0: c8ec d33b ba6b 2e3d 5056 01bd 9a31 5b3d
000003b0: f63f a8c0 0bbf 0bc0 c6e4 a5be 7b30 8640
000003c0: 43b7 1e3f 6882 0dbf 9f89 233c 34fa d9bd
000003d0: c38f 133d f2ae 413d 748a 673e 804d cebf
000003e0: 2d41 7dbf ca31 213f f8f8 d83f 25b0 b63d
000003f0: e220 a73e 7150 87c0 7059 de3f 626f 6240

fc1.bias f4 [148]
-0.07077377 -0.61179966 0.19475654 -3.1936634 -0.15968211 -0.62482697 -1.0497239 -0.5155879
0.5367005 0.1800116 0.94775754 -0.76205546 -0.21714433 -1.3949685 -2.040312 1.6204336
-0.34128112 5.806896 -1.0387444 -0.3019321 -0.06994481 0.41622844 0.95898813 2.3566575
1.5863658 1.08989 -1.4140134 3.18004 -0.87852156 -2.4338083 -0.07613318 1.2476339
-0.36362225 0.19382952 -2.0407171 -0.22016676 4.405197 -0.21043238 -0.46122742 0.26287746
0.027480764 0.89797324 -0.28910223 0.41912028 -0.3293273 -0.855095 0.07915722 -0.14042668
3.8610926 -0.09699283 -0.10315388 0.0013920448 -1.185111 0.19332723 -0.24893053 -0.12060594
-0.10789846 0.52391386 -0.3391772 0.565595 1.4296176 -1.3855838 -0.6758609 -0.54492795
-1.3114648 -0.8640766 0.90070105 -0.03262891 -1.5298685 1.0562891 -0.5944562 -0.8588223
-0.25845954 -0.52901393 0.97921246 0.5844273 1.8804729 0.012133359 -0.053041723 0.9319028
-0.91551775 -0.18882431 -0.71155494 -1.3520178 3.2149332 0.0396068 -0.5755854 -3.887531
-1.5301813 -0.41624776 0.06997571 -1.0871208 0.8958514 0.6629933 -0.9959107 0.1928003
0.31979433 0.0029634063 4.76371 1.9114857 1.053829 0.22234552 1.234628 -0.025350403
-0.11415804 -2.3080978 0.16973832 -0.8599292 1.2061669 0.8643427 4.2788854 0.14899659
-0.107706666 1.1618878 -2.6780279 -0.58987325 0.931439 0.5069311 0.4853404 -0.11477077
1.1618389 0.45877028 -0.29805806 0.42230767 0.13010037 -1.0703053 -0.16880684 -0.2922352
1.7973638 0.74464434 1.6676012 0.12612166 0.32835695 -0.30896512 -0.6289515 1.3702788
1.4565668 0.43587446 -0.39459747 -0.381246 0.2261821 0.3711012 -1.1401825 -0.7037237
-1.4470282 1.1997976 -0.010964669 0.11911096
00000000: d7f1 90bd e79e 1cbf 426e 473e fb64 4cc0
00000010: b583 23be a9f4 1fbf 5a5d 86bf 92fd 03bf
00000020: 3465 093f f654 383e 3da0 723f 1116 43bf
00000030: 155b 5ebe 548e b2bf 7994 02c0 5e6a cf3f
00000040: 66bc aebe 18d2 b940 94f5 84bf d896 9abe
00000050: 393f 8fbd e51b d53e 3f80 753f 7ad3 1640
00000060: 090e cb3f 8481 8b3f 64fe b4bf c685 4b40
00000070: cae6 60bf 84c3 1bc0 b6eb 9bbd 78b2 9f3f
00000080: b22c babe 3f7b 463e 1c9b 02c0 6573 61be
00000090: 60f7 8c40 967b 57be 0026 ecbe e097 863e
000000a0: 571f e13c 93e1 653f 3505 94be ef96 d63e
000000b0: 969d a8be 82e7 5abf 2e1d a23d 03cc 0fbe
000000c0: 241c 7740 2da4 c6bd 5742 d3bd 4675 b63a
000000d0: b8b1 97bf 93f7 453e a5e7 7ebe 3f00 f7bd
000000e0: def9 dcbd 381f 063f a2a8 adbe d5ca 103f
000000f0: b6fd b63f cf5a b1bf 3805 2dbf 6680 0bbf
00000100: 14de a7bf 2034 5dbf 5894 663f e4a5 05bd
00000110: bbd2 c3bf 7b34 873f 482e 18bf c7db 5bbf
00000120: cf54 84be 756d 07bf abad 7a3f 079d 153f
00000130: 56b3 f03f ffca 463c 4742 59bd 2f91 6e3f
00000140: 5f5f 6abf 295b 41be 7728 36bf eb0e adbf
00000150: 77c1 4d40 bd3a 223d 9159 13bf 4fcd 78c0
00000160: fbdc c3bf 6d1e d5be 6d4f 8f3d c626 8bbf
00000170: 8456 653f eeb9 293f 01f4 7ebf 716d 453e
00000180: 15bc a33e b535 423b 5070 9840 90ab f43f
00000190: dee3 863f 8bae 633e 4a08 9e3f a6ab cfbc
000001a0: b1cb e9bd e0b7 13c0 e2cf 2d3e 5224 5cbf
000001b0: ad63 9a3f 9045 5d3f a1ec 8840 9092 183e
000001c0: 5095 dcbd bdb8 943f cf64 2bc0 ef01 17bf
000001d0: c972 6e3f 3dc6 013f 897e f83e f00c ebbd
000001e0: 23b7 943f f0e3 ea3e 119b 98be b638 d83e
000001f0: 0839 053e c4ff 88bf b3db 2cbe da9f 95be
00000200: 0410 e63f 03a1 3e3f f573 d53f 0926 013e
00000210: 671e a83e ad30 9ebe f702 21bf 4c65 af3f
00000220: c870 ba3f f02a df3e ae08 cabe ad32 c3be
00000230: 489c 673e fa00 be3e 80f1 91bf 3d27 34bf
00000240: 3838 b9bf f892 993f 28a5 33bc 72f0 f33d

fc2.weight f4 [148, 148]
-1.0223335 1.4097235 1.9676954 -3.4572177 0.2831102 1.470689 -1.4993242 1.3190857
16.972559 -2.39936 -0.030936738 1.3588489 5.2148213 1.2455868 3.6621559 -0.6734405
-1.8547106 0.21574488 -0.0058950493 0.6250455 0.6399054 -0.56912196 -0.49049065 -1.0264308
-0.46679187 -0.8583255 1.3535048 0.16578929 0.48677585 1.6949043 -1.148218 -0.08561654
9.868692 1.1167151 4.2089767 10.338491 0.20498845 1.2931353 -0.46218947 -0.4433172
0.94391346 -0.32409084 6.893512 -2.6470501 7.652272 4.1847644 0.47360548 -1.6713811
0.076189026 1.2599087 0.6706186 -4.0183744 0.36839566 -0.3159223 1.5659055 -7.571404
1.0256987 -0.021190621 0.6895828 0.70270395 -0.3200267 1.278768 16.433714 2.647224
2.366114 0.56670356 -0.31450477 0.81534785 1.210488 -0.092036255 0.9607471 0.92872465
-2.1517332 0.6247408 -0.17587265 -0.87833065 0.072832964 -0.35887745 1.6786677 -0.28539896
0.78091234 -2.9675975 1.0877368 2.0821931 0.13188365 0.49037153 0.9115312 0.28232822
1.4419167 2.7270973 0.5137531 0.6012936 -0.26333743 1.0305337 7.628982 15.118239
-0.5962011 1.5705793 0.111561276 -0.23678356 -0.4083549 0.10554694 -0.5456367 0.843655
1.114538 2.6280155 1.1946305 0.95474213 -0.52546704 -0.17495635 0.22790357 1.2632476
5.7609105 -0.42927566 0.9785994 2.2509542 -1.6235728 -0.3410456 -0.47916466 1.5564389
-0.25641465 4.3736954 0.46224007 -0.32052967 2.0037496 0.88462806 1.0551012 1.480418
-1.3742154 0.1855878 -0.90961814 -1.7868465 0.9511026 1.3922374 0.8846819 -0.842223
-1.4356439 8.566789 -2.0034723 1.4804379 2.6427145 -0.2153909 0.8958483 0.5708832
1.3021028 -2.1172502 5.8330464 18.597872 -0.0047325017 -0.08117419 0.056755215 -0.028023297
0.019032752 0.025793737 -0.0013909865 -0.05708995 -0.013077548 -0.05192165 0.011846242 -0.0024114556
0.039027277 0.041654915 -0.08409885 0.024973173 -0.015581094 -0.08270391 -0.012553648 -0.03674099
-0.06764262 -0.11288721 -0.009228086 -0.044728115 0.019727562 -0.06897473 0.011497412 -0.029870234
-0.0514152 0.015167517 0.0005350806 0.008290177 -0.064053394 -0.1071602 -0.090900615 -0.09301223
-0.06120624 -0.06707712 0.008860152 -0.025500862 0.046293136 -0.04359951 -0.093014695 0.0015765394
0.024064563 -0.033720475 -0.023565741 -0.0041077 0.002215714 0.024836868 -0.095561214 -0.05515386
0.043305892 -0.10243821 0.040702436 -0.10895593 -0.084102295 -0.0073168688 -0.0028249207 0.04294387
-0.103736 -0.0025327653 -0.0020889146 -0.071040295 -0.087184794 -0.104599416 -0.09804888 -0.08585572
0.030566297 -0.037999522 0.027168121 -0.11652367 -0.04535287 -0.041651987 0.009651014 0.04006852
0.038678546 0.007817146 0.028949553 -0.06949561 0.020440103 -0.025920097 0.030558683 0.030526418
-0.011618558 -0.015334868 -0.10810992 0.011497253 -0.11276442 -0.12880927 0.095971115 -0.015213415
-0.075207144 -0.014681664 0.003209542 0.10696355 -0.032282844 -0.030580644 -0.082789384 -0.09877381
-0.06233771 -0.035675194 0.010630183 -0.060539585 -0.009570618 0.055318087 -0.021292206 0.04517435
00000000: d3db 82bf d271 b43f 71dd fb3f 0e43 5dc0
00000010: d2f3 903e 8a3f bc3f dbe9 bfbf cdd7 a83f
00000020: cdc7 8741 1d8f 19c0 0b6f fdbc c3ee ad3f
00000030: d1df a640 636f 9f3f c360 6a40 9966 2cbf
00000040: 2867 edbf 3aec 5c3e 422b c1bb fb02 203f
00000050: d7d0 233f fab1 11bf 9721 fbbe 1662 83bf
00000060: 58ff eebe 38bb 5bbf a53f ad3f abc4 293e
00000070: af3a f93e a0f2 d83f cff8 92bf b957 afbd
00000080: 2ae6 1d41 85f0 8e3f f0af 8640 766a 2541
00000090: 7ee8 513e 7585 a53f 19a4 ecbe 79fa e2be
000000a0: 50a4 713f 3cef a5be a697 dc40 4569 29c0
000000b0: 6adf f440 97e9 8540 6b7c f23e d1ef d5bf
000000c0: fe08 9c3d b044 a13f a9ad 2b3f 8696 80c0
000000d0: 5b9e bc3e 91c0 a1be 976f c83f f148 f2c0
000000e0: 184a 833f f497 adbc 8088 303f 68e4 333f
000000f0: 8ada a3be abae a33f 3f78 8341 1e6c 2940
00000100: 696e 1740 7c13 113f c506 a1be a3ba 503f
00000110: 45f1 9a3f 817d bcbd 86f3 753f e6c0 6d3f
00000120: ffb5 09c0 03ef 1f3f f617 34be 47da 60bf
00000130: 7329 953d c9be b7be 95de d63f d01f 92be
00000140: dfe9 473f 1eed 3dc0 f63a 8b3f a742 0540
00000150: 820c 073e fa11 fb3e 1c5a 693f 538d 903e
00000160: ba90 b83f c388 2e40 5385 033f 61ee 193f
00000170: 2ad4 86be 87e8 833f 9f20 f440 4fe4 7141
00000180: a3a0 18bf be08 c93f 3d7a e43d 6477 72be
00000190: e513 d1be fe28 d83d d9ae 0bbf c6f9 573f
000001a0: 2ea9 8e3f 6831 2840 a7e9 983f fb69 743f
000001b0: 0285 06bf c227 33be 8e5f 693e 19b2 a13f
000001c0: 6159 b840 05ca dbbe 7e85 7a3f a20f 1040
000001d0: 3cd1 cfbf 879d aebe 1255 f5be 6439 c73f
000001e0: c848 83be 50f5 8b40 bbaa ec3e 771c a4be
000001f0: 6f3d 0040 fc76 623f 8e0d 873f 567e bd3f
00000200: 4ae6 afbf ba0a 3e3e bcdc 68bf 63b7 e4bf
00000210: 767b 733f d634 b23f 837a 623f ed9b 57bf
00000220: 2ec3 b7bf 9111 0941 e438 00c0 fd7e bd3f
00000230: 3c22 2940 6f8f 5cbe 5056 653f 6725 123f
00000240: 4eab a63f 0781 07c0 51a8 ba40 71c8 9441
00000250: 1a13 9bbb a73e a6bd 2878 683d 1d91 e5bc
00000260: 93ea 9b3c 634d d33c c351 b6ba 27d7 69bd
00000270: 3643 56bc ccab 54bd bd16 423c 8309 1ebb
00000280: 11db 1f3d 589e 2a3d 053c acbd 8a94 cc3c
00000290: d847 7fbc ab60 a9bd d1ad 4dbc b87d 16bd
000002a0: 3788 8abd 6931 e7bd 6631 17bc d434 37bd
000002b0: b29b a13c a042 8dbd a45f 3c3c 6cb2 f4bc
000002c0: bf98 52bd 2d81 783c a744 0c3a 86d3 073c
000002d0: 6d2e 83bd cf76 dbbd 1a2a babd 327d bebd
000002e0: 65b3 7abd bb5f 89bd 2c2a 113c 2fe7 d0bc
000002f0: df9d 3d3d 6695 32bd 7d7e bebd e2a3 ce3a
00000300: 0c23 c53c 7b1e 0abd f10c c1bc e399 86bb
00000310: 8335 113b b076 cb3c 99b5 c3bd 04e9 61bd
00000320: 8561 313d 20cb d1bd 99b7 263d 4924 dfbd
00000330: d33d acbd 58c2 efbb 4e22 39bb e9e5 2f3d
00000340: 8a73 d4bd c0fc 25bb 2ce6 08bb 937d 91bd
00000350: f18d b2bd 3838 d6bd dacd c8bd 20d5 afbd
00000360: 2c66 fa3c 63a5 1bbd ae8f de3c f6a3 eebd
00000370: eec3 39bd 469b 2abd 491f 1e3c e31e 243d
00000380: 656d 1e3d 7d13 003c 9d27 ed3c b753 8ebd
00000390: 0172 a73c 6256 d4bc 3456 fa3c 8a12 fa3c
000003a0: c45b 3ebc 193f 7bbc bc68 ddbd f95e 3c3c
000003b0: 08f1 e6bd 94e6 03be 818c c43d b041 79bc
000003c0: 3406 9abd 5d8b 70bc 2e57 523b b50f db3d
000003d0: 043b 04bd 4284 fabc 7b8d a9bd ec49 cabd
000003e0: d455 7fbd 2720 12bd 382a 2e3c 5bf8 77bd
000003f0: 15ce 1cbc 3895 623d fe6c aebc bd08 393d

fc2.bias f4 [148]
-0.27905086 0.048995763 -0.065674536 -0.118521646 -0.034708247 -0.00759057 -0.068386346 -0.23255035
-0.07561979 -0.3303109 -0.33804253 -3.3058832 -0.08010631 -0.065832354 -0.3210277 -0.2767903
0.013773626 -0.019696806 -0.046082046 -0.24055383 -0.31552252 -0.12145543 0.06331309 -0.31191134
-1.6444267 -0.3312985 -0.063507915 -0.33605218 -0.0021263699 -0.0610563 -0.26724026 -0.36013055
-0.059538312 -0.084301524 -0.08556394 -0.30577487 -0.2840264 -0.37563947 -0.08492818 -0.107526004
-0.09943454 -0.37896857 0.0379336 -0.2556695 4.582317 0.034010112 -0.3314216 -0.112783946
-0.33384717 -0.01686862 -0.23927271 -0.29060274 -0.060164087 -0.09025182 -0.04883293 -0.04917885
-0.34054944 -0.3462253 0.03208174 -0.3799422 -0.06919363 -0.030840049 -0.27795324 -0.3181607
-0.02411604 -0.30293775 -0.29735556 -0.30903423 -0.04198231 -0.11084361 -0.9710675 -0.25447232
-0.32670772 -0.02194054 4.1163836e-05 -0.0035509977 -0.07925389 -1.032724 -0.3119133 -0.29765582
-0.03718932 -0.002037763 -0.024812546 -0.29039338 -0.30809388 -0.30427012 -0.25398257 -0.09396001
-0.09230694 -0.29160258 -0.31550255 -0.09035834 -0.103114955 -0.22938545 -0.30095688 -0.1076641
-0.04384517 -0.22986093 -0.096862145 -0.29545632 -0.11495969 0.66572964 -0.36158204 -0.28729206
-0.41677436 -0.2710688 -0.33390647 0.003226007 -0.38784596 -0.37246147 -0.88800424 -0.015113762
-0.2763562 -0.07950055 -0.06795732 -0.121433504 -0.32854477 0.019043522 -0.36215788 -0.06365135
-0.3245574 0.051067453 -0.5392758 -0.3269413 -0.35386628 -0.3862106 -0.3725337 -0.057535727
-0.28066236 -0.0794643 -0.27855563 -0.3028383 -0.04084719 -0.2703722 4.58459 -0.06432008
-0.055105228 -0.101507895 -0.29442662 -0.08293161 -0.010668753 -0.08011838 -0.236299 0.046935994
0.0059904284 -0.29513738 -0.33834383 -0.5701734
00000000: c1df 8ebe c8af 483d 5f80 86bd 7abb f2bd
00000010: 3c2a 0ebd 51ba f8bb 240e 8cbd ae21 6ebe
00000020: 8cde 9abd 831e a9be e913 adbe 9793 53c0
00000030: c70e a4bd 1dd3 86bd be5d a4be 75b7 8dbe
00000040: c6aa 613c 325b a1bc 87c0 3cbd be53 76be
00000050: 2b8c a1be a0bd f8bd 4baa 813d d8b2 9fbe
00000060: 937c d2bf f59f a9be 7010 82bd 080f acbe
00000070: 915a 0bbb 2c16 7abd b7d3 88be 0863 b8be
00000080: 72de 73bd 47a6 acbd 263c afbd 868e 9cbe
00000090: e96b 91be d153 c0be d3ee adbd 9836 dcbd
000000a0: 56a4 cbbd 2b08 c2be 4360 1b3d 1de7 82be
000000b0: 57a2 9240 304e 0b3d 18b0 a9be 45fb e6bd
000000c0: 04ee aabe 0f30 8abc e803 75be e2c9 94be
000000d0: 9e6e 76bd f2d5 b8bd 0a05 48bd c36f 49bd
000000e0: 7f5c aebe 7144 b1be 2568 033d c987 c2be
000000f0: 64b5 8dbd 45a4 fcbc e34f 8ebe f6e5 a2be
00000100: 008f c5bc a81a 9bbe fd3e 98be bc39 9ebe
00000110: a5f5 2bbd f901 e3bd e197 78bf 324a 82be
00000120: 3c46 a7be a6bc b3bc 55a7 2c38 dbb7 68bb
00000130: dd4f a2bd 4d30 84bf 1ab3 9fbe 5866 98be
00000140: d453 18bd fd8b 05bb ae43 cbbc 71ae 94be
00000150: 7bbe 9dbe 4bc9 9bbe 010a 82be 1b6e c0bd
00000160: 6c0b bdbd ef4c 95be 8d89 a1be cb0d b9bd
00000170: ef2d d3bd 05e4 6abe 0517 9abe ff7e dcbd
00000180: fe96 33bd aa60 6bbe a95f c6bd 0d46 97be
00000190: fc6f ebbd 426d 2a3f 4821 b9be f217 93be
000001a0: 7363 d5be 88c9 8abe caf5 aabe 6b6b 533b
000001b0: bf93 c6be 45b3 bebe 3f54 63bf b69f 77bc
000001c0: 8f7e 8dbe 2fd1 a2bd 352d 8bbd 21b2 f8bd
000001d0: 0537 a8be 2901 9c3c c26c b9be a45b 82bd
000001e0: 632c a6be 1b2c 513d fb0d 0abf da64 a7be
000001f0: f62d b5be 65bd c5be bdbc bebe 95aa 6bbd
00000200: fab2 8fbe 2ebe a2bd d89e 8ebe 9f0d 9bbe
00000210: 624f 27bd 3a6e 8abe f6b4 9240 3fba 83bd
00000220: 05b6 61bd 5fe3 cfbd 16bf 96be 0cd8 a9bd
00000230: fecb 2ebc 1b15 a4bd 5df8 71be f53f 403d
00000240: 5b4b c43b 3f1c 97be 673b adbe e2f6 11bf

fc3.weight f4 [1, 148]
-3.9991682 0.04785187 -0.0020480305 -0.012129186 0.020661462 -0.01592708 -0.09527298 -3.9893684
0.022649197 -4.02882 -4.0774755 -18.334412 0.023121022 0.052911796 -4.2908907 -4.053201
0.029593397 0.0043953406 -0.019986069 -4.152126 -4.049685 -0.0028162447 0.046287593 -4.0463266
13.32631 -4.4864717 0.070590876 -4.1543 0.02778909 0.017149465 -4.161858 -4.179501
-0.028307248 0.030197 -0.014925983 -4.126305 -4.092321 -4.045822 -0.008157563 -0.023175646
0.15634958 -4.1902657 0.014213084 -4.180626 6.7529364 0.046144824 -4.226366 0.021307481
-3.9795394 -0.00089294964 -4.0557613 -4.1700444 0.034045324 0.013461934 0.029624067 -0.0200652
-4.314558 -4.135425 -0.008907463 -4.1717954 -0.018877087 0.0014313237 -4.1575313 -4.12688
-0.025256034 -4.1499944 -4.0860405 -4.068173 -0.016603192 0.0018149214 -14.059841 -4.074655
-4.233393 0.037875198 0.009106601 0.023231238 0.017167836 48.576004 -4.1759343 -4.127225
0.0032700435 0.03298165 0.047986478 -3.9818044 -4.3601418 -4.163354 -4.2708516 0.038666297
-0.01743807 -4.0901656 -4.0632715 -0.022575391 -0.0024303233 -4.0525966 -4.0341434 0.042987384
0.026315471 -4.1233892 -0.017160524 -4.137711 0.03982787 7.157094 -4.365659 -4.0594635
-3.985391 -4.183402 -4.2057185 0.024874372 -4.062855 -4.0568833 -32.49256 -0.029565087
-4.0485215 0.008133112 0.057533503 0.024467833 -4.1329665 0.053834718 -4.0641623 0.038463317
-4.129361 0.001588636 -22.988182 -4.0390325 -4.2367015 -4.177785 -4.186654 0.064422704
-4.413559 -0.008882588 -4.184467 -4.1645694 0.0035376034 -4.207457 6.154178 0.025224742
0.027340364 0.023827273 -3.9833703 -0.021326289 0.03439306 0.02041748 -4.1283655 0.064413734
-0.0007479361 -4.1338053 -4.1124864 20.1275
00000000: 5ff2 7fc0 5300 443d 4038 06bb 7eb9 46bc
00000010: 3a42 a93c 8279 82bc 7b1e c3bd d051 7fc0
00000020: cf8a b93c 18ec 80c0 ae7a 82c0 e0ac 92c1
00000030: 4c68 bd3c 0aba 583d fa4e 89c0 d3b3 81c0
00000040: da6d f23c ca06 903b d3b9 a3bc 37de 84c0
00000050: 0597 81c0 bf90 38bb 0f98 3d3d 827b 81c0
00000060: 9138 5541 2d91 8fc0 f391 903d 07f0 84c0
00000070: f2a5 e33c 097d 8c3c f12d 85c0 79be 85c0
00000080: 9ae4 e7bc b35f f73c 1c8c 74bc b10a 84c0
00000090: 4bf4 82c0 6077 81c0 4da7 05bc dada bdbc
000000a0: 1b1a 203e a816 86c0 ffdd 683c b0c7 85c0
000000b0: 0e18 d840 5b02 3d3d 643e 87c0 078d ae3c
000000c0: c6b0 7ec0 d614 6aba ccc8 81c0 0171 85c0
000000d0: 1c73 0b3d 728f 5c3c 2cae f23c c65f a4bc
000000e0: dc10 8ac0 6755 84c0 9cf0 11bc 597f 85c0
000000f0: 1fa4 9abc 419b bb3a 7f0a 85c0 670f 84c0
00000100: bee5 cebc c1cc 84c0 d8c0 82c0 792e 82c0
00000110: 6b03 88bc a8e2 ed3a 1cf5 60c1 9363 82c0
00000120: f577 87c0 0623 1b3d da33 153c 704f be3c
00000130: 90a3 8c3c d44d 4242 41a1 85c0 3a12 84c0
00000140: 3a4e 563b c417 073d 788d 443d e2d5 7ec0
00000150: 4886 8bc0 323a 85c0 d1aa 88c0 8d60 1e3d
00000160: 49da 8ebc a3e2 82c0 5206 82c0 07f0 b8bc
00000170: 0f46 1fbb dfae 81c0 b417 81c0 8a13 303d
00000180: 8b93 d73c cef2 83c0 3a94 8cbc 2168 84c0
00000190: 8c22 233d ea06 e540 7bb3 8bc0 20e7 81c0
000001a0: a510 7fc0 6ede 85c0 3f95 86c0 57c5 cb3c
000001b0: e802 82c0 fdd1 81c0 62f8 01c2 7b32 f2bc
000001c0: 7d8d 81c0 bf40 053c 40a8 6b3d c470 c83c
000001d0: 4341 84c0 cb81 5c3d 9e0d 82c0 b68b 1d3d
000001e0: ba23 84c0 c739 d03a cce7 b7c1 c13f 81c0
000001f0: 0f93 87c0 6ab0 85c0 12f9 85c0 0df0 833d
00000200: e03b 8dc0 4688 11bc 27e7 85c0 2744 85c0
00000210: 23d7 673b 7da3 86c0 07ef c440 1ea4 ce3c
00000220: e6f8 df3c 6a31 c33c 8aef 7ec0 78b4 aebc
00000230: bddf 0c3d 8f42 a73c 921b 84c0 59eb 833d
00000240: 2411 44ba 2248 84c0 7d99 83c0 1f05 a141
