demo/4_1_tran3_1_2_andtran2_3_act2/critic_2_6.pth (torch, 108582 bytes, 5 tensors)

fc1.weight f4 [148, 28]
00000000: dbfa 6abf 0a30 d03f a661 d43e 2965 e7bf
00000010: 0472 d8bd a0f7 fe3f 43af 04c0 7049 5e3f
00000020: b494 0f40 0d35 afbe 45d9 e03f f881 ad3e
00000030: f313 ba3f fa4c 89c0 b391 d83f ab45 9840
00000040: c578 5a40 19ae 3b40 8270 2e3e 09a4 0540
00000050: bd32 03c0 82ce fdbf 0b4a 86c0 e1db a2bf
00000060: bb97 4941 1525 7440 74e6 cb3f 1c19 66c0
00000070: 3ad5 febd 0c7d bebf 6ce6 ea3f 868b 46bf
00000080: f1b2 9ebf ee19 e03e d403 47be 1897 05bf
00000090: d52d 133f a028 823e b5f0 c03d 46e3 013f
000000a0: d08f 8540 d00e 4b40 a95d cb3d 6a04 3b3f
000000b0: a02e 4bc0 3086 c9c0 a657 023c 2a9c 3a3f
000000c0: 2239 7fbf b85b 4fbf 8d8f 1940 dab7 08c0
000000d0: 6897 2e41 947f 8cc0 ee75 013f 657e 4b3f
000000e0: 6952 f1be bd6f 2f40 21a5 8a40 9ffa 3240
000000f0: 08c6 08c0 11a0 29c0 a222 6c3d dcd9 2b3e
00000100: 5965 0fbe 1e83 a0bc 7892 843e cbdf 0a3e
00000110: a055 c2c0 bf83 b340 de38 64bf 38b4 84bf
00000120: 6060 b340 cf1c 12c0 9f00 0cbd db92 703d
00000130: 77ec 69be 9f6c 93bd 144e 2740 a26d abc0
00000140: 11b1 8cc0 5e9a a7c0 bf4e 3f40 9b4e 13c1
00000150: 4063 ea3e 2a27 0840 f590 f4bf 0eb4 e53f
00000160: 71b8 2240 f9fa d33f 605d 01bf fc8f 1b3f
00000170: 8e17 13bf 3769 9abe 778c 8dbe 724c 713d
00000180: 28a3 54bf 2dbc 1740 fd50 fdbe 86de 613f
00000190: f648 f33f b46f 2e40 5020 8e3d 4bee 2540
000001a0: ff37 20c0 49ef 2bc0 17cf 81c0 15a6 9ebf
000001b0: 9372 d7c0 14d7 cdbf 737c 95c0 769c 46c0
000001c0: 084b 6fbe 6fe3 0a3e 6806 c7be 9fc0 c23e
000001d0: a44d 7cbf 83ec d63e ac40 2cbf 9426 c4be
000001e0: a5bc 0dbe 9f28 74bd 14ba 1bbe 8b6f 25bd
000001f0: 47b9 0b3e a6a9 4c40 e146 c4bf d9c4 63bf
00000200: 3d08 03c0 1fc5 d23f e2d8 d3bd a74b 25c0
00000210: f8f1 1940 2623 1d40 c90d d7bf 67fe bfbe
00000220: 51d2 f2bf f909 63be db35 f7bf b7f6 97bf
00000230: 33f2 883f 2c87 bbbf 9a21 603f e91b ba3f
00000240: f33b 323e e4ad b13e a307 62be c486 593e
00000250: 00e0 b8bf 47ea 383f 1592 f93d 9440 2fbd
00000260: 70e6 8c3f 6d8f 9b3f c529 53c0 2458 bebf
00000270: b728 6a40 f328 2f40 57d3 cbbd 84fd 4f3f
00000280: 52eb 6fbf 578b 1bbf 3d74 dabd b981 1fc0
00000290: da15 eebf deff 02c1 7e2b 6440 3153 a9c0
000002a0: 46cb 853f b516 45bf c4ed 54bf 6b76 c0be
000002b0: 9fdd f9bf 4a8d 26bf 1153 56be 7c33 d33e
000002c0: 5016 9abe ebaf ee3e 6319 cf3e 8b33 02be
000002d0: 897f 583f f36e 8bbf d93a 3dc0 5a50 6abf
000002e0: ed43 353f d045 2040 dc64 63bc 3cb8 0a3f
000002f0: 989e 5cbf a62f 35bf 7ba2 22c0 dc66 e940
00000300: 4371 a440 9530 b9c0 44fa 0cc1 eda8 9d40
00000310: abb7 65bf f657 44c0 09f4 8ebe e51a 903f
00000320: cd6e e8bf f0b6 fdbf 52ab 263e 294c 263f
00000330: 23f5 4bbe 95cd cfbe 25e1 0e3f 6771 00bd
00000340: 72bc ffbf a5df 0dc0 0a6f 23c0 0628 7fbf
00000350: e439 a0c0 b238 8bc0 c19a dcbd 597a 00bf
00000360: 40b4 7b3e dd12 873e 6e41 0dc0 11c1 0cbe
00000370: 7673 4640 47f1 77bf 8cc3 f640 33ee f940
00000380: 7bc2 223f 6e7d ce3f d774 553f d986 7dbc
00000390: a79f 9fbe f2c2 223f 2953 5fbd 7a59 9f3f
000003a0: ad8c b73f ddfe f13e 80f3 33be f151 2dbf
000003b0: f560 61bf 5ff1 1f41 ceb9 26bf 84ed e4be
000003c0: 1ca7 4c40 18fc 4d3f 65e4 c3bd 2ec5 843f
000003d0: 46ab 92bf abfe 9abf 65c0 3fc0 6a15 70c0
000003e0: 021c bb40 3ef0 7440 5cfa 93bf b3b8 403f
000003f0: 01a4 dc3b b800 8ebe f045 7b3e 61dd d53f
-0.91789025 1.626466 0.4148075 -1.8077747 -0.10568622 1.9919319 -2.0731971 0.86830807
2.243451 -0.34220162 1.7566305 0.3388822 1.4537338 -4.2906466 1.6919464 4.7585044
3.4136212 2.932501 0.17035106 2.088137 -2.0499718 -1.9828646 -4.1965384 -1.2723352
12.599544 3.8147633 1.5929704 -3.5952826 -0.124430135 -1.4881911 1.8351569 -0.77556646
-1.2398359 0.43769783 -0.19435054 -0.52183676 0.5749181 0.2542162 0.09420911 0.50737417
4.173805 3.172779 0.09929974 0.7305361 -3.1747208 -6.2976303 0.007955467 0.7289454
-0.9969655 -0.80999327 2.3993866 -2.1362214 10.911964 -4.3905735 0.5057057 0.7948974
-0.47133186 2.741195 4.3326573 2.7965467 -2.1370869 -2.6503947 0.057650216 0.16782326
-0.14003505 -0.019593772 0.25892997 0.13561933 -6.0729523 5.6098323 -0.8914927 -1.0367498
5.6055145 -2.2830083 -0.03418028 0.058733802 -0.2284411 -0.07198452 2.6141405 -5.357133
-4.3966146 -5.2375937 2.9891813 -9.206691 0.45778847 2.1273904 -1.9106737 1.7945573
2.5425074 1.6560966 -0.50533104 0.6076658 -0.57457817 -0.30158398 -0.2764623 0.058910795
-0.83061457 2.3708603 -0.49475852 0.8823017 1.9006641 2.7255678 0.06939757 2.5926692
-2.5034177 -2.6864798 -4.0565295 -1.2394434 -6.732736 -1.6081262 -4.6714416 -3.1032996
-0.23368466 0.13563322 -0.38872075 0.38037583 -0.9855597 0.4197732 -0.6728618 -0.38310683
-0.13841493 -0.05960905 -0.15207702 -0.04038958 0.13644896 3.1978545 -1.533413 -0.8897224
-2.0473778 1.6466407 -0.103441015 -2.5827425 2.4053936 2.4552703 -1.6801082 -0.3749878
-1.8970433 -0.22171773 -1.931331 -1.1872166 1.0698913 -1.4650626 0.8755127 1.4539768
0.17405681 0.3470298 -0.22073226 0.21242815 -1.4443359 0.7223248 0.12186066 -0.042786196
1.1007824 1.2153145 -3.2994244 -1.4870648 3.658735 2.7368743 -0.09952419 0.8124621
-0.93718445 -0.6075949 -0.10666702 -2.4922926 -1.8600419 -8.187468 3.5651546 -5.291405
1.0452659 -0.76987773 -0.831753 -0.37590346 -1.9520758 -0.6505934 -0.20930125 0.41250217
-0.30095148 0.4661859 0.40449056 -0.12714975 0.84569603 -1.0893234 -2.9567168 -0.91528857
0.7080677 2.504261 -0.013879027 0.5418737 -0.86179495 -0.7077583 -2.541167 7.293806
5.138826 -5.7871804 -8.8111 4.926871 -0.8973338 -3.0678687 -0.2792056 1.1258208
-1.8158814 -1.9821453 0.16276291 0.6495996 -0.19917731 -0.40586534 0.55812293 -0.03135815
-1.9979384 -2.2167752 -2.5536523 -0.99670446 -5.0070667 -4.350671 -0.107717045 -0.5018669
0.24580479 0.2638158 -2.2071185 -0.13745524 3.1007972 -0.96852535 7.7113705 7.810327
0.63578004 1.6132028 0.8338141 -0.015474045 -0.31176493 0.6357871 -0.054522667 1.2449181
1.4339806 0.47264758 -0.17573357 -0.6770316 -0.8803857 9.9964285 -0.65127265 -0.4471246
3.1976995 0.8046279 -0.09565047 1.0372674 -1.1458519 -1.2108968 -2.9961178 -3.751307
5.847169 3.8271632 -1.1560779 0.7528183 0.006733418 -0.27734923 0.24538398 1.6708184

fc1.bias f4 [148]
00000000: 06a0 fcbf 7469 3ebf bc20 aebd c643 24c0
00000010: a999 2040 03a7 75bf 7cc8 2dbf e0b1 5b3e
00000020: a58d 9dbf ef32 813f 9d17 173f 9e1c a9bf
00000030: 29cf 0cbf 8248 bfbe 512a 51bd 4617 483e
00000040: 23d1 db3f 54b0 27be de71 aa3f bb20 883e
00000050: 0c4f 0cbf d3a4 473f 8ea1 e53f e36c 6b3f
00000060: 5f9e 1d40 b86b 363f a9ad b43f 89ab acbf
00000070: 9fd5 83bf e368 7dbf c712 1640 ddaf 4fbf
00000080: 0387 93be f0b3 0dbf 8a66 11bf bd6c 42be
00000090: 70d2 4dc0 8340 6abf e64f ddbe 1422 e0bf
000000a0: d4ea 8e3e b465 1740 99ee 92bf 012f 06bf
000000b0: 2e2e 0540 a12d 51bf e21f 433e 6207 6ac0
000000c0: 15dd 4abf 6f23 58bf 41f6 54bf 5e3d 19bf
000000d0: d1ca cbbf e2ee 5c3e 7094 a33f 76db 023f
000000e0: 4c37 c43e 5943 313f cf48 ce3f 7a86 9fbf
000000f0: fa7f aa3f b321 aabf fe67 b83f 96d7 24bb
00000100: 2174 123f 4ada d2bf 1d07 a23f 10c9 07be
00000110: 52a4 0240 697d bc3e ac4a 15bf 58cf fbbe
00000120: 8304 b33f 0bd8 9c3f 488c 7dbf 8f98 783f
00000130: d10b 3040 0591 35c0 d30c a5bf db68 25bf
00000140: 4a7e 30bf 5442 1d40 5fee d53f 419a 84bf
00000150: d28c 853e 17ee da3f 554f 1640 5423 973f
00000160: a040 8b3f a071 0c3f 1522 8dbf 40fd fabf
00000170: 714a b03f 9e81 f1bf 6ee6 5f3f dbc3 0740
00000180: 9af3 3ebf 515f 163f 6022 7dbf 874b 14c0
00000190: a632 45c0 f2f3 d43e 1f87 c43f 3179 76bf
000001a0: 3135 c8be bbfb 3dbf 33a2 41bf d6e6 15c0
000001b0: 3ffd 0140 0464 12c0 4301 8dbf 800a b7bf
000001c0: 20f4 103c 49f9 7e3e 82a6 86bd 80d4 aa3d
000001d0: 251b e23e b15d e6bf 0d75 ecbe 154f 183f
000001e0: 675c 3640 fb5b 363c bce6 38c0 9956 8f3e
000001f0: f503 1a3e 3801 d63f e682 ddbf a05f f9bf
00000200: 3931 d9bf eb41 70bf a04e 92bf 3b82 413e
00000210: 2d5f 65be ab87 f4be 56aa e0be 256f c53f
00000220: 3c1e 69bf 6b84 69be 1232 54be b454 203d
00000230: e74f fb3f 5b5d 72c0 ceb4 1dc0 ad85 bcbe
00000240: 06b7 febd 9efd dd3c 7337 97bf 69bd 04c0
-1.9736335 -0.7437966 -0.08502337 -2.5666366 2.5093787 -0.95957965 -0.6788404 0.21454573
-1.2308851 1.0093669 0.59020406 -1.3211858 -0.550036 -0.37360007 -0.051065747 0.19540128
1.7173198 -0.16375858 1.3316 0.2658747 -0.54808116 0.77985877 1.7939928 0.9196302
2.4627912 0.71258116 1.4115497 -1.3489848 -1.0299567 -0.9898817 2.344896 -0.8112772
-0.28813943 -0.5535269 -0.5679709 -0.18986793 -3.215969 -0.9150469 -0.4322502 -1.75104
0.27913535 2.3655825 -1.1479064 -0.5241547 2.0809436 -0.8171025 0.19055131 -3.6567006
-0.79243594 -0.8442907 -0.83188254 -0.59859264 -1.592127 0.21575502 1.2779675 0.5111612
0.38323438 0.6924339 1.611597 -1.2462914 1.3320305 -1.3291534 1.4406736 -0.0025152913
0.5720845 -1.6472867 1.2658421 -0.13260293 2.0412793 0.3681443 -0.58317065 -0.49181628
1.3985752 1.2253431 -0.9904218 0.97107786 2.7507212 -2.8369763 -1.2894539 -0.6461312
-0.689427 2.4571733 1.671337 -1.0359575 0.26084 1.7103909 2.348592 1.1807656
1.0879097 0.5486088 -1.1026026 -1.9608536 1.3772718 -1.8867681 0.8746098 2.121329
-0.74590456 0.5873919 -0.9888058 -2.3171098 -3.0812163 0.41592366 1.5353736 -0.96278673
-0.39103082 -0.74212235 -0.7563812 -2.342214 2.031082 -2.2873545 -1.101601 -1.4300079
0.008847266 0.24899782 -0.065747276 0.083413124 0.44161335 -1.7997342 -0.46183053 0.5949567
2.8493898 0.011130328 -2.889083 0.27995756 0.15040572 1.6719122 -1.7305572 -1.9482307
-1.6968147 -0.9385058 -1.1430244 0.18897335 -0.22399588 -0.47759756 -0.43879956 1.5424544
-0.9106176 -0.2280442 -0.20722225 0.03914328 1.9633759 -3.786948 -2.4641604 -0.36820737
-0.12437253 0.027098473 -1.1813797 -2.0740607

fc2.weight f4 [148, 148]
00000000: 089c 6f3f e57d 1c40 221b 8c3f f7ab 853e
00000010: 5a9c ab3e 0409 803f 23cc 00bf c096 3b3f
00000020: 74ea fe3e 42e6 b03f c8e0 ad3f bb29 2a3f
00000030: b116 75c0 d53f 5fbe 3aeb 173f cadf 913f
00000040: 8a67 2b3f 2e49 08bf 4129 803f ef0b d13e
00000050: cada 99be 864f 603f e843 113d 7dc7 0540
00000060: 3cc4 6e3e 22d9 913f 09df d43f 4882 40be
00000070: a5d8 6c40 b252 e13f 30a4 223e c0e8 b83f
00000080: b6e9 873f 1c8a 77be 50ff be3f 886f 08c0
00000090: e9b0 16bf bca0 2140 1ee9 ccbf c6a9 44c0
000000a0: 43f7 853f 64eb d83d 38f6 eb3f f3ea 953f
000000b0: c71b c5bd f128 d6be eba9 843f 55c4 4e3f
000000c0: 2d94 883f 8f7b bd3f 8b48 c0be 60ca ca3f
000000d0: e93e 3340 be84 0840 7403 513f c470 883f
000000e0: ab5e 803f 5823 edbf 91ba db3d 2b38 61be
000000f0: a85f 98bf a82d 953f 3c65 773f f210 d63f
00000100: 8ac3 e63f b0be 1740 4053 a13f 3336 513f
00000110: 4f04 6a3f a987 8a3f 043f 5fbe d8b4 a13e
00000120: 2d30 703f 24a5 e73e 1229 6dc0 195a ac3f
00000130: d6da 653e 6743 613d b719 3cbf f57e b6be
00000140: 361e 213f 255d b83e 8fd8 b43f 829a 203f
00000150: dd54 0940 3c80 ea3e 44ce 1140 620a 9e3f
00000160: a373 c73e 9f69 0b40 a551 ff3f 265c d23f
00000170: e0cc ca3f 7a1d 61bf 1f61 4d3f 4ac1 c3bd
00000180: 87b9 f33d bc13 c940 96b0 1a3f 1c30 6cbb
00000190: 4c6f 083f 3ff4 1c40 8948 63bd cd26 553c
000001a0: 4f9f aabf 1ae0 95be 575b c63e 0930 49be
000001b0: 4403 d13f de6f 2bbf 9a7d 0940 2671 4bbf
000001c0: 315a 9d3f 2005 a43f 2f96 19c0 420e 823f
000001d0: 55b0 6e3f e2a6 00bd 377d 643f 4169 ee3f
000001e0: 2b7b 113e a835 75bf 485e f83f 8365 3cbe
000001f0: 7f2c 543f e369 c83f 2ced a7bf ec00 08c0
00000200: 911d c33f 9b09 0d40 2e6e 1640 8f38 ce3e
00000210: adba 043f 11ef 5e3f 8604 6d3f 4b0f e93f
00000220: ab19 e83f f32b bb3e 213a b23f f1e1 8f40
00000230: 161c 8d3d e387 8b3e 665d 593f 7192 1340
00000240: dcc9 563f 761a 8c3f 5ed7 04bd d57c 303e
00000250: eebd 83bd ef53 573d e82a 57bd 7f51 43bd
00000260: 458e ddbd 0a61 93bd f0b5 53bd d886 8cbd
00000270: 90fe aebd ca5b 3e3d 4289 1d3d 4402 70bd
00000280: 2f26 ff3b 1cc5 f1bd eea8 1a3c fbbc 98bd
00000290: 28cd b7bd d222 db3a dfd9 7a3d 271a ccbd
000002a0: d0b1 bf3c b9d2 92bd 3482 a13c fb92 0dbb
000002b0: 83f6 c23b 76e0 83bd f129 77ba 5667 49bd
000002c0: 64ff 493c f4e3 17bc c643 9cbc 417a 90bd
000002d0: 96ab 00be 2c13 58bd 76e1 723c 741b fe3c
000002e0: 71df 61bd d9db f03c 5b7d 69bd f499 16bd
000002f0: 835e f5bb 59a6 09be de8b 8cbd 5e03 6cbd
00000300: 1818 acbc 1fac 8ebd 751b 803c 779a b0bd
00000310: ae57 aabd 8b8e 31bd 3c5f 87bc 2fda 61bd
00000320: 9590 51bd bc51 9f3d 9eba 0cbe 7811 d53c
00000330: b225 2b3b df35 08bd f7d6 773b 9486 f5bd
00000340: f31c 17bd 302e 38bd 678a 57bd 5ff3 8cbd
00000350: 34c8 a03b 3d8e 8fbc 176d 8dba dbdf 8dbd
00000360: 3f50 de3c 6fe7 d03b 77d2 a8bd 3c3d 54bc
00000370: ebe4 8ebd f89b b9bc a68b 733c 3290 b9bd
00000380: bebf 65bd 2a7d 7dbd b97e 7eba a5a7 34bd
00000390: ee24 91bd 4ac0 2fbd 0e01 d0bc 2bd5 c3bd
000003a0: ae80 3bbd 6da0 063d f98d 0ebd 9dea aabd
000003b0: 8e74 873c c74f c7bd 362b d43b 3a80 55bd
000003c0: d726 cabc d60e c3bc d81a fbbd 4156 d4bc
000003d0: e3d5 8a3c c6b4 2fbd 035d d2bc df2f d03c
000003e0: 1e49 00bd 9dfc 98bd 1b13 26bd d70e 33bd
000003f0: 3aff 0b3c e796 cdbd 9226 423d 1aa0 8dbd
0.9359746 2.445184 1.094578 0.2610776 0.33517724 1.0002751 -0.5031149 0.732769
0.4978825 1.3820269 1.3584223 0.66469926 -3.82951 -0.21801694 0.593433 1.139642
0.66954863 -0.53236663 1.001259 0.40829417 -0.30049735 0.87621343 0.03546515 2.0903008
0.23317045 1.1394389 1.6630565 -0.18799698 3.700723 1.7603362 0.15882945 1.444603
1.0618198 -0.24173778 1.4921665 -2.1318073 -0.58863693 2.5254354 -1.6008642 -3.0728621
1.0466083 0.10591772 1.8434515 1.1712326 -0.09624439 -0.4182811 1.0364355 0.8076833
1.067022 1.4803332 -0.37555346 1.584301 2.8007147 2.133102 0.81645894 1.0659413
1.002889 -1.8526411 0.10728944 -0.21994083 -1.1904192 1.1654558 0.96638846 1.6723921
1.8028424 2.3710136 1.2603531 0.81723326 0.91412824 1.082265 -0.21801382 0.31583285
0.9382351 0.4524318 -3.7056317 1.3464996 0.2244676 0.05499592 -0.7347674 -0.35643736
0.62936723 0.36008564 1.4128588 0.6273576 2.1458046 0.4580096 2.2782145 1.2346919
0.3895541 2.1783216 1.9946791 1.6434371 1.5843773 -0.879356 0.8022632 -0.09558351
0.11900621 6.283659 0.604257 -0.0036039418 0.53294826 2.4524076 -0.055489097 0.013009739
-1.3329867 -0.29272538 0.38741562 -0.1964723 1.6329122 -0.6696757 2.148291 -0.79469526
1.2293149 1.2814064 -2.3997915 1.0160601 0.9323781 -0.03140915 0.8925356 1.8625871
0.14207141 -0.95785 1.9403772 -0.18398099 0.82880396 1.5657314 -1.3119254 -2.1250563
1.5243398 2.2037113 2.3504748 0.40277526 0.51847345 0.87083536 0.9258503 1.8207792
1.8132833 0.36556968 1.392399 4.4963307 0.068901226 0.2725211 0.8490814 2.305813
0.8390176 1.0945575 -0.032431953 0.1723512 -0.064327106 0.05257028 -0.052531153 -0.047685143
-0.108181514 -0.07196243 -0.05168718 -0.06861657 -0.08544648 0.046474256 0.038460977 -0.05859591
0.0077865343 -0.11805174 0.00943969 -0.0745792 -0.08974677 0.0016718751 0.061242934 -0.09965926
0.023400217 -0.071690984 0.019715406 -0.00216025 0.0059497966 -0.06439297 -0.0009428552 -0.049170814
0.012328956 -0.009270657 -0.019075286 -0.07054568 -0.12565455 -0.05275266 0.014824262 0.03101895
-0.05514473 0.029401707 -0.057004314 -0.036767915 -0.0074880733 -0.13442363 -0.06862615 -0.0576204
-0.021007583 -0.06966423 0.015638093 -0.08623212 -0.08317505 -0.04334883 -0.016524903 -0.055139717
-0.051163275 0.077792615 -0.13743064 0.026009306 0.0026114997 -0.0332545 0.0037817338 -0.11988559
-0.036892843 -0.044965923 -0.052622225 -0.06882357 0.0049066786 -0.01752388 -0.0010789958 -0.06927463
0.027137874 0.0063752453 -0.08243268 -0.012954053 -0.069772564 -0.02265738 0.014864838 -0.09060706
-0.056091063 -0.061886944 -0.0009708214 -0.04410519 -0.07087122 -0.04290799 -0.025391128 -0.09562143
-0.045777015 0.032867838 -0.034803364 -0.0834553 0.01653507 -0.09732013 0.0064748777 -0.05212424
-0.024676723 -0.023810785 -0.122609794 -0.025920035 0.016947692 -0.04289701 -0.025679117 0.025413452
-0.03131973 -0.07470057 -0.040545564 -0.043715324 0.0085447375 -0.10038548 0.047400065 -0.069153026

fc2.bias f4 [148]
00000000: 69bd 2140 2ddd 9abd 0a59 d8bd 2a53 2740
00000010: fba9 2b40 3f24 2940 b676 39c0 470e 3bc0
00000020: 7925 60bd ec05 2940 01a7 71c0 cbfe 2a40
00000030: 44a1 2240 400d b8bd 76ef 33c0 9341 2140
00000040: 2d65 2340 18a0 c5bd 5141 bcbd 60d4 2240
00000050: 8c7b 2140 a10c a53f 6c5e 96bd b98b 2840
00000060: fc96 0cbd 3704 2940 f8ed 2440 545a 2440
00000070: e12e 2a40 d00a 2dc0 b588 a53f cb0a 2b40
00000080: 6445 2240 7d49 2640 4845 2740 d984 14bc
00000090: 1df1 2240 df10 37c0 ef85 1fc0 c9b7 7d3c
000000a0: f2e4 2a40 e291 0abd 23b4 fbbd 2727 39c0
000000b0: 5bf1 61bd 256d 2440 f7ca 30c0 0ac4 62bd
000000c0: 8df5 2640 c272 2540 32cf 2240 6f56 2440
000000d0: fb30 74bd dded 2240 25bb 2440 ee9f 2640
000000e0: 8f1d 2640 bedb 2640 1615 79bd 6182 2440
000000f0: 5425 2240 7ad4 2a40 1f35 31c0 4bab 46bc
00000100: cb51 89bd b418 2cc0 1f00 2840 fbd6 2540
00000110: c285 ac3f f28f 2740 c84e ae3f 1429 2940
00000120: 0a0a 29bd 808b febd 95f8 2240 c03f e33f
00000130: 906c 2a40 e938 943c 4ae9 2740 099a 2340
00000140: 0d14 b73f 5da4 2140 69bd 2440 81e0 c1bc
00000150: 3227 d13f 2180 2140 c2fb 383c 4ee5 2b40
00000160: fac1 0dbe 75f6 e8bb fe08 3bc0 9e4c 9b3c
00000170: 5b2e dcbd acd5 86be fc0e 653f aca7 9cbd
00000180: a99a 48c0 28d3 1840 e4e2 2740 9dda bc3f
00000190: 6b7b 073b 4953 2a40 e7aa 2a40 d796 783f
000001a0: 1423 2640 9c02 2b40 bb9f 5bbd f23d 2240
000001b0: abfc 2240 2423 30c0 9cea 2a40 c7c6 113c
000001c0: 0fa4 2a40 ca89 2640 e715 2b40 e7f2 2340
000001d0: bd56 2840 ec9e 2a40 8d81 2140 3649 38c0
000001e0: 6d12 63bd 334d 2940 4303 a9bd 4ffc 2640
000001f0: 4369 a7bd 39f7 2940 1a7d 2ec0 8615 2540
00000200: db01 3040 b85b 2640 4d53 2740 72ef db3f
00000210: bd25 2740 2673 10be 55f1 03be 8765 033c
00000220: 5c5c d2bd a3ba 2340 7aba 2940 1138 2340
00000230: b3d9 2640 39b7 3dc0 78b5 2340 4454 2a40
00000240: f164 2240 671f fcbf 3192 df3e b23e 2840
2.5271857 -0.07561717 -0.10563858 2.614451 2.6822498 2.6428373 -2.8978705 -2.9227464
-0.054723237 2.6409864 -3.775818 2.6718013 2.5410929 -0.08986902 -2.8114905 2.5196273
2.5530503 -0.09649676 -0.091921456 2.5442123 2.5231657 1.2894479 -0.07342228 2.633528
-0.034323677 2.6408823 2.5770245 2.5680132 2.6591113 -2.703785 1.2932345 2.6725338
2.5354853 2.5982354 2.6136036 -0.0090648765 2.5459664 -2.8604047 -2.4925497 0.015485712
2.6702237 -0.03383053 -0.12290218 -2.8930147 -0.055161815 2.5691617 -2.762388 -0.05536274
2.6087372 2.5851293 2.5438962 2.5677755 -0.059617024 2.545768 2.5739224 2.6035113
2.595554 2.607162 -0.060811125 2.5704577 2.5335283 2.6692185 -2.7688673 -0.0121258
-0.06705054 -2.6890078 2.6250074 2.5912464 1.347832 2.6181607 1.3617792 2.6431322
-0.04126934 -0.12428951 2.5464222 1.775383 2.6628761 0.018093543 2.6236138 2.5562766
1.4302994 2.525657 2.5740607 -0.023666622 1.6340086 2.5234454 0.0112904925 2.6858706
-0.13843527 -0.007109458 -2.9224238 0.018957432 -0.10751029 -0.26334894 0.8947599 -0.07649168
-3.1344397 2.387888 2.6232233 1.4754215 0.0020672928 2.6613333 2.666681 0.97105163
2.595891 2.6720343 -0.053619128 2.5350308 2.5466716 -2.7521448 2.6705694 0.00889749
2.6662633 2.60216 2.6732118 2.5617006 2.630294 2.6659498 2.5235322 -2.8794684
-0.055437494 2.6453369 -0.08252575 2.6091497 -0.08174374 2.6557143 -2.7263856 2.5794387
2.7501132 2.599348 2.6144593 1.7182448 2.6116784 -0.14106426 -0.1288503 0.0080198115
-0.102715224 2.5582664 2.6520066 2.550297 2.6070373 -2.964308 2.557951 2.6613932
2.537411 -1.9697083 0.43666223 2.6288266

fc3.weight f4 [1, 148]
00000000: 10c0 78bf f13e a73c dbba a23b bd6e 85bf
00000010: b1ef 7dbf f61b 7fbf c74f 5040 4226 2640
00000020: b3e9 bb3c 3752 7dbf 1236 3841 ffdf 86bf
00000030: 0042 83bf 70f4 b0ba 212e 2840 b5b8 84bf
00000040: e21c 87bf deb1 fdbc e448 01bd 0382 7cbf
00000050: 1737 7fbf d337 b241 18a4 8c3b 9925 79bf
00000060: 5fcb 89bc fdd7 80bf 92d1 74bf 7ae4 7ebf
00000070: d1ce 85bf 09ba 3f40 9f86 f341 60a1 80bf
00000080: 3315 80bf 97bf 7fbf d44f 85bf 8407 4a3b
00000090: d623 7fbf 9aed 4140 26a1 f540 d918 b73b
000000a0: 8351 87bf 42d0 46bd 3dc4 71bc bdd0 3940
000000b0: 2d14 0d3d ac12 87bf 7aa9 fe3f 52c0 f13c
000000c0: 8c2a 85bf bdd7 86bf a506 85bf d7d3 79bf
000000d0: f754 9abc 133a 85bf a716 7fbf 6966 7ebf
000000e0: ca5e 82bf dc20 84bf 659f 39bc 3d55 82bf
000000f0: 0d27 80bf c866 7fbf d1b5 0740 9ed1 473d
00000100: 8822 c23c fa17 4440 e5c9 86bf 385b 81bf
00000110: e4a4 2a42 c201 83bf 13b8 9f41 b3ef 81bf
00000120: f04d c23c 3718 003d 3b19 84bf e927 1642
00000130: 4cc3 82bf 61f6 3d3d 9feb 83bf d08b 78bf
00000140: fdd6 3842 5db0 7abf 0111 84bf 6f60 14bb
00000150: 8976 1b42 d35d 82bf d8a4 62bc 9402 6bbf
00000160: a378 7aba 4e97 c93c 470e 7b40 d08e b93c
00000170: 9e37 ed3b fbe4 2b41 7ee3 eb41 9b0a 6f3d
00000180: 6f33 9440 92a1 f541 6c7b 85bf 6cc8 8641
00000190: f376 64bc 590a 80bf 62c3 88bf 922c 7141
000001a0: 6154 84bf 5060 84bf ab0d cfbc 7238 80bf
000001b0: 8813 84bf fd81 6140 c124 80bf 2f8d 3c3c
000001c0: c9fe 7cbf 6368 7ebf ae98 88bf 3663 84bf
000001d0: 85a3 78bf 690c 83bf 0e29 87bf aca4 4b40
000001e0: c337 70bc f869 83bf f37b f1bc 65e5 86bf
000001f0: 77d2 443d 4d91 86bf 4188 5d40 6a77 8bbf
00000200: f251 77bf 15f2 81bf 767d 7abf 0b8a bec1
00000210: cb6c 84bf 5d4d 13bc 5826 4fbc a8fd 3ebc
00000220: 15ed 123d 82c4 86bf 6d37 86bf e3f6 7ebf
00000230: 2a7c 84bf 48d9 2a40 8e60 78bf 5ac3 85bf
00000240: 2881 87bf da67 4941 e753 9a41 71a4 83bf
-0.97168064 0.020415755 0.0049661226 -1.042442 -0.99193865 -0.9965204 3.2548692 2.596085
0.022938585 -0.98953575 11.513201 -1.0537108 -1.0254517 -0.0013500582 2.6278155 -1.0368868
-1.0555689 -0.030968603 -0.031563655 -0.9863588 -0.99693435 22.277258 0.0042920224 -0.97322994
-0.016820608 -1.0065914 -0.9563228 -0.9956738 -1.045374 2.9957297 30.440733 -1.0049248
-1.000647 -0.9990172 -1.0414987 0.0030827234 -0.99664056 3.030127 7.6759214 0.005587679
-1.057175 -0.048538454 -0.0147562595 2.9033654 0.03444307 -1.0552573 1.989547 0.02951065
-1.0403609 -1.0534588 -1.0392653 -0.97588867 -0.018839343 -1.0408348 -0.9964394 -0.99375015
-1.0185177 -1.0322528 -0.0113295065 -1.0182263 -1.0011917 -0.99766207 2.1204722 0.04878389
0.023698106 3.0639634 -1.0530363 -1.0105963 42.661026 -1.0234911 19.96488 -1.0151275
0.023718804 0.031273093 -1.03202 37.538975 -1.021585 0.046377543 -1.0306281 -0.97088337
46.20995 -0.9792536 -1.0317689 -0.0022640487 38.865757 -1.0184883 -0.013833247 -0.9180081
-0.00095547194 0.02460828 3.9227464 0.022651106 0.007239296 10.743403 29.48608 0.058359724
4.6312785 30.703892 -1.042829 16.847862 -0.013944375 -1.0003158 -1.0684626 15.073381
-1.033825 -1.0341892 -0.025275072 -1.0017226 -1.031846 3.5235589 -1.0011216 0.01150827
-0.9882627 -0.9937803 -1.0671594 -1.0342777 -0.9712451 -1.0238162 -1.0559404 3.1819258
-0.014661732 -1.0266714 -0.029478049 -1.0538756 0.048052277 -1.0513092 3.4614413 -1.0895817
-0.96609414 -1.0152003 -0.9784769 -23.817404 -1.0345701 -0.008990613 -0.012643419 -0.011657156
0.03587063 -1.052872 -1.0485665 -0.9959547 -1.0350392 2.6695118 -0.9702233 -1.0450242
-1.058629 12.587854 19.290968 -1.0284559
