demo/critic_2_result_2_2_5.pth (torch, 108692 bytes, 5 tensors)

fc1.weight f4 [148, 28]
0.21780758 -0.79249835 -0.87375796 0.7456875 -0.8533268 -0.3933762 -0.03216198 -0.70601624
-0.30084726 0.027773542 0.21807769 -0.16491887 -1.2409917 0.87865454 -0.104425184 -0.23429245
-0.13777289 0.22562438 0.05819974 0.17172943 -0.034788955 0.06760822 1.1626383 -2.823621
-2.6314075 0.48693568 0.94143057 -0.819679 0.4155458 2.2171466 -0.40900347 0.8287935
-0.07760625 1.9587132 -0.35430887 -0.3064411 -0.15805925 0.052977145 0.46545792 -0.09362841
0.54137224 -3.1038785 1.8688926 -0.43279195 -0.2032752 0.45793307 -0.17949961 0.100232646
-0.09774481 -0.11552033 1.9189432 -1.2919881 -4.201031 -0.6087234 -4.2514067 1.2791575
0.9685042 1.141666 0.95213073 -0.3913612 -0.72997516 -0.2976654 0.019560074 0.1744181
0.053659674 0.061104443 -0.009201222 0.2663159 0.05884454 2.981095 2.247825 -0.16068198
-0.07162273 0.1536995 0.17121263 -0.008002575 -0.15258223 0.13486212 0.009761855 2.9979773
2.3045847 -1.9420027 1.3334233 1.2852031 -2.062728 -0.38919297 -0.79328793 2.4638822
-0.8343525 1.1516783 0.19914627 0.11274531 -0.23479956 1.0007228 0.28297815 -0.29029098
0.5718813 1.7887994 0.14664079 -0.09651305 0.07020144 0.21519563 -0.1738868 0.030535337
0.11027143 -0.07101756 4.9536524 -4.5627284 5.3243957 -2.257094 -0.5918559 -1.172752
-2.4826589 0.11133003 -0.79574144 1.8457472 0.85339564 1.2049893 0.2592047 0.10407728
0.01206263 0.022926884 -0.09295812 0.092521526 0.055304445 0.18753693 1.763277 -0.338633
0.12686755 0.26218235 -0.030108107 0.0718914 -0.12520623 -0.03939717 0.47491416 0.57158834
-0.023080168 -3.255591 0.95929664 -0.6794663 -2.445632 1.2881558 -0.5659104 1.8126081
0.5744473 0.28446853 -0.22431177 0.19799589 -0.7710863 -0.20237625 0.4662543 -0.124975294
1.42526 -4.399642 0.59758073 0.20091724 -0.17756791 -0.50671947 0.08316382 -0.031744707
-0.06876878 -0.034678947 -1.7650576 -1.8720026 1.0641224 -9.303512 -5.9602065 4.3432446
0.5524417 1.2611722 -0.41661012 -0.40220347 0.23439652 0.07438564 0.067054614 0.2555777
-0.601748 -0.47398448 0.031007985 -0.12294435 1.463891 -1.8433167 -7.6982465 0.7310124
0.05032522 -0.94686264 0.052758582 -0.055743963 0.12062731 0.018170964 0.46596974 -0.90597075
-6.189241 -0.98697144 -1.3618228 -0.011233565 0.02967507 1.1507726 0.2844159 -1.1138035
0.024127968 -0.457544 0.08979723 -0.06688153 -0.04333986 0.11373938 0.04363804 -0.016383164
0.19575937 9.839073 0.73163575 -0.0147574255 0.04184767 -0.2086132 0.0033736785 -0.110916935
-0.13002808 0.17914517 -3.3003094 1.0506977 0.14172941 -3.8875692 -0.10938746 -0.16709164
1.037125 1.6016656 -0.16734713 -3.2339935 0.5888686 -0.09597589 -0.51466304 4.160599e-05
0.40519452 -0.55133474 -0.81735355 -2.4741051 1.6638807 1.8405901 -4.231742 1.4258566
-0.04642694 -1.4212083 -0.013914486 -0.105445996 -0.10669795 0.10362223 2.9734445 -3.0766358
-2.705357 -0.09321515 1.8818623 1.2169253 1.7222008 -1.4073331 0.33585593 -1.8125792
00000000: f308 5f3e 2ce1 4abf 9aae 5fbf 60e5 3e3f
00000010: a073 5abf 9b68 c9be 48bc 03bd 7bbd 34bf
00000020: a708 9abe 5785 e33c c24f 5f3e 7ee0 28be
00000030: d1d8 9ebf 81ef 603f dfdc d5bd 5cea 6fbe
00000040: 5614 0dbe 140a 673e da62 6e3d d7d9 2f3e
00000050: dd7e 0ebd 2e76 8a3d 55d1 943f 35b6 34c0
00000060: fb68 28c0 a24f f93e 9801 713f 7cd6 51bf
00000070: 6bc2 d43e bbe5 0d40 e768 d1be d02b 543f
00000080: 07f0 9ebd 1db7 fa3f f967 b5be d9e5 9cbe
00000090: 49da 21be 90fe 583d 8050 ee3e 40c0 bfbd
000000a0: 5f97 0a3f f2a5 46c0 df37 ef3f e896 ddbe
000000b0: 6027 50be 3476 ea3e bfce 37be c646 cd3d
000000c0: 6e2e c8bd ec95 ecbd ee9f f53f de5f a5bf
000000d0: d96e 86c0 4cd5 1bbf 860b 88c0 6fbb a33f
000000e0: e4ef 773f 1d22 923f d7be 733f 7f60 c8be
000000f0: a7df 3abf 9967 98be 733c a03c a99a 323e
00000100: 3fca 5b3d a748 7a3d b9c0 16bc 8f5a 883e
00000110: f906 713d 43ca 3e40 5ddc 0f40 d189 24be
00000120: f0ae 92bd 6763 1d3e 5d52 2f3e 3b1d 03bc
00000130: 843e 1cbe 4c19 0a3e 30f0 1f3c dcde 3f40
00000140: 517e 1340 8b93 f8bf 9dad aa3f 8981 a43f
00000150: bc03 04c0 4d44 c7be eb14 4bbf 3fb0 1d40
00000160: 2098 55bf 326a 933f 00ed 4b3e 03e7 e63d
00000170: 4c6f 70be af17 803f 83e2 903e 05a1 94be
00000180: d066 123f 61f7 e43f 0129 163e a2a8 c5bd
00000190: c6c5 8f3d 3e5c 5c3e 620f 32be 3e25 fa3c
000001a0: fdd5 e13d a871 91bd 5284 9e40 df01 92c0
000001b0: 7361 aa40 3a74 10c0 de83 17bf bd1c 96bf
000001c0: e2e3 1ec0 0001 e43d b6b5 4bbf 7241 ec3f
000001d0: 2378 5a3f 173d 9a3f 7ab6 843e 7826 d53d
000001e0: 56a2 453c 29d1 bb3c d460 bebd ed7b bd3d
000001f0: ea86 623d ae09 403e 10b3 e13f 4e61 adbe
00000200: 91e9 013e c43c 863e 47a5 f6bc cc3b 933d
00000210: 1036 00be ed5e 21bd f327 f33e 9d53 123f
00000220: 9f12 bdbc 9a5b 50c0 7794 753f 81f1 2dbf
00000230: 3c85 1cc0 4ae2 a43f 81df 10bf 8b03 e83f
00000240: fa0e 133f dca5 913e fcb1 65be 6fbf 4a3e
00000250: e965 45bf b83b 4fbe e2b8 ee3e 0cf3 ffbd
00000260: eb6e b63f dec9 8cc0 0dfb 183f 40bd 4d3e
00000270: 5dd4 35be 5eb8 01bf cb51 aa3d bd06 02bd
00000280: a5d6 8cbd 830b 0ebd 68ed e1bf c89d efbf
00000290: 2a35 883f 2fdb 14c1 03ba bec0 dcfb 8a40
000002a0: d26c 0d3f 176e a13f ec4d d5be 9ded cdbe
000002b0: a405 703e 8057 983d ee53 893d 15db 823e
000002c0: 280c 1abf 18ae f2be 7504 fe3c 3fca fbbd
000002d0: c860 bb3f cdf1 ebbf 0958 f6c0 a123 3b3f
000002e0: d121 4e3d 9765 72bf 6219 583d c853 64bd
000002f0: 730b f73d 46db 943c 9693 ee3e b3ed 67bf
00000300: 430e c6c0 29aa 7cbf 3650 aebf fd0c 38bc
00000310: 2219 f33c 844c 933f f69e 913e 1d91 8ebf
00000320: 04a8 c53c 3543 eabe 9ce7 b73d 2ff9 88bd
00000330: 2385 31bd 31f0 e83d cdbd 323d fc35 86bc
00000340: 2575 483e d86c 1d41 7b4c 3b3f 21c9 71bc
00000350: 7668 2b3d b39e 55be ef18 5d3b 6b28 e3bd
00000360: 1526 05be d571 373e 4538 53c0 437d 863f
00000370: 8421 113e efcd 78c0 8806 e0bd 121a 2bbe
00000380: 83c0 843f 6103 cd3f 0c5d 2bbe c0f9 4ec0
00000390: 18c0 163f 028f c4bd f5c0 03bf 1782 2e38
000003a0: a875 cf3e 4624 0dbf 153e 51bf bd57 1ec0
000003b0: 0bfa d43f 7598 eb3f 6e6a 87c0 7882 b63f
000003c0: 2d2a 3ebd 27ea b5bf 96f9 63bc 12f4 d7bd
000003d0: 7484 dabd e437 d43d ea4c 3e40 9ae7 44c0
000003e0: 9224 2dc0 96e7 bebd dde0 f03f 35c4 9b3f
000003f0: 1371 dc3f 7e23 b4bf 4ff5 ab3e 9802 e8bf

fc1.bias f4 [148]
0.37728202 0.49629253 0.22978784 -0.09840296 0.515914 -0.21954672 -1.0117775 0.10067779
-1.3870572 -0.7451287 0.7939937 0.6451718 -0.39805523 0.3112986 0.46462315 -0.24016702
-0.10796464 -1.0026249 0.63149047 0.27602786 0.3150415 0.04984144 0.038935024 -0.9554592
0.64159 -0.35469654 -0.66160935 -1.0045445 0.93737096 -1.4004325 -0.14895944 -0.27003953
-0.5217311 -0.41548085 0.17275147 -0.11605413 -0.12816262 -0.26030764 -0.063807815 -0.10045452
0.3377049 0.63340867 0.23853837 -0.46994898 0.07301248 -0.5770923 0.12686603 -0.3060142
-0.10370287 0.5901045 0.1567735 0.33493543 0.45105222 -0.3498664 -0.40202406 0.068216465
-0.26224276 -0.22780597 0.1420495 0.43010095 -0.2808018 -0.911631 -0.19252324 0.7470429
-0.61587703 0.5744534 0.8696045 -0.4188605 0.68928623 0.36865157 -0.561518 -0.061086483
0.2776243 0.23812668 1.1118288 0.1359275 0.0021442273 0.12225898 0.48254097 0.09537945
0.013298376 1.3813853 0.6898956 0.267436 -0.4744931 0.2386679 0.48509544 0.6114584
-1.1084465 0.074925564 -0.20019184 -0.105471924 -0.14670011 0.8844639 0.19615197 -0.7881725
-0.19360028 0.34795278 0.02515049 -0.45654878 0.25521746 -0.05300024 0.70090157 -1.0799159
0.05255493 0.57208467 -0.0918258 -1.2547392 -0.757181 0.7258769 1.51252 0.12730531
0.24993183 0.5129598 -0.03227727 -0.20226987 -1.2643552 0.3170532 0.03342649 0.022116568
-0.27198717 0.34634522 -0.7535701 1.0091999 0.32996416 -0.09089782 0.02718481 0.16764352
-0.12244416 -0.76225275 0.05884258 0.03602781 1.8127037 0.22296008 -0.15061368 0.26277867
0.8720057 0.25048783 0.027910087 0.033764903 0.5753369 -0.3676909 0.2358199 0.22968687
0.50756603 0.28270656 0.20247836 -0.8085117
00000000: 1c2b c13e 0e1a fe3e 814d 6b3e 7e87 c9bd
00000010: f112 043f dbd0 60be ed81 81bf 2830 ce3d
00000020: 178b b1bf c1c0 3ebf 2c43 4b3f fb29 253f
00000030: e5cd cbbe 8862 9f3e 16e3 ed3e 58ee 75be
00000040: 911c ddbd 0356 80bf 5ca9 213f 8653 8d3e
00000050: 1f4d a13e 8a26 4c3d 557a 1f3d f998 74bf
00000060: 3e3f 243f c99a b5be 3b5f 29bf ea94 80bf
00000070: 8bf7 6f3f 5f41 b3bf d388 18be 9f42 8abe
00000080: 2b90 05bf e8b9 d4be c3e5 303e caad edbd
00000090: 103d 03be 0b47 85be acad 82bd 19bb cdbd
000000a0: a8e7 ac3e 1227 223f 6743 743e 279d f0be
000000b0: 9187 953d 52bc 13bf 2be9 013e e5ad 9cbe
000000c0: 2c62 d4bd 1711 173f 3b89 203e a87c ab3e
000000d0: 51f0 e63e b021 b3be 19d6 cdbe 13b5 8b3d
000000e0: af44 86be f845 69be 6d75 113e 3136 dc3e
000000f0: 41c5 8fbe a660 69bf d024 45be 343e 3f3f
00000100: 1eaa 1dbf 610f 133f 679e 5e3f e274 d6be
00000110: 1075 303f e6bf bc3e a5bf 0fbf d235 7abd
00000120: c624 8e3e 7bd7 733e 6850 8e3f 9430 0b3e
00000130: 2a86 0c3b eb62 fa3d 9c0f f73e 4d56 c33d
00000140: 6fe1 593c 3cd1 b03f ff9c 303f 5fed 883e
00000150: c2f0 f2be 5c65 743e 6e5e f83e 8a88 1c3f
00000160: 93e1 8dbf 9372 993d 17ff 4cbe aa01 d8bd
00000170: 8e38 16be 3a6c 623f 10dc 483e acc5 49bf
00000180: 273f 46be de26 b23e 6708 ce3c c3c0 e9be
00000190: ddab 823e c816 59bd 496e 333f af3a 8abf
000001a0: d743 573d 2474 123f 2a0f bcbd 4b9b a0bf
000001b0: 9dd6 41bf 12d3 393f 419a c13f 535c 023e
000001c0: 21ee 7f3e 5551 033f 2c35 04bd d51f 4fbe
000001d0: 64d6 a1bf cc54 a23e 37ea 083d ce2d b53c
000001e0: e741 8bbe 2954 b13e f8e9 40bf 762d 813f
000001f0: 10f1 a83e a328 babd aeb2 de3c beaa 2b3e
00000200: 01c4 fabd ff22 43bf eb04 713d e691 133d
00000210: ad06 e83f a64f 643e 793a 1abe ed8a 863e
00000220: c43b 5f3f f13f 803e b2a3 e43c 114d 0a3d
00000230: 4749 133f fb41 bcbe c67a 713e 0933 6b3e
00000240: d9ef 013f eabe 903e 7d56 4f3e 9ffa 4ebf

fc2.weight f4 [148, 148]
-0.8338853 -0.28595445 -8.174852 -1.4699582 1.4926761 1.5885441 -1.6403408 -3.646744
-2.2889802 -3.5946734 2.3584816 0.09642196 0.51906604 -0.25880292 -3.8994966 -2.2721622
-13.122839 1.8463207 -2.4629996 -7.2583194 -3.696443 -0.4483754 0.14672461 -0.5801291
-9.441723 -1.1957029 0.058068298 -1.7592947 -0.38335598 -0.93996006 5.6499114 0.37287244
-4.9784336 -6.981176 0.5558403 -4.041538 -2.1892366 -5.7881484 0.8036234 -2.2558827
-1.328715 2.2023861 -2.7207234 0.74338835 -6.6177416 1.4894177 -6.5969815 1.4967735
-3.413748 -5.063826 -3.436587 -1.3843036 0.9343325 -4.0949416 1.709077 -3.8816972
0.1299891 0.015589684 -2.919861 -1.2345872 -0.17739859 -2.5028882 -4.155406 1.9540491
-2.8468223 1.2639205 1.5850526 -4.051224 3.236714 1.6394365 -1.9872708 2.4493265
-0.29323167 1.3695726 -8.628789 -3.922799 1.052732 -2.298328 -2.0724688 1.8749114
-5.3514414 -8.005757 0.5968639 0.035576127 -2.784371 0.5084707 -2.1647835 -1.3803574
-1.294658 2.0078804 1.5130035 -3.767725 -3.500031 0.41088584 -2.0644891 -1.4116207
3.061584 -3.8792377 0.28773984 -1.5741585 -4.740266 -5.7033634 -11.846109 2.959181
1.6906738 -4.143238 -2.3284655 -6.3283353 -12.414679 1.826261 -4.6641073 -0.15862836
-5.962151 -0.16858836 1.8672928 -4.157387 3.8319674 1.5294408 -2.6631546 -4.758918
0.13018078 -4.192943 -2.779088 -4.4463725 -4.1621246 -4.633875 -10.310031 0.28505775
0.75424916 1.0810949 -0.19669224 3.3389864 -2.1415024 -5.6683908 0.46067622 0.92215306
-7.5582776 -2.367306 -6.290404 -0.884284 -0.9513512 1.8320926 1.9650846 -0.4382441
3.5092447 0.028374253 -9.804788 2.0168028 0.20760658 -1.3776991 2.895594 -1.3510991
3.0485055 -0.7904157 5.4497046 2.5742095 0.6089109 -0.8919193 2.9569807 1.0968282
-3.962543 -1.323431 3.583854 1.2859796 1.1730542 1.5014591 2.8339746 -0.4910281
-0.67437553 3.4929101 2.9170804 2.2948408 0.26016772 1.2238439 -0.7140233 2.5485077
-0.5645286 2.179535 -0.75670874 -0.42716476 5.753739 3.517758 -1.716757 0.2867161
4.97145 -0.5597316 1.1795639 -0.819381 0.2675411 -0.4304675 -0.5467481 -0.8862126
1.3470662 4.1043787 1.6417551 -1.9327608 1.9431964 0.2620274 0.1540486 4.116837
2.1588037 -0.08618573 2.3154528 0.23241752 -3.3613691 -1.5554132 0.20609051 0.4136318
2.4465418 2.315535 1.9598789 -1.6144097 1.5921149 1.9291836 2.11308 4.7159286
-0.9742492 -1.5919489 2.0901184 -0.20727172 -0.12990502 1.4363341 0.5863883 0.16530176
-0.24349637 -0.03500456 3.6753404 3.8040125 1.1443696 0.21668197 1.3463118 -0.30868083
-3.3260353 -1.5544696 1.9049984 1.9535134 -2.0261633 1.1103812 1.3605187 -1.6542006
1.6940256 3.0551405 0.4192557 2.5793679 -0.5944374 1.209792 -2.1211965 2.1952024
0.24143213 -0.07670946 0.09774018 -2.0160863 1.5352647 0.4518521 0.60001427 1.0122783
00000000: 8279 55bf 9f68 92be 32cc 02c1 9727 bcbf
00000010: 0310 bf3f 6a55 cb3f b0f6 d1bf 4164 69c0
00000020: a77e 12c0 210f 66c0 5df1 1640 e078 c53d
00000030: 83e1 043f d181 84be 5a91 79c0 1b6b 11c0
00000040: 26f7 51c1 3d54 ec3f c9a1 1dc0 2744 e8c0
00000050: 8692 6cc0 7691 e5be fa3e 163e 5783 14bf
00000060: 4c11 17c1 cb0c 99bf 06d9 6d3d 9230 e1bf
00000070: 3c47 c4be 39a1 70bf 13cc b440 23e9 be3e
00000080: 544f 9fc0 cb65 dfc0 8d4b 0e3f 4754 81c0
00000090: 741c 0cc0 8338 b9c0 43ba 4d3f 6260 10c0
000000a0: 5513 aabf e5f3 0c40 5520 2ec0 b34e 3e3f
000000b0: 8ac4 d3c0 3da5 be3f 791a d3c0 4696 bf3f
000000c0: d97a 5ac0 dd0a a2c0 0bf1 5bc0 dc30 b1bf
000000d0: 6a30 6f3f c309 83c0 09c3 da3f ba6d 78c0
000000e0: dd1b 053e e06b 7f3c 01df 3ac0 f406 9ebf
000000f0: faa7 35be 522f 20c0 16f9 84c0 481e fa3f
00000100: 5632 36c0 26c8 a13f 01e3 ca3f a1a3 81c0
00000110: 5226 4f40 0ed9 d13f e45e febf c4c1 1c40
00000120: 7622 96be 284e af3f 850f 0ac1 240f 7bc0
00000130: ecbf 863f ce17 13c0 54a3 04c0 19fd ef3f
00000140: 023f abc0 9517 00c1 13cc 183f 46b8 113d
00000150: 2233 32c0 232b 023f d08b 0ac0 8daf b0bf
00000160: 5ab7 a5bf 1d81 0040 19aa c13f 6822 71c0
00000170: 8200 60c0 a15f d23e 9720 04c0 fdaf b4bf
00000180: fef0 4340 6e45 78c0 a352 933e 077e c9bf
00000190: 42b0 97c0 f481 b6c0 aa89 3dc1 3963 3d40
000001a0: 0068 d83f 6895 84c0 9405 15c0 b981 cac0
000001b0: 86a2 46c1 ecc2 e93f 5e40 95c0 796f 22be
000001c0: f1c9 bec0 6da2 2cbe 7303 ef3f 5009 85c0
000001d0: f43e 7540 b7c4 c33f 2071 2ac0 0e49 98c0
000001e0: 1c4e 053e 972c 86c0 94dc 31c0 af48 8ec0
000001f0: 2030 85c0 b448 94c0 e3f5 24c1 17f3 913e
00000200: 7916 413f 5161 8a3f b169 49be f4b1 5540
00000210: 600e 09c0 7563 b5c0 c1dd eb3e 3912 6c3f
00000220: 69dd f1c0 f181 17c0 fd4a c9c0 7060 62bf
00000230: c18b 73bf 0382 ea3f e487 fb3f 8861 e0be
00000240: 7797 6040 1f71 e83c 69e0 1cc1 4c13 0140
00000250: d296 543e 7258 b0bf 6951 3940 d1f0 acbf
00000260: b71a 4340 af58 4abf fb63 ae40 d9bf 2440
00000270: 96e1 1b3f d354 64bf 2c3f 3d40 de64 8c3f
00000280: 4e9a 7dc0 3066 a9bf dd5d 6540 fb9a a43f
00000290: a426 963f d02f c03f d75f 3540 0968 fbbe
000002a0: e0a3 2cbf d78b 5f40 72b1 3a40 acde 1240
000002b0: b434 853e eba6 9c3f 3bca 36bf c01a 2340
000002c0: f284 10bf 807d 0b40 aab7 41bf 57b5 dabe
000002d0: a11e b840 f222 6140 b2be dbbf 74cc 923e
000002e0: 1e16 9f40 924a 0fbf f3fb 963f f4c2 51bf
000002f0: 26fb 883e 3c66 dcbe aff7 0bbf d4de 62bf
00000300: aa6c ac3f 1257 8340 0825 d23f b564 f7bf
00000310: a9ba f83f 7528 863e ebbe 1d3e 21bd 8340
00000320: d729 0a40 2582 b0bd 6130 1440 dcfe 6d3e
00000330: ac20 57c0 c817 c7bf 6409 533e 8cc7 d33e
00000340: 2494 1c40 ba31 1440 50dd fa3f faa4 cebf
00000350: 6cca cb3f 7def f63f b43c 0740 e3e8 9640
00000360: 6568 79bf fbc4 cbbf 80c4 0540 0a3f 54be
00000370: d205 05be ccd9 b73f 8b1d 163f dd44 293e
00000380: 1d57 79be f160 0fbd c738 6b40 f174 7340
00000390: b47a 923f e1e1 5d3e f253 ac3f 6a0b 9ebe
000003a0: c3dd 54c0 dcf8 c6bf fdd6 f33f ba0c fa3f
000003b0: a9ac 01c0 f920 8e3f 7a25 ae3f d8bc d3bf
000003c0: d5d5 d83f 6c87 4340 afa8 d63e 5d14 2540
000003d0: 0d2d 18bf 77da 9a3f afc1 07c0 327e 0c40
000003e0: fc39 773e d919 9dbd 012c c83d 8f07 01c0
000003f0: 8e83 c43f 2959 e73e 899a 193f 5692 813f

fc2.bias f4 [148]
-0.21413127 0.067508794 0.08534024 -0.10334449 0.18268353 0.10494041 0.17484441 -0.033319514
0.08946443 -0.048954338 -0.0711809 0.1692715 -0.10530689 0.22739168 0.17130302 -0.0876625
0.08274895 -0.09319875 0.13489325 0.21249795 0.7411864 -0.08569344 0.592685 0.035511162
-0.055439938 -0.5499944 0.19008264 0.049038887 0.14870314 -0.21525395 0.10969794 -0.044308253
0.09171037 0.19162945 0.1725031 0.016390515 0.12615424 -0.17074639 -0.08690847 -0.048812777
-0.06639679 0.10850057 1.1055386 -0.056193482 -0.072640724 0.04611588 0.024359053 0.20400396
0.13424446 -0.44352934 0.13715954 -0.059994888 0.040232897 0.1486839 -0.4261079 0.0067181657
-0.101402916 -0.067494266 -0.018934479 -0.08613432 -0.04088239 0.09110372 -0.004108343 0.39310557
0.06791414 0.19353686 -0.088231444 0.4216408 -0.095997445 -1.1167217 0.057219192 0.055842225
0.13475429 0.15889026 -0.049484223 -0.111793414 0.6257865 -0.067644596 0.06024104 -0.12792742
0.1634693 0.19824173 -0.029323159 0.073140316 0.15249121 0.2017527 -0.09627131 0.13952816
0.021923468 0.11555346 0.16715007 -0.0053546852 0.16405825 0.060647387 -0.07208071 -0.05628963
-0.0028151341 -0.059652276 0.17963411 0.09986487 0.11210422 0.011770597 1.4194288 0.13752298
0.19312625 0.18818158 0.117851324 0.08451459 0.2002059 -0.056878027 -0.08771428 0.22746588
0.15712711 0.20482732 -0.03397078 -0.0757363 0.14544564 0.04732685 -0.12867114 1.5382153
0.18594667 -0.023630893 0.100206204 -0.10439699 0.078097865 0.7696101 -0.06636625 0.1967882
0.15819794 -0.1137852 -0.028735809 -0.08316001 0.09005514 0.19843718 0.11941029 -0.5011216
1.1120788 0.15672846 -0.0021967208 0.054760393 0.124780536 0.07325776 0.048277374 0.14778772
-0.07346351 0.1629205 0.13725707 0.0059784674
00000000: 3a45 5bbe 0d42 8a3d ddc6 ae3d 47a6 d3bd
00000010: 6411 3b3e ffea d63d 6a0a 333e 0b7a 08bd
00000020: 2139 b73d 5884 48bd 4bc7 91bd 8255 2d3e
00000030: 24ab d7bd 5dd9 683e 0f6a 2f3e 6688 b3bd
00000040: 4878 a93d fcde bebd 7521 0a3e 1099 593e
00000050: 64be 3d3f 0b80 afbd 34ba 173f 2774 113d
00000060: fd14 63bd 6fcc 0cbf 06a5 423e 00dd 483d
00000070: a345 183e 886b 5cbe 50a9 e03d 927c 35bd
00000080: a5d2 bb3d 833a 443e a7a4 303e 6745 863c
00000090: 942e 013e 24d8 2ebe 11fd b1bd e8ef 47bd
000000a0: 0afb 87bd 8c35 de3d 4a82 8d3f 232b 66bd
000000b0: a9c4 94bd 01e4 3c3d a38c c73c 6ae6 503e
000000c0: 6177 093e 4716 e3be 8d73 0c3e 33bd 75bd
000000d0: 40cb 243d 9840 183e d12a dabe 0f24 dc3b
000000e0: 55ac cfbd 6f3a 8abd 7b1c 9bbc 3167 b0bd
000000f0: 4b74 27bd 9694 ba3d 479f 86bb 2245 c93e
00000100: 9216 8b3d 872e 463e b0b2 b4bd 4ee1 d73e
00000110: 4f9a c4bd bdf0 8ebf ac5e 6a3d d1ba 643d
00000120: 07fd 093e 21b4 223e f8af 4abd f2f3 e4bd
00000130: 8b33 203f 4089 8abd 4fbf 763d 68ff 02be
00000140: 7f64 273e e1ff 4a3e 1f37 f0bc 97ca 953d
00000150: a826 1c3e 4398 4e3e e429 c5bd 78e0 0e3e
00000160: d898 b33c 4ba7 ec3d 6329 2b3e 5b76 afbb
00000170: e3fe 273e 6569 783d 0d9f 93bd f48f 66bd
00000180: 1d7e 38bb f255 74bd 01f2 373e f485 cc3d
00000190: e696 e53d 76d9 403c d8af b53f d3d2 0c3e
000001a0: e3c2 453e acb2 403e 095c f13d fc15 ad3d
000001b0: c702 4d3e eff8 68bd 8ba3 b3bd d1ec 683e
000001c0: eee5 203e 41be 513e f224 0bbd a21b 9bbd
000001d0: b4ef 143e cdd9 413d 5ec2 03be 3de4 c43f
000001e0: ce68 3e3e 9395 c1bc e938 cd3d 17ce d5bd
000001f0: c6f1 9f3d 2b05 453f 07eb 87bd d982 493e
00000200: a4fe 213e 3708 e9bd 5c67 ebbc cc4f aabd
00000210: d46e b83d 1e33 4b3e 628d f43d 8149 00bf
00000220: 9958 8e3f 6d7d 203e dcf6 0fbb 6f4c 603d
00000230: f08c ff3d 2a08 963d 7fbe 453d aa55 173e
00000240: 0974 96bd a2d4 263e 1e8d 0c3e 05e7 c33b

fc3.weight f4 [1, 148]
9.136867 -0.99962234 -1.0114123 0.021961005 -1.0478939 -0.92577904 -0.9913334 -0.013400459
-0.95320004 0.01015919 -0.007889536 -1.0437893 -0.020489743 -1.1358505 -0.9278463 0.041154243
-1.0472246 -0.008105745 -1.1045564 -1.0413704 7.776813 -0.022606675 -10.421859 0.054019116
0.035687428 9.594322 -0.9519765 -0.006872042 -1.0534339 1.8912668 -1.0683184 0.011693311
-1.0302385 -0.88122916 -0.8838698 -0.015945224 -1.041218 6.027987 0.03107051 -0.013232116
-0.01104193 -0.97951907 4.821126 0.009160113 0.038323667 -0.9613732 0.0061420538 -1.1398321
-0.93232405 1.920977 -0.9815071 0.036346436 -0.92230636 -1.5506513 1.7246923 0.01967763
0.009558959 0.05810399 0.0036699597 0.037031285 0.004265952 -1.0356752 0.03625251 3.475703
-1.025356 -1.0627909 0.024537802 3.8707058 0.0281592 9.924132 -1.048822 -0.9633015
-0.9989702 -0.887817 0.03829185 0.014324984 6.9692397 0.050748143 -1.0734292 0.025251871
4.500219 -0.9661793 0.043745194 -1.0989984 -1.0164517 -0.9356677 0.044265907 -1.047622
4.2103333 -1.0049069 -0.976968 -0.020701274 -0.98898435 1.7754306 0.00044765975 0.028246185
0.005183938 0.026163766 -0.9228201 -1.0231341 -1.1460385 -0.0026528647 6.2903366 -0.8837789
-1.0116254 6.8017488 -1.1134746 -0.7311572 -1.0385953 0.01659069 -0.012982375 4.436358
-0.9732937 -1.0245245 0.033691626 -0.005741415 -0.9791282 -0.98964065 0.020092834 6.150575
-1.0443469 0.030607289 -1.085563 -0.013811377 -1.0709772 8.320922 -0.0022741717 -0.94493604
-0.9556059 0.004091587 -0.026392419 0.016395524 -0.9732662 -0.91732365 -0.95777166 -14.182672
4.3667502 -0.909139 -0.0012695332 -0.93883514 -1.0904524 -1.090977 -0.99763674 -1.0269206
0.06262999 -0.887974 -0.8095575 -0.0084254
00000000: 9b30 1241 40e7 7fbf f575 81bf 91e7 b33c
00000010: 6321 86bf dbff 6cbf 07c8 7dbf 998d 5bbc
00000020: eb04 74bf bb72 263c 1d43 01bc e39a 85bf
00000030: 1bda a7bc 8d63 91bf 5687 6dbf 5a91 283d
00000040: 750b 86bf f5cd 04bc 1b62 8dbf a04b 85bf
00000050: a7db f840 a231 b9bc efbf 26c1 2643 5d3d
00000060: fb2c 123d 5882 1941 bbb4 73bf de2e e1bb
00000070: ecd6 86bf 0815 f23f a8be 88bf 4d95 3f3c
00000080: dbde 83bf 3c98 61bf 4b45 62bf 8f9f 82bc
00000090: a246 85bf 45e5 c040 9587 fe3c 84cb 58bc
000000a0: 36e9 34bc c3c1 7abf aa46 9a40 4c14 163c
000000b0: 47f9 1c3d 8e1c 76bf 4843 c93b 05e6 91bf
000000c0: caac 6ebf 93e2 f53f 0d44 7bbf 00e0 143d
000000d0: 451c 6cbf be7b c6bf b8c2 dc3f fb32 a13c
000000e0: 2e9d 1c3c 73fe 6d3d b583 703b 1eae 173d
000000f0: 66c9 8b3b 0191 84bf 837d 143d eb71 5e40
00000100: de3e 83bf 8809 88bf 8003 c93c a5b9 7740
00000110: 1fae e63c 3fc9 1e41 cd3f 86bf ed9a 76bf
00000120: 83bc 7fbf fa47 63bf ead7 1c3d 56b3 6a3c
00000130: 0304 df40 49dd 4f3d 2166 89bf 03dd ce3c
00000140: cb01 9040 8757 77bf 292e 333d fbab 8cbf
00000150: 171b 82bf eb87 6fbf 2b50 353d 7a18 86bf
00000160: 0dbb 8640 caa0 80bf 931a 7abf b895 a9bc
00000170: 142e 7dbf 4f41 e33f e0b3 ea39 8b64 e73c
00000180: 06de a93b 6555 d63c f03d 6cbf 0ff6 82bf
00000190: 64b1 92bf afdb 2dbb 704a c940 563f 62bf
000001a0: f17c 81bf eda7 d940 5686 8ebf 1e2d 3bbf
000001b0: b1f0 84bf 33e9 873c 07b4 54bc a5f6 8d40
000001c0: c729 79bf 9e23 83bf 3b00 0a3d 7b22 bcbb
000001d0: 25a8 7abf 1759 7dbf ba99 a43c 83d1 c440
000001e0: 29ad 85bf 23bc fa3c baf3 8abf 1d49 62bc
000001f0: c815 89bf 7f22 0541 450a 15bb 54e7 71bf
00000200: 97a2 74bf b812 863b ea34 d8bc e84f 863c
00000210: f927 79bf b9d5 6abf 8630 75bf 39ec 62c1
00000220: 6bbc 8b40 55bd 68bf 7766 a6ba 8057 70bf
00000230: f293 8bbf 22a5 8bbf 1f65 7fbf 2272 83bf
00000240: 2744 803d 4452 63bf 293f 4fbf b00a 0abc
