demo/discr_result_2_2_5.pth (torch, 71414 bytes, 5 tensors)

lin1.weight f4 [128, 3]
-0.6577195 0.170346 0.050492324 -0.22544883 0.30695674 0.45957607 0.32498205 -0.13547556
-0.9126522 -0.7477831 0.48410714 0.030310258 -0.52109575 -0.12937348 0.13536897 -0.5908259
-0.53666234 0.21122065 -0.24375196 0.49162948 -0.06509423 -0.15666038 -0.4852875 -0.053782452
-0.7122547 0.21374053 0.3381077 -0.28931725 -0.36437896 -0.008305163 0.6363035 0.59158456
-0.7239165 -0.45436123 -0.63953066 0.07725029 -0.4473173 -0.03337658 -1.3806223 -0.928957
-0.32251137 -0.25696188 0.0860424 0.14232291 -0.48206276 0.21367371 -0.33402234 -0.414047
-0.004835786 0.42039192 -0.6879445 0.38843685 -0.5963216 0.10124672 -0.09501182 0.2761099
-1.5115228 0.1852561 0.35950705 -0.4184719 0.161839 -0.23646359 0.07381404 0.017033005
0.3580542 0.20894471 -0.4582702 0.26866713 -0.30329067 -0.45508522 0.29599175 -0.035820253
0.11080703 0.36013773 -0.37827113 0.23197052 0.20759109 0.091040455 0.01733032 -0.25137317
-1.2747715 0.5559417 -0.25118652 -0.26930413 -0.8388801 -0.2935279 0.5031059 0.40367585
-0.55837065 0.24117139 0.5943609 -0.7039297 -0.8965784 0.7705545 0.27126595 -0.4914859
-0.13101998 0.09934888 -0.5101121 -0.49967298 -0.36725983 -0.09515855 -0.06392531 1.2724023
-0.66189724 -0.041087653 0.3936249 0.11534086 0.40262812 -0.7465653 -0.25710443 0.35433313
0.3759111 -0.057999887 -0.37922132 0.5527585 -0.2109654 -0.297672 -0.018262502 -0.35819697
0.031137876 -1.0694484 -1.0294764 -0.682157 0.65602005 0.46395236 0.28405705 0.028786428
0.07030097 0.44688848 0.020091232 -0.23840275 -1.1664814 -0.39828125 0.3889706 0.077291384
0.6979163 -0.16359776 0.37084028 -0.27019307 -0.0052191024 -1.1976311 -0.26244876 0.7584619
0.2481717 -0.5003313 -0.284227 0.57301366 -1.1725576 -0.76280594 -0.08035369 -0.48158994
-0.11896008 0.28622112 -0.12369007 0.0026280363 -0.67394483 0.65515316 -0.5374272 -0.39010626
0.043851476 0.49185592 -0.37833223 -0.01779818 0.41421035 0.11504209 -0.1978082 0.11118782
-0.91077846 0.35773954 0.36101848 -0.0030238428 -1.0566424 -0.47651282 -0.3485613 0.76962644
0.30309957 -0.101277865 0.5556513 0.38810542 -0.62446326 -0.06877628 0.3311329 0.29584616
0.43862495 0.32946554 -0.44126028 0.16669813 0.10391702 -0.111748025 -0.043732584 0.49779102
-1.1264862 -0.22881944 -0.52438676 0.43390638 -0.116524376 -0.66687953 0.14892152 0.16204807
0.22296783 0.5413452 -0.09483613 -0.3547232 0.2868288 -0.19241202 -0.7270523 -0.37595704
-0.48032576 -0.17314953 -0.2995144 -0.33295664 0.05831538 -0.71709013 0.2514138 -0.080240995
0.05216084 0.4255753 0.10228293 -0.9470913 0.42140636 0.30236763 0.7005241 -0.6215205
-0.04413045 0.41092163 -0.022442423 -0.4741366 0.42102402 0.26035476 -0.5613145 0.15600266
0.6852687 -0.57905304 -1.0440601 -0.2215999 0.26957524 0.13636552 -0.19045419 -0.4711996
0.09493401 -0.5780107 0.26390162 0.11970216 -0.24757436 0.24247847 -0.6714465 0.32304943
0.4573249 0.07069115 0.56296945 -0.60153985 -0.8668178 -0.08787036 -0.18517591 -0.4901088
00000000: 4e60 28bf 2f6f 2e3e 0ad1 4e3d 0fdc 66be
00000010: 6f29 9d3e 8e4d eb3e 0c64 a63e 1bba 0abe
00000020: 93a3 69bf b76e 3fbf e4dc f73e 384d f83c
00000030: 8866 05bf 7b7a 04be 2a9e 0a3e 5e40 17bf
00000040: b462 09bf 3a4a 583e 1d9a 79be dcb6 fb3e
00000050: 2050 85bd 946b 20be 9a77 f8be fd4a 5cbd
00000060: 5356 36bf ccde 5a3e 741c ad3e 6421 94be
00000070: e18f babe 6112 08bc c9e4 223f 1672 173f
00000080: 9752 39bf 09a2 e8be 48b8 23bf 6635 9e3d
00000090: c606 e5be e1b5 08bd 3bb8 b0bf 20d0 6dbf
000000a0: 3620 a5be 8290 83be ff36 b03d 19bd 113e
000000b0: eed0 f6be 48cd 5a3e fa04 abbe f8fd d3be
000000c0: 8375 9ebb 9c3d d73e 211d 30bf 32e1 c63e
000000d0: 88a8 18bf 715a cf3d 8f95 c2bd 475e 8d3e
000000e0: 9479 c1bf c6b3 3d3e 4f11 b83e f341 d6be
000000f0: 1fb9 253e 8323 72be d12b 973d cd88 8b3c
00000100: e152 b73e 9af5 553e 64a2 eabe bd8e 893e
00000110: ea48 9bbe ee00 e9be 3b8c 973e 42b8 12bd
00000120: ccee e23d f963 b83e c1ac c1be ae89 6d3e
00000130: c292 543e 6b73 ba3d 51f8 8d3c fcb3 80be
00000140: b62b a3bf 3252 0e3f 859b 80be 3be2 89be
00000150: d9c0 56bf 4a49 96be 8ccb 003f 9aae ce3e
00000160: 61f1 0ebf a2f5 763e 0928 183f bd34 34bf
00000170: 2986 65bf 0f43 453f 5fe3 8a3e 0aa4 fbbe
00000180: 1a2a 06be 6d77 cb3d b596 02bf 23d5 ffbe
00000190: 7b09 bcbe 7ce2 c2bd 46eb 82bd 14de a23f
000001a0: 1972 29bf 874b 28bd 3489 c93e d437 ec3d
000001b0: 4625 ce3e e71e 3fbf 31a3 83be 276b b53e
000001c0: 6b77 c03e 4a91 6dbd 4c29 c2be 9581 0d3f
000001d0: 5007 58be 7768 98be 3e9b 95bc 9865 b7be
000001e0: dc14 ff3c afe3 88bf e2c5 83bf d7a1 2ebf
000001f0: eef0 273f 2a8b ed3e ed6f 913e 84d1 eb3c
00000200: f4f9 8f3d 91ce e43e 5e96 a43c da1f 74be
00000210: 434f 95bf 85eb cbbe 2827 c73e f24a 9e3d
00000220: a5aa 323f 2c86 27be c7de bd3e bf56 8abe
00000230: 0105 abbb fa4b 99bf af5f 86be 8f2a 423f
00000240: b920 7e3e b615 00bf 3486 91be 06b1 123f
00000250: 5e16 96bf 4047 43bf 7a90 a4bd f592 f6be
00000260: 58a1 f3bd 938b 923e 3851 fdbd 223b 2c3b
00000270: a687 2cbf 1eb8 273f d494 09bf 02bc c7be
00000280: 9b9d 333d 8ad4 fb3e c3b4 c1be 7dcd 91bc
00000290: 6113 d43e 309b eb3d 3c8e 4abe 71b6 e33d
000002a0: c728 69bf a329 b73e 6ad7 b83e aa2b 46bb
000002b0: 0f40 87bf 7df9 f3be a076 b2be 3d06 453f
000002c0: de2f 9b3e c56a cfbd 2a3f 0e3f c1b5 c63e
000002d0: d3dc 1fbf 94da 8cbd 408a a93e 2679 973e
000002e0: 7393 e03e b5af a83e deec e1be eab2 2a3e
000002f0: 72d2 d43d 26dc e4bd f020 33bd 77de fe3e
00000300: b330 90bf a54f 6abe 363e 06bf fa28 de3e
00000310: 55a4 eebd 9eb8 2abf e27e 183e eeef 253e
00000320: ae51 643e 9995 0a3f 7239 c2bd 479e b5be
00000330: 39db 923e a807 45be 1920 3abf 717d c0be
00000340: 42ed f5be 1c4e 31be f459 99be 4b79 aabe
00000350: 1cdc 6e3d 3893 37bf 4fb9 803e 6455 a4bd
00000360: 9ba6 553d 01e5 d93e b679 d13d 9374 72bf
00000370: 93c2 d73e eecf 9a3e 8c55 333f f81b 1fbf
00000380: 21c2 34bd 5264 d23e 2cd9 b7bc 08c2 f2be
00000390: 7690 d73e 384d 853e 4fb2 0fbf 29bf 1f3e
000003a0: c56d 2f3f d23c 14bf c3a3 85bf 16eb 62be
000003b0: c405 8a3e 67a3 0b3e 6c06 43be 1341 f1be
000003c0: c36c c23d 82f8 13bf 1d1e 873e 6826 f53d
000003d0: 2284 7dbe 474c 783e ebe3 2bbf bc66 a53e
000003e0: 7d26 ea3e 86c6 903d c41e 103f 84fe 19bf
000003f0: c5e7 5dbf 60f5 b3bd c19e 3dbe 8aef fabe

lin1.bias f4 [128]
0.23147994 -0.3081854 -0.2987399 0.047499232 0.038551588 -0.3163841 0.08722341 0.104644924
-0.028567305 0.29633778 -0.34385625 0.07710539 0.12305622 0.60777634 0.24868833 0.37045133
0.430565 -0.10069162 0.24061088 0.026539039 -0.37795314 -0.63183475 0.33847138 -0.09937017
0.33074442 -0.5904418 0.04129671 -0.29139075 -0.29242292 -0.64828604 -0.21487072 -0.09278328
0.25003758 0.12288703 -0.0012560589 0.06213315 -0.28926027 -0.10341379 0.53180015 0.18954888
0.51605636 -0.21263719 -0.4232144 0.13688678 0.034363907 -0.5023776 -0.36442068 -0.1934959
-0.021999368 0.31034392 0.09019836 0.13181223 0.29712617 -0.04210405 0.29530433 -0.23246717
0.108619615 0.047463596 0.05470025 -0.36512038 0.1770381 -0.53734887 0.124645114 -0.37230402
0.10013754 -0.17239775 -0.36490026 -0.2949189 -0.05262871 0.10369101 -0.2675239 0.2941345
-0.5517271 0.1688174 -0.33512282 0.24845253 -0.47657174 0.190565 0.23065963 0.3515468
-0.1561612 -0.5846324 0.002354262 -0.2675039 0.23712336 0.07152118 0.035744093 0.33546713
0.3663496 0.44603142 -0.051456705 -0.30935284 0.5771795 -0.45572796 0.13727424 -0.122466944
0.09631174 -0.30927312 0.35228676 0.12007131 0.12190625 -0.19435361 0.21590124 0.1863575
-0.31700045 -0.02312782 0.5568156 0.22512427 -0.021800445 -0.7023056 0.29861805 0.2744858
-0.5274377 -0.17495863 -0.30841205 -0.015267933 -0.6445626 -0.5007425 0.78344536 0.35885504
0.3133044 -0.4576574 0.26931387 -0.10689743 -0.02948501 -0.12992114 0.08449327 -0.2785672
00000000: 1409 6d3e 7aca 9dbe 70f4 98be 8e8e 423d
00000010: 45e8 1d3d 19fd a1be 30a2 b23d 1450 d63d
00000020: fb05 eabc 96b9 973e ed0d b0be 6ee9 9d3d
00000030: e604 fc3d 3b97 1b3f 27a8 7e3e ccab bd3e
00000040: 0473 dc3e 6837 cebd b362 763e 6668 d93c
00000050: 1383 c1be ecbf 21bf 1f4c ad3e 9682 cbbd
00000060: 5557 a93e 3227 17bf bd26 293d 2b31 95be
00000070: 75b8 95be 13f6 25bf 1207 5cbe 2905 bebd
00000080: ed04 803e 32ac fb3d 58a2 a4ba 547f 7e3d
00000090: ec19 94be 9cca d3bd 0e24 083f 1a19 423e
000000a0: 451c 043f 90bd 59be 8faf d8be 0c2c 0c3e
000000b0: 2bc1 0c3d d29b 00bf 5995 babe ca23 46be
000000c0: 0538 b4bc 66e5 9e3e ebb9 b83d c9f9 063e
000000d0: ec20 983e 4c75 2cbd 2132 973e e00b 6ebe
000000e0: f673 de3d 3069 423d 5f0d 603d 0ff1 babe
000000f0: 7a49 353e b28f 09bf f045 ff3d a29e bebe
00000100: e914 cd3d 0989 30be 35d4 babe 9cff 96be
00000110: 3491 57bd f45b d43d e5f8 88be cc98 963e
00000120: fd3d 0dbf 78de 2c3e 3895 abbe 576a 7e3e
00000130: 3601 f4be 7923 433e 0a32 6c3e f1fd b33e
00000140: b9e8 1fbe 78aa 15bf f649 1a3b 45f6 88be
00000150: 77d0 723e b279 923d 6668 123d 59c2 ab3e
00000160: 2d92 bb3e 3b5e e43e 44c4 52bd 7f63 9ebe
00000170: 09c2 133f 2d55 e9be 9e91 0c3e f3cf fabd
00000180: 173f c53d 0c59 9ebe ee5e b43e f2e7 f53d
00000190: fca9 f93d a204 47be 3715 5d3e 80d4 3e3e
000001a0: e24d a2be 8e76 bdbc 788b 0e3f fa86 663e
000001b0: d996 b2bc 4dca 33bf 77e4 983e 6789 8c3e
000001c0: 2806 07bf 5b28 33be 2fe8 9dbe 5a26 7abc
000001d0: 0e02 25bf a930 00bf e08f 483f d9bb b73e
000001e0: 6f69 a03e 1252 eabe 82e3 893e 0aed dabd
000001f0: 8c8a f1bc 0c0a 05be cf0a ad3d 5ca0 8ebe

lin2.weight f4 [128, 128]
-0.11325659 0.19745071 0.1525875 -0.033849675 -0.16698429 0.089177154 -0.12130265 -0.06720832
0.5999881 -0.105709895 -0.20526803 0.19272481 -0.5461171 0.13818233 -0.47419876 -0.009683254
-0.6816934 -0.083173335 -0.6087085 0.26334602 0.42327353 0.15332764 0.33414158 0.12550996
-0.16378324 0.45077527 -0.21692777 -0.03759739 0.525344 0.505871 -0.31086293 0.13610795
-0.41421553 0.04617175 -0.14005575 0.101401836 -0.07254996 0.35158938 -0.18266122 0.16094813
0.08014631 0.5062432 0.0529219 -0.52307916 -0.06286893 0.364539 0.17367184 -0.4441263
0.1860105 -0.18234287 -0.017027823 -0.35739815 -0.50993425 -0.29165894 -0.27177793 0.157639
-0.22232601 -0.04296329 0.2603539 0.22432838 -0.18967378 0.689332 0.03651943 -0.16842104
-0.5567039 -0.35514984 -0.62936187 0.08668025 -0.2357161 0.14879239 0.38378832 0.1419444
0.21044168 0.2610212 -0.27420282 -0.10900028 -0.051294718 -0.38344944 0.2514975 0.118549645
0.09275699 0.34087244 0.16281043 0.103932954 0.253927 0.23232275 0.18876797 0.068940185
-0.35660595 0.11973784 -0.8328222 -0.21585692 -0.7099192 0.10566659 -0.30177277 -0.19912627
-0.04617289 0.2488278 -0.18350312 0.035273056 -0.16971077 0.11625611 0.19660999 -0.053250354
0.53061056 0.36117563 0.063528396 0.09169111 -0.21920013 0.26802728 -0.083776034 -0.049500514
0.80236626 0.48543358 0.19270632 0.19856778 0.39865687 0.0013176202 0.011492148 -0.17633899
-0.19511588 0.07272944 -0.008230467 0.42256713 -0.27588063 -0.28787726 0.056888115 -0.21190971
-0.061543047 0.44183943 0.0106511265 0.23964009 -0.48748302 -0.11984696 0.12335147 0.08866338
-0.13900855 -0.13549249 0.02094484 -0.15964118 -0.07643373 -0.16896763 -0.41641876 0.017441398
-0.13495117 0.25191164 -0.7042188 0.06857154 -0.20747422 0.54916036 -0.6496843 -0.063849226
0.26401705 0.37713578 -0.13906321 -0.023152968 -0.42154172 -0.035823215 -0.20783934 0.14910786
-0.38727644 -0.074070804 0.24877761 0.577429 0.37172425 -0.043380015 -0.15279514 -0.13618214
-0.18637484 0.40505964 0.044231705 -0.095941946 -0.14336391 0.5371124 0.18563738 -0.3211761
-0.055714708 -0.1258126 -0.0247798 0.13470227 -0.17995033 -0.076661326 -0.18655947 0.058088455
0.0839406 0.19150972 0.41101345 0.60825527 -0.72911733 0.3577116 -0.09952952 0.20469101
0.00839698 0.14093038 0.03998161 0.0800724 0.046508715 -0.28509718 0.0021600563 -0.12795673
0.45597124 0.11284451 0.16330737 0.19460325 0.3952029 0.112552576 -0.39756584 -0.0047624903
-0.08371994 0.3331277 0.0042097443 0.17551799 -0.4017601 0.310948 -0.15558137 0.0066905324
-0.09182813 -0.2790894 -0.06515622 0.62797695 -0.5027517 -0.09144209 -0.008201047 -0.5015673
-0.42928264 0.18741158 0.08880384 -0.2726363 -0.10547128 0.054664336 -0.3459257 -0.110698104
-0.17347243 -0.08903903 -0.17324159 -0.07152744 -0.057324562 0.05324081 -0.018945636 -0.030920224
0.25518963 0.120940804 0.011685715 0.20776346 0.32826358 0.39346027 -0.19548923 -0.31157914
-0.05464636 0.17350331 0.33399084 -0.4690877 -0.24157374 0.17710657 -0.2523492 0.034523785
00000000: 12f3 e7bd 8530 4a3e e63f 1c3e f5a5 0abd
00000010: eefd 2abe 83a2 b63d 866d f8bd 84a4 89bd
00000020: d298 193f 6e7e d8bd c831 52be a759 453e
00000030: 55ce 0bbf ab7f 0d3e 2eca f2be 83a6 1ebc
00000040: 7583 2ebf c856 aabd 52d4 1bbf 4ad5 863e
00000050: 4fb7 d83e ec01 1d3e 9b14 ab3e af85 003e
00000060: cbb6 27be 04cc e63e 5022 5ebe b9ff 19bd
00000070: f27c 063f c380 013f 6d29 9fbe e25f 0b3e
00000080: 0f14 d4be 971e 3d3d c66a 0fbe c4ab cf3d
00000090: 1395 94bd 8603 b43e 8b0b 3bbe 96cf 243e
000000a0: c023 a43d 2899 013f a2c4 583d 84e8 05bf
000000b0: 6dc1 80bd dba4 ba3e 08d7 313e 8664 e3be
000000c0: 8979 3e3e 17b8 3abe ef7d 8bbc e4fc b6be
000000d0: 0d8b 02bf 5254 95be 7a26 8bbe 1e6c 213e
000000e0: 6ea9 63be 46fa 2fbd 1b4d 853e 57b6 653e
000000f0: d839 42be 1078 303f 6695 153d 9176 2cbe
00000100: 2684 0ebf 33d6 b5be dc1d 21bf 6a85 b13d
00000110: 905f 71be 085d 183e e77f c43e df59 113e
00000120: 067e 573e 92a4 853e 5064 8cbe 8a3b dfbd
00000130: 691a 52bd 7c53 c4be 48c4 803e 28ca f23d
00000140: 60f7 bd3d d586 ae3e c7b7 263e cdda d43d
00000150: b802 823e 04e6 6d3e 644c 413e 8330 8d3d
00000160: 0e95 b6be 1d39 f53d d633 55bf 9909 5dbe
00000170: 44bd 35bf ba67 d83d f681 9abe c2e7 4bbe
00000180: c91f 3dbd b7cc 7e3e 3ee8 3bbe 7b7a 103d
00000190: a9c8 2dbe af17 ee3d 2154 493e 0b1d 5abd
000001a0: 18d6 073f 03ec b83e 2d1b 823d 8cc8 bb3d
000001b0: 0076 60be df3a 893e c592 abbd 0dc1 4abd
000001c0: e067 4d3f c08a f83e ce54 453e 5a55 4b3e
000001d0: c11c cc3e ffb3 ac3a 9049 3c3c 3592 34be
000001e0: 75cc 47be 2cf3 943d 15d9 06bc b85a d83e
000001f0: 3a40 8dbe a664 93be 8303 693d dcfe 58be
00000200: 9014 7cbd c738 e23e 1082 2e3c 3664 753e
00000210: 6097 f9be 5372 f5bd b29f fc3d 2595 b53d
00000220: 4258 0ebe 8bbe 0abe 8394 ab3c fa78 23be
00000230: 4a89 9cbd da05 2dbe d734 d5be 43e1 8e3c
00000240: a430 0abe 90fa 803e af47 34bf 3c6f 8c3d
00000250: 1f74 54be c695 0c3f b651 26bf 62c3 82bd
00000260: 3e2d 873e f117 c13e 9666 0ebe 4bab bdbc
00000270: 51d4 d7be 5dbb 12bd d6d3 54be bbaf 183e
00000280: 1949 c6be 6fb2 97bd 8fbf 7e3e 63d2 133f
00000290: a452 be3e 3eaf 31bd 5476 1cbe 5573 0bbe
000002a0: 0cd9 3ebe fa63 cf3e 4e2c 353d 367d c4bd
000002b0: fdcd 12be 3380 093f ba17 3e3e 3271 a4be
000002c0: 1b35 64bd 05d5 00be 02ff cabc 64ef 093e
000002d0: e644 38be 9d00 9dbd 7209 3fbe 29ee 6d3d
000002e0: 0de9 ab3d 201b 443e 5b70 d23e 9eb6 1b3f
000002f0: 6fa7 3abf fa25 b73e 22d6 cbbd 859a 513e
00000300: 7d93 093c 0e50 103e c2c3 233d 00fd a33d
00000310: ec7f 3e3d 42f8 91be bb8f 0d3b 1707 03be
00000320: 1075 e93e 061b e73d 0c3a 273e 1346 473e
00000330: 0958 ca3e f781 e63d c08d cbbe aa0e 9cbb
00000340: 5c75 abbd b78f aa3e e5f1 893b fdba 333e
00000350: 80b3 cdbe 9434 9f3e b950 1fbe 413c db3b
00000360: 6310 bcbd cee4 8ebe a070 85bd 19c3 203f
00000370: 56b4 00bf fe45 bbbd af5d 06bc b766 00bf
00000380: efca dbbe d2e8 3f3e cade b53d fc96 8bbe
00000390: 5401 d8bd b6e7 5f3d 2c1d b1be b0b5 e2bd
000003a0: c2a2 31be 185a b6bd 3e66 31be fa7c 92bd
000003b0: 29cd 6abd 0913 5a3d e133 9bbc 694c fdbc
000003c0: 37a8 823e d0af f73d 7175 3f3c f2bf 543e
000003d0: 2a12 a83e a073 c93e 542e 48be 4d87 9fbe
000003e0: ddd4 5fbd daaa 313e d900 ab3e 432c f0be
000003f0: 1b5f 77be 6d5b 353e ea33 81be d068 0d3d

lin2.bias f4 [128]
-0.3857934 -0.1807717 0.03771415 0.015699098 -0.014467328 -0.068228036 -0.09314343 -0.2701993
-0.0049119405 -0.18297504 0.21457058 0.08640656 0.08827736 -0.0014019947 0.24621573 -0.048886597
0.12639049 0.038692515 -0.11277411 0.061513517 -0.5832904 -0.09994625 -0.43810523 0.048299365
0.004567917 0.13145831 -0.21343696 -0.14994149 -0.0018403402 -0.117219865 -0.3024309 0.04661814
0.14319466 -0.3243578 -0.19131394 -0.037818328 0.08029327 -0.10100794 -0.031102953 -0.07003972
-0.0979371 0.14669763 0.0027318308 0.10786876 -0.059131626 -0.17998637 -0.0061455737 0.09555801
-0.0515453 0.0719387 0.039697204 0.03378183 0.069626406 0.072464846 0.14615493 -0.22758378
0.026890995 -0.3851687 -0.013555161 -0.14089647 -0.18109207 -0.04231292 -0.026862402 -0.24852853
-0.17237718 -0.04199087 0.05758787 0.14245604 0.15015404 0.03855899 0.116788454 0.008349337
-0.0560643 0.100575 -0.037925117 0.07150089 -0.106709294 -0.0034097438 -0.1312177 0.055236876
-0.11595068 0.27768385 -0.1269359 0.0564357 -0.16773625 0.047259424 0.14096522 -0.098034635
-0.26552492 -0.079434186 -0.0097600175 -0.11046425 -0.07427269 0.15662368 -0.06454529 0.09909741
0.14189689 -0.039270252 -0.024275532 0.14173426 -0.04281888 -0.1168671 -0.115148686 0.049950454
0.1327107 0.03958988 0.06584505 0.057314713 0.014882411 -0.047051076 0.16149047 -0.10842387
-0.0916796 0.12457061 -0.14078334 0.101376005 -0.23837759 0.12233356 -0.08503478 0.09660295
-0.0783855 -0.38981214 -0.23064421 0.06877909 -0.07378408 -0.07223011 0.035853468 0.15829752
00000000: b686 c5be 371c 39be 277a 1a3d 659b 803c
00000010: 5f08 6dbc 24bb 8bbd fcc1 bebd 9057 8abe
00000020: 58f4 a0bb cf5d 3bbe 64b8 5b3e ecf5 b03d
00000030: c3ca b43d 23c3 b7ba fa1f 7c3e 503d 48bd
00000040: 826c 013e 0b7c 1e3d 1df6 e6bd 99f5 7b3d
00000050: 8552 15bf 9fb0 ccbd 544f e0be 8ed5 453d
00000060: 77ae 953b 029d 063e 388f 5abe 438a 19be
00000070: 9237 f1ba f810 f0bd 39d8 9abe aaf2 3e3d
00000080: 9fa1 123e 3a12 a6be cde7 43be 64e7 1abd
00000090: cc70 a43d 40dd cebd 9fcb febc fc70 8fbd
000000a0: 3f93 c8bd e737 163e 8408 333b 4cea dc3d
000000b0: 0134 72bd 594e 38be cf60 c9bb ebb3 c33d
000000c0: 2a21 53bd 9954 933d 8999 223d d15e 0a3d
000000d0: 4a98 8e3d 7368 943d a3a9 153e b90b 69be
000000e0: 814a dc3c d534 c5be 7716 5ebc 2a47 10be
000000f0: 3370 39be 5050 2dbd 8a0e dcbc 437e 7ebe
00000100: a583 30be 9efe 2bbd 42e1 6b3d ffdf 113e
00000110: fbc1 193e 08f0 1d3d c92e ef3d a8cb 083c
00000120: aea3 65bd 44fa cd3d 5e57 1bbd 0f6f 923d
00000130: 678a dabd 0276 5fbb ef5d 06be 1040 623d
00000140: 8d77 edbd 942c 8e3e 7cfb 01be 1f29 673d
00000150: 0dc3 2bbe 1993 413d 3059 103e 62c6 c8bd
00000160: e2f2 87be 64ae a2bd 7be8 1fbc 153b e2bd
00000170: 481c 98bd f561 203e 5230 84bd 95f3 ca3d
00000180: 6b4d 113e d8d9 20bd 7bdd c6bc c922 113e
00000190: da62 2fbd 0558 efbd 13d3 ebbd d998 4c3d
000001a0: 50e5 073e ff28 223d c5d9 863d d5c2 6a3d
000001b0: 5bd5 733c a1b8 40bd c25d 253e 550d debd
000001c0: 84c2 bbbd e01e ff3d 8229 10be 399e cf3d
000001d0: 4119 74be 048a fa3d b726 aebd c4d7 c53d
000001e0: 9488 a0bd 7595 c7be ff2d 6cbe 0ddc 8c3d
000001f0: 1c1c 97bd 61ed 93bd 16db 123d bf18 223e

lin3.weight f4 [1, 128]
-0.3765725 0.28049138 0.16514488 0.16543381 0.6574168 -0.44979414 0.8164743 0.1499177
-0.53367275 0.5538324 -0.6378614 -0.6183793 -0.7363262 0.4703692 -0.43017012 0.12926725
0.44690153 0.4854191 0.57840544 0.67047465 0.50834244 0.123267375 -0.32745782 0.2975789
0.20862569 0.2691028 0.43597424 0.43024334 -0.16141248 -0.2807948 0.18024996 -0.47338012
-0.516377 0.25286472 0.20211631 0.46597028 -0.21357228 0.24443239 0.6705433 -0.4896553
0.11726306 -0.22392632 0.14774005 -0.35390738 0.8116582 -0.116302885 -0.36026153 -0.42506498
-0.44188005 0.40775576 0.21897797 -0.65355647 -0.24495259 -0.20548297 0.5036206 0.34483522
-0.33574346 -0.11685194 0.36403167 0.422874 -0.6865798 -0.012740093 0.46303925 0.24410315
0.48848295 0.36441168 0.81117344 -0.6509819 -0.2746983 -0.1370128 -0.36188275 0.39483786
-0.7795681 -0.24918741 -0.17196262 0.59036136 -0.30395505 -0.6662321 0.29803452 0.35797137
-0.65218383 0.40941653 0.39016718 0.39949483 -0.37368032 0.7315205 -0.34269458 -0.71766484
-0.41250592 -0.8663798 -0.28004825 0.50349253 0.2755734 0.44263816 0.64189655 -0.28132108
-0.35006166 -0.8478613 -0.3965293 0.45098186 -0.086072646 -0.7226926 0.38059652 -0.31029573
-0.54207253 0.6605203 -0.1580995 -0.7384676 0.31020522 0.24383625 -0.43902734 -0.6603624
0.16735746 -0.609968 0.31388855 0.96889806 -0.48803782 0.40527937 0.12001689 -0.46599558
-0.9004228 -0.3816865 0.2824389 -0.22549817 0.63396394 0.24263519 -0.7490212 -0.24599983
00000000: 1cce c0be 919c 8f3e bd1b 293e 7b67 293e
00000010: 784c 283f 6b4b e6be 7604 513f 0784 193e
00000020: c79e 08bf f6c7 0d3f e24a 23bf 1b4e 1ebf
00000030: e07f 3cbf 3bd4 f03e 423f dcbe a25e 043e
00000040: 47d0 e43e da88 f83e 6112 143f 3aa4 2b3f
00000050: bb22 023f 9b73 fc3d 8da8 a7be 435c 983e
00000060: f9a1 553e d8c7 893e 0438 df3e db48 dc3e
00000070: 5049 25be 56c4 8fbe 7293 383e e15e f2be
00000080: 4831 04bf 7c77 813e 94f7 4e3e a893 ee3e
00000090: b1b2 5abe 7c4c 7a3e baa8 2b3f 19b4 fabe
000000a0: 9d27 f03d f14c 65be 2b49 173e 5933 b5be
000000b0: d5c8 4f3f 3530 eebd 3374 b8be 1ea2 d9be
000000c0: 1a3e e2be 5dc5 d03e c33b 603e 7a4f 27bf
000000d0: dad4 7abe 216a 52be 48ed 003f 3e8e b03e
000000e0: 91e6 abbe 1250 efbd 5c62 ba3e f182 d83e
000000f0: b2c3 2fbf d3bb 50bc 7b13 ed3e 2df6 793e
00000100: 701a fa3e 2b94 ba3e 10a9 4f3f c0a6 26bf
00000110: 41a5 8cbe 154d 0cbe b248 b9be 3028 ca3e
00000120: c691 47bf fc2a 7fbe f816 30be ec21 173f
00000130: ff9f 9bbe 308e 2abf fb97 983e 0648 b73e
00000140: 85f5 26bf 0b9f d13e fec3 c73e 968a cc3e
00000150: 0753 bfbe ed44 3b3f aa75 afbe e2b8 37bf
00000160: fa33 d3be 11cb 5dbf 7c62 8fbe e3e4 003f
00000170: f517 8d3e 78a1 e23e 5553 243f 5109 90be
00000180: 483b b3be 700d 59bf e305 cbbe 18e7 e63e
00000190: db46 b0bd 6202 39bf 8cdd c23e 15df 9ebe
000001a0: 44c5 0abf dc17 293f d6e4 21be 360c 3dbf
000001b0: 38d3 9e3e 36b0 793e 31c8 e0be 830d 29bf
000001c0: c15f 2b3e dd26 1cbf 00b6 a03e b409 783f
000001d0: 18e0 f9be c780 cf3e 6acb f53d f996 eebe
000001e0: 1c82 66bf 6a6c c3be d59b 903e fee8 66be
000001f0: 764b 223f 5c75 783e dabf 3fbf 61e7 7bbe
