demo/4_2_1tran2_3_act2/actor_9.pth (torch, 83208 bytes, 6 tensors)

fc1.weight f4 [128, 22]
0	0xbdd05672	-0.10172738
1	0xc0804c9f	-4.009353
2	0x3f99fb7b	1.2029871
3	0xc021c8f8	-2.5278912
4	0x3f654243	0.8955423
5	0x3f2cb85d	0.67468816
6	0xbe9087d9	-0.28228644
7	0x3d5d4de2	0.054029353
8	0xbd80489a	-0.06263848
9	0xbc452bdc	-0.012034383
10	0xbce76a02	-0.02824879
11	0x3d7f3805	0.062309284
12	0x3d8a8243	0.06763127
13	0xbebc3b0f	-0.36763808
14	0xbf9b3e89	-1.2128459
15	0x3d347ac4	0.04406239
16	0x3fc2f77e	1.5231779
17	0xbdeeccbd	-0.116601445
18	0x3f9985c7	1.1993951
19	0x3f8846f7	1.0646657
20	0xbf6e75f6	-0.93148744
21	0xbf7522a3	-0.95755976
22	0xbfaecac4	-1.3655629
23	0x3f43da44	0.7650492
24	0xbe8b8cca	-0.2725585
25	0x3eb96155	0.3620707
26	0xbf1edd84	-0.62056756
27	0x3e1fc161	0.15601112
28	0xbccb04a1	-0.02478248
29	0x3dee4ba9	0.11635525
30	0xbc0ca7e4	-0.00858495
31	0xbd148eab	-0.03626887
32	0xbd68019e	-0.056642167
33	0x3de104b8	0.10987228
34	0xbf5707a3	-0.8399603
35	0xbe7c7f3c	-0.24657911
36	0x3e09f16c	0.13471001
37	0xbf4245a1	-0.75887495
38	0x3f5a45cf	0.8526277
39	0x3e051ba9	0.12998833
40	0xbf310083	-0.69141406
41	0xbf2f3733	-0.684436
42	0x3f22cfcc	0.6359832
43	0x3f694820	0.9112568
44	0x3ff14ffb	1.8852533
45	0xbe45f7ec	-0.19332856
46	0xbea69a60	-0.32539654
47	0x3eb34788	0.35015512
48	0xbe33a3f6	-0.17543015
49	0xbf89cb23	-1.0765117
50	0xbca11ec7	-0.019667996
51	0x3e84872a	0.25884372
52	0x3d9c1eec	0.076230854
53	0xbd851ff7	-0.065002374
54	0xbdf8aa2d	-0.121418335
55	0x3d287d34	0.041135028
56	0xbff32190	-1.8994617
57	0xbf8c941f	-1.0982703
58	0x3fb4f781	1.4138032
59	0xbfa80afb	-1.3128351
60	0xc0001d34	-2.0017824
61	0xbea55bf0	-0.32296705
62	0xbd5b7e1d	-0.053587068
63	0xbda0e685	-0.07856468
64	0x3e92f7cc	0.2870468
65	0x3e261ed0	0.16222692
66	0xbfd29020	-1.6450233
67	0x3f88723d	1.0659863
68	0xbda5d223	-0.08096721
69	0x3d43ce0e	0.04780393
70	0x3fdcee5d	1.7260243
71	0x3e7bd167	0.245916
72	0x3d87e370	0.06635177
73	0xbc39c6bb	-0.011338885
74	0xbba2e856	-0.0049715443
75	0xbc84932a	-0.016183455
76	0xbd841335	-0.06448976
77	0xbc44508f	-0.011982097
78	0xbe871bad	-0.26388302
79	0xbf077f4e	-0.52928627
80	0xbe932409	-0.2873843
81	0x3fd16488	1.6358805
82	0xbf09e4fd	-0.53865033
83	0x3e79a162	0.24377969
84	0x3db8933a	0.09012456
85	0xbdf336a4	-0.11875656
86	0x3e840a09	0.25788906
87	0x3d003f03	0.031310093
88	0xbf9377ef	-1.1520976
89	0xbef0c851	-0.4702783
90	0xbf39d9ec	-0.7259815
91	0xbeb474b3	-0.35245284
92	0xbf941bc0	-1.1570969
93	0xbdf4dcf5	-0.11956207
94	0xbde8c28f	-0.11365234
95	0xbde7cdc6	-0.11318545
96	0x3d2d313b	0.042283278
97	0x3b8e3a62	0.004340456
98	0xbbac018a	-0.005249207
99	0x3dce5777	0.10075276
100	0x3f1d2652	0.613866
101	0x3efc5811	0.4928594
102	0xbe0f586d	-0.13998576
103	0xbe78904c	-0.24273795
104	0x3fdb52a8	1.71346
105	0x3fad76ef	1.3551921
106	0xbea5098e	-0.32233852
107	0xbf0ab3c1	-0.5418053
108	0x3ea8978d	0.32928124
109	0x3ecf7da1	0.40525535
110	0x3e9c880e	0.3057255
111	0xbe243c9c	-0.16038746
112	0xbf259036	-0.64673173
113	0xbf492b4e	-0.785817
114	0xbdb599ba	-0.08867212
115	0xbd06f390	-0.032947123
116	0xbdcd63a7	-0.10028773
117	0x3da937fb	0.082626306
118	0xbd1dbdd8	-0.038511127
119	0xbdac5e83	-0.08416464
120	0xbcfa1461	-0.030527296
121	0x3d859bec	0.0652388
122	0x3e8ea001	0.27856448
123	0xbefd2725	-0.49443927
124	0xbefefb7c	-0.49801242
125	0xbf4c859d	-0.7989138
126	0x3d1d5395	0.03840979
127	0xbeabc794	-0.33550704
128	0xbf18c48d	-0.5967491
129	0xbf2b8c14	-0.6701062
130	0x3f5ad0c4	0.854748
131	0x3f410aa4	0.7540686
132	0x3fed3428	1.8531542
133	0x3f9013fd	1.12561
134	0x3e400644	0.1875239
135	0xbf9611d8	-1.1724195
136	0x3ef434df	0.47696587
137	0xbea2c283	-0.31789026
138	0xbcffc5c8	-0.03122224
139	0xbd24d719	-0.040244196
140	0x3e1ab31e	0.1510739
141	0x3cf47a97	0.029843612
142	0xbc6aeb99	-0.014338397
143	0xbd557a02	-0.05211831
144	0xc021a312	-2.525578
145	0xbffa82c2	-1.9571154
146	0x3f323c9a	0.6962372
147	0xbfb4803a	-1.4101632
148	0xc00d214b	-2.205157
149	0xbf3c7d3d	-0.736286
150	0xbed1bceb	-0.40964445
151	0xbedab32f	-0.4271483
152	0x3ee110fa	0.43958265
153	0x3ede817f	0.43458173
154	0xbf1daf9e	-0.61596096
155	0xbe491ab6	-0.19639096
156	0x3f1e887c	0.6192701
157	0x3fe32ad5	1.7747446
158	0x3ed651e4	0.41859353
159	0x3eeb6903	0.45978555
160	0xbd9a3233	-0.07529106
161	0x3d094fb7	0.033523288
162	0xbc1ab11f	-0.009441643
163	0xbd3a6042	-0.045501955
164	0xbc84fec9	-0.016234772
165	0xbc3aa33c	-0.011391457
166	0x400bf664	2.1869135
167	0xbfe1bf38	-1.763648
168	0x3d574d8e	0.052564196
169	0x3fb1293c	1.3840709
170	0x40237f48	2.5546436
171	0x3fb1cd53	1.3890785
172	0x3e41ae8a	0.18914238
173	0xbe16d357	-0.14729057
174	0xbe258272	-0.16163042
175	0xbd8043eb	-0.06262954
176	0xbfbb97e7	-1.4655732
177	0xc01b062c	-2.4222517
178	0x3e83f9ee	0.2577662
179	0xbfd27354	-1.6441445
180	0xbe4d0c27	-0.20024167
181	0xbe9620f5	-0.2932202
182	0xbe984cf4	-0.2974621
183	0x3d7437c1	0.059623484
184	0xbdfb2262	-0.122624174
185	0x3e3b8ba9	0.18314995
186	0x3e44c5de	0.19216105
187	0x3c6172b9	0.013760262
188	0xbf540f61	-0.82835966
189	0x4025771f	2.5853956
190	0xbdad5720	-0.084638834
191	0xbe30ee2e	-0.17278358
192	0xbfa59b93	-1.2938102
193	0x3f61ad01	0.8815461
194	0x3f0ce13d	0.55031186
195	0x3e953548	0.29142213
196	0xbf133bef	-0.57513326
197	0xbef408a6	-0.47662848
198	0xbecf7065	-0.40515438
199	0x3ed62b90	0.4183011
200	0xbed0136d	-0.4063982
201	0x3f813889	1.0095378
202	0xbe235442	-0.1595011
203	0xbfb16a1c	-1.3860507
204	0xbe576cbf	-0.21037577
205	0xbdae1bd6	-0.08501403
206	0x3dd96148	0.10614258
207	0x3cd2e723	0.02574498
208	0xbb36843c	-0.0027849814
209	0xbd88491c	-0.066545695
210	0xc007f0e8	-2.1240788
211	0xbf039953	-0.5140583
212	0x3e96be43	0.29442033
213	0xbf12a65f	-0.5728511
214	0x3ce1ceec	0.027564488
215	0xbeaf59c5	-0.34248176
216	0x3c13ba85	0.009016638
217	0xbdde266d	-0.10847173
218	0x3e3bf39d	0.1835465
219	0xbd51a6ad	-0.051184345
220	0x3eb36eb9	0.35045412
221	0xbcc4db77	-0.02403043
222	0xbf64581b	-0.8919694
223	0x3f92f5ef	1.1481303
224	0xbd591034	-0.052993968
225	0xbf8c8d4b	-1.0980619
226	0x3d6c24d3	0.057652306
227	0x3dbd653f	0.09247827
228	0x3d1b4c5a	0.03791461
229	0xbc161ec2	-0.009162607
230	0xbd4ad08b	-0.04951529
231	0xbce5d24c	-0.028054379
232	0x3f6eee8e	0.93332756
233	0x3f32bc6e	0.6981877
234	0xbe89ec5c	-0.2693814
235	0xbf2a0a0e	-0.6642159
236	0x3ef71fcb	0.48266444
237	0x3f99936b	1.1998113
238	0xbe981ba8	-0.297086
239	0xbda967ed	-0.082717754
240	0x3c4046f0	0.011735663
241	0x3e2e1e76	0.17003807
242	0x3cf2e03f	0.029647944
243	0x3f9f01d9	1.2422439
244	0x3ed0777d	0.40716162
245	0x3fc85b4e	1.5652864
246	0x3f2d7ca5	0.6776832
247	0xbf8fad22	-1.1224711
248	0xbe505053	-0.20343141
249	0xbc8f2f20	-0.017478526
250	0x3d6411e1	0.055681113
251	0xbe7c1cb9	-0.24620332
252	0x3e8827fa	0.26593
253	0x3e7bec43	0.24601845
254	0x407fe977	3.9986246
255	0x3fad1ab3	1.3523773

fc1.bias f4 [128]
0	0xbf8da06a	-1.106458
1	0x3f4698ee	0.775771
2	0x3eaa0561	0.3320723
3	0x3f1335b5	0.57503825
4	0x3f038df6	0.5138849
5	0x3f3171f5	0.6931451
6	0x3f237489	0.63849694
7	0x3ed30709	0.41216305
8	0xbbd41122	-0.006471769
9	0x3eb36922	0.35041147
10	0x3e819094	0.25305617
11	0xbe82f4d0	-0.25577402
12	0x3e214841	0.15750219
13	0x3e7eb497	0.24873577
14	0x3f0de7fc	0.55432105
15	0xbd31c6b0	-0.043402374
16	0x3e896854	0.2683741
17	0x3f715b8d	0.9428032
18	0x3f3a8471	0.7285834
19	0x3e7f8ea1	0.24956752
20	0x3da68812	0.08131422
21	0x3eaa4f44	0.332636
22	0xbeb74ce0	-0.35800838
23	0x3e399eb7	0.18126951
24	0x3eeac01f	0.45849702
25	0x3f6abb4d	0.9169205
26	0x3f1eb9e2	0.62002385
27	0xbe42d797	-0.19027553
28	0x3ede6c9c	0.43442237
29	0xbee49907	-0.44648
30	0xbe250e71	-0.1611879
31	0x3f2ce076	0.6753
32	0xbd8bef7a	-0.06832786
33	0x3c170e86	0.009219771
34	0x3ef8b41c	0.48574913
35	0xbd5c901a	-0.053848363
36	0xbdc2f51c	-0.09519407
37	0x3f2e014b	0.6797072
38	0x3e7cb4e5	0.24678381
39	0x3f51e85f	0.81995195
40	0x3dd883b9	0.10571999
41	0x3e694e1b	0.22783701
42	0x3eee70bd	0.46570387
43	0x3e639ad0	0.22227025
44	0x3e8cade5	0.2747642
45	0x3eb1be19	0.34715346
46	0x3f80800a	1.0039074
47	0x3e52b6da	0.20577565
48	0xbf89702c	-1.0737357
49	0xbe7b829c	-0.24561542
50	0x3e9c3410	0.3050847
51	0x3f418b29	0.75602967
52	0xbf6044fe	-0.87605274
53	0x3f117cf8	0.5683131
54	0x3f39b46c	0.72540927
55	0x3e591d44	0.2120257
56	0x3edccf4b	0.43126902
57	0x3f735d9b	0.95064706
58	0x3c11949a	0.008885527
59	0x3e37859e	0.17922065
60	0x3eac0521	0.33597663
61	0x3e997345	0.29970756
62	0x3f220cb8	0.6330066
63	0xbcb252cf	-0.021768002
64	0xbdb3bb87	-0.087760024
65	0xbe3617fb	-0.17782585
66	0x3ea7b60d	0.3275608
67	0x3edcc71e	0.43120664
68	0xbdbf7823	-0.09349086
69	0x3f8703a6	1.0547988
70	0x3ee66a46	0.45002955
71	0x3f3d66d1	0.7398501
72	0x3f1f0547	0.6211743
73	0x3e8015a0	0.250165
74	0xbe3a6f9b	-0.18206637
75	0x3e78d9e7	0.24301873
76	0x3f0b15b8	0.54330015
77	0x3e8acb73	0.27108344
78	0x3e83d85f	0.25751016
79	0x3e382eb0	0.1798656
80	0xbecd0f6b	-0.40050825
81	0xbf4b0b31	-0.7931395
82	0x3e891ae3	0.26778325
83	0x3f08acd5	0.5338872
84	0x3ec82a9e	0.39095014
85	0x3f127cf9	0.57221943
86	0x3ef5eb0f	0.48030898
87	0x3e382506	0.17982873
88	0x3f468d42	0.7755929
89	0x3ecdf015	0.4022223
90	0x3f073461	0.528143
91	0x3e158d6f	0.14604734
92	0x3e03283f	0.12808321
93	0x3f6b04a5	0.9180396
94	0xbe041a5e	-0.12900683
95	0x3d2e3aec	0.04253666
96	0xbda1cfed	-0.07900987
97	0x3f3ffd14	0.7499554
98	0x3d5609e5	0.05225553
99	0x3dc110d4	0.09427038
100	0x3f582bfc	0.84442115
101	0xbedc04fb	-0.4297255
102	0x3eda5051	0.42639402
103	0x3e982b16	0.29720372
104	0xbeeed9b6	-0.46650475
105	0x3c2e7ff9	0.010650628
106	0x3e841777	0.25799152
107	0x3d5cceab	0.05390803
108	0x3e674f0c	0.22588748
109	0x3f381c02	0.71917737
110	0x3fd072c4	1.6285024
111	0xbf06050d	-0.52351457
112	0xbf022854	-0.50842786
113	0x3f3da705	0.74082977
114	0x3f3bdddb	0.733854
115	0x3e26fd3a	0.16307536
116	0x3e5bcbcf	0.21464466
117	0x3f07834f	0.52934736
118	0xbe612dea	-0.21990171
119	0x3e57541a	0.21028176
120	0x3f26667a	0.65000117
121	0x3f3d2dd9	0.7389808
122	0x3f01a2b3	0.50638884
123	0xbea7fc57	-0.32809708
124	0x3f354128	0.70802546
125	0x3c6eeb4f	0.014582469
126	0xbe013baa	-0.12620416
127	0xbe8ac59f	-0.27103898

fc2.weight f4 [128, 128]
0	0x3e383277	0.17988001
1	0xbedb42aa	-0.42824298
2	0xbe1403c3	-0.1445456
3	0xbe5c0bd0	-0.21488881
4	0xbf37d6f4	-0.7181237
5	0xbebb7d7c	-0.36619174
6	0x401ea720	2.4789505
7	0xbdc9bc0c	-0.0985032
8	0xbee6d321	-0.45082954
9	0x3e2772e7	0.16352426
10	0xbfe385ce	-1.7775209
11	0x3fab06e8	1.3361483
12	0x3ea20cce	0.31650394
13	0xbf4e1468	-0.8049989
14	0x3f75d637	0.9602999
15	0x3e0af6f5	0.13570769
16	0x40260f48	2.5946827
17	0x3fad8103	1.3554996
18	0xbf2dcb6b	-0.67888516
19	0x3e08302e	0.13299629
20	0x3e6f2d54	0.23357135
21	0x3dbac3ce	0.09119378
22	0xbdf55c4e	-0.11980496
23	0x3f5685ba	0.837978
24	0x3f4479a5	0.76748115
25	0x3e8d8c76	0.27646226
26	0x3f5470b4	0.8298447
27	0xbfb93e0e	-1.4472063
28	0x3f190862	0.59778416
29	0xbf339845	-0.7015422
30	0xbec4207f	-0.38306043
31	0x3cbc66d3	0.02299825
32	0x3f5c4124	0.86036897
33	0x3f15977b	0.58434266
34	0x3ee293b0	0.44253302
35	0x3e7d3a4d	0.24729271
36	0x3edd63d0	0.43240213
37	0xbe994fd0	-0.29943705
38	0x3e0b9fb2	0.13635138
39	0x3f5531f8	0.8327937
40	0xbebe22a6	-0.3713581
41	0xbf0997aa	-0.53747046
42	0x3e499e47	0.19689284
43	0xbe793a88	-0.24338734
44	0xbe1f9d92	-0.15587452
45	0x3df60e74	0.120144755
46	0x3dbce22a	0.09222825
47	0xbe7bab12	-0.24576977
48	0x3ebaf541	0.3651524
49	0xc0de27df	-6.942367
50	0x3e41506f	0.18878339
51	0x3f386bde	0.7203959
52	0x3f35c740	0.71007156
53	0xbfa91994	-1.3210931
54	0x3ec23c7d	0.37936774
55	0xbec0aae9	-0.37630394
56	0xbe5ed436	-0.2176064
57	0x3ed5269b	0.41631016
58	0x3db83a20	0.089954615
59	0xc014582e	-2.317882
60	0x3e86cef6	0.26329774
61	0x3db0f858	0.08641118
62	0xbeb8d216	-0.36097783
63	0x3ea10679	0.3145025
64	0x3f6d27c2	0.9263879
65	0x3f0b5000	0.54418945
66	0x3f7a3541	0.9773751
67	0x3ec769f8	0.38948035
68	0x3f612113	0.8794109
69	0x3f118e6d	0.5685795
70	0xbf14276b	-0.5787265
71	0x3f065155	0.5246785
72	0xbe6f4f54	-0.23370105
73	0xbf706af3	-0.9391319
74	0x3e90a0e4	0.2824775
75	0x3eb838f4	0.35980952
76	0xbe1e81f3	-0.15479259
77	0x3e073f89	0.1320783
78	0x3f867972	1.0505812
79	0x3abedfbb	0.0014562526
80	0x3ee5b6c3	0.44866
81	0xbeb05952	-0.34443146
82	0x3f357e6f	0.7089605
83	0xbe9b95f5	-0.30387846
84	0xbe992b61	-0.29915908
85	0xbf32d361	-0.6985379
86	0x3f33597d	0.70058423
87	0xbe8b3d52	-0.2719522
88	0xbd512065	-0.051056284
89	0x3d0381bf	0.032106157
90	0xbf8b686b	-1.0891241
91	0x3f145b58	0.5795188
92	0xbef57a63	-0.47944936
93	0x3f899d3c	1.0751109
94	0xbe96d78a	-0.29461318
95	0x3f90cf3c	1.1313243
96	0xbec4dd2d	-0.38449994
97	0x3f523b01	0.8212128
98	0x3e3b63bf	0.18299769
99	0x3f0a780e	0.5408944
100	0xbf2a95fb	-0.666351
101	0x3d88907e	0.06668185
102	0xbf6fd754	-0.9368794
103	0x3ceb8444	0.028749593
104	0x400aa1a0	2.1661148
105	0x3ee7d01d	0.45275965
106	0xbbb373ae	-0.0054764366
107	0x3e2e4ab4	0.17020684
108	0x3d6cedf4	0.057844117
109	0x3ef522b9	0.47878054
110	0xbf787b8d	-0.97063524
111	0x3eacc77b	0.33745942
112	0x3f797164	0.97438645
113	0x3d7b377c	0.06133221
114	0x3e0c58a7	0.13705693
115	0xbf1d489e	-0.6143893
116	0x3eef354b	0.46720347
117	0x3ea59316	0.3233878
118	0xbeae2ab6	-0.3401696
119	0x3e8afcc8	0.27145982
120	0xbf00622c	-0.501498
121	0x3eafff77	0.34374592
122	0xbe41d42a	-0.1892859
123	0x3f87072e	1.0549066
124	0x3f003160	0.5007534
125	0xbf159e8d	-0.58445054
126	0xbf963c1b	-1.1737093
127	0x3dfb3f46	0.12267928
128	0xbf9aa6ca	-1.208215
129	0xbcbabab0	-0.022794098
130	0x3f133c0c	0.575135
131	0x3efb0846	0.4902975
132	0xbf3018e6	-0.6878799
133	0x3e1b4b84	0.15165526
134	0x3f4fc987	0.8116688
135	0xbf6ea175	-0.93215114
136	0x3ec9013c	0.39258754
137	0x3f3eb94b	0.74501485
138	0xbed45f2b	-0.41478857
139	0xbeb8c1e3	-0.36085424
140	0x3d24386c	0.04009287
141	0x3f0b181e	0.54333675
142	0xbe6cc479	-0.23121823
143	0x3e0cdf7e	0.1375713
144	0xc0012397	-2.0177972
145	0xbe9b783f	-0.30365178
146	0x3eedf9e2	0.46479708
147	0x3eb113f5	0.34585539
148	0x3c6921b5	0.014229228
149	0x3e9cf5ed	0.30656376
150	0x3d745747	0.059653547
151	0x3f0c967e	0.5491713
152	0x3ceb9e3c	0.028761975
153	0xbcfbe46f	-0.030748574
154	0xbf3e0730	-0.7422972
155	0xbf11f0f2	-0.5700828
156	0x3eb22552	0.34794098
157	0xbe4d6db7	-0.20061384
158	0xbea5daed	-0.3239359
159	0x3e902623	0.28154096
160	0xbefb8a12	-0.49128777
161	0xbf477828	-0.7791772
162	0xbd212af2	-0.039347596
163	0x3f24538c	0.6418998
164	0xbed9d4dd	-0.42545214
165	0x3ed0ca6f	0.40779445
166	0xbe46fdb2	-0.19432715
167	0x3f3db7b5	0.7410844
168	0xbdb4a82c	-0.08821139
169	0x3da0f4ba	0.07859178
170	0x395a5559	0.00020821895
171	0x3fc97c75	1.5741106
172	0x3f3059a7	0.688868
173	0x3f14cd0f	0.58125395
174	0x3fd4a666	1.6613281
175	0xbdb1d15f	-0.086825125
176	0x3f9744af	1.1817836
177	0x3fb28ece	1.394983
178	0x3d6a2418	0.057163328
179	0x3e2d9478	0.16951168
180	0xbe23a931	-0.1598251
181	0x3e4b0002	0.19824222
182	0x3f0dec14	0.5543835
183	0x3eaad2ba	0.33363897
184	0x3f55c7d5	0.83508044
185	0x3edd2d74	0.4319874
186	0xbeae6ccd	-0.34067383
187	0xbfc17252	-1.5113013
188	0xbe9e8bf6	-0.30966157
189	0x3e46b6de	0.19405696
190	0xbe8d49ed	-0.27595463
191	0x3e8a8a16	0.27058476
192	0xbe4a5371	-0.19758393
193	0x3d25e621	0.04050267
194	0x3f54e348	0.83159304
195	0x3cc84c8a	0.02445056
196	0xbcca8c8a	-0.024725217
197	0x3fb0488e	1.3772142
198	0x3e17ce9a	0.14824906
199	0xbff67fe5	-1.925778
200	0xbf9c7796	-1.2223995
201	0x3ee12e6d	0.43980733
202	0xbea58c2e	-0.3233351
203	0xbc9a8e71	-0.01886675
204	0x3dcfbbb6	0.10143225
205	0xbd5db478	-0.054127187
206	0xbe304145	-0.17212398
207	0xbfc23b2f	-1.5174311
208	0xbfefe3b4	-1.8741364
209	0xbec5de71	-0.38646272
210	0xbec04672	-0.37553746
211	0x3f7b96d0	0.98276997
212	0x3efb4762	0.49077898
213	0xbf65c87a	-0.8975903
214	0x3ea268e6	0.31720656
215	0xbe9febe2	-0.31234652
216	0x3ef0f3d5	0.4706103
217	0xbf7a5c0f	-0.9779672
218	0x3f0326d1	0.51231104
219	0x3e068b46	0.13139066
220	0x3ec13642	0.37736708
221	0xbf2bf4ed	-0.671706
222	0x3eac5dcb	0.33665308
223	0xbe99a2d2	-0.30007035
224	0xbefca5e4	-0.49345315
225	0x3ffc67f6	1.9719226
226	0xbef7f599	-0.48429564
227	0xbe3ebdac	-0.18627042
228	0x3e6f0e10	0.23345208
229	0x3e299174	0.16559392
230	0x3ebe71f1	0.37196305
231	0xbdabf2b4	-0.08395901
232	0xbfd5bacd	-1.6697632
233	0x3e8c8722	0.27446848
234	0x3f3911f0	0.72292995
235	0xbeb401b2	-0.35157543
236	0x3e46bc2e	0.19407722
237	0x3f01030e	0.50395286
238	0x3f919db6	1.1376255
239	0xbddbdc01	-0.10735322
240	0xbde561d3	-0.11200299
241	0x3ef8193f	0.4845676
242	0x3f4c36d2	0.7977115
243	0x3d5f5b25	0.05453028
244	0x3f03ba51	0.5145617
245	0xbda94f91	-0.08267129
246	0x3dea264a	0.11433084
247	0x3e26053d	0.16212936
248	0x3bc24c78	0.005929526
249	0xbdc02a69	-0.09383089
250	0x3dd48e74	0.10378733
251	0x40584e4b	3.3797786
252	0x3f2edcef	0.6830587
253	0xbf4d20fb	-0.8012845
254	0xbf6d5b93	-0.92717856
255	0x3e090ea1	0.13384487

fc2.bias f4 [128]
0	0x3e3c79ec	0.18405885
1	0x3f4b7983	0.7948229
2	0x3f4f466f	0.8096685
3	0xbe4e6c7d	-0.20158572
4	0xbde0fa96	-0.109852955
5	0x3df480cf	0.11938631
6	0x3d8bf6be	0.06834172
7	0x3e421025	0.18951471
8	0xbeb1d0cc	-0.34729612
9	0x3eb248ef	0.3482127
10	0x3caee6e2	0.021350328
11	0x3c2de100	0.010612726
12	0xbd78ddb8	-0.060758322
13	0xbc6563ec	-0.014000874
14	0xbd95a2f4	-0.073064715
15	0x3d37d984	0.044885173
16	0x3e953506	0.29142016
17	0xbe49381b	-0.19650309
18	0xbd3ddcba	-0.04635308
19	0x3d77358a	0.060353793
20	0xbec31a6a	-0.3810609
21	0xbd9c8def	-0.07644259
22	0x3eb8c2f1	0.36086228
23	0x3e977efa	0.29589063
24	0x3df8742a	0.121315315
25	0x3e8a0324	0.2695552
26	0x3e53a831	0.20669629
27	0x3d46995d	0.048486102
28	0x3e9e8249	0.30958775
29	0x3ee89143	0.45423326
30	0x3ed251c8	0.4107802
31	0x3efc7e1b	0.4931496
32	0x3f0fc5cd	0.56161195
33	0x3de7e564	0.1132305
34	0xbe22b20e	-0.15888235
35	0x3dc1c074	0.09460536
36	0xbf0adeae	-0.5424603
37	0x3edc7b8e	0.43063015
38	0x3e93d53c	0.28873622
39	0x3e27c54c	0.16383857
40	0xbe62a61d	-0.2213368
41	0x3e54ffe5	0.20800741
42	0x3e466372	0.19373873
43	0x3eb2cbcc	0.3492111
44	0x3f030830	0.5118437
45	0x3da0aaf7	0.07845109
46	0x3e2dd71b	0.16976587
47	0xbf144e23	-0.5793173
48	0x3e042d45	0.12907894
49	0x3e89b56a	0.2689622
50	0x3da3f365	0.08005408
51	0x3e0fad64	0.14030987
52	0x3ea9cd1c	0.331643
53	0x3f0e0fe5	0.55493003
54	0x3edd30ab	0.43201193
55	0x3f0339e5	0.51260215
56	0x3e830835	0.255922
57	0x3e30c0b5	0.17261012
58	0xbe772372	-0.24134615
59	0xbdad3a91	-0.08458436
60	0x3ea25112	0.31702477
61	0x3e69f7be	0.22848412
62	0x3ea391b0	0.31947088
63	0x3de4bfad	0.11169372
64	0x3e2b01d8	0.16699922
65	0xbc69dce3	-0.014273855
66	0x3e9e04ec	0.3086313
67	0x3c9682d4	0.01837293
68	0x3e8f90b4	0.28040087
69	0x3d618032	0.055053897
70	0x3e413357	0.18867241
71	0x3e55b2fd	0.2086906
72	0x3ea1a1f7	0.31568882
73	0x3c96bec5	0.018401513
74	0xbe283085	-0.16424759
75	0xbe89a612	-0.26884514
76	0xbc151330	-0.009098813
77	0xbdca267e	-0.09870623
78	0xbebca03c	-0.36841
79	0x3e65d9e9	0.22446407
80	0x3eb57e6b	0.35448012
81	0x3dc31ceb	0.09527
82	0xbd95fe62	-0.0732391
83	0xbdcf9fd8	-0.1013791
84	0xbe4b229f	-0.19837426
85	0xbd0ef462	-0.03490103
86	0x3ea1f3a8	0.31631207
87	0xbc8f9d05	-0.017530927
88	0x3e886ed7	0.26647064
89	0x3eeb354e	0.45939106
90	0x3e3616e8	0.17782176
91	0x3d9acb09	0.07558257
92	0x3ea91e63	0.33030996
93	0xbd2dff06	-0.042479537
94	0xbdab7888	-0.08372599
95	0xbe274c7c	-0.1633777
96	0x3e99237c	0.29909885
97	0xbd148ab8	-0.036265105
98	0x3e00968f	0.12557434
99	0xbd32bec9	-0.04363898
100	0x3e59fed0	0.2128861
101	0x3c6e28f2	0.014536129
102	0x3e6341e1	0.221931
103	0x3cb73869	0.022365766
104	0xbd352d72	-0.044232793
105	0xbd88b624	-0.066753656
106	0x3f210ec1	0.6291314
107	0x3de5315f	0.111910574
108	0xbe6608a9	-0.22464241
109	0x3e5da595	0.21645196
110	0x3e150944	0.14554316
111	0xbdbb8a89	-0.09157283
112	0x3ea429c5	0.32063118
113	0x3e298ad5	0.16556866
114	0xbe68483c	-0.22683805
115	0x3d82c79c	0.06385729
116	0xbdd52cbc	-0.10408923
117	0x3df3538f	0.11881172
118	0xbdbb1814	-0.09135452
119	0x3e39998a	0.18124977
120	0xbddca405	-0.10773472
121	0xbeec0f1d	-0.4610528
122	0x3e9d57c5	0.30731025
123	0x3f19dbf9	0.60101277
124	0xbe849705	-0.2589647
125	0x3ee769d1	0.4519792
126	0xbeac395e	-0.33637518
127	0xbe05e6a1	-0.13076259

fc3.weight f4 [6, 128]
0	0xbf865422	-1.0494425
1	0xbf7baa8e	-0.9830712
2	0xbf74c840	-0.9561806
3	0xc0432a57	-3.0494592
4	0x3f2842df	0.6572704
5	0xbfc36856	-1.5266216
6	0x3f3c3001	0.7351075
7	0xbeb833fd	-0.35977164
8	0xbf1dffae	-0.6171826
9	0xbf44d9b1	-0.7689467
10	0x3fbd1b24	1.4773908
11	0xbff5d37c	-1.9205165
12	0x3f20d0cc	0.628186
13	0xbebc0467	-0.3672211
14	0xbfb97369	-1.4488345
15	0x401763b3	2.3654602
16	0xbe080f72	-0.13287142
17	0x409dc326	4.930072
18	0x3e7b16f0	0.24520469
19	0xc06feadc	-3.7487097
20	0x3f840e0b	1.0316786
21	0x3fd5ef48	1.6713648
22	0x3e819b44	0.2531377
23	0x3fd3768c	1.6520553
24	0xbe86efb1	-0.26354745
25	0xbfa578be	-1.2927473
26	0xbf867c20	-1.050663
27	0xbee4fb5c	-0.44723022
28	0xbefa6288	-0.48903298
29	0xbed552a8	-0.41664624
30	0xbfd39b44	-1.6531758
31	0x403be07d	2.9355767
32	0xc03b07b6	-2.9223456
33	0xc0a73dee	-5.22631
34	0xbf8b26cb	-1.0871214
35	0x3ef24f46	0.47326106
36	0x3fea2236	1.829169
37	0xbf3d0c6a	-0.7384707
38	0x3f080243	0.5312845
39	0x400a6d9c	2.16294
40	0xc012ee5d	-2.2957985
41	0x402bdfd0	2.6855354
42	0xc02e81aa	-2.726664
43	0xbe84310e	-0.25818676
44	0xbf0f7f95	-0.5605405
45	0x40728448	3.7893238
46	0xc01a054b	-2.406573
47	0x40aab557	5.334636
48	0x3ffcd304	1.9751897
49	0x3fa80f83	1.3129734
50	0xbf324db5	-0.6964982
51	0xbfff2ae7	-1.9934968
52	0xbe0aa0a2	-0.13537839
53	0x3ce0b39b	0.027429393
54	0xc00e850d	-2.2268708
55	0x3f5b11a2	0.8557378
56	0xc00b2235	-2.1739628
57	0xbf444cc7	-0.7667965
58	0xbe4aa50c	-0.19789523
59	0x3f3db16c	0.7409885
60	0x4002d207	2.044069
61	0x40188666	2.383203
62	0x3f1d3950	0.61415577
63	0xc02772a8	-2.616373
64	0x3f03327c	0.5124891
65	0xc02640ec	-2.5977125
66	0x3e6d0662	0.23146966
67	0xc013fd2b	-2.3123271
68	0x3f265f69	0.64989334
69	0xbd726f4c	-0.059188172
70	0x404dca38	3.2154675
71	0xc0082882	-2.1274724
72	0x3f495452	0.7864429
73	0x3f07473e	0.5284308
74	0xbd14bccc	-0.036312863
75	0xbe6f41e6	-0.23364982
76	0xbcdf7818	-0.027278945
77	0xbdb4bb3d	-0.08824775
78	0xbd4a22da	-0.049349643
79	0x3fce89c5	1.6135794
80	0x3ffed2fa	1.9908135
81	0x3fcf52ac	1.6197104
82	0xbbc53737	-0.006018545
83	0xbece9f8a	-0.40356094
84	0x40bf9dbf	5.988006
85	0xbfc2ed26	-1.5228622
86	0x3f1674bf	0.5877189
87	0x3e7b6996	0.24551997
88	0xc06fa6de	-3.7445598
89	0x3fa40a60	1.2815666
90	0xbfd97e96	-1.6991756
91	0xc0151682	-2.3294988
92	0xbeab63b7	-0.33474514
93	0x3e205180	0.1565609
94	0xbd1d6cd7	-0.038433876
95	0xbfa769e2	-1.3079188
96	0x3f19c0d4	0.6005986
97	0xbf2ade57	-0.66745514
98	0xc0361451	-2.84499
99	0xbf20e129	-0.6284357
100	0x405c1134	3.43855
101	0xbfab4e2b	-1.338323
102	0x404704b7	3.1096628
103	0x3f443cdf	0.7665538
104	0xbfc2b0ec	-1.5210242
105	0x3eba1a49	0.3634818
106	0x4006c6b7	2.1058786
107	0x40b6f2f1	5.717156
108	0x408654f8	4.197872
109	0xbf2e807f	-0.6816482
110	0xbfb040f0	-1.3769817
111	0xc029f341	-2.655472
112	0xbf97995b	-1.1843675
113	0x3f826114	1.0185876
114	0xbf8f2357	-1.118266
115	0xbe30f18f	-0.17279647
116	0xc081c76b	-4.055593
117	0x3f2c5638	0.6731906
118	0x3f6731bf	0.9031028
119	0x3fc5e69d	1.5461003
120	0xbfb1a467	-1.3878297
121	0x3ee2eb28	0.44320035
122	0xbfb94c4d	-1.447641
123	0x4033d20a	2.8096948
124	0xc091e62e	-4.559348
125	0xbe59ccba	-0.21269503
126	0x403d5ba9	2.9587195
127	0x3fe9af2a	1.8256581
128	0xbfb3e526	-1.4054306
129	0x400b1ee1	2.1737597
130	0x4004a61d	2.0726388
131	0xc011949c	-2.2746954
132	0xbf8e293f	-1.1106337
133	0x3f158536	0.5840639
134	0x402f8dc1	2.743027
135	0xbdbeb88c	-0.09312543
136	0xbdd50ea6	-0.104031846
137	0x40996786	4.793887
138	0xbfd96dad	-1.6986595
139	0x3f9bdebd	1.2177349
140	0xbe87a581	-0.26493457
141	0xbf93db36	-1.1551273
142	0xbded417d	-0.115847565
143	0x3f8df3fc	1.1090083
144	0x3f1e47d8	0.61828375
145	0xbf776421	-0.9663716
146	0xc039cf95	-2.9032948
147	0x40046be8	2.069086
148	0xbcc8fd5a	-0.02453487
149	0xbed8ef50	-0.4237008
150	0x3e100779	0.1406535
151	0x3f133b71	0.57512575
152	0x3f0d291e	0.55140865
153	0xbf3f66fa	-0.74766505
154	0x3f1a2bbc	0.60222983
155	0xbe4e1972	-0.20126894
156	0x3e2fdf3a	0.17174998
157	0x3feb44cb	1.8380369
158	0x40a89324	5.2679615
159	0x3f7e69c3	0.9938013
160	0x3e11dd3b	0.14244549
161	0x3f1a267b	0.60214967
162	0x3fafb9a8	1.3728533
163	0x3f02fe1c	0.5116899
164	0x3f831e25	1.0243574
165	0x3f998f70	1.1996899
166	0x3fea94a9	1.8326617
167	0x401c0b5a	2.4381928
168	0x3fec8f72	1.8481276
169	0x4085951a	4.174451
170	0xc052f17c	-3.295989
171	0x3e03c71e	0.12868926
172	0x3f48d86a	0.7845522
173	0x3f7033f8	0.938293
174	0x3f54cd1f	0.8312549
175	0xc030036d	-2.750209
176	0xc05aee73	-3.4208038
177	0x3e25ed79	0.1620387
178	0x3fd21d9c	1.6415286
179	0xbff40206	-1.9063118
180	0xbfe43ca9	-1.7831012
181	0xbe3076a4	-0.17232758
182	0x3fefcf4c	1.8735137
183	0x400022a5	2.0021145
184	0x3e479d6b	0.19493644
185	0xc002e692	-2.045323
186	0x400af5be	2.171249
187	0xbdd97d94	-0.10619655
188	0x3e6ce812	0.23135403
189	0xbf599707	-0.84996074
190	0xbfbfe483	-1.4991611
191	0x4036f400	2.8586426
192	0xbf8b03cd	-1.0860535
193	0x3f314243	0.6924173
194	0xc002c5fa	-2.0433335
195	0x4013ee3b	2.3114154
196	0x3ffe2b77	1.9857014
197	0xbfdd7ff4	-1.7304673
198	0xbfbd6091	-1.4795095
199	0x40723ab8	3.784834
200	0x40830b8f	4.095161
201	0xbdfe812b	-0.124269806
202	0xbf2fe7da	-0.6871315
203	0xbf893621	-1.0719644
204	0xbcfe6a64	-0.03105659
205	0xbcd7ea1a	-0.026356746
206	0xc00464ca	-2.0686517
207	0x4016aca0	2.3542862
208	0x3e0e4f87	0.13897525
209	0xc062fdea	-3.5467477
210	0x3c681c9a	0.014166975
211	0xbf329353	-0.6975605
212	0xc0196b0c	-2.3971586
213	0xbf9873fa	-1.1910393
214	0xbe8b220e	-0.2717442
215	0x40990a54	4.7825108
216	0x3e285dff	0.16442107
217	0xc065a8d4	-3.5884295
218	0x4003ab27	2.0573213
219	0xc0614641	-3.519913
220	0xbf0d3231	-0.5515471
221	0x400c2fc5	2.1904156
222	0xbc9b6c0f	-0.018972425
223	0x3f879e11	1.0595113
224	0x3ff41c83	1.9071201
225	0x3fb339aa	1.4001973
226	0x40303b51	2.7536204
227	0x40abb386	5.3656645
228	0xbf16dda9	-0.58931977
229	0xbef9e3f9	-0.48806742
230	0xbfb2cf8f	-1.3969592
231	0xbf9f9e81	-1.2470247
232	0xbca09ec1	-0.01960695
233	0xbe5660d1	-0.2093537
234	0x3f04fbc3	0.5194666
235	0x3fbb7094	1.4643731
236	0xbf81896d	-1.0120064
237	0x3f23e315	0.64018375
238	0xc041cfd5	-3.02831
239	0x40094195	2.1446278
240	0xbe754f83	-0.23956113
241	0xbfbc8833	-1.4729065
242	0xbed37759	-0.41301993
243	0x3f0ec98d	0.5577629
244	0x3f19ebc6	0.60125387
245	0xc0061315	-2.0949147
246	0xbeecb504	-0.46231854
247	0x3f515dbd	0.8178366
248	0xbfa1cf07	-1.2641305
249	0x4027ec77	2.6238077
250	0x3f76718c	0.9626701
251	0xc015857a	-2.3362718
252	0xbf7efdb0	-0.99605846
253	0x3e0c55c6	0.13704595
254	0x3eee56a6	0.46550483
255	0x3f13bdae	0.57711303

fc3.bias f4 [6]
0	0xbde5dd83	-0.11223891
1	0x3e8f5a13	0.2799841
2	0x3c61ffa4	0.01379386
3	0x3e41d20e	0.18927786
4	0xbf0f3fd8	-0.5595679
5	0x3d1a8843	0.037727606
