demo/4_2_1tran2_3_act2/actor_5.pth (torch, 83208 bytes, 6 tensors)

fc1.weight f4 [128, 22]
-0.13828723 -2.9354768 0.26693267 -2.961444 0.57172394 -0.18779604 0.040285498 -0.05907411
0.17019068 -0.064122975 -0.029087303 -0.05716102 0.5674113 1.0085548 -0.461951 -0.20214888
0.6380029 0.85366446 0.73527783 0.6005474 -0.46689558 -0.49429792 -2.169566 0.48331746
-0.5880273 0.36405718 -0.26021692 0.5093936 -0.013728294 -0.046977043 0.043882318 0.08130002
-0.016690718 -0.036830287 -0.81928116 0.95129716 -0.3726804 -1.1498898 0.72191036 -0.07977911
-0.5764607 -0.5694827 0.5210281 0.7962657 1.7121934 -0.28226528 -0.17575063 0.18798333
-0.17509106 -0.4676921 -0.047811456 0.000344642 -0.08112479 0.14231612 0.12153571 0.039318413
-1.0928493 -1.9474655 1.3047165 -1.2852497 -2.2278535 -0.664546 0.0768165 0.051841363
0.15665369 0.0318199 -1.1418954 0.2977094 0.23160529 0.043697648 1.2946332 0.5551831
0.2332036 0.25953782 0.11226281 0.031929966 0.32186636 0.060242265 -0.41040745 -0.2855547
-1.1551898 1.8370782 0.90115 -0.10755074 0.4517612 0.24286959 -0.10432867 -0.32977182
-1.9413123 -0.01395514 -0.40530345 -0.27659166 -0.71906286 0.16174576 -0.06524973 0.014643006
0.049803272 0.06934135 0.007221731 0.0055971895 -0.48769924 1.6159085 -0.21732828 -0.091322005
2.1302555 1.943983 -0.32042807 -0.539866 0.32736897 0.4033314 0.6204612 0.7450489
-0.58322847 -1.1882292 -0.29351336 -0.4793718 0.09658531 0.04196335 -0.0051764045 -0.03798325
-0.13627337 0.036062237 -0.5962026 0.82501143 -0.36710188 -0.36755267 0.9468183 -0.04116922
-0.6289846 -0.7023379 0.88698345 0.7863038 1.6251467 0.85050887 0.5245735 -0.49028897
0.4939995 -0.7887651 -0.010886226 0.0010068987 0.025664007 0.015368329 0.005828593 0.08370154
-2.236984 -2.924215 1.0207901 -1.4114076 -2.5423472 -0.8542719 -0.08522831 -0.1027319
0.11516588 0.11016672 -0.3338327 0.24695931 1.0366536 0.6893296 -0.10400972 0.31417248
0.0034044243 0.048557024 -0.02227757 0.1108382 0.083264925 0.019360438 1.866266 -0.98745406
-0.1024915 1.5002766 3.4271994 1.2687528 0.4268471 0.09039588 -0.39936092 -0.30005088
-1.0487596 0.6509816 0.21676385 -1.2929988 -0.5888663 1.7872398 -0.0033434173 -0.01906347
-0.06444407 0.11104101 -0.0023427797 -0.0835317 -0.8367232 1.9003322 0.18434705 -0.25585258
1.670481 0.9748938 0.00566001 -0.2532406 -0.030477032 0.06803173 -0.14431554 0.6205139
-0.22780062 0.9900694 -0.30579585 -0.55359393 -0.02695092 0.10074334 -0.102773726 -0.16720034
-0.042045478 -0.028985538 -1.471103 -1.0486668 0.3013846 -0.7513215 -0.4267425 -0.12819375
0.09127914 -0.026212988 0.101286344 -0.1334434 0.32951033 -0.36614066 -0.53372765 1.686555
0.045795877 -0.7464505 0.033729978 -0.12151218 -0.086117044 0.17940447 0.020902846 0.022653403
1.1739582 0.5331235 -0.5168692 -0.41560492 0.49834377 1.3335279 -0.015644213 0.19873539
-0.26971954 -0.11142196 -0.111354545 1.2631899 -0.630074 0.95596474 -0.056165203 -0.09067178
-0.0014211605 -0.07816209 0.007434228 0.039909735 0.13869233 -0.035696533 1.2109286 0.92186755
00000000: 2b9b 0dbe dade 3bc0 66ab 883e 4c88 3dc0
00000010: 805c 123f 9b4d 40be 6802 253d b2f7 71bd
00000020: 7746 2e3e e852 83bd 7f48 eebc ac21 6abd
00000030: de41 113f 5318 813f d784 ecbe 1e00 4fbe
00000040: 2854 233f c189 5a3f 2b3b 3c3f 79bd 193f
00000050: f00c efbe 9e14 fdbe 2bda 0ac0 6375 f73e
00000060: f588 16bf b465 ba3e 273b 85be 9e67 023f
00000070: a3ec 60bc 006b 40bd f2bd 333d a080 a63d
00000080: f9ba 88bc 5bdb 16bd 69bc 51bf 3688 733f
00000090: f7cf bebe 972f 93bf 1ecf 383f 3b63 a3bd
000000a0: ee92 13bf 9ec9 11bf 1962 053f 12d8 4b3f
000000b0: 2729 db3f 1385 90be f9f7 33be b47e 403e
000000c0: 124b 33be 5775 efbe f2d5 43bd 11b1 b439
000000d0: c124 a6bd 51bb 113e b7e7 f83d 580c 213d
000000e0: 7ce2 8bbf 8d46 f9bf f300 a73f 1083 a4bf
000000f0: 2795 0ec0 b01f 2abf f851 9d3d 9c57 543d
00000100: d369 203e 9555 023d a129 92bf 5e6d 983e
00000110: f029 6d3e 4efc 323d 8ab6 a53f 7b20 0e3f
00000120: edcc 6e3e 24e2 843e 0bea e53d ffc8 023d
00000130: abcb a43e 98c0 763d ed20 d2be 3a34 92be
00000140: 42dd 93bf 6125 eb3f c4b1 663f 9043 dcbd
00000150: 3e4d e73e ceb2 783e 45aa d5bd dad7 a8be
00000160: ec7c f8bf 19a4 64bc ef83 cfbe 6c9d 8dbe
00000170: 8114 38bf aea0 253e a7a1 85bd 38e9 6f3c
00000180: 84fe 4b3d d602 8e3d 45a4 ec3b a168 b73b
00000190: b7b3 f9be 17d6 ce3f 4e8b 5ebe 0807 bbbd
000001a0: 1b56 0840 6fd4 f83f 260f a4be a834 0abf
000001b0: e89c a73e 7481 ce3e 8cd6 1e3f 86bb 3e3f
000001c0: 764e 15bf e517 98bf 6247 96be 3870 f5be
000001d0: 85ce c53d c3e1 2b3d d49e a9bb 5394 1bbd
000001e0: 3f8b 0bbe ffb5 133d bca0 18bf f333 533f
000001f0: c7f4 bbbe dd2f bcbe af62 723f 0ea1 28bd
00000200: 2205 21bf 6bcc 33bf 5911 633f 354b 493f
00000210: cf04 d03f f3ba 593f 734a 063f 2807 fbbe
00000220: 81ed fc3e 82ec 49bf 245c 32bc eaf9 833a
00000230: 533d d23c 72cb 7b3c c8fd be3b b76b ab3d
00000240: bf2a 0fc0 5726 3bc0 40a9 823f 01a9 b4bf
00000250: d1b5 22c0 90b1 5abf 2e8c aebd 1a65 d2bd
00000260: 17dc eb3d 179f e13d 1fec aabe e7e2 7c3e
00000270: 11b1 843f e877 303f 0c03 d5bd 37db a03e
00000280: c31c 5f3b bbe3 463d 737f b6bc 23ff e23d
00000290: cd86 aa3d c899 9e3c cee1 ee3f cac9 7cbf
000002a0: 10e7 d1bd 1009 c03f 3c57 5b40 7e66 a23f
000002b0: b48b da3e 7a21 b93d 0979 ccbe 45a0 99be
000002c0: c13d 86bf bba6 263f 58f7 5d3e fc80 a5bf
000002d0: f1bf 16bf 46c4 e43f 3c1d 5bbb ff2a 9cbc
000002e0: 41fb 83bd 7869 e33d 5289 19bb ab12 abbd
000002f0: 7e33 56bf 163e f33f 79c5 3c3e 1cff 82be
00000300: 52d2 d53f a492 793f 9b77 b93b c0a8 81be
00000310: f8aa f9bc 3854 8b3d 74c7 13be 00da 1e3f
00000320: 9144 69be 3075 7d3f 4691 9cbe 55b8 0dbf
00000330: 2dc8 dcbc 8652 ce3d 087b d2bd 9136 2bbe
00000340: e137 2cbd 1473 edbc 1a4d bcbf b73a 86bf
00000350: 154f 9a3e 9b56 40bf fe7d dabe 3945 03be
00000360: 8ff0 ba3d 9fbc d6bc 376f cf3d 63a5 08be
00000370: 94b5 a83e ca76 bbbe 60a2 08bf 09e1 d73f
00000380: 7594 3b3d 6117 3fbf 7228 0a3d 61db f8bd
00000390: 225e b0bd ceb5 373e 723c ab3c a193 b93c
000003a0: 4344 963f c87a 083f 8a51 04bf 2bca d4be
000003b0: ea26 ff3e 0bb1 aa3f 4b28 80bc 4a81 4b3e
000003c0: ae18 8abe 3231 e4bd da0d e4bd 35b0 a13f
000003d0: 884c 21bf 1bba 743f 7c0d 66bd 20b2 b9bd
000003e0: 3c46 baba 7213 a0bd d39a f33b 6478 233d
000003f0: 5d05 0e3e 8736 12bd b5ff 9a3f 83ff 6b3f

fc1.bias f4 [128]
-0.63973147 0.66080326 0.20168701 0.21005103 0.5119633 0.7253809 0.31406796 0.17434081
0.5382052 0.26812762 -0.028392598 0.07323311 0.15410984 -0.350118 0.45608926 -0.07969296
0.33076772 0.78781474 0.15309048 0.18933065 0.14486319 -0.086533934 -0.18136851 0.13236487
0.37470633 0.63202405 0.054789145 -0.17704044 0.40686247 -0.009524709 0.04774312 0.2513717
-0.03488705 -0.12504162 0.4754853 -0.16992338 -0.046360277 0.54631674 -0.4313377 0.5754406
-0.1482102 0.097930014 0.58410466 0.4220783 0.25939324 0.040308155 0.6034494 0.22070466
-0.4953476 -0.06895401 0.4261961 0.7069759 -0.19725095 0.5228868 0.64248735 0.3031957
0.63219994 0.6099464 0.06276467 -0.21946388 0.12717524 0.4042617 0.58261275 0.04887923
-0.071963914 -0.06751134 -0.1144874 0.5239294 0.2959986 0.9894329 0.23682502 0.20715894
0.57151955 0.051528517 -0.060058355 0.20747206 0.19077241 0.17169145 0.43492085 0.35504532
-0.28880563 -0.47613862 0.2848568 0.33691168 0.29827747 0.41688347 0.40497902 0.32274958
0.8183543 0.46817017 0.54472834 0.26205796 0.11792174 0.5372827 0.19244249 -0.35919753
0.07060217 0.74359715 0.11607471 0.11184686 0.8829062 -0.5329399 0.37066132 0.36976516
-0.1256156 -0.13851635 0.349576 0.039359733 0.28868327 0.5332906 0.5008812 -0.41493487
0.2424571 0.73149157 0.7953151 0.0068528014 0.29259264 0.33523247 0.14539766 0.19018215
0.37912706 0.5670301 0.5542682 -0.43617392 0.65303886 -0.11433173 0.004592509 -0.12723255
00000000: 71c5 23bf 672a 293f 0a87 4e3e 9e17 573e
00000010: 0710 033f 90b2 393f 84cd a03e 6686 323e
00000020: d1c7 093f 0648 893e 9897 e8bc 3efb 953d
00000030: f8ce 1d3e ab42 b3be 8884 e93e 1036 a3bd
00000040: 635a a93e 3aae 493f c0c3 1c3e e5df 413e
00000050: 0457 143e b438 b1bd abb8 39be a88a 073e
00000060: 82d9 bf3e 54cc 213f 956a 603d 174a 35be
00000070: 4750 d03e 860d 1cbc 4a8e 433d cbb3 803e
00000080: b9e5 0ebd e90a 00be cf72 f33e 6500 2ebe
00000090: 46e4 3dbd 6adb 0b3f 4cd8 dcbe 1350 133f
000000a0: 6ac4 17be 888f c83d e287 153f a61a d83e
000000b0: 31cf 843e 2a1a 253d a97b 1a3f 6700 623e
000000c0: 339e fdbe c337 8dbd 6036 da3e 5ffc 343f
000000d0: 27fc 49be e9db 053f 0d7a 243f 773c 9b3e
000000e0: dbd7 213f 7325 1c3f c38a 803d 24bb 60be
000000f0: 3a3a 023e 64fb ce3e 1c26 153f 9635 483d
00000100: d161 93bd 6343 8abd 5f78 eabd 3d20 063f
00000110: 218d 973e 794b 7d3f 4282 723e 7921 543e
00000120: 1b4f 123f 910f 533d c0ff 75bd 8e73 543e
00000130: d859 433e e2cf 2f3e f2ad de3e 80c8 b53e
00000140: 55de 93be 71c8 f3be c0d8 913e b07f ac3e
00000150: d3b7 983e c071 d53e 6959 cf3e 6f3f a53e
00000160: ab7f 513f 00b4 ef3e 5173 0b3f 762c 863e
00000170: f480 f13d 5c8b 093f a50f 453e bde8 b7be
00000180: df97 903d 625c 3e3f 94b8 ed3d f70f e53d
00000190: 2406 623f c06e 08bf 52c7 bd3e dc51 bd3e
000001a0: 60a1 00be 3bd7 0dbe a0fb b23e ac37 213d
000001b0: 4bce 933e bc85 083f c039 003f 5872 d4be
000001c0: ad46 783e 0843 3b3f c599 4b3f 778d e03b
000001d0: b4ce 953e 97a3 ab3e 20e3 143e 1cbf 423e
000001e0: f11c c23e e228 113f 85e4 0d3f 3052 dfbe
000001f0: 8e2d 273f c126 eabd c27c 963b 4049 02be

fc2.weight f4 [128, 128]
-0.68905073 -0.51441187 0.11154208 -1.1058984 -0.69914293 -0.37556794 2.529297 0.054427505
-0.9049911 0.22908224 -1.4631329 0.2547114 0.33269808 -0.2787585 0.77015465 0.051245864
0.8127326 1.3750196 -0.8713326 0.19181173 0.18187487 0.20917952 -0.07408202 0.8214204
0.80087084 0.34405142 0.56241953 -0.20501952 0.57585627 -0.279297 -0.29616323 0.33155072
0.91815966 1.0366654 0.3622917 -0.6628155 0.18487762 -0.35301518 0.4658156 0.7139838
0.12632869 -0.28839603 0.1480835 -0.08250147 -0.46689785 -0.029150931 -0.23309882 -0.26130354
-0.07884813 -3.308249 0.15351574 0.51681316 -0.34703597 -1.3999482 0.29493612 0.0070907734
-0.44018832 0.45842266 0.28204483 -1.9799517 -0.12275087 0.1279247 -0.15826023 0.018172048
0.81445867 0.5414368 0.74831355 0.34270912 -0.18629202 0.40224752 -0.44393113 0.07480268
-0.7324555 -1.0058371 0.3091862 0.23422943 -0.17813717 0.4158579 0.9945221 -0.0147712855
0.27183056 -0.45539403 0.57450247 0.054739665 -0.018192869 -0.6048041 0.6727607 -0.21531236
-0.11216505 -0.13806762 -1.0579197 0.5242418 0.010032863 0.65645623 0.49818695 1.180797
-0.21725737 0.7202169 0.19666947 0.24469627 -0.79403824 0.3559465 -0.9668752 -0.062797315
1.5649481 0.510252 -0.047490396 -0.10322824 0.06970387 -0.2501923 -0.13117617 0.651921
-0.033293795 -0.13421963 0.30338234 -0.327481 0.2963572 -0.01758298 0.07092401 0.43065235
-0.64683235 0.0024644018 -0.2726574 1.2520404 0.58346516 -0.514206 -1.1796151 0.14549255
-0.7755799 0.0009057267 0.4779179 0.27919382 -0.7014562 0.0363173 0.5341698 0.035518527
0.13750395 0.42930424 -0.47720006 0.35627714 0.094111025 0.20798464 -0.26347417 0.21319127
0.30208197 -0.40484193 0.8160452 0.59420145 -0.21682684 0.062093887 0.54955983 0.41748118
0.19700539 -0.007939141 0.6221695 -0.31527412 0.35386527 0.32020742 -0.06447502 0.6989318
-0.06852526 0.047336455 -0.17428203 -0.100982204 -0.11926619 0.42054713 -0.25125974 0.4157937
0.14789465 0.05614639 0.02167707 0.1861848 0.53011787 0.9627171 0.9084454 -0.4633427
-1.8282769 0.19557673 0.07599617 0.13912515 0.21791756 -0.22636247 0.18787628 0.3192899
1.155219 -0.09014405 -0.054328557 -0.21377307 -0.011901951 0.27349088 -0.5876182 0.21224445
0.0830478 0.14195469 0.7694713 -0.019342516 0.22506303 0.97202635 0.07810924 -1.7853148
-0.9148838 0.22570887 0.02809143 -0.080667466 0.06088712 -0.009619801 0.05572669 -1.4468647
0.41230652 -0.5964481 0.023164727 0.5157946 0.105260186 -0.23616087 0.2079567 -0.2829991
0.21690927 0.10410931 0.0935647 0.22688171 0.3603336 -0.28966567 0.7626017 -0.24290925
-0.5913981 1.1177173 -0.38085145 -0.76490265 -0.20517072 -0.19564131 0.20325954 -0.13273405
-1.2414855 0.4298593 0.78013986 -0.0595792 0.14704067 -0.24966344 0.054905526 -0.21651316
0.015617262 0.2503343 0.48345628 -0.08810236 0.32336742 0.21198608 0.7353218 -0.1534279
-0.207676 0.7107432 -0.097811855 3.51106 0.38094375 -0.44369465 -0.9372491 0.47755757
00000000: a165 30bf 7fb0 03bf 2d70 e43d 148e 8dbf
00000010: 08fb 32bf 714a c0be 01e0 2140 60ef 5e3d
00000020: 7fad 67bf 8994 6a3e f047 bbbf 8869 823e
00000030: 6757 aa3e 6fb9 8ebe db28 453f 2fe7 513d
00000040: 3e0f 503f a400 b03f a70f 5fbf 4b6a 443e
00000050: 683d 3a3e 2833 563e 50b8 97bd 9b48 523f
00000060: df05 4d3f 8227 b03e bafa 0f3f a3f0 51be
00000070: 516b 133f 0400 8fbe b5a2 97be 04c1 a93e
00000080: 830c 6b3f 74b1 843f 4c7e b93e 47ae 29bf
00000090: 8f50 3d3e 68be b4be 627f ee3e a4c7 363f
000000a0: 4f5c 013e a5a8 93be 33a3 173e 88f6 a8bd
000000b0: 3c0d efbe efcd eebc 75b1 6ebe 94c9 85be
000000c0: 217b a1bd 5aba 53c0 3b33 1d3e de4d 043f
000000d0: b3ae b1be 8131 b3bf de01 973e b859 e83b
000000e0: 5d60 e1be 60b6 ea3e 2e68 903e 0f6f fdbf
000000f0: cf64 fbbd b1fe 023e f80e 22be 8cdd 943c
00000100: 5d80 503f 9a9b 0a3f 7a91 3f3f 9277 af3e
00000110: 56c3 3ebe 63f3 cd3e f14a e3be 2632 993d
00000120: 3482 3bbf 45bf 80bf a74d 9e3e d7d9 6f3e
00000130: 9769 36be 54eb d43e 0099 7e3f 4303 72bc
00000140: 602d 8b3e 6829 e9be 9812 133f b336 603d
00000150: 3609 95bc 71d4 1abf 0c3a 2c3f d87a 5cbe
00000160: cab6 e5bd 9961 0dbe ea69 87bf b634 063f
00000170: e160 243c 840d 283f 5c12 ff3e 5b24 973f
00000180: b778 5ebe 2260 383f b963 493e a991 7a3e
00000190: 1746 4bbf 9f3e b63e 2285 77bf e19b 80bd
000001a0: 3850 c83f e09f 023f 4a85 42bd 5469 d3bd
000001b0: e7c0 8e3d 3519 80be 0c53 06be 4be4 263f
000001c0: 135f 08bd df70 09be ee54 9b3e 97ab a7be
000001d0: 22bc 973e 2f0a 90bc 9b40 913d 777e dc3e
000001e0: ce96 25bf cd81 213b c099 8bbe dc42 a03f
000001f0: f95d 153f 01a3 03bf a1fd 96bf 00fc 143e
00000200: 688c 46bf 4a6e 6d3a a8b1 f43e 7ef2 8e3e
00000210: a292 33bf 73c1 143d 5abf 083f e07b 113d
00000220: d6cd 0c3e c4cd db3e 9153 f4be f569 b63e
00000230: 48bd c03d edf9 543e 16e6 86be d04e 5a3e
00000240: 7daa 9a3e 7147 cfbe 57e8 503f 961d 183f
00000250: db07 5ebe 2956 7e3d f4af 0c3f 18c0 d53e
00000260: c8bb 493e 2c13 02bc 8046 1f3f 9c6b a1be
00000270: d42d b53e 3af2 a33e 7b0b 84bd 32ed 323f
00000280: f956 8cbd dfe3 413d fd76 32be c2cf cebd
00000290: d541 f4bd f451 d73e 1ea5 80be e9e2 d43e
000002a0: b271 173e c2f9 653d 1c94 b13c 3aa7 3e3e
000002b0: ceb5 073f a174 763f e18f 683f 413b edbe
000002c0: fa04 eabf 4445 483e e1a3 9b3d d376 0e3e
000002d0: c825 5f3e 90cb 67be a462 403e f779 a33e
000002e0: 37de 933f 729d b8bd 9f87 5ebd 54e7 5abe
000002f0: 6700 43bc ff06 8c3e 256e 16bf 9c56 593e
00000300: f714 aa3d 925c 113e 12fc 443f 3274 9ebc
00000310: ec76 663e b8d6 783f bdf7 9f3d 3285 e4bf
00000320: d335 6abf 3a20 673e 0020 e63c fc34 a5bd
00000330: c664 793d 5f9c 1dbc ab41 643d dd32 b9bf
00000340: d719 d33e d3b0 18bf f4c3 bd3c 1d0b 043f
00000350: a792 d73d 28d4 71be 9af2 543e 42e5 90be
00000360: 771d 5e3e 4337 d53d d99e bf3d ae53 683e
00000370: a57d b83e 0f4f 94be dd39 433f 34bd 78be
00000380: de65 17bf 5c11 8f3f f6fe c2be a9d0 43bf
00000390: 4618 52be 3256 48be 4523 503e 6feb 07be
000003a0: ffe8 9ebf 8516 dc3e 3fb7 473f 5209 74bd
000003b0: d491 163e c6a7 7fbe 9ee4 603d a0b5 5dbe
000003c0: 8bdf 7f3c d12b 803e 9587 f73e 036f b4bd
000003d0: 6a90 a53e e112 593e 0d3e 3c3f 341c 1dbe
000003e0: 04a9 54be 44f3 353f 9551 c8bd 35b5 6040
000003f0: 0f0b c33e f22b e3be 8fef 6fbf 6d82 f43e

fc2.bias f4 [128]
0.112626135 0.39745045 0.646143 -0.18675755 0.017179102 0.27405024 -0.07047773 0.2649036
-0.2675073 0.33864233 0.054218747 0.095121704 0.024342073 0.15920733 0.010749306 0.090434484
0.41133374 -0.097666375 0.094729595 0.23087741 -0.24813835 0.13123466 0.28465685 0.11437403
0.121315315 0.24370539 0.114371836 0.05675448 0.08001695 0.35094243 0.49886203 0.34050122
0.29587716 0.10325732 -0.064424396 0.14014152 -0.48535693 0.29336053 0.29418454 0.16383857
-0.29195753 0.2719208 0.124776505 0.2801102 0.34497076 0.10386077 -0.2283637 -0.4890947
0.25198647 0.17918283 -0.016484141 0.0844842 0.17270073 0.3497056 0.09314326 0.39090478
0.21957871 0.29535225 -0.14514256 -0.061058037 0.54432493 0.118735924 0.25801155 0.0076206755
0.057188265 0.12157623 0.07082741 0.14151756 0.28101158 -0.0043932893 0.19931933 0.15690447
0.27971146 0.15896262 0.07871664 -0.14106588 -0.009098813 -0.09870623 -0.4842413 0.17949115
0.0172896 0.06016686 -0.0732391 -0.077524066 0.09281423 -0.3035717 0.37006387 -0.017530927
0.053586066 0.48629314 0.032118127 0.25356603 0.21161649 -0.044352747 -0.08372599 -0.35264742
0.3869087 0.079276435 0.16906682 0.20436224 0.164351 0.20152254 0.27982116 0.07659136
0.07316872 -0.15946275 0.35241804 0.3561335 -0.23185244 0.3039209 0.16538599 -0.01579884
0.4203429 0.17493673 -0.22683805 0.17144188 0.15545818 0.03570133 -0.03367122 0.2377688
-0.08379371 -0.4610528 0.52419657 0.57570094 -0.07419141 0.03491198 -0.33637518 -0.28800964
00000000: 88a8 e63d a07e cb3e a169 253f 5f3d 3fbe
00000010: 30bb 8c3c 5050 8c3e a156 90bd 72a1 873e
00000020: b8f6 88be 8762 ad3e 7a14 5e3d 2bcf c23d
00000030: 0769 c73c 3f07 233e db1d 303c b735 b93d
00000040: 569a d23e 4f05 c8bd 9701 c23d 216b 6c3e
00000050: fb17 7ebe 6162 063e 8bbe 913e ee3c ea3d
00000060: 2a74 f83d e88d 793e c83b ea3d 6377 683d
00000070: eddf a33d baae b33e d86a ff3e 2d56 ae3e
00000080: 367d 973e 9378 d33d f0f0 83bd 4281 0f3e
00000090: b480 f8be 5a33 963e 5b9f 963e 4cc5 273e
000000a0: 757b 95be 3439 8b3e d38a ff3d 9b6a 8f3e
000000b0: 02a0 b03e f5b4 d43d 2cd8 69be 9f6a fabe
000000c0: 5f04 813e b47b 373e c009 87bc 0d06 ad3d
000000d0: 76d8 303e 9d0c b33e e5c1 be3d ac24 c83e
000000e0: 3ed9 603e 6938 973e 40a0 14be fe17 7abd
000000f0: e158 0b3f d22b f33d 171a 843e dcb6 f93b
00000100: 3e3e 6a3d f5fc f83d f60d 913d fbe9 103e
00000110: c0e0 8f3e 95f5 8fbb 5e1a 4c3e 91ab 203e
00000120: 5736 8f3e 19c7 223e 3136 a13d 9373 10be
00000130: 3013 15bc 7e26 cabd 7aee f7be 87cc 373e
00000140: eba2 8d3c 8771 763d 62fe 95bd f0c4 9ebd
00000150: 6315 be3d c06d 9bbe 0379 bd3e 059d 8fbc
00000160: 107d 5b3d 6afb f83e 4c8e 033d 68d3 813e
00000170: feb1 583e 3aab 35bd 8878 abbd 348e b4be
00000180: e618 c63e af5b a23d da1f 2d3e 5644 513e
00000190: a14b 283e ed5b 4e3e b844 8f3e eedb 9c3d
000001a0: 7bd9 953d 344a 23be 2370 b43e 2157 b63e
000001b0: ba6a 6dbe 859b 9b3e f25a 293e 926c 81bc
000001c0: 2f37 d73e 9d22 333e 3c48 68be 768e 2f3e
000001d0: 6e30 1f3e 8f3b 123d d5ea 09bd aa79 733e
000001e0: 099c abbd 1d0f ecbe bf31 063f 2361 133f
000001f0: aaf1 97bd ddff 0e3d 5e39 acbe 0076 93be

fc3.weight f4 [6, 128]
-1.0489235 -1.3921341 -1.1138403 -3.1640158 0.6483648 -1.0195303 2.2828429 0.9472618
-0.5061567 -0.5269488 1.1558005 -0.12799278 0.720501 -0.64371544 -1.1421796 0.9069026
-0.3102005 4.997915 0.2673524 0.7654459 -0.02015734 1.0016992 -1.3997607 1.6970463
-0.26354745 -1.3627731 0.07807769 -0.29000038 -0.6273712 -0.14344162 -1.0835111 2.6332529
-2.529671 -0.2021713 -1.1582407 0.47467446 -3.1085694 -0.9805293 0.5312845 2.16294
-1.7003324 1.0408014 -2.821128 -0.69813234 -0.7443806 3.72117 -4.538003 5.6890697
2.2312837 1.022807 0.2244197 -1.7838496 -0.21245544 -0.037351385 -2.233304 0.96041864
-1.1394912 -0.74936116 -0.7433909 0.58069944 2.1646862 2.3351207 0.46203217 -3.4200716
1.4417378 0.15580937 0.40696272 -2.3458056 0.54112387 0.57291156 3.2154675 -1.8437723
1.8300431 0.20379569 0.26189268 -0.3619204 -0.027278945 -0.08824775 -1.5956572 1.5582669
2.7200413 1.5905722 -0.006018545 -0.29886928 3.8420243 -1.2557653 0.37146226 0.24551997
-3.4561787 1.2474852 -0.37162167 -0.91197443 -0.07580188 1.3392566 -0.038433876 0.24188034
-0.18603177 -0.3044548 -2.8793807 -0.049748305 3.3567274 -1.286227 2.8216877 0.55771226
-1.2783622 0.11047171 -0.23149543 5.675013 4.0633235 0.17244627 -1.5629486 -0.6541519
-1.5594196 1.028218 -1.118266 -1.0692921 -0.14303926 0.57263494 0.7123336 1.4643775
-1.3878297 0.44320035 -1.6325493 2.6390295 -3.3010828 0.9231444 2.9587195 1.1496241
-1.2912693 1.1082196 2.0936325 -2.01767 -1.1586443 0.5385353 2.0438159 0.18657787
-0.16534634 4.6381645 -1.9790486 -1.2406458 -0.3509305 -1.0381745 -0.12297331 0.85447454
0.40854526 -0.91410506 -2.9836726 1.3599558 4.155103 -0.84024316 0.56732625 0.5509284
0.55140865 -0.9932582 0.32397687 -0.4436463 0.18247785 1.7694757 5.4316316 1.1269193
3.7063982 -0.815011 1.0004183 0.5503512 1.6147704 1.0305948 1.826632 2.4381928
1.1289299 1.530213 -3.1596699 0.3569999 0.591855 -0.22717829 0.65702564 -2.6643615
-3.3855083 0.23089835 1.4509352 -1.9494762 -1.730515 -0.3167782 1.148903 2.0434506
-0.34168768 -2.1273189 2.437335 -0.23001781 -0.02978836 -1.3659096 -1.3622887 2.160323
-0.36777413 0.02757639 -2.1703608 2.2149477 2.049432 -1.9301083 -1.4795095 4.4622455
4.5403476 -0.18744366 0.0759046 -0.84113204 -0.03105659 -0.026356746 -1.844822 2.4124882
0.3453938 -3.62674 0.014166975 -0.5954019 -2.1241107 -0.08723301 -0.31536654 4.7825108
0.09781845 -5.0194516 1.9186496 -0.08435457 -0.5664813 1.6614823 -0.018972425 0.39795104
1.1282532 1.5903558 2.7458708 4.7677736 -0.28966922 -0.5472044 -1.5351077 -1.1138421
-0.10972904 -0.040302843 1.7198677 1.3016295 -1.2791696 -0.2948399 -2.9254813 2.219006
-0.32065925 -1.466261 -0.41301993 2.195983 -0.15561889 -2.1929247 -0.46468815 0.80448514
-1.2769579 2.6238077 0.96986955 -2.46495 -0.27589336 -1.0324864 0.46550483 0.31743202
00000000: 2043 86bf 7331 b2bf 5292 8ebf 3c7f 4ac0
00000010: 3cfb 253f f87f 82bf 191a 1240 c07f 723f
00000020: 7c93 01bf 1ee6 06bf 45f1 933f 8a10 03be
00000030: c172 383f 89ca 24bf f132 92bf c52a 683f
00000040: 9ad2 9ebe ebee 9f40 6ae2 883e 43f4 433f
00000050: 0221 a5bc ae37 803f 5c2b b3bf d038 d93f
00000060: b1ef 86be 596f aebf 32e7 9f3d ee7a 94be
00000070: 669b 20bf 5ce2 12be 7eb0 8abf 3787 2840
00000080: 21e6 21c0 fe05 4fbe 3b41 94bf 8808 f33e
00000090: cdf2 46c0 f803 7bbf 4302 083f 9c6d 0a40
000000a0: 7ea4 d9bf fb38 853f 5c8d 34c0 cdb8 32bf
000000b0: ba8f 3ebf a627 6e40 5237 91c0 dc0c b640
000000c0: 5acd 0e40 57eb 823f 47ce 653e 2f55 e4bf
000000d0: eb8d 59be c4fd 18bd 74ee 0ec0 ffdd 753f
000000e0: d9da 91bf 22d6 3fbf de4e 3ebf b8a8 143f
000000f0: 388a 0a40 9e72 1540 7b8f ec3e 74e2 5ac0
00000100: dd8a b83f 7e8c 1f3e 6b5d d03e ae21 16c0
00000110: 1887 0a3f 55aa 123f 38ca 4d40 bb00 ecbf
00000120: da3e ea3f d1af 503e cc16 863e a14d b9be
00000130: 1878 dfbc 3dbb b4bd 7f3e ccbf 4a75 c73f
00000140: 2815 2e40 df97 cb3f 3737 c5bb 6505 99be
00000150: bae3 7540 ebbc a0bf 4d30 be3e 9669 7b3e
00000160: 0832 5dc0 98ad 9f3f 3245 bebe 2877 69bf
00000170: 043e 9bbd c36c ab3f d76c 1dbd 7baf 773e
00000180: 1d7f 3ebe 80e1 9bbe c647 38c0 e1c4 4bbd
00000190: 9fd4 5640 16a3 a4bf 8896 3440 3bc6 0e3f
000001a0: 5fa1 a3bf fe3e e23d 230d 6dbe b599 b540
000001b0: bf06 8240 c195 303e b30e c8bf 8076 27bf
000001c0: 109b c7bf a69c 833f 5723 8fbf 90de 88bf
000001d0: e278 12be 3498 123f 7f5b 363f b970 bb3f
000001e0: 67a4 b1bf 28eb e23e 60f7 d0bf dce5 2840
000001f0: f144 53c0 3153 6c3f a95b 3d40 e226 933f
00000200: 5048 a5bf 24da 8d3f 13fe 0540 8121 01c0
00000210: 754e 94bf 73dd 093f e1cd 0240 450e 3f3e
00000220: 8d50 29be d86b 9440 7751 fdbf 7bcd 9ebf
00000230: 2aad b3be e7e2 84bf 6ed9 fbbd d8be 5a3f
00000240: d82c d13e ca02 6abf 7ef4 3ec0 0813 ae3f
00000250: 9bf6 8440 2d1a 57bf 4b3c 113f a509 0d3f
00000260: 1e29 0d3f 2b46 7ebf 4ce0 a53e 9c25 e3be
00000270: 79db 3a3e 2e7e e23f edcf ad40 e43e 903f
00000280: a135 6d40 90a4 50bf b50d 803f d1e3 0c3f
00000290: ccb0 ce3f 88ea 833f 14cf e93f 5a0b 1c40
000002a0: c680 903f 05de c33f 0838 4ac0 b1c8 b63e
000002b0: cf83 173f 6da1 68be d532 283f e684 2ac0
000002c0: 2bac 58c0 9e70 6c3e 3fb8 b93f 7088 f9bf
000002d0: 8481 ddbf c130 a2be 410f 933f e5c7 0240
000002e0: b0f1 aebe fe25 08c0 4cfd 1b40 ca89 6bbe
000002f0: b806 f4bc 20d6 aebf 7a5f aebf bb42 0a40
00000300: e44c bcbe e2e7 e13c 31e7 0ac0 b4c1 0d40
00000310: e529 0340 ca0d f7bf 9160 bdbf b7ca 8e40
00000320: 874a 9140 3bf1 3fbe df73 9b3d 6e54 57bf
00000330: 646a febc 1aea d7bc 2123 ecbf 3566 1a40
00000340: 75d7 b03e 821c 68c0 9a1c 683c 426c 18bf
00000350: 6ef1 07c0 38a7 b2bd b977 a1be 540a 9940
00000360: 0a55 c83d 599f a0c0 4f96 f53f 17c2 acbd
00000370: eb04 11bf 74ab d43f 0f6c 9bbc 3dc0 cb3e
00000380: 9a6a 903f c790 cb3f 59bc 2f40 9a91 9840
00000390: 864f 94be 9615 0cbf 697e c4bf 6192 8ebf
000003a0: 9eb9 e0bd 9814 25bd a024 dc3f cc9b a63f
000003b0: d4bb a3bf 41f5 96be 163b 3bc0 3204 0e40
000003c0: 732d a4be 71ae bbbf 5977 d3be fc8a 0c40
000003d0: 8f5a 1fbe e158 0cc0 9beb edbe bdf2 4d3f
000003e0: 5b73 a3bf 77ec 2740 5f49 783f bec1 1dc0
000003f0: e541 8dbe 8428 84bf a656 ee3e 7386 a23e

fc3.bias f4 [6]
-0.22064796 0.047669146 -0.16533102 0.14172223 -0.093106546 -0.013010606
00000000: 8af1 61be b940 433d 894c 29be a21f 113e
00000010: a5ae bebd 702a 55bc
