demo/2_2_5/actor_7.pth (torch, 83208 bytes, 6 tensors)

fc1.weight f4 [128, 22]
000000 31 98 a6 3f 29 b4 18 be ae d3 fb be b1 06 1f bf
       1.3015195 -0.14912476 -0.49184936 -0.62119585
000010 17 f5 03 3e 16 c7 03 be 49 d2 b1 bb 5d 9e 68 bd
       0.12886463 -0.12868914 -0.0054266793 -0.056791652
000020 f9 5c d9 bc dd f0 b6 3c 26 c0 e6 bc ec cd 0d 3d
       -0.02653359 0.02233165 -0.028167795 0.03462021
000030 84 c8 0a bf 6b 6b 9a bf 3f 78 28 bf ef c0 87 3e
       -0.5421221 -1.2064031 -0.6580848 0.26514384
000040 43 bc c5 3f 5c 07 66 3f a5 01 14 be 6b 23 be bd
       1.5448078 0.8985498 -0.14453752 -0.09284099
000050 e5 97 9e 3d cb 49 35 3e 82 34 e0 3d 5a 8a 22 3d
       0.07743815 0.17703931 0.10947515 0.039682724
000060 89 9c 8d be 8a 59 25 be b7 8e 04 bc 39 da 1a bf
       -0.2765849 -0.16147438 -0.0080906665 -0.6048923
000070 55 2a 9e 3d 8f fe 12 3c 6d f0 ee bc 88 4b 06 3e
       0.07722918 0.008971824 -0.029167378 0.1311475
000080 28 20 23 bd 8f 2f 2a bd cf 05 58 be a8 a2 4c be
       -0.03982559 -0.04154926 -0.21095966 -0.19983923
000090 7a 99 1e be 0a 05 d8 bd ce d6 bc 3e d5 8b 34 bd
       -0.15488234 -0.10547836 0.36882633 -0.044078667
0000a0 e1 b4 37 3c 09 db df bd 72 be 13 3d 89 d7 4b be
       0.0112125585 -0.109304495 0.036070295 -0.19906439
0000b0 b3 8d 1f 3f e5 93 cc 3e c1 2a ba 3d 48 d5 9c bf
       0.6232559 0.39956585 0.09090186 -1.2252588
0000c0 25 a7 82 ba f0 8b 2e bf 83 d4 4d bc 5c 05 32 bd
       -0.0009968026 -0.6818228 -0.012562874 -0.043462142
0000d0 ed e5 3c 3c 90 d0 b1 3c 0b 17 4e 3d fd 89 4d bd
       0.011529428 0.021705896 0.050314944 -0.050180424
0000e0 6d ca cc 3d 15 7b 3b 3f dd 8b 8c 3e 2f b5 1f bf
       0.09999547 0.73234683 0.27450457 -0.6238584
0000f0 24 ee 4f 3f 65 7f 64 be 29 52 01 be 1a e9 83 3d
       0.8122275 -0.22314222 -0.12628998 0.06440945
000100 50 b3 ef 3d 97 71 dc bc f7 f3 17 be 53 8d 89 3e
       0.11704123 -0.026909633 -0.14839159 0.26865634
000110 91 a3 bf 3c cb 1e 51 3f f5 d9 c7 be 5c 56 3f be
       0.023393424 0.8168761 -0.39033476 -0.18685287
000120 14 ec 5a bd c3 2c ec 3c d3 1a cb 3d 0e cc 80 3d
       -0.053447798 0.028829938 0.09917226 0.0628892
000130 52 13 ab bd 51 f0 71 3d a8 5b 0e be ae 29 1b 3e
       -0.083532944 0.059067074 -0.13902152 0.15152618
000140 4b 24 a0 be aa d2 50 3d 17 3f 61 bc 1d aa 3e 3e
       -0.3127769 0.050982155 -0.013747952 0.1861958
000150 a7 73 23 3d 71 1c 13 bd d3 b4 0f bd 6a df c7 bd
       0.039905217 -0.035915796 -0.035084557 -0.0975941
000160 34 4b 9a 3e cb 59 32 be 38 d1 42 be ee f0 c6 be
       0.301355 -0.17417066 -0.19025123 -0.3885569
000170 53 33 29 3d bd e3 23 be 23 9f 6d 3d db 43 bd 3b
       0.041308712 -0.16004844 0.058013093 0.0057759113
000180 a0 83 5d 3b a6 0e 25 bc 0e 71 27 3c 4f 79 b1 bc
       0.0033800378 -0.010074293 0.010219825 -0.02166429
000190 1b 13 37 3f 00 ca a0 3f 89 91 2c bf f5 49 d2 be
       0.7151353 1.2561646 -0.6740957 -0.4107205
0001a0 55 2b 5a bf 8f 1a 2e 3f ed 67 24 be 94 66 28 be
       -0.8522237 0.68009275 -0.1605527 -0.1644538
0001b0 a5 77 40 bc 00 1e 03 3d e4 03 51 bf 02 84 bc 3e
       -0.0117472755 0.032011032 -0.8164656 0.36819464
0001c0 be 60 10 be b5 b6 d3 3f 93 4d 20 3e 33 6f 45 be
       -0.14099404 1.6540133 0.15654592 -0.192807
0001d0 02 8d 62 3d 0b 15 94 bb 86 0f e8 bc 2d ed 21 3d
       0.055310257 -0.00451911 -0.028327715 0.03953283
0001e0 63 62 0d bd 86 47 2e 3d 6d f7 4b 3e 39 61 62 3f
       -0.034517657 0.04254868 0.19918604 0.884296
0001f0 8f c6 96 3c a2 6b b5 3e 7b bb ca 3f 83 14 10 3f
       0.018405227 0.3543368 1.5838464 0.562813
000200 e0 bf 98 bd 13 f0 32 be fe c1 39 bd c8 aa 3a 3d
       -0.07458472 -0.17474394 -0.04535102 0.045573026
000210 47 c9 87 3f e3 ba 90 bd c9 8b 26 3c 18 87 a5 bf
       1.06083 -0.07066896 0.010165163 -1.2931852
000220 2f 59 cf bd 8a 2c 50 be 58 ba 01 bb 3a a7 ec bc
       -0.10124432 -0.2032949 -0.0019794907 -0.028888334
000230 e1 48 9a bc d8 00 cb bc 26 ba d9 3b c7 2c 01 bc
       -0.01883358 -0.024780676 0.006644505 -0.007884211
000240 34 0f 1a bf 60 3b 2b 3e 25 4b 1c 3f b1 6e 95 bf
       -0.6017945 0.16721869 0.6105216 -1.1674405
000250 2b 1b 03 bd f0 c2 0b c0 1b 50 4c be 05 43 38 be
       -0.03200833 -2.183773 -0.19952433 -0.17994316
000260 9c 21 31 bd 0b 74 ef 3d 92 6c b7 3e bf f8 58 3c
       -0.043244943 0.11692055 0.3582502 0.013242899
000270 01 8a 19 3e 11 5f 0c bf c6 be 83 be 0d a4 87 be
       0.1499405 -0.5483256 -0.25731486 -0.26492348
000280 ae d4 dd bc 96 1d 3b bd 3e 56 44 3d 68 eb c6 3d
       -0.027078953 -0.045682512 0.04793381 0.09712869
000290 8d e7 ea bc 67 da 54 3c cb 1f 28 bf 84 d5 39 bd
       -0.028674865 0.012991524 -0.6567351 -0.04536964
0002a0 6e e4 a9 3e f1 f5 30 be ff 70 97 be 3e d8 80 3e
       0.3318209 -0.17281319 -0.29578397 0.2516498
0002b0 33 24 45 3e 09 21 9e 3d e6 05 45 be 01 21 0a 3e
       0.1925209 0.07721145 -0.19240531 0.13489152
0002c0 10 7d 8b 3e 46 b4 34 be b8 0d 90 3d 4a ca fa be
       0.27243853 -0.17646894 0.07033867 -0.4898246
0002d0 8e ca 68 3d 62 99 d0 3d 47 20 24 3d d4 c0 98 3d
       0.056833796 0.101855054 0.040069845 0.07458654
0002e0 1c 2b c4 3c 7a 8c 19 bb 4d ba 9a 3d 25 5e 42 bd
       0.023946337 -0.0023429678 0.07555065 -0.047453064
0002f0 6c 09 16 bf 8a 65 63 be cb 15 99 3e 15 d6 86 3e
       -0.58608127 -0.22206703 0.2989944 0.26335207
000300 ea 64 f2 be d6 55 34 3d 44 e6 19 be 57 5c f0 bd
       -0.47342616 0.044027172 -0.15029246 -0.117363624
000310 fe 6d fe bd c6 37 95 3d 86 26 e2 be 5c 18 1d 3d
       -0.12423323 0.072860286 -0.44170016 0.03835331
000320 c7 5e fb bd 5a 4a c4 3e a2 8a 80 be 1c c8 c7 bd
       -0.12273937 0.38337976 -0.25105768 -0.09754965
000330 ec 92 7f 3b 78 c1 55 bb 3b 98 d1 3b 65 59 af 3c
       0.0038997484 -0.0032616537 0.006396321 0.021404931
000340 1c 20 dc 3b 7f c7 91 3c 91 f2 0d 3f b5 55 11 3f
       0.006717695 0.017795322 0.5544825 0.56771404
000350 35 5e 2d be 16 3a 09 3f f3 bd 9c 3f a2 4b e4 3e
       -0.16930468 0.5360426 1.2245468 0.44588953
000360 e3 c4 2a be aa da e4 bd 32 4a 30 3e c4 2c 31 be
       -0.16676669 -0.11174519 0.17215803 -0.17302233
000370 ff 2f ec 3e 0e ee 20 3f 4b a5 0b 3d 77 9c 91 3f
       0.46130368 0.6286324 0.034093183 1.1375874
000380 6a 66 00 bf 0c a5 af 3e 54 02 27 3d 1c 31 75 3d
       -0.5015627 0.34305608 0.040773705 0.059861287
000390 f0 9e c2 ba d4 68 e5 3c 1c 6e bb 3c a7 70 83 bb
       -0.0014848392 0.028004088 0.022879653 -0.004011232
0003a0 df 50 be 3e dd 67 55 3f 44 75 da 3d 68 4a 7b 3d
       0.37171075 0.8336161 0.10666898 0.061350256
0003b0 4f 0c 91 bf 6b ee f5 be 92 0e b9 bd 9e 6c 80 3d
       -1.1331881 -0.4803346 -0.09035982 0.06270717
0003c0 67 2c 90 3d b6 c9 23 3e bf 49 82 3c 4f 98 d2 3e
       0.07039719 0.15994915 0.015904306 0.41131827
0003d0 d5 df a5 bc 10 4f 2e bf a0 96 b5 3d 58 c8 e2 be
       -0.020248333 -0.6808939 0.0886662 -0.44293475
0003e0 cc 93 00 ba ed b4 6c bb 0f 9e 20 bc 39 8e 90 3c
       -0.0004904836 -0.0036118582 -0.009803309 0.017645942
0003f0 55 7c 84 3c 7a ad 14 3d e7 37 8c bd a8 f8 79 3f
       0.016172567 0.036298253 -0.068466 0.97645044

fc1.bias f4 [128]
000000 69 49 75 be a1 de 97 3c 45 82 b6 3d f3 87 e1 3d
       -0.23953785 0.018538775 0.08911566 0.110122584
000010 d7 b6 1a bd 37 56 8d 3e 65 b3 9a 3e ae 51 98 3e
       -0.037772026 0.2760484 0.30214992 0.29749817
000020 aa fa ab 3e 7a c8 39 be 01 e6 41 be 08 a0 86 3e
       0.3358968 -0.18142882 -0.18935396 0.2629397
000030 d5 44 00 3d 74 c9 96 be 90 8c 8e 3d e9 01 05 3d
       0.031315643 -0.29450572 0.06960404 0.032472525
000040 a9 20 de 3d 93 42 9f 3e 44 25 96 3e 68 89 df 3d
       0.10846073 0.3110548 0.29325306 0.1091488
000050 5d 10 d7 bd 10 1c cf 3e 97 bf 71 3e a9 49 c7 bd
       -0.10501168 0.40451097 0.23608242 -0.097308464
000060 49 58 71 3e 92 12 de 3d 54 96 dd bd 4f 9a ee bd
       0.23568834 0.10843386 -0.108196884 -0.11650526
000070 03 ee 74 3d 3c 7d 1f 3d 4c 61 00 bd 18 63 84 3e
       0.0597973 0.038937792 -0.03134279 0.25856853
000080 90 0b ed ba cb d1 55 3d ec d3 16 3e b4 70 71 3e
       -0.0018085111 0.052202027 0.1472928 0.23578149
000090 1d 5b 2a bd 59 d2 a0 bd 91 a5 80 3d 03 45 80 3e
       -0.0415908 -0.07852621 0.06281579 0.25052652
0000a0 f0 2f e9 bc 0a fb b2 3d 3b b3 8d 3e 46 e6 d3 3e
       -0.028465241 0.08739288 0.27675804 0.41386622
0000b0 3f 23 a2 3d e8 cf 91 3e f4 c6 94 bc 57 8e 7f bd
       0.07916879 0.28478932 -0.018161274 -0.062391605
0000c0 b8 d6 ed 3d de f5 f8 3d a8 ae 8d 3d 9f 59 44 be
       0.1161322 0.121562704 0.06918079 -0.19174813
0000d0 f6 83 e6 3d ac 78 ba bc c1 98 91 3d 72 e4 14 3e
       0.11255638 -0.022762619 0.071092136 0.1454027
0000e0 4a d4 a6 3d 1d 2f 02 3e 05 e5 32 3c 9a c0 e9 bd
       0.0814596 0.12713285 0.01091886 -0.11413689
0000f0 88 11 78 3d bb ff d3 3d e6 b8 21 3e 73 9a 71 bd
       0.060563594 0.10351511 0.1579319 -0.058985185
000100 cc c4 6f 3e 3a 77 2f 3e 14 09 94 3e 0f d2 5d 3e
       0.23414916 0.17135325 0.28913176 0.21662162
000110 85 2d a5 3e 04 bf e2 3e fb 5e 03 3e 73 4e d7 3e
       0.3226129 0.44286358 0.12829201 0.4205204
000120 41 28 15 3e a8 ec 86 bd 1b ca cf 3d a0 ca fb 3d
       0.14566137 -0.06588107 0.101459704 0.12294507
000130 32 95 2e 3c 68 e8 88 3c e8 78 26 3e bc fe 38 3e
       0.010655688 0.016712382 0.1625706 0.18065923
000140 dc 15 16 3e 66 b5 1d 3e 22 2d 14 3d de dc d9 bd
       0.14656776 0.1540123 0.036175855 -0.1063783
000150 ae a3 a1 3e a8 3d d8 3d b5 08 1a 3d 42 8b 33 3e
       0.3157019 0.10558635 0.03760596 0.17533591
000160 8b 90 f6 3b 89 78 82 be 8c 03 c3 3e 6e 65 3c bc
       0.007524555 -0.25482586 0.38088644 -0.011498792
000170 dd 01 ff bd 0e a1 fe bd 9e 1e 6b 3d 12 54 ec 3d
       -0.12451527 -0.124330625 0.057402246 0.11539473
000180 84 19 52 3e 1e 68 b9 bd ba 49 42 3e c7 f7 c0 3e
       0.20517546 -0.09053062 0.18973437 0.3768904
000190 07 0a 00 be de a3 a4 3e 45 e1 1f bd 24 ee 07 3e
       -0.12503825 0.3215627 -0.039033193 0.13274437
0001a0 78 af 9f 3e aa 8f e7 bd e8 81 84 3e 03 ca 2a 3e
       0.3118856 -0.113066986 0.2588036 0.16678624
0001b0 ac 39 9e 3e 70 81 3c 3d 5a 91 a4 3c 3a 87 94 bd
       0.30903375 0.04602188 0.02008884 -0.07252355
0001c0 3a 19 57 3e a1 9c fe bd 0a 1d 4a 3e 8f 50 10 3e
       0.21005717 -0.12432218 0.1973764 0.1409323
0001d0 c5 ff 9d 3e 1e 0b 31 3e e6 9e 26 3e d2 ba f0 bd
       0.308592 0.17289397 0.16271552 -0.11754383
0001e0 0e 3a 9e bd 58 f7 43 3d a1 2a 87 3d 27 4b 6d 3e
       -0.07725917 0.047843307 0.06599928 0.231732
0001f0 d3 4f bf bd 95 79 87 3e e7 dc e7 3d 19 29 43 3c
       -0.09341397 0.26459947 0.11321431 0.011911654

fc2.weight f4 [128, 128]
000000 44 56 26 3e c9 37 02 3e 62 0e 2a 3f ba 94 74 be
       0.16243845 0.12716593 0.66428196 -0.2388486
000010 61 b6 36 3f a5 6c 6b 3e 90 45 4b 3e 40 db ea 3c
       0.7137204 0.22990663 0.19850755 0.028669
000020 6a 1c 7c 3e ff 9b 28 3d a1 05 a1 be bd 6b 37 3e
       0.24620214 0.041164394 -0.31449607 0.17912193
000030 77 cb 3d 3e 16 17 69 3f e6 f6 dc 3d 8a 64 0f c0
       0.18534647 0.9105085 0.1078928 -2.2405114
000040 2b cc 83 3d 07 02 0f 3e 08 7e 3e 3f e9 50 31 3f
       0.06435426 0.13965617 0.7441106 0.69264084
000050 46 31 89 3e a7 6a dd be d2 50 bb 3e 81 83 9a be
       0.26795405 -0.43245432 0.36585099 -0.30178455
000060 d5 02 14 3e 5a 06 0a 3e 9d 95 8c 3c e6 5c 18 bd
       0.14454205 0.13478985 0.017161185 -0.03719797
000070 0c f8 a7 3d 8d 30 c7 be 77 09 7f be 5a bc 87 be
       0.08201608 -0.3890423 -0.24905954 -0.26510888
000080 dd 4a 57 bf 30 db 93 be d3 a1 62 3e d5 6d bc 3d
       -0.8409861 -0.28878164 0.22132044 0.09200636
000090 47 f0 8f 3e 30 16 18 bc d2 1b 03 c0 ea a0 21 be
       0.28113005 -0.009282634 -2.048573 -0.1578404
0000a0 f9 bf 57 bf b4 a2 63 be d1 13 71 3e a0 23 b3 bc
       -0.842773 -0.22230035 0.23542716 -0.021867573
0000b0 91 ed 9e 3d 4a 18 35 3d 8e 4c 45 bf 81 e4 78 bc
       0.07760156 0.044212617 -0.7706994 -0.015191198
0000c0 bb bc 7c 3e 4e 72 8e be 53 a2 d5 3e a2 a7 fc be
       0.2468137 -0.27821583 0.41725406 -0.49346644
0000d0 9a b4 b8 be d7 87 f5 3e 08 b3 7f bb fa 37 8f 3e
       -0.36075288 0.479552 -0.0039016623 0.27972394
0000e0 19 5b 2d 3f 21 7e 16 3e cc 68 66 be 8f 3a ef 3e
       0.6771713 0.14696552 -0.22500914 0.46724364
0000f0 b3 7a d6 3e 5b cb ab 3e 37 68 f2 3e 3b d2 bd be
       0.41890487 0.33553585 0.47345135 -0.37074456
000100 c0 67 d2 3d a2 b5 11 bf 3c 43 64 3e fb 70 e2 be
       0.10273695 -0.56917775 0.22291273 -0.44226822
000110 32 95 97 be 59 74 a9 be c1 3a 82 bf 43 7f 9e 3e
       -0.29606014 -0.3309658 -1.017418 0.30956468
000120 93 db 7a bf 6c 13 91 bd d3 18 07 3e 88 05 f5 3e
       -0.97991294 -0.070837826 0.13193063 0.47855783
000130 3e c0 8e 3f 01 fc 81 be 86 cd 94 3e e0 41 8b 3d
       1.1152418 -0.25387576 0.29063052 0.06799674
000140 5c b0 8b 3e 60 26 60 be 47 b7 a4 3e 07 5c 18 3f
       0.2728299 -0.21889639 0.3217108 0.5951542
000150 b3 58 56 3e 7e dc 6b 3d b9 2b 40 3e c1 99 ef be
       0.20932274 0.057583325 0.18766679 -0.46796992
000160 1b 63 31 3e ee c9 a5 3d d0 62 06 bf 1d 1b e8 bd
       0.17322962 0.08095156 -0.52494526 -0.113332964
000170 dc db 81 be 22 97 b1 3d 96 a9 bd 3e 18 10 59 3d
       -0.25363052 0.086714044 0.37043446 0.052993864
000180 23 43 3e be 7b 96 15 3f 30 0f 38 3f f1 32 56 3d
       -0.18580298 0.5843274 0.71898174 0.052294675
000190 3a 2a f2 be b0 60 ba 3e 21 9d 4c be 81 e8 2b 3f
       -0.4729784 0.36401892 -0.19981815 0.6715165
0001a0 04 15 8e be 90 01 83 bf b5 0b 9a 3c 48 d6 25 3e
       -0.2775041 -1.0234852 0.01880441 0.16195023
0001b0 b3 7d c2 be 69 b7 ce 3b 2d 61 07 be 48 50 71 3e
       -0.37986526 0.0063084853 -0.13220663 0.23565781
0001c0 5f dc 8c bd 83 33 f0 3d 17 24 30 3f 81 8c d4 be
       -0.0687797 0.11728575 0.6880507 -0.41513446
0001d0 f4 e6 6f 3d fb 48 69 be e6 0a b9 be f9 bb 24 3c
       0.058569863 -0.22781746 -0.36141127 0.010054582
0001e0 a6 09 3f c0 2d 51 05 3e b5 45 ce be e0 1b ac bc
       -2.984964 0.13019247 -0.40287557 -0.021009386
0001f0 f4 65 81 3f d1 e4 1e 3f bf a2 4a 3e 80 18 93 3f
       1.0109239 0.62067896 0.19788645 1.1491852
000200 61 48 44 3d a3 e7 2a 3e b1 64 94 3e 5b df 2d 3e
       0.04792059 0.16689925 0.2898307 0.16979735
000210 29 ed 17 3f 95 ea 3a be a4 aa 35 bf 61 7c 41 3a
       0.5934625 -0.18253548 -0.709635 0.00073808996
000220 e5 b1 bd be 3a 63 f6 bd 8f 5e ae 3d 25 a1 c2 be
       -0.37049785 -0.12030645 0.08514129 -0.3801357
000230 13 a8 06 3f 5c ba 7c bf 45 99 b6 3e 40 ef 66 bf
       0.5260021 -0.9872186 0.3566381 -0.90208817
000240 57 7f 4c 3e a0 f5 ef be f2 e1 61 3e 4c 9c 24 be
       0.19970451 -0.46867085 0.22058848 -0.16075248
000250 28 90 2c 3e b0 d4 69 3d 2d 03 48 bf cc a5 11 3f
       0.16851866 0.0570876 -0.78129846 0.5689361
000260 ae d8 83 be 24 ad 68 3f 0a a6 bf 3e 4b f9 11 3f
       -0.2575125 0.9088919 0.37431365 0.57021016
000270 90 60 a4 bd 32 60 14 3e 07 4a 2d be 46 66 7e 3c
       -0.0802623 0.1448982 -0.1692277 0.015527314
000280 fe 2c 8a 3e 04 b7 da 3d 32 df 37 bf 1d 47 f4 3e
       0.2698745 0.10679439 -0.71824944 0.47710505
000290 a5 42 39 be 24 91 e9 3e ed 93 09 bf fc 5a 70 3f
       -0.18091829 0.45618546 -0.5374134 0.9388883
0002a0 e2 77 30 bf c7 c3 b1 be d6 9f f9 3d 97 44 bf bc
       -0.68932927 -0.3471968 0.121886894 -0.023348136
0002b0 56 59 05 be 8f f1 3e be 73 43 5f 3f 60 43 c4 bd
       -0.1302236 -0.18646835 0.87212294 -0.09583163
0002c0 3d fd 05 3f 1c 3f 98 bf 66 84 8f bc 63 e1 ea be
       0.52339536 -1.189426 -0.017519187 -0.4587508
0002d0 2a 3c 48 3d e6 4f ea 3b 2b ae ec 3e 4a 94 0e 3e
       0.048885502 0.007150638 0.4622663 0.13923755
0002e0 bc bd a8 3e 60 a3 53 be 8c 3f 36 3f 91 3e 51 3e
       0.32957256 -0.20667791 0.71190715 0.20434023
0002f0 01 fb bc be 91 ea 0c bf d8 08 f7 3c 47 3c 87 3e
       -0.3691025 -0.5504542 0.030155584 0.26413175
000300 0c 63 dc be d2 c3 08 bd 8f ef 35 bf 7b c9 17 3f
       -0.43044317 -0.033389874 -0.7106866 0.5929181
000310 a6 ae 8b be ab 72 09 3e 3f 0c 94 3e 32 1d 37 be
       -0.27281684 0.13422649 0.28915593 -0.17882231
000320 ca ca cd 3e 60 a2 45 be 61 a9 c2 3d 26 41 5a be
       0.40193778 -0.19300222 0.09504963 -0.21313915
000330 05 99 31 bf ba 56 01 3f e4 d2 85 bd 80 6c ea 3c
       -0.69374114 0.5052296 -0.06534365 0.02861619
000340 3a e2 0f bd 0b 10 0f bf a9 ee 8e 3d 47 af 64 3e
       -0.035127856 -0.55883855 0.069791146 0.22332488
000350 1b 74 07 bf 5f 5c 1b be 08 f7 b7 3e bc 03 d9 3c
       -0.5291154 -0.15171956 0.35930657 0.026491039
000360 0d a3 5e bd 3a 94 a2 bf da 3c d2 3e 8f 8c 9b be
       -0.054354716 -1.2701485 0.4106205 -0.30380675
000370 9c d6 c5 3e 33 ae 31 3e 70 9f 07 3e f1 c8 bf bc
       0.38640296 0.17351608 0.13244414 -0.023411246
000380 32 01 01 bf 3f ca 55 3e 8f 8d 19 3f 94 49 a2 be
       -0.5039245 0.20877932 0.59981626 -0.3169676
000390 21 8d a2 3e 44 41 cb 3d 75 63 db 3e 43 1b 49 bf
       0.31748298 0.09924558 0.42849317 -0.78557223
0003a0 5a e9 c3 be 9a 97 eb 3e 24 d8 1e 3e af f7 aa be
       -0.3826397 0.460141 0.15512139 -0.33392093
0003b0 cc 28 af 3e bf 84 c5 3d e7 ea 0d 3e e8 59 29 3e
       0.34210813 0.0964446 0.1385914 0.16538203
0003c0 78 e4 d2 3e 19 99 e5 bd 04 a1 b1 bf 10 3a 1b bf
       0.41189933 -0.11210842 -1.3877263 -0.6063547
0003d0 96 e8 8b 3e 8b 95 1c be 60 c3 20 3f 7d 49 9c 3e
       0.27325886 -0.15291421 0.6279812 0.30524817
0003e0 76 6c 58 bf 33 00 0b 3d de e3 ae 3d ac 6e 48 be
       -0.845405 0.033935737 0.08539556 -0.19573468
0003f0 fe 1e 10 bf 0c 56 b7 3b 47 60 c0 3e c3 88 0a bd
       -0.5629729 0.0055949744 0.37573454 -0.033821832

fc2.bias f4 [128]
000000 7f 31 e0 3d 05 68 a6 3d 22 bf c0 bd eb d0 5c 3d
       0.10946941 0.08125309 -0.09411456 0.053910177
000010 ab c1 66 3c e0 e6 81 bc 89 75 a8 3b 8a 20 43 bd
       0.01408426 -0.01585716 0.0051409644 -0.047638454
000020 b4 fc ff 3c f2 c4 8f 3e b8 84 eb 3c fb a8 3f 3d
       0.031248428 0.28079945 0.028749809 0.04679201
000030 b7 5d 4f 3e 32 6f fa 3d 4f 9d a0 3d 41 a7 c0 3d
       0.20250593 0.1222824 0.07842504 0.09406901
000040 7b ff 79 3d 3b 6f 0c 3e 02 32 9b 3d 26 5a 99 3d
       0.06103466 0.13714306 0.075778976 0.074878976
000050 8f 79 2f be 47 e0 da 3d 44 e0 cb 3c 37 fa 28 3d
       -0.17136215 0.10687309 0.024887212 0.04125425
000060 07 92 08 3d a1 cd 38 3e b4 25 1b 3e ea 8a 06 3d
       0.033342388 0.18047191 0.15151101 0.032847323
000070 94 6f 0a 3e 5c c2 da 3d 57 3c 5b 3e 0f fa 01 3c
       0.13519126 0.10681602 0.21409737 0.007933154
000080 cb d6 36 3e 4b 1b 85 3e ad e5 b5 3d 9e 30 92 bc
       0.17855375 0.25997385 0.08881698 -0.017845448
000090 58 95 da bc e2 38 2b 3e 24 6a 03 3d de 2b 0f 3e
       -0.02668254 0.16720918 0.032083645 0.13981578
0000a0 1d cd 00 3d 4f ae 39 bd d9 12 cb 3d 9c 2c 54 bd
       0.03144561 -0.04533225 0.09915704 -0.051800355
0000b0 5d 0a cf 3d 9e 99 92 bd 98 3c 83 3d 69 98 7d 3d
       0.101093985 -0.071582064 0.06408042 0.061912928
0000c0 bd b1 0b 3e 52 ac 11 be a2 b5 5b bc cb cc b7 bc
       0.1364202 -0.14225891 -0.013410004 -0.02243652
0000d0 8f 5c c2 bc 61 2e 53 bd 52 a7 6e 3e a0 e1 d9 3d
       -0.023725776 -0.051557902 0.23306015 0.10638738
0000e0 dd 0f 58 3e c3 7a db 3d 9d 9e 9f bd 14 df b2 3d
       0.21099801 0.10716774 -0.07793925 0.08733955
0000f0 8c 0f 70 bd 86 9d fd 3d 0b 22 00 bd e3 c9 3e 3e
       -0.058608577 0.12383561 -0.031282466 0.18631701
000100 72 24 59 bc 93 3d 31 3e ea 48 52 bc de 9a 54 3e
       -0.013253318 0.17308645 -0.012834767 0.20762202
000110 ee 85 0e 3e 75 b1 e3 bd 3d ad a1 3a 18 32 10 be
       0.13918278 -0.111178316 0.0012334954 -0.14081609
000120 a8 5f 79 bd 52 99 c2 3d 9b eb 2c 3e cd 0e 8c 3d
       -0.06088224 0.095019 0.16886751 0.068387605
000130 cb f8 29 3d f9 35 67 3d 0d ea 17 3e cc d9 8a 3d
       0.041497033 0.056447957 0.14835377 0.06779823
000140 0e a1 30 3e 2b b5 75 3d 9c 29 10 3e 01 df bf bd
       0.17248937 0.05998723 0.14078373 -0.093687065
000150 73 2c b0 3d 50 b3 da 3d c4 e2 cb ba f5 4d d9 3d
       0.08602228 0.106787324 -0.0015555252 0.10610572
000160 45 20 88 bc 1f 1c 4e 3e 55 55 c2 bc f1 d2 f4 3d
       -0.01661695 0.20127915 -0.02372233 0.119542964
000170 59 0b 11 3e 1e f0 7c 3d 4a 72 79 3d 15 54 54 bd
       0.14164485 0.06175243 0.06090001 -0.051838
000180 62 30 6c 3c fc b3 59 bb 50 34 a6 3d 1f b8 7a 3d
       0.014415832 -0.0033218851 0.081154466 0.061210748
000190 42 8b 02 3e 60 35 8b 3d 55 84 44 3d 50 8d 3a be
       0.12748435 0.0679729 0.047977764 -0.18217969
0001a0 6a 70 19 3e 48 11 2e 3e 77 21 a8 3d 10 24 d7 bd
       0.14984289 0.1699878 0.08209508 -0.10504925
0001b0 78 92 0b 3c 8f 7d f3 bd 4b 76 99 bd c0 aa b7 3c
       0.008518808 -0.11889183 -0.07493266 0.022420287
0001c0 2b 65 8d bd e7 9e e6 3d 38 05 1f bd 75 5c 71 3d
       -0.06904062 0.11260777 -0.038823336 0.058926065
0001d0 ee 9a 8b bb 02 72 4e 3d ae d1 99 3e 8e 54 f2 bd
       -0.0042604124 0.050401695 0.30042785 -0.11832534
0001e0 93 17 81 bd 4e c6 6b 3d 55 33 a6 3c ea 8b 7e 3d
       -0.063033246 0.057562165 0.020288149 0.06214515
0001f0 a3 17 1b bd 59 87 36 3e 40 9c 98 3d a4 f4 2b 3e
       -0.03786434 0.17825069 0.07451677 0.16792542

fc3.weight f4 [6, 128]
000000 32 e1 38 bf e3 5a 8d bf f3 6d ee 3d 2d 17 98 bf
       -0.7221862 -1.1043361 0.11642065 -1.1882073
000010 b4 51 1a bd 11 36 6c be 99 ea 68 3d 69 0a 90 bf
       -0.037675574 -0.230675 0.056864355 -1.1253177
000020 dd 7e a4 40 20 8f 99 3f 4c 50 d7 c0 80 28 99 3f
       5.1404862 1.1996803 -6.728552 1.1965485
000030 d7 87 2b bf ac 04 99 bf 5a 1f 79 3e b1 0c b0 bf
       -0.6700415 -1.1954551 0.24328366 -1.3753873
000040 cd 98 50 3e b2 69 93 bf ac 2e ef 3e e6 90 4d 3e
       0.20370789 -1.1516631 0.46715295 0.20074806
000050 c5 0a 8e bf ea 24 84 be 4b 9d af 3c b9 6d 88 be
       -1.1097037 -0.25809413 0.021437308 -0.26646212
000060 d1 a0 e1 bd 94 81 fe 3f 5f a2 24 3e 04 d8 80 3f
       -0.110170014 1.9883294 0.16077565 1.0065923
000070 83 ec c3 be d4 64 25 3e f8 f6 4d 40 3e 20 c8 3d
       -0.38266382 0.16151744 3.2181988 0.09771775
000080 99 ae ea 3e 27 03 e4 bf 08 e0 d2 3e 0e 41 05 3e
       0.45836332 -1.7813462 0.41186547 0.13013098
000090 ed 97 07 3e 71 09 2f 40 6b 77 7e 3d b0 35 1b bd
       0.13241549 2.7349513 0.062125605 -0.037892997
0000a0 21 e2 b6 3e c5 67 b5 bf 08 49 80 be bb 9c dd 3f
       0.35719398 -1.4172293 -0.25055718 1.7313455
0000b0 a0 3d 16 be e7 d7 21 bf 47 95 07 3f cf 1d 4f 3f
       -0.14671946 -0.63220066 0.52962154 0.8090486
0000c0 bc b6 74 3f 27 94 31 bf d3 e4 8f 3e 55 7a 88 3f
       0.9559133 -0.6936669 0.28104267 1.0662333
0000d0 5d aa 97 bf 4b 86 16 3f 04 f7 02 c0 0a 23 5d bf
       -1.1848866 0.58798665 -2.0463266 -0.8638159
0000e0 30 37 09 bf 56 2b e0 be 97 d4 97 bb 99 fe a7 3d
       -0.53599834 -0.43783063 -0.004633497 0.082028575
0000f0 63 f7 d2 3d fb b7 03 be 28 07 b2 bf 45 10 31 3f
       0.103010915 -0.12863152 -1.3908434 0.6916545
000100 ae f7 36 40 36 70 15 bf 8f 20 d1 bf 14 b0 b1 bf
       2.8588672 -0.58374345 -1.6338061 -1.388186
000110 5d 9b a3 3e f1 0b 02 3f 62 aa bd bf 89 dd 7e be
       0.3195447 0.5079947 -1.4817622 -0.24889196
000120 3c ac 76 be 81 21 20 3d 0e ee 9f 3f da ab 25 3e
       -0.2408914 0.03909445 1.2494524 0.16178837
000130 30 f2 56 c0 a3 3f d3 3e 62 18 b3 be 33 9f 6d 3e
       -3.358532 0.41259488 -0.3497954 0.23205261
000140 01 95 64 3e 49 49 08 3e 8b de 0e 40 e9 02 06 c0
       0.22322465 0.13309206 2.232333 -2.0939276
000150 9c 53 28 be 4c b4 04 3f a3 a0 82 3e ea 39 a2 bf
       -0.16438144 0.5183761 0.2551318 -1.2673924
000160 9f 61 7e bd 35 b3 21 bf 36 8a 18 3e c9 1a a3 bf
       -0.062104817 -0.63164073 0.14896473 -1.2742549
000170 2e 80 29 3f f5 aa 5d bf da 38 c7 3e 58 91 2d c0
       0.6621121 -0.86588985 0.38910562 -2.711996
000180 82 14 85 bf f1 e4 a7 3d bf b3 7e 3d 68 eb c0 3c
       -1.0396883 0.08197964 0.062183138 0.02354975
000190 eb 1e 51 3d dd 26 85 bf c2 6a c4 3d b8 ed 1e 40
       0.051054876 -1.0402485 0.09590675 2.4832592
0001a0 f2 26 31 3f 62 78 f7 3e df 80 74 3e 8b 50 ac be
       0.6920005 0.48334032 0.23877285 -0.336552
0001b0 78 c9 94 be 84 27 2b bf 3e f7 94 bd 6c cc 4f bf
       -0.29059958 -0.6685717 -0.0727372 -0.811713
0001c0 c5 9f 7f bf 8f fa ed 3f e4 f2 a8 3d 4b 32 b7 3d
       -0.99853164 1.859209 0.08249453 0.089451395
0001d0 cb 08 49 3e ea 88 67 be e9 fa 74 3f 3d ae 74 bf
       0.1963226 -0.22610822 0.9569536 -0.95578367
0001e0 56 80 e6 be ef 58 ec 3c 15 b6 24 be 87 a6 1f 3d
       -0.45019788 0.028851 -0.16085084 0.038977172
0001f0 79 02 dc bf 82 a3 c9 be 7c b5 34 be 83 b4 c8 be
       -1.7188255 -0.3938256 -0.17647356 -0.3920022
000200 13 ab cf bf f9 7f 43 bf 4e 4a bb 3e dd a5 bc bf
       -1.6224083 -0.76367146 0.36580127 -1.4738117
000210 6c 6e 50 3d 66 fa e2 be 9c b2 7b 3d 7d 5a ff bd
       0.050886557 -0.44331664 0.061449632 -0.12468431
000220 62 9c e8 3f c1 39 0d 3f 72 35 42 40 15 22 5c 3f
       1.8172724 0.5516625 3.034512 0.85989505
000230 eb 91 64 3e b5 36 31 c0 b3 01 12 3f 41 06 2b bf
       0.22321288 -2.768964 0.5703384 -0.6680642
000240 11 48 6f bf 49 d2 e4 bf c7 9a b4 be 5f 06 b7 be
       -0.9346934 -1.7876674 -0.35274336 -0.35747048
000250 72 1f b7 3d 77 4d 10 3e 6e 10 25 3f ba 08 85 3c
       0.089415446 0.1409205 0.64478195 0.016239513
000260 98 f5 29 bf 5f 14 c7 3f 28 63 37 3e 97 2a 11 bf
       -0.6639037 1.5553092 0.17908919 -0.5670561
000270 22 c9 3b bf 05 a0 17 be 8f 3a 5d 40 fc b2 d4 3e
       -0.7335378 -0.14807136 3.4566991 0.41542804
000280 09 50 f6 3f 7f 96 29 c0 b7 64 27 bf 30 79 2f 3f
       1.9243175 -2.6498106 -0.65388054 0.6854429
000290 af ec 61 3f 49 f1 ae 3e 31 24 00 3f 51 ca 70 bf
       0.88251776 0.3416846 0.50055224 -0.9405871
0002a0 34 f7 7c 3e c5 e6 10 c0 10 8c 44 3f 4f ab 02 bf
       0.24703676 -2.264085 0.7677622 -0.51042646
0002b0 6f 82 8d 3e 6c b8 49 be a8 72 43 3f cf d9 5a 3c
       0.27638575 -0.19699258 0.76346827 0.013357594
0002c0 88 fc 08 be d4 9f 8a 3e c0 1d 87 be e5 c2 b2 3f
       -0.13377583 0.27075064 -0.26389885 1.3965727
0002d0 58 3e bb bf 6a cf 9a 3e 6f dd d6 be cd 29 ac 3f
       -1.4628401 0.3023637 -0.41965815 1.3450257
0002e0 e3 7a 7b 3e 81 11 a8 bf 8b fb a5 3e 9d 6f e5 3e
       0.24558596 -1.3130342 0.32418475 0.44811717
0002f0 70 13 c4 bf ba 3b 8e 3d 99 0a 76 bf b3 74 18 3e
       -1.5318432 0.06944986 -0.9610992 0.14888267
000300 f3 6b 24 40 59 60 49 bf f8 7d 1c 3e 59 18 e0 bf
       2.5690887 -0.7866264 0.15282428 -1.750743
000310 2d cc eb be 43 c0 e7 3e ba 22 c9 3e 0b ff 8e 3c
       -0.4605421 0.45263872 0.39284307 0.017455598
000320 92 56 bc 3e 98 2d f1 3e f6 68 a0 bf d2 69 88 3e
       0.36784798 0.47105098 -1.2532032 0.26643234
000330 0c e3 bb 3f 5f 4d 73 3f a6 a0 a3 3b 5e 5e 71 be
       1.4678664 0.95039934 0.004993516 -0.23571154
000340 b6 cd 16 c0 16 12 f7 3f f7 a4 1d bf 97 f3 72 be
       -2.3563056 1.9302394 -0.6157984 -0.23725735
000350 b5 39 e4 3d c2 9c d2 bc 61 59 1c bf 43 40 d1 bf
       0.11143819 -0.025709514 -0.6107388 -1.6347736
000360 20 19 87 be 79 b8 b1 bf a9 80 f0 bd cb 67 98 3f
       -0.26386356 -1.3884422 -0.1174329 1.1906675
000370 04 2d 06 40 be b5 3f 3f e7 ce 41 3e 80 9b 40 c0
       2.0964975 0.7488669 0.18926583 -3.009491
000380 86 55 29 bd 4a c6 c8 3e 68 8d 25 3f 01 72 8d 3d
       -0.041341327 0.39213783 0.64668894 0.0690651
000390 b3 0b a2 3f 6e 68 59 bf 82 8f b3 bf 85 8c 34 be
       1.265982 -0.8492497 -1.402817 -0.17631729
0003a0 07 d9 cc 3d 3f f5 45 3f 1e 09 47 3e 62 3a 3a 3f
       0.10002332 0.7732734 0.19437072 0.72745335
0003b0 47 ac c6 bd d1 97 01 bf 52 7c 8d bd dd f5 b2 3e
       -0.09700828 -0.5062228 -0.06908478 0.34953204
0003c0 2a e3 5c be 6d 55 ce 3d 1b 53 77 3d ed 3a a3 3e
       -0.21571031 0.100748874 0.06038199 0.31880894
0003d0 c4 6f a6 3d 7e 46 a2 3e a7 e8 cc 40 7e c0 c7 bf
       0.08126786 0.31694406 6.4034 -1.5605619
0003e0 d5 0f 03 bd 6d b0 0d 3d 1e 33 94 be 80 9f 2a 3f
       -0.03199752 0.03459208 -0.2894525 0.6664963
0003f0 41 f9 75 3f ee b6 b3 3f f6 f0 9b 3f 5b d4 8d bf
       0.96083456 1.4040201 1.218291 -1.1080431

fc3.bias f4 [6]
000000 1b 59 d7 3d 87 39 bf 3e 28 86 8b 3e e5 9d 1c bd
       0.105150424 0.37348577 0.2725079 -0.038236517
000010 b4 b3 8b bb 02 35 c7 3c
       -0.0042633656 0.024317268
