demo/2_2_5/critic_2_3.pth (torch, 108582 bytes, 5 tensors)

fc1.weight f4 [148, 28]
0	0xbe23cb2c	-0.15995473
1	0xbf51ecdb	-0.8200204
2	0xbf8adc33	-1.084845
3	0x3f0c0dd9	0.5470863
4	0xbf8f2544	-1.1183248
5	0xbf824299	-1.0176574
6	0x3d3293ff	0.04359817
7	0xbf591e4e	-0.84811866
8	0xbebc2107	-0.36743948
9	0xbd72b3b9	-0.059253428
10	0x3ebac93f	0.36481664
11	0xbe289c5d	-0.16465898
12	0xbff9a216	-1.950259
13	0x3e219795	0.1578048
14	0x3ea55197	0.3228881
15	0x3eb9e03b	0.36303887
16	0xbf56c81a	-0.8389908
17	0xbf495dac	-0.78658557
18	0x3d6e62da	0.05819974
19	0x3e2fd9d7	0.17172943
20	0xbd0e7edd	-0.034788955
21	0x3d8a762e	0.06760822
22	0x3fc1d486	1.5142982
23	0xc081f9b8	-4.0617332
24	0xc006d598	-2.1067867
25	0x3ffde2bb	1.9834818
26	0x3f53cd29	0.82734925
27	0xbe98908e	-0.29797786
28	0x3f5379ae	0.82607543
29	0x4010e868	2.264185
30	0xbedff960	-0.43744946
31	0x3f343bfa	0.70404017
32	0xbd7635fc	-0.060110077
33	0x3feb5099	1.8383971
34	0xbed93962	-0.42426592
35	0xbec5aea8	-0.38609815
36	0xbdc15424	-0.09439877
37	0xbd3c19d9	-0.045923088
38	0x3eee8437	0.46585247
39	0xbe130975	-0.14359076
40	0x3f1768e0	0.591444
41	0xc0348fe1	-2.8212817
42	0x3ff584e6	1.9181182
43	0xbf4a79c4	-0.7909205
44	0x3da80c12	0.08205427
45	0xbeb75736	-0.35808724
46	0xbe37cebf	-0.17949961
47	0x3dcd46c6	0.100232646
48	0xbdc82e6e	-0.09774481
49	0xbdec95ec	-0.11552033
50	0x3fe91031	1.8208066
51	0xbf6b1aeb	-0.9183795
52	0xc089ca78	-4.3059654
53	0xbf3d3c09	-0.7391973
54	0xc07ddc0c	-3.9665556
55	0x3f8e68c0	1.1125717
56	0x3fd13fc1	1.6347581
57	0x3f462811	0.77404886
58	0x3fa466f4	1.2843919
59	0xbf9c830d	-1.2227494
60	0xbf4b8581	-0.79500586
61	0xbfca4d8d	-1.5804917
62	0x3ca61527	0.020273758
63	0x3c0cb793	0.008588689
64	0x3d24f9c3	0.040277254
65	0xbc90c1e6	-0.017670583
66	0xbc51f0f6	-0.012813797
67	0xbb694dbd	-0.0035599314
68	0x3f26b477	0.6511912
69	0x3ffa614c	1.9560943
70	0x3fa9854b	1.3243803
71	0xbff3fa04	-1.9060674
72	0xbf9f2f69	-1.2436343
73	0x3f1ea9af	0.61977667
74	0x3e2f525d	0.17121263
75	0xbc031d3b	-0.008002575
76	0xbe1c3e84	-0.15258223
77	0x3e0a194c	0.13486212
78	0x3eda54f5	0.42642942
79	0x3fdd3e54	1.7284646
80	0x3f3088fa	0.6895901
81	0xc0033a94	-2.0504503
82	0x3f730fd9	0.94946057
83	0x3f2b744b	0.66974324
84	0xbffad417	-1.9595975
85	0xbed1fb2e	-0.41011947
86	0xbf55135c	-0.83232665
87	0x402381ac	2.5547895
88	0xbf7463ff	-0.9546508
89	0x3f83aacd	1.0286499
90	0x3e183988	0.14865696
91	0x3d935825	0.071945466
92	0xbe82b90e	-0.2553181
93	0x3f65747c	0.89630866
94	0x3e1c5675	0.15267356
95	0xbe62bc12	-0.22142056
96	0x3f1fbbc4	0.6239588
97	0x40066722	2.1000447
98	0x3e9c134a	0.30483466
99	0xbf114440	-0.56744766
100	0x3efc9ba9	0.4933751
101	0xbf037d64	-0.51363206
102	0xbe320f62	-0.1738868
103	0x3cfa253e	0.030535337
104	0x3de1d5fd	0.11027143
105	0xbd9171a8	-0.07101756
106	0x4096da0e	4.714118
107	0xc08c7c63	-4.390184
108	0x40a5a116	5.175914
109	0xc01dc28a	-2.4649987
110	0xbee1ea18	-0.44123912
111	0xbfa73c3c	-1.3065257
112	0xc014fa23	-2.3277671
113	0x3e760ef2	0.24029139
114	0xbf4e033d	-0.8047369
115	0x3fd5d661	1.6706048
116	0x3f5fa562	0.8736173
117	0x3fb9703a	1.4487374
118	0x3e22db06	0.15903863
119	0x3cf74a93	0.030186927
120	0x3c071d4e	0.008246733
121	0xbd717d6a	-0.058957495
122	0xbd9ad90b	-0.07560929
123	0x3e056b37	0.1302918
124	0xbcf1a6f2	-0.029498551
125	0xbec04065	-0.3754913
126	0x3fdc8536	1.7228153
127	0xbcb04f6c	-0.021522246
128	0xbecf334e	-0.4046883
129	0x3f90679c	1.1281619
130	0xbcf6a547	-0.030108107
131	0x3d933bcc	0.0718914
132	0xbe003610	-0.12520623
133	0xbd215eed	-0.03939717
134	0x3f438349	0.763722
135	0x3edf2fb0	0.4359107
136	0x3d252301	0.040316585
137	0xc0388eb3	-2.8837097
138	0x3f5ed05a	0.8703667
139	0xbefd9e77	-0.49534962
140	0xc01a22df	-2.4083784
141	0x3feb8ce1	1.8402368
142	0xbf45222f	-0.77005285
143	0x3fd1e624	1.6398358
144	0x3f65f15e	0.8982142
145	0x3fa61163	1.2974056
146	0xbe1abc71	-0.15110947
147	0xbd280449	-0.04101971
148	0xbd96e4da	-0.07367869
149	0x3c9d3f66	0.01919527
150	0x3d0481a6	0.032350205
151	0x3cb37e52	0.02191082
152	0x400f8ea7	2.2430818
153	0xc062621a	-3.5372376
154	0x3c8bee40	0.01708138
155	0xbe95bc63	-0.2924529
156	0x3e367253	0.17817049
157	0x3dcaa582	0.09894849
158	0x3daa51cb	0.08316382
159	0xbd0206bd	-0.031744707
160	0xbd8cd6a5	-0.06876878
161	0xbd0e0b83	-0.034678947
162	0xbf647cd3	-0.89252967
163	0xbebe17d9	-0.3712757
164	0x4049f4de	3.1555705
165	0xbfc7f1bb	-1.5620645
166	0xc029f344	-2.6554728
167	0x408d5c85	4.417544
168	0x4000e1fd	2.0137932
169	0x3caae636	0.020861726
170	0xbee74949	-0.451731
171	0xc030f0b2	-2.7646909
172	0xbf582157	-0.8442587
173	0x3e709fa9	0.23498406
174	0x3daf351c	0.08555052
175	0xbe081b1c	-0.13291591
176	0xbd8391dc	-0.06424305
177	0x3d0d31c9	0.034471307
178	0xbda6aafd	-0.08138082
179	0x3b53964b	0.0032285627
180	0x3f9255de	1.1432455
181	0xbfae76c7	-1.3629998
182	0xc0d81044	-6.7519855
183	0x3f36c05f	0.71387285
184	0x3e36961a	0.17830697
185	0x4004da27	2.075815
186	0x3d581962	0.052758582
187	0xbd6453c8	-0.055743963
188	0x3df70b73	0.12062731
189	0x3c94db46	0.018170964
190	0xbdf390e1	-0.11892868
191	0xbecdd639	-0.402025
192	0xc09b576e	-4.8544226
193	0x3d419386	0.04725983
194	0xbf426882	-0.75940716
195	0x3f8fd45d	1.1236683
196	0x40173766	2.3627563
197	0x3e36b2ef	0.17841695
198	0xbe58472c	-0.211209
199	0xbe33ae4e	-0.1754696
200	0x3ea51d0f	0.32248732
201	0xbf0b9982	-0.5453111
202	0x3ce6ca07	0.028172506
203	0xbcb3ea44	-0.021962292
204	0xbb8ca5c9	-0.004292224
205	0xbd7f0c4d	-0.06226759
206	0xbd64ae97	-0.055830564
207	0xbb742eb7	-0.003725929
208	0xbe223ba0	-0.15843058
209	0x40c49df5	6.144282
210	0xbeb54844	-0.35406697
211	0xbf7bdc9c	-0.983835
212	0x40de3f40	6.945221
213	0xc048cb57	-3.1374109
214	0x3b5d18ef	0.0033736785
215	0xbde3286b	-0.110916935
216	0xbe052615	-0.13002808
217	0x3e3771d5	0.17914517
218	0x3e842b46	0.25814265
219	0x3d84d816	0.064865276
220	0xbfb14659	-1.3849593
221	0xbf70aabd	-0.94010526
222	0xbd7f7cb6	-0.062374793
223	0xbe2226e3	-0.15835147
224	0x3f9cee59	1.2260238
225	0x3f8fa161	1.1221124
226	0x3da27c5f	0.07933878
227	0xc06539d6	-3.581655
228	0x3f3e080d	0.74231035
229	0xbf1e507c	-0.6184156
230	0xbed90449	-0.42386082
231	0xbdf377d5	-0.118880905
232	0x3e752dd6	0.23943266
233	0xbf36d89f	-0.7142429
234	0xbf0a4f03	-0.5402681
235	0xc01943bc	-2.3947592
236	0x3ffdd673	1.983107
237	0x3fd523fe	1.6651609
238	0xc08a2b95	-4.31782
239	0x3fce129f	1.6099433
240	0xbe7e2000	-0.24816895
241	0xbfcfbd49	-1.622964
242	0xbc63f996	-0.013914486
243	0xbdd7f412	-0.105445996
244	0xbdda8474	-0.10669795
245	0x3dd437e4	0.10362223
246	0x4019e78f	2.4047582
247	0xc025e925	-2.592355
248	0xc02754e7	-2.614557
249	0xbea9d35a	-0.3316906
250	0x4002d1e9	2.044062
251	0x3f7141f7	0.9424128
252	0x3fe94193	1.8223137
253	0xbfbc3fac	-1.4706931
254	0x3ee8222a	0.45338565
255	0xbfd9cfd7	-1.7016553

fc1.bias f4 [148]
0	0x3f26909b	0.650644
1	0x3f01476a	0.50499594
2	0xbe966b15	-0.29378572
3	0xbc83b70d	-0.016078496
4	0x3f011f19	0.50438076
5	0xbf07ad57	-0.5299887
6	0xbf34df2a	-0.7065302
7	0x3e37f495	0.17964394
8	0xbfcb5e38	-1.5888128
9	0xbf5e302f	-0.8679227
10	0x3e45012b	0.19238727
11	0xbd92d4c4	-0.07169488
12	0xbeb26f30	-0.34850454
13	0x3eb7735a	0.35830194
14	0x3ec23061	0.37927535
15	0xbdb8483f	-0.08998155
16	0x3f0c45d3	0.54794043
17	0xbf81fb9d	-1.0154911
18	0x3dfcaa41	0.12337161
19	0x3f147350	0.5798845
20	0xbef7ca2c	-0.48396432
21	0x3e300fef	0.17193578
22	0x3e052855	0.13003667
23	0xbf7498f9	-0.9554592
24	0x3f3fa0d5	0.74854785
25	0xbee17f4f	-0.4404244
26	0xbf799a4e	-0.97501075
27	0xbf75cc53	-0.960149
28	0x3f795c42	0.974064
29	0xbfb3415f	-1.4004325
30	0x3ed5b9ee	0.41743416
31	0xbd3fcd73	-0.04682679
32	0xbed64b2a	-0.4185422
33	0xbe75feb7	-0.24022947
34	0x3e364a0f	0.17801689
35	0xbce71bf5	-0.028211573
36	0xbea66286	-0.32497042
37	0xbe1c13c9	-0.15241922
38	0xbe761e7d	-0.24035068
39	0x3debd89d	0.11515925
40	0x3f035b2e	0.51311004
41	0x3f3643f3	0.7119743
42	0x3eedf15f	0.46473214
43	0x3e3b4fc0	0.18292141
44	0x3e038081	0.12841989
45	0xbec02ed0	-0.37535715
46	0x3eb7e547	0.35917112
47	0xbd7034bf	-0.058644053
48	0x3f6132d3	0.87968177
49	0x3f7f9643	0.99838656
50	0x3ebb7a8d	0.36616936
51	0x3e9b81c3	0.30372438
52	0x3eebd177	0.46058246
53	0xbef2e9ba	-0.47443944
54	0xbeedffaf	-0.46484134
55	0x3f2af229	0.6677576
56	0xbe0446b0	-0.1291759
57	0xbeae3765	-0.34026638
58	0x3eda3d30	0.42624807
59	0x3ee97eea	0.4560464
60	0xbe7b2755	-0.24526723
61	0xbf68bc19	-0.90912014
62	0xbe4ee168	-0.20203173
63	0x3f48922e	0.7834805
64	0xbf054c83	-0.5206987
65	0x3f1bc411	0.6084605
66	0x3f565169	0.8371797
67	0xbec557ea	-0.38543636
68	0x3f52969a	0.8226105
69	0x3f07c472	0.53034127
70	0xbf2c3a0f	-0.6727609
71	0xbcd2187a	-0.025646437
72	0x3ec75d4b	0.38938364
73	0x3e48f884	0.19626051
74	0x3f907d99	1.1288329
75	0x3e819246	0.2530691
76	0x3e44ce18	0.19219244
77	0x3e9d516b	0.3072618
78	0x3e8e272e	0.27764267
79	0x3e26a897	0.1627525
80	0xbd753883	-0.059868347
81	0x3fd21529	1.6412708
82	0x3f2dca88	0.67887163
83	0x3ebd0166	0.3691513
84	0xbeecc240	-0.4624195
85	0x3e5cc584	0.21559721
86	0x3eef7490	0.46768618
87	0x3f0a08e6	0.5391983
88	0xbf80e4d0	-1.0069828
89	0x3c2a2bcf	0.010386421
90	0xbe431dea	-0.1905438
91	0x3cbe8449	0.023256438
92	0xbe917891	-0.28412297
93	0x3f7143e1	0.942442
94	0x3eab3bad	0.33443967
95	0xbf52111e	-0.8205737
96	0x3b909964	0.004412817
97	0x3e862002	0.26196295
98	0x3c7fee2c	0.015620749
99	0xbe60f64c	-0.21968955
100	0x3eab41de	0.3344869
101	0xbd203a7e	-0.039118282
102	0x3f91021a	1.1328766
103	0xbf7813dc	-0.96905303
104	0xbe082653	-0.1329587
105	0x3f4042ae	0.75101745
106	0x3e45d732	0.19320372
107	0xbfa5279a	-1.290271
108	0xbf2f9fed	-0.686034
109	0x3f300338	0.6875491
110	0x3fb5fa51	1.4217016
111	0x3e74b62a	0.23897615
112	0xbe22f390	-0.15913224
113	0x3f3fdeb7	0.7494921
114	0xbdc63441	-0.096779354
115	0x3db8d14e	0.09024297
116	0xbf933b35	-1.1502444
117	0x3ede893b	0.43464074
118	0x3eaca206	0.33717364
119	0xbeecb06f	-0.46228358
120	0xbe96a324	-0.2942134
121	0x3eb8a964	0.36066735
122	0xbf86c1c6	-1.0527885
123	0x3f90bc33	1.1307434
124	0x3e801074	0.25012553
125	0x3eb0aacb	0.34505305
126	0x3f0c031c	0.54692245
127	0x3e2104a5	0.15724428
128	0xbdc7b232	-0.09750785
129	0xbebb769a	-0.36613923
130	0x3e9276c4	0.28606236
131	0x3e71c148	0.23608887
132	0x3fd2d55a	1.647136
133	0x3eaa2457	0.3323085
134	0x3efbc678	0.49174857
135	0x3f489a49	0.7836042
136	0x3f6d1295	0.9260648
137	0x3dd2022c	0.102543205
138	0xbd78281b	-0.060585123
139	0x3e2422df	0.16028927
140	0x3f3924e4	0.72321916
141	0xbe57990a	-0.21054474
142	0x3e3c6874	0.1839922
143	0x3f4f9236	0.81082475
144	0xba9cca79	-0.0011962197
145	0x3eecd565	0.46256557
146	0x3e62ca8f	0.22147582
147	0xbf399120	-0.7248707

fc2.weight f4 [148, 148]
0	0xbf557982	-0.8338853
1	0xbe92689f	-0.28595445
2	0xc102cc32	-8.174852
3	0xbfbc2797	-1.4699582
4	0x3fbf1003	1.4926761
5	0x3fcb556a	1.5885441
6	0xbfd1f6b0	-1.6403408
7	0xc0696441	-3.646744
8	0xc0127ea7	-2.2889802
9	0xc0660f21	-3.5946734
10	0x4016f15d	2.3584816
11	0x3dc578e0	0.09642196
12	0x3f04e183	0.51906604
13	0xbe8481d1	-0.25880292
14	0xc079915a	-3.8994966
15	0xc0116b1b	-2.2721622
16	0xc151f726	-13.122839
17	0x3fec543d	1.8463207
18	0xc01da1c9	-2.4629996
19	0xc0e84427	-7.2583194
20	0xc06c9286	-3.696443
21	0xbee59176	-0.4483754
22	0x3e163efa	0.14672461
23	0xbf148357	-0.5801291
24	0xc117114c	-9.441723
25	0xbf990ccb	-1.1957029
26	0x3d6dd906	0.058068298
27	0xbfe13092	-1.7592947
28	0xbec4473c	-0.38335598
29	0xbf70a139	-0.93996006
30	0x40b4cc13	5.6499114
31	0x3ebee923	0.37287244
32	0xc09f4f54	-4.9784336
33	0xc0df65cb	-6.981176
34	0x3f0e4b8d	0.5558403
35	0xc0815447	-4.041538
36	0xc00c1c74	-2.1892366
37	0xc0b93883	-5.7881484
38	0x3f4dba43	0.8036234
39	0xc0106062	-2.2558827
40	0xbfaa1355	-1.328715
41	0x400cf3e5	2.2023861
42	0xc02e2055	-2.7207234
43	0x3f3e4eb3	0.74338835
44	0xc0d3c48a	-6.6177416
45	0x3fbea53d	1.4894177
46	0xc0d31a79	-6.5969815
47	0x3fbf9646	1.4967735
48	0xc05a7ad9	-3.413748
49	0xc0a20add	-5.063826
50	0xc05bf10b	-3.436587
51	0xbfb130dc	-1.3843036
52	0x3f6f306a	0.9343325
53	0xc08309c3	-4.0949416
54	0x3fdac309	1.709077
55	0xc0786dba	-3.8816972
56	0x3e051bdd	0.1299891
57	0x3c7f6be0	0.015589684
58	0xc03adf01	-2.919861
59	0xbf9e06f4	-1.2345872
60	0xbe35a7fa	-0.17739859
61	0xc0202f52	-2.5028882
62	0xc084f916	-4.155406
63	0x3ffa1e48	1.9540491
64	0xc0363256	-2.8468223
65	0x3fa1c826	1.2639205
66	0x3fcae301	1.5850526
67	0xc081a3a1	-4.051224
68	0x404f2652	3.236714
69	0x3fd1d90e	1.6394365
70	0xbffe5ee4	-1.9872708
71	0x401cc1c4	2.4493265
72	0xbe962276	-0.29323167
73	0x3faf4e28	1.3695726
74	0xc10a0f85	-8.628789
75	0xc07b0f24	-3.922799
76	0x3f86bfec	1.052732
77	0xc01317ce	-2.298328
78	0xc004a354	-2.0724688
79	0x3feffd19	1.8749114
80	0xc0ab3f02	-5.3514414
81	0xc1001795	-8.005757
82	0x3f18cc13	0.5968639
83	0x3d11b846	0.035576127
84	0xc0323322	-2.784371
85	0x3f022b23	0.5084707
86	0xc00a8bd0	-2.1647835
87	0xbfb0af8d	-1.3803574
88	0xbfa5b75a	-1.294658
89	0x4000811d	2.0078804
90	0x3fc1aa19	1.5130035
91	0xc0712268	-3.767725
92	0xc0600082	-3.500031
93	0x3ed25fa1	0.41088584
94	0xc0042097	-2.0644891
95	0xbfb4affd	-1.4116207
96	0x4043f0fe	3.061584
97	0xc078456e	-3.8792377
98	0x3e9352a3	0.28773984
99	0xbfc97e07	-1.5741585
100	0xc097b042	-4.740266
101	0xc0b681f4	-5.7033634
102	0xc13d89aa	-11.846109
103	0x403d6339	2.959181
104	0x3fd86800	1.6906738
105	0xc0849568	-4.143238
106	0xc0150594	-2.3284655
107	0xc0ca81b9	-6.3283353
108	0xc146a286	-12.414679
109	0x3fe9c2ec	1.826261
110	0xc095405e	-4.6641073
111	0xbe226f79	-0.15862836
112	0xc0bec9f1	-5.962151
113	0xbe2ca26d	-0.16858836
114	0x3fef0373	1.8672928
115	0xc0850950	-4.157387
116	0x40753ef4	3.8319674
117	0x3fc3c4b7	1.5294408
118	0xc02a7120	-2.6631546
119	0xc098490e	-4.758918
120	0x3e054e1c	0.13018078
121	0xc0862c97	-4.192943
122	0xc031dc94	-2.779088
123	0xc08e48af	-4.4463725
124	0xc0853020	-4.1621246
125	0xc09448b4	-4.633875
126	0xc124f5e3	-10.310031
127	0x3e91f317	0.28505775
128	0x3f411679	0.75424916
129	0x3f8a6151	1.0810949
130	0xbe4969b1	-0.19669224
131	0x4055b1f4	3.3389864
132	0xc0090e60	-2.1415024
133	0xc0b56375	-5.6683908
134	0x3eebddc1	0.46067622
135	0x3f6c1239	0.92215306
136	0xc0f1dd69	-7.5582776
137	0xc01781f1	-2.367306
138	0xc0c94afd	-6.290404
139	0xbf626070	-0.884284
140	0xbf738bc1	-0.9513512
141	0x3fea8203	1.8320926
142	0x3ffb87e4	1.9650846
143	0xbee06188	-0.4382441
144	0x40609777	3.5092447
145	0x3ce8711f	0.028374253
146	0xc11ce069	-9.804788
147	0x4001134c	2.0168028
148	0x3e0a13b4	0.13484079
149	0xbfa4fbbd	-1.2889324
150	0x4096f326	4.717181
151	0xbfafaeb7	-1.3725194
152	0x40434aa5	3.051431
153	0xc006d69d	-2.106849
154	0x40841564	4.127611
155	0x4108fcf1	8.561753
156	0x3f1ef9af	0.62099737
157	0xbf2ab87b	-0.66687745
158	0x40d810ca	6.7520494
159	0x409daa97	4.927074
160	0xc079580d	-3.8959992
161	0xbfa40265	-1.2813231
162	0x406d2c7b	3.7058399
163	0x400aa036	2.1660285
164	0x414e7617	12.903831
165	0x3fbd55b5	1.4791781
166	0x413cab1f	11.791778
167	0xbf97f916	-1.187289
168	0xbfc5e49a	-1.5460389
169	0x4129c170	10.609726
170	0x403f07cd	2.9848511
171	0x4012deac	2.2948408
172	0x3e481fe8	0.19543421
173	0x40c093e4	6.018053
174	0xc04de267	-3.2169435
175	0x401a341a	2.40943
176	0xbf183446	-0.5945476
177	0x400b7d80	2.179535
178	0xc00d81a0	-2.2110367
179	0xbecdd10f	-0.40198562
180	0x41049aa3	8.287753
181	0x4147b15c	12.480801
182	0xbfd7014c	-1.6797271
183	0x3e8dd40b	0.27700838
184	0x409ac84e	4.8369513
185	0xbf296b3f	-0.6617927
186	0x406fb291	3.7452738
187	0xc01fc77c	-2.4965506
188	0x3e922847	0.28546354
189	0xbedb4179	-0.4282339
190	0xbf553ea0	-0.83298683
191	0xbfbb8153	-1.4648842
192	0x3fb1fc41	1.3905107
193	0x4091e53a	4.5592318
194	0x40f8cc2a	7.7749224
195	0xc021e8c4	-2.529832
196	0x412567b2	10.337816
197	0x3e4a1ba0	0.197371
198	0x3e47c68d	0.19509335
199	0x414d995f	12.849944
200	0x4010b366	2.2609496
201	0xbf4f90ea	-0.81080496
202	0x405fdd3c	3.497878
203	0x3df8781e	0.121322855
204	0xc05926fc	-3.3930044
205	0xc0b8978b	-5.768499
206	0x3e260a07	0.16214763
207	0x3ec33349	0.38125065
208	0x4071b285	3.776521
209	0x401e261f	2.4710767
210	0x3ffc5694	1.9713922
211	0xbfc54741	-1.541237
212	0x3fe04be9	1.7523166
213	0x3ffc18e0	1.9695091
214	0x40056604	2.0843515
215	0x40976742	4.7313547
216	0xbf6f2e20	-0.93429756
217	0xbfc42c6b	-1.5326055
218	0x40083143	2.1280067
219	0x3ed91aa6	0.42403144
220	0xbe8f9f9c	-0.2805146
221	0x3fb911e4	1.4458585
222	0x3f19a1a6	0.6001228
223	0x3e2227c0	0.15835476
224	0xbe8ca958	-0.2747295
225	0xbe2239e4	-0.15842396
226	0x41066a71	8.400987
227	0x407d6796	3.9594474
228	0x3fb5a376	1.4190509
229	0x3e86f7ae	0.2636084
230	0x3fb5065f	1.4142569
231	0xbe8a2754	-0.2698313
232	0xc0649023	-3.5712974
233	0xc0583d24	-3.3787317
234	0x3ff3f998	1.9060545
235	0x3ffcfa3b	1.9763864
236	0xc0944937	-4.6339374
237	0x3f9bc72f	1.2170161
238	0x3fcaeb01	1.5852968
239	0xbffe247b	-1.9854883
240	0x4098f3fc	4.7797832
241	0x4049cea3	3.153237
242	0x3eab4abd	0.33455458
243	0x3fcfa731	1.6222898
244	0xbfd01061	-1.6254998
245	0x3fa42ae3	1.2825588
246	0xc0072590	-2.1116676
247	0x40e45a23	7.136003
248	0x3e8bc406	0.27297992
249	0xbe89d4da	-0.26920205
250	0x3cfeb307	0.031091226
251	0xc04805b0	-3.1253471
252	0x40b31339	5.5960965
253	0x3ed83b34	0.42232668
254	0x3fb2a770	1.3957348
255	0x3f8318a5	1.0241896

fc2.bias f4 [148]
0	0xbe5b453a	-0.21413127
1	0x3d5d7f2c	0.05407636
2	0x3d9b8bf5	0.07595054
3	0xbdd3a647	-0.10334449
4	0x3e2bb272	0.1676729
5	0x3dc12e77	0.094326906
6	0x3e2a13b4	0.16609079
7	0xbd087a0b	-0.033319514
8	0x3d9b0a50	0.07570326
9	0xbd488458	-0.048954338
10	0xbd91c74b	-0.0711809
11	0x3e1f389a	0.15548936
12	0xbdd7ab24	-0.10530689
13	0x3e575ae0	0.2103076
14	0x3e1fe88b	0.15616052
15	0xbdb38866	-0.0876625
16	0x3d8f01a2	0.06982733
17	0xbdbedefc	-0.09319875
18	0x3deadc45	0.11467794
19	0x3e4d96e8	0.20077097
20	0x3f8f124f	1.1177462
21	0xbdaf800b	-0.08569344
22	0x3f39ced2	0.7258121
23	0x3d117427	0.035511162
24	0xbd6314fd	-0.055439938
25	0xbe5466b3	-0.20742302
26	0x3e390574	0.18068486
27	0x3d48dd00	0.049038887
28	0x3e0ce226	0.13758144
29	0xbe5c6b88	-0.21525395
30	0x3dc0ca90	0.09413636
31	0xbd357c92	-0.044308253
32	0x3da1a671	0.07893074
33	0x3e3d41c2	0.18482116
34	0x3e289bb9	0.16465653
35	0x3c864567	0.016390515
36	0x3ddbd27d	0.10733507
37	0xbe2ed824	-0.17074639
38	0xbdb1fd11	-0.08690847
39	0xbd47efe8	-0.048812777
40	0xbd87fb0a	-0.06639679
41	0x3dc74dfb	0.097316705
42	0x3f8d824a	1.1055386
43	0xbd662b23	-0.056193482
44	0xbd94c4a9	-0.072640724
45	0x3d181cd6	0.037136875
46	0x3cc78ca3	0.024359053
47	0x3e3cdf50	0.18444562
48	0x3dfbd4a0	0.122964144
49	0xbee31647	-0.44352934
50	0x3e05475b	0.13015501
51	0xbd75bd33	-0.059994888
52	0x3cfabe92	0.03060845
53	0x3e1aa76a	0.15102926
54	0xbeda2ad1	-0.4261079
55	0x3bdc240f	0.0067181657
56	0xbdcfac55	-0.101402916
57	0xbd8a3a6f	-0.067494266
58	0xbc9b1c7b	-0.018934479
59	0xbdb06731	-0.08613432
60	0xbd27744b	-0.04088239
61	0x3d9df0be	0.077119336
62	0xbb869f47	-0.004108343
63	0x3f272022	0.65283406
64	0x3d63dbc2	0.0556295
65	0x3e39ca81	0.18143655
66	0xbdb4b2b0	-0.088231444
67	0x3f1eadb5	0.61983806
68	0xbdc49a4f	-0.095997445
69	0xbfab8009	-1.3398448
70	0x3d28bb65	0.04119434
71	0x3d34e4ce	0.044163518
72	0x3e002621	0.12514545
73	0x3e1967b4	0.14980966
74	0xbd4aaff8	-0.049484223
75	0xbde4f3f2	-0.111793414
76	0x3f20338b	0.6257865
77	0xbd8a8940	-0.067644596
78	0x3d3bada0	0.04581988
79	0xbe02ff68	-0.12792742
80	0xbf491753	-0.78551215
81	0x3e410400	0.18849182
82	0xbcf0371f	-0.029323159
83	0x3d5af536	0.053456508
84	0x3e12953c	0.14314741
85	0x3e3fa537	0.18715368
86	0xbdc529e4	-0.09627131
87	0x3e00920e	0.12555715
88	0x3cb398d8	0.021923468
89	0x3dd485e6	0.103771016
90	0x3e22c153	0.1589406
91	0xbbaf765b	-0.0053546852
92	0x3e1bdc5a	0.15220776
93	0x3d786965	0.060647387
94	0xbd939f0d	-0.07208071
95	0xbd668ff4	-0.05628963
96	0xbb387e1d	-0.0028151341
97	0xbd7455f2	-0.059652276
98	0x3e298960	0.1655631
99	0x3daf3cd8	0.08556527
100	0x3dc25f11	0.09490789
101	0x3c40d976	0.011770597
102	0x3fa152be	1.2603376
103	0x3e0650a2	0.13116696
104	0x3e3a144d	0.18171807
105	0x3e40b2ac	0.18818158
106	0x3dd79175	0.105257906
107	0x3db3c768	0.08778268
108	0x3e3def07	0.18548213
109	0xbd68f8ef	-0.056878027
110	0xbdb3a38b	-0.08771428
111	0x3e68ecd1	0.22746588
112	0x3e1341ef	0.1438062
113	0x3e46bd83	0.1940823
114	0xbd322d9a	-0.04350052
115	0xbd9b1ba2	-0.0757363
116	0x3e05ed52	0.13078812
117	0x3d11d83a	0.0356066
118	0xbe03c25e	-0.12867114
119	0x3fd689bd	1.6760784
120	0x3e30bca9	0.17259468
121	0xbcc19593	-0.023630893
122	0x3dae323e	0.08505677
123	0xbdd5ce17	-0.10439699
124	0x3d846c27	0.06465941
125	0x3f45052b	0.7696101
126	0xbd87eb07	-0.06636625
127	0x3e3e3d9c	0.1857819
128	0x3e189488	0.1490041
129	0xbde90837	-0.1137852
130	0xbceb675c	-0.028735809
131	0xbdaa4fcc	-0.08316001
132	0x3da2d21c	0.079502314
133	0x3e451518	0.19246328
134	0x3de912cc	0.11380538
135	0xbef60e20	-0.48057652
136	0x3f8e5899	1.1120788
137	0x3e147062	0.14495996
138	0xbb0ff6dc	-0.0021967208
139	0x3d288e6c	0.04115145
140	0x3deb0fec	0.11477646
141	0x3d640ec0	0.05567813
142	0x3d160404	0.036624923
143	0x3e0dc2cc	0.1384384
144	0xbd967409	-0.07346351
145	0x3e219bda	0.15782109
146	0x3e02f7bc	0.12789816
147	0x3bc3e705	0.0059784674

fc3.weight f4 [1, 148]
0	0x4112309b	9.136867
1	0xc09fd1c0	-4.9943542
2	0xc0a3519c	-5.103712
3	0x3cb3e791	0.021961005
4	0xc0a3afd9	-5.115216
5	0xc0a2505f	-5.072311
6	0xc0a3831e	-5.1097555
7	0xbc5b8d99	-0.013400459
8	0xc09dfaba	-4.9368563
9	0x3c2672bb	0.01015919
10	0xbc01431d	-0.007889536
11	0xc0a2f320	-5.0921783
12	0xbca7da1b	-0.020489743
13	0xc0a47cc2	-5.140229
14	0xc09f36b7	-4.975429
15	0x3d28915a	0.041154243
16	0xc0a79f0f	-5.2381663
17	0xbc04cdf5	-0.008105745
18	0xc0a04506	-5.0084257
19	0xc0a54e0a	-5.1657763
20	0x412eda9b	10.92837
21	0xbcb931a2	-0.022606675
22	0xc187aaea	-16.958454
23	0x3d5d4326	0.054019116
24	0x3d122cfb	0.035687428
25	0x4141e3b5	12.118093
26	0xc0a20f2e	-5.064353
27	0xbbe12ede	-0.006872042
28	0xc0a76d9a	-5.232129
29	0x3ff21508	1.8912668
30	0xc0a2e805	-5.0908227
31	0x3c3f954d	0.011693311
32	0xc0a44977	-5.133968
33	0xc0a556bf	-5.166839
34	0xc0a2f99e	-5.092971
35	0xbc829f8f	-0.015945224
36	0xc0a0b507	-5.022098
37	0x40c0e545	6.027987
38	0x3cfe8795	0.03107051
39	0xbc58cb84	-0.013232116
40	0xbc34e936	-0.01104193
41	0xc0a4e4d8	-5.152935
42	0x409a46aa	4.821126
43	0x3c16144c	0.009160113
44	0x3d1cf947	0.038323667
45	0xc0a36882	-5.1065073
46	0x3bc94348	0.0061420538
47	0xc0a370df	-5.107528
48	0xc0a284cc	-5.0787106
49	0x3ff5e293	1.920977
50	0xc0a53598	-5.162792
51	0x3d14e000	0.036346436
52	0xc0a1e26f	-5.058891
53	0xc0bb6882	-5.8565073
54	0x3fdcc2b8	1.7246923
55	0x3ca132fb	0.01967763
56	0x3c1c9d2e	0.009558959
57	0x3d6dfe73	0.05810399
58	0x3b7083b5	0.0036699597
59	0x3d17ae1e	0.037031285
60	0x3b8bc966	0.004265952
61	0xc0a18981	-5.048035
62	0x3d147d83	0.03625251
63	0x40e4c615	7.14918
64	0xc0a57a0e	-5.1711493
65	0xc0a5de2d	-5.183371
66	0x3cc90380	0.024537802
67	0x40e48746	7.141513
68	0x3ce6ae1f	0.0281592
69	0x41224467	10.1417
70	0xc0a1bacb	-5.054052
71	0xc0a1c249	-5.0549664
72	0xc0a47da5	-5.1403375
73	0xc09fa89c	-4.989332
74	0x3d1cd7ea	0.03829185
75	0x3c6ab356	0.014324984
76	0x40df0403	6.9692397
77	0x3d4fdd49	0.050748143
78	0xc0a5552b	-5.1666465
79	0x3ccedd03	0.025251871
80	0x413a76ad	11.653974
81	0xc0a28c21	-5.0796056
82	0x3d332e29	0.043745194
83	0xc0a0e878	-5.0283775
84	0xc0a3c3c8	-5.117649
85	0xc09fcbdc	-4.993635
86	0x3d35502b	0.044265907
87	0xc0a6006b	-5.187551
88	0x4086bb0d	4.2103333
89	0xc0a49e7b	-5.1443458
90	0xc0a4d029	-5.15041
91	0xbca995b8	-0.020701274
92	0xc0a1cd50	-5.0563126
93	0x3fe3414f	1.7754306
94	0x39eab3e0	0.00044765975
95	0x3ce7648b	0.028246185
96	0x3ba9de06	0.005183938
97	0x3cd65565	0.026163766
98	0xc09f5b6e	-4.979911
99	0xc09e365b	-4.944135
100	0xc0a47160	-5.1388397
101	0xbb2ddbaf	-0.0026528647
102	0x413b5e59	11.710534
103	0xc0a14c55	-5.040568
104	0xc0a49206	-5.142825
105	0x40d9a7ed	6.8017488
106	0xc0a4b734	-5.1473637
107	0xc0ce4abe	-6.446624
108	0xc0a5d895	-5.182688
109	0x3c87e933	0.01659069
110	0xbc54b407	-0.012982375
111	0x408df6a5	4.436358
112	0xc09f7c18	-4.983898
113	0xc0a43a08	-5.132084
114	0x3cc5ef23	0.02416188
115	0xbbbc227b	-0.005741415
116	0xc0a16534	-5.043604
117	0xc0a21ea9	-5.0662427
118	0x3ca499ba	0.020092834
119	0x4100e351	8.055497
120	0xc0a5760c	-5.17066
121	0x3cfabc23	0.030607289
122	0xc0a654f5	-5.1978707
123	0xbc62491d	-0.013811377
124	0xc0a2b46e	-5.084525
125	0x4105227f	8.320922
126	0xbb150a45	-0.0022741717
127	0xc0a0e42f	-5.0278544
128	0xc0a3d5f0	-5.1198654
129	0x3b8612b8	0.004091587
130	0xbcd834ea	-0.026392419
131	0x3c864fe8	0.016395524
132	0xc0a636d5	-5.1941934
133	0xc0a49420	-5.1430817
134	0xc0a717e5	-5.221667
135	0xc16572f6	-14.340567
136	0x408bbc6b	4.3667502
137	0xc0a164ba	-5.0435457
138	0xbaa66677	-0.0012695332
139	0xc0a09769	-5.0184827
140	0xc0a6581b	-5.198255
141	0xc0a29a4f	-5.0813365
142	0xc0a3b37e	-5.1156607
143	0xc0a4b1d8	-5.1467094
144	0x3d804427	0.06262999
145	0xc0a3f70c	-5.123907
146	0xc0a1bbe3	-5.0541854
147	0xbc0a0ab0	-0.0084254
