demo/2_2_5/critic_1_7.pth (torch, 108582 bytes, 5 tensors)

fc1.weight f4 [148, 28]
0	0x3b5a4305	0.0033304107
1	0x3f1d3f4c	0.6142471
2	0x3ece9db9	0.40354708
3	0x3f02befd	0.51072675
4	0xbf37a4c1	-0.7173577
5	0x3e9557b1	0.29168466
6	0xbd2c8785	-0.04212143
7	0xbc796b86	-0.0152233895
8	0x3e30492d	0.17215414
9	0xbd3e654d	-0.046483327
10	0x3d180ce5	0.037121672
11	0xbe2d03ea	-0.16896024
12	0x3e35af0d	0.17742558
13	0xbf95d019	-1.1704131
14	0x3f8f5fba	1.1201088
15	0x3ec10ef6	0.37706727
16	0x3fa59ad2	1.2937872
17	0x3ef91fbc	0.48657024
18	0xbe026cae	-0.1273677
19	0xbd00d39f	-0.031451818
20	0x3dd30961	0.10304523
21	0x3e11d6cf	0.14242099
22	0xbdc13d9d	-0.0943558
23	0xbe704d9c	-0.23467106
24	0x40458ab3	3.0865905
25	0x402a5f60	2.6620712
26	0xbf6de06c	-0.92920566
27	0x3fd95630	1.6979427
28	0x3f69d0f4	0.9133446
29	0x3df98847	0.12184196
30	0x3fdc2cad	1.7201134
31	0xbdb2ef59	-0.08737058
32	0x3ebc0b4a	0.36727363
33	0xbe9280ae	-0.286138
34	0x3ee26070	0.442142
35	0x3f2ea7da	0.6822487
36	0xbf4a543b	-0.79034775
37	0x3fa3f45d	1.2808949
38	0x3d19c5b0	0.037542045
39	0x3e8e80f4	0.27832758
40	0x3eb99e39	0.36253527
41	0xbfafa2ae	-1.3721521
42	0xbf0f424d	-0.5596054
43	0x3f253d1e	0.6454638
44	0x3ae1a26f	0.0017214547
45	0xbf095ca4	-0.53656983
46	0xbd842a1a	-0.06453343
47	0x3d85f4df	0.06540846
48	0x3e1c5aab	0.15268962
49	0x3dc5de59	0.0966155
50	0x3f8ef3bb	1.1168131
51	0x3edde05f	0.43335244
52	0x40586c95	3.3816273
53	0x408f2ec0	4.474457
54	0xbe875d3d	-0.26438323
55	0x3ebbdb4a	0.36690742
56	0x3e11db69	0.14243855
57	0xbf26cf40	-0.6515999
58	0xbf0a0b20	-0.53923225
59	0x400f92d0	2.2433357
60	0x40058133	2.0860107
61	0xbda8c5cb	-0.08240851
62	0xbd82596f	-0.06364714
63	0x3e12c930	0.1433456
64	0x3e97d712	0.29656273
65	0x3f109cb4	0.5648911
66	0x3e7396fc	0.23788065
67	0x3d31e926	0.04343524
68	0x3f90f4e3	1.1324733
69	0x4063ff51	3.5624583
70	0xbf438aa0	-0.763834
71	0x3f31928a	0.69364226
72	0xbcbece00	-0.023291588
73	0xbf3356c8	-0.7005429
74	0x3d57daa4	0.052698746
75	0xbdd3aafb	-0.10335346
76	0xbe3f0cb4	-0.1865719
77	0xbdf6d6ce	-0.120526895
78	0xbf66c560	-0.9014492
79	0x3f74c083	0.9560625
80	0x411f325f	9.949798
81	0xbfc052fd	-1.5025326
82	0x3f6af48d	0.91779405
83	0xc0746f8b	-3.819308
84	0xbf303309	-0.68827873
85	0x3f60dada	0.8783394
86	0xbfbb16c6	-1.4616325
87	0x3f46c3a5	0.7764228
88	0xbfb9563b	-1.447944
89	0xbf6406e4	-0.89073014
90	0x3ed357f4	0.4127804
91	0x3e6e23ae	0.23255798
92	0x3ef5c706	0.48003405
93	0x3f152ccd	0.58271486
94	0xbcee650a	-0.029100914
95	0xbf4cc82a	-0.79992926
96	0xbed6c62b	-0.41948065
97	0x40796f9e	3.8974376
98	0x3fae9a37	1.3640813
99	0xbf4b1001	-0.79321295
100	0xbfc83b6e	-1.5643137
101	0x3de388de	0.1111009
102	0xbd9d0758	-0.07667416
103	0x3d472ebd	0.048628557
104	0xbdb15917	-0.08659571
105	0x3d829bb5	0.06377355
106	0x3fe08d09	1.754304
107	0x3fa54aa8	1.2913408
108	0xbf32dd34	-0.6986878
109	0xbf95869e	-1.1681707
110	0x403f994e	2.993732
111	0xbfb41701	-1.406952
112	0x4080f047	4.0293307
113	0xbf7149a1	-0.94252974
114	0xbf9a58b0	-1.2058315
115	0xc09df3e2	-4.936021
116	0xbf51dd9a	-0.8197876
117	0xbe672851	-0.22573973
118	0xbe3816a6	-0.1797739
119	0x3e28b33a	0.1647462
120	0xbe426601	-0.18984224
121	0xbd62b36b	-0.055346888
122	0xbea21ce1	-0.31662658
123	0xbee6a0b9	-0.45044497
124	0xbcc3a3ad	-0.023881758
125	0xbe36abae	-0.17838928
126	0x3f45a7a3	0.7720892
127	0xbf547410	-0.829896
128	0xbfa5f5b6	-1.296561
129	0x3c06f6f7	0.008237592
130	0xbc14acd5	-0.0090744095
131	0x3ded8c07	0.11598974
132	0xbdd9270a	-0.10603149
133	0x3c92fbd4	0.017942347
134	0x3e01e5c3	0.12685303
135	0x3fce2210	1.6104145
136	0xc0c0bf7b	-6.023374
137	0xc103da05	-8.240727
138	0x3e3aea46	0.1825343
139	0xbfe64c5d	-1.7992054
140	0x3d0c8778	0.03430888
141	0xbff5890d	-1.918245
142	0xbe50f631	-0.20406415
143	0x3e339534	0.17537385
144	0x3fa0b553	1.2555336
145	0x3c39d6f0	0.011342749
146	0xbd1769b1	-0.03696603
147	0x3d88abf7	0.06673425
148	0x3d62cf68	0.05537358
149	0x3d671ffb	0.056426983
150	0xbc77278f	-0.015085115
151	0x3d45091b	0.048104387
152	0xbfca785d	-1.5817982
153	0x3f84f946	1.0388572
154	0x3f59ab08	0.850266
155	0x3e4d935e	0.20075747
156	0xbec386ab	-0.3818868
157	0x3d3ea221	0.046541337
158	0x3e36fc3a	0.17869654
159	0xbe04e7ac	-0.12979001
160	0xbdf4b5e0	-0.119487524
161	0xbdcffcfa	-0.10155673
162	0xbdb04480	-0.08606815
163	0xbf29f269	-0.66385514
164	0x3f28761f	0.6580524
165	0x3e55a4c6	0.20863637
166	0x3f75296b	0.95766324
167	0x3e7cde0b	0.24694078
168	0x3e8fc802	0.2808228
169	0x3feb248b	1.8370527
170	0xc01b5126	-2.426828
171	0xbf06c075	-0.52637416
172	0xbfd52b65	-1.6653868
173	0x4018df20	2.3886185
174	0xbd9e9600	-0.07743454
175	0x3ddaba1a	0.10680027
176	0xbf157bcb	-0.5839202
177	0xbf8302f3	-1.0235275
178	0xbfdb0411	-1.7110616
179	0x3f138911	0.5763102
180	0xbff3bb3d	-1.9041516
181	0xbfbc1db9	-1.4696571
182	0x3f9f2337	1.2432622
183	0xbfc11be7	-1.508664
184	0x3fa27599	1.2692138
185	0x40240114	2.5625658
186	0x3c35b581	0.011090637
187	0xbd96d5b3	-0.07364979
188	0x3d7a2000	0.061065674
189	0xbd0a63e3	-0.033786666
190	0xc08e70da	-4.451276
191	0xc0d84125	-6.757952
192	0xc025c8f4	-2.5903902
193	0x40b09f0f	5.5194163
194	0xc0aab38a	-5.3344164
195	0x3f2b697b	0.66957825
196	0xbe628ffb	-0.22125237
197	0xbf6392f2	-0.88896096
198	0x3f9fc9e8	1.2483492
199	0x3f3c8345	0.736378
200	0x3ed88fac	0.42297113
201	0xbf3ce739	-0.7379032
202	0x3ea398b2	0.31952435
203	0x3eb9fad1	0.3632417
204	0xbf00ed8f	-0.50362486
205	0xbe5508fd	-0.2080421
206	0xbe17f14b	-0.1483814
207	0xbefaa5b1	-0.48954538
208	0x4038a11e	2.8848338
209	0x3fafef7f	1.3744963
210	0x3f6da685	0.92832214
211	0x3fac1e53	1.3446754
212	0xbd052bc8	-0.032512456
213	0xbf91c37b	-1.1387781
214	0xbdb8c010	-0.09021008
215	0xbc0fd1b5	-0.008778025
216	0xbe2bfa10	-0.1679461
217	0xbdf589bc	-0.11989161
218	0x3fe71804	1.8054204
219	0xc08df9ef	-4.4367595
220	0x3ee810bc	0.45325267
221	0xbe1f7089	-0.15570273
222	0xbfcd96fe	-1.6061704
223	0x3f8bc3ca	1.0919125
224	0xc00744d5	-2.1135762
225	0xbf798591	-0.9746943
226	0xbe195952	-0.14975479
227	0x3fe40b11	1.7815877
228	0xbf8bfb59	-1.093608
229	0x3dfce1f8	0.123477876
230	0x3da0b295	0.07846562
231	0x3cbff822	0.023433749
232	0xbd9d227a	-0.076725915
233	0xbe634838	-0.22195518
234	0x3e194a39	0.1496972
235	0x3d91760e	0.07102595
236	0x3e6f80e5	0.23389013
237	0xc100e4ba	-8.055841
238	0x3f80d4f3	1.0064987
239	0xbe7b479a	-0.24539033
240	0x3fe7b30d	1.8101517
241	0x3f49b338	0.7878909
242	0xbdf3e4f7	-0.11908906
243	0x3d34bf4f	0.04412776
244	0xbd39a8e4	-0.045327082
245	0x3c3d2f23	0.011546883
246	0xbf837e62	-1.0272944
247	0x4000b3e7	2.0109804
248	0x3f102ae0	0.5631542
249	0x40c8725c	6.26396
250	0xbf247fad	-0.6425732
251	0x3f037b5f	0.51360124
252	0xc075d4e5	-3.841119
253	0x3f6b0d57	0.9181723
254	0xbf1c9458	-0.61163855
255	0x40f7635c	7.730879

fc1.bias f4 [148]
0	0xbe01b623	-0.12667136
1	0xbf1023a2	-0.5630437
2	0xbf715f7e	-0.94286335
3	0x3f473501	0.7781525
4	0x3f5796e1	0.842146
5	0x3da9f6b6	0.082990095
6	0x3fd11ef1	1.6337568
7	0xbfb969de	-1.4485433
8	0x3e8715dc	0.26383865
9	0x3f9355d9	1.1510574
10	0x3eb071fa	0.34461957
11	0x3eaa30c5	0.33240333
12	0x3ef91933	0.48652038
13	0xbf2fcb49	-0.68669564
14	0x3e7bcc12	0.24589565
15	0xbe47e8c9	-0.19522394
16	0xbe0b279b	-0.13589327
17	0xbd1f8ff2	-0.038955636
18	0x3e054dc0	0.1301794
19	0xbccd8212	-0.025086436
20	0xbf1ec265	-0.6201537
21	0x3d72da75	0.059290368
22	0x3eef201f	0.46704194
23	0x3e6cb6f3	0.23116665
24	0x400bba18	2.1832333
25	0xbf9f79a6	-1.2458999
26	0x3f817b06	1.0115669
27	0x3cff74d7	0.031183643
28	0x3e080723	0.13283972
29	0xbe5d4fef	-0.21612523
30	0x3f9d8e6b	1.2309088
31	0xbe9937b2	-0.29925305
32	0x3dd765a2	0.10517432
33	0x3f6e6a31	0.93130785
34	0x3d251048	0.04029873
35	0xbebfcf6c	-0.37462938
36	0x3e4cc3ab	0.19996516
37	0xbee7b007	-0.45251486
38	0x3fc38d1b	1.5277437
39	0xbf3a4efe	-0.7277678
40	0xbe0fba4f	-0.14035915
41	0xbd05b1fa	-0.032640435
42	0x3f2e8e67	0.6818604
43	0xbf89047b	-1.0704492
44	0x3ed3d42a	0.41372806
45	0xbe9412dd	-0.28920642
46	0xbf1a2cdb	-0.60224694
47	0x3da30d0b	0.07961472
48	0xbf537d27	-0.8261284
49	0xbf0589b2	-0.5216323
50	0xbebbaca3	-0.3665515
51	0xbfa0b642	-1.2555621
52	0xbfc66836	-1.5500553
53	0xbf19e1f1	-0.60110384
54	0xbcf72278	-0.030167803
55	0x3e403a34	0.18772203
56	0xbecbf8fb	-0.39838395
57	0xbef4ff27	-0.47850916
58	0xbf6465e4	-0.8921797
59	0xbe6f4e47	-0.23369704
60	0xbe47fdea	-0.19530454
61	0x3f9c21c1	1.2197801
62	0x3d35b2c9	0.044359956
63	0x3e939c20	0.2883005
64	0xbeeb59e6	-0.45967025
65	0xbf4de6dc	-0.8043039
66	0xbf9f535e	-1.2447317
67	0x3f1cf65c	0.61313415
68	0x404b0215	3.172002
69	0xbea12946	-0.31476802
70	0xbf779aa3	-0.9672033
71	0xbe845c0e	-0.25851482
72	0x3e46cf81	0.19415094
73	0x3f6ece8a	0.93283904
74	0xbdd4c9bf	-0.103900425
75	0xbdcc92a3	-0.09988906
76	0xbe9eb45f	-0.30996987
77	0xbcedd23d	-0.029030913
78	0xbf930a19	-1.1487457
79	0x3dd552c7	0.10416179
80	0x3dfa91e8	0.12234861
81	0xbf2fe1be	-0.6870383
82	0xbf04aa10	-0.51821995
83	0x3f04c283	0.518593
84	0x3edc6556	0.43046063
85	0x3e9b2f09	0.30309322
86	0xbdd41129	-0.103548355
87	0x3f26edce	0.6520661
88	0x3f7134ff	0.9422149
89	0xbe26a5fa	-0.16274253
90	0xbf6783d1	-0.9043551
91	0xbe88ee59	-0.26744345
92	0xbf4d3f7e	-0.80175006
93	0x3e88c83a	0.2671526
94	0xbf481c0b	-0.7816779
95	0xbf3e99f4	-0.74453664
96	0xbe186552	-0.148824
97	0x3f1dc888	0.6163411
98	0xbf2ffe3f	-0.68747324
99	0xbeeeac62	-0.46615893
100	0x3ed471e6	0.41493148
101	0x3f5c3292	0.86014664
102	0xbef76fc6	-0.48327464
103	0xbf37941e	-0.71710384
104	0xbefeaf0c	-0.49742925
105	0x400bbff5	2.1835911
106	0x3ccfdf6c	0.02537509
107	0x3f02897d	0.5099104
108	0x3e7ae1ce	0.245002
109	0xbeed029d	-0.46291056
110	0xbf064d16	-0.52461374
111	0x3f2dd03a	0.67895854
112	0x3fe8c7a8	1.818593
113	0x3e9432ea	0.28945094
114	0xbf91fc4f	-1.1405123
115	0x3f641aaa	0.89103186
116	0x3ecc2a78	0.3987615
117	0x402560f1	2.5840418
118	0x3ff0e0ec	1.8818641
119	0x3edea503	0.4348527
120	0x3ca63910	0.020290881
121	0x3f0145bd	0.5049704
122	0x3faf740c	1.370729
123	0x3f623aa3	0.8837072
124	0xbddad791	-0.10685647
125	0xbd8119cd	-0.06303749
126	0x3f4c6420	0.7984028
127	0x3f4ad164	0.79225755
128	0xbda1f9a3	-0.079089426
129	0xbd614299	-0.054995153
130	0x3f16c6e5	0.5889724
131	0x3e37df87	0.17956363
132	0xbf692889	-0.91077477
133	0xbf4e2e42	-0.80539334
134	0x3c692ba1	0.014231593
135	0x3e57bd82	0.21068385
136	0x3ed8523d	0.42250243
137	0x3df5e76f	0.12007033
138	0xbf8a375d	-1.0798146
139	0xbf487ad3	-0.78312415
140	0xbf8d143a	-1.1021798
141	0x3ea40e2f	0.3204207
142	0xbfde6316	-1.7373989
143	0x3e671f9d	0.22570653
144	0x40379946	2.86873
145	0xbf07ea20	-0.5309162
146	0xbc7db6ad	-0.015485448
147	0x3e5737f3	0.21017437

fc2.weight f4 [148, 148]
0	0x3f203ddf	0.6259441
1	0x3fd7be5e	1.685497
2	0xbfb0a2b3	-1.3799652
3	0xbe93a9d4	-0.28840506
4	0xbe9f0beb	-0.3106378
5	0x408209e2	4.0637064
6	0x3e0eab7b	0.13932602
7	0x4002edb6	2.0457587
8	0x40245c38	2.5681286
9	0xbcfcde02	-0.03086758
10	0x4168d7cb	14.552684
11	0x3f90b0f2	1.1304
12	0xbddbc866	-0.10731582
13	0xbff096a8	-1.8795977
14	0x3f3f98ad	0.7484234
15	0x3f9e7e03	1.2382206
16	0xc084c2c9	-4.1487775
17	0xc05f04af	-3.4846609
18	0x4147c50e	12.485609
19	0x3e700f75	0.23443396
20	0x3fb44896	1.4084651
21	0x3ef6bc9e	0.48190778
22	0xbd9be9c7	-0.07612949
23	0xc0d89c02	-6.769044
24	0x3d0e1e68	0.034696966
25	0x3fca1200	1.5786743
26	0xbf649690	-0.8929224
27	0x41172d2d	9.448529
28	0x3fc6a9aa	1.5520527
29	0xc1003fc7	-8.015571
30	0xbee34e1c	-0.4439553
31	0x3fc779b8	1.5584021
32	0x3f86bd43	1.0526508
33	0xbeae663e	-0.3406238
34	0x3fb9b4ea	1.4508336
35	0x3f3c25f8	0.73495436
36	0x3f726d25	0.9469779
37	0xbf59207f	-0.8481521
38	0x3c6fc21f	0.014633684
39	0x401e505f	2.4736555
40	0x3fe56ea3	1.7924389
41	0x40d12013	6.5351653
42	0xbf4f8400	-0.8106079
43	0x405497bb	3.321761
44	0xbf074482	-0.5283891
45	0x3fcec432	1.6153624
46	0x3ff8c232	1.9434264
47	0x3f8e5e7a	1.1122582
48	0x3f83dede	1.0302389
49	0xbffd4e06	-1.9789436
50	0x3f9f8acd	1.2464234
51	0x3fcbe5d2	1.592951
52	0x407b6df5	3.9285862
53	0x40468323	3.101754
54	0x3ed6f29d	0.41981974
55	0x3ec9f107	0.39441702
56	0x405ef448	3.4836597
57	0xbf5605b6	-0.83602464
58	0xbf1a4173	-0.6025612
59	0xc0bf181a	-5.971692
60	0x4093a5c5	4.6139855
61	0xc0b52b89	-5.6615644
62	0x4043131a	3.0480409
63	0xbdeb382d	-0.11485324
64	0x401e9873	2.4780548
65	0xc0127d5d	-2.2889016
66	0x401c7f7e	2.4452815
67	0xbe135e3b	-0.14391415
68	0x3dbccc2c	0.0921863
69	0x402b8587	2.6800249
70	0x3efd9239	0.49525622
71	0x3fb9078d	1.4455429
72	0x3feeee52	1.866648
73	0xbd8c4e6b	-0.068508945
74	0xc0073ca0	-2.1130753
75	0x404714bc	3.1106405
76	0x3f905bcb	1.1278013
77	0xc0b58c22	-5.673356
78	0xc0c663d5	-6.1996865
79	0x3ecc93d6	0.3995654
80	0x3fc67370	1.5503979
81	0xbd9bf937	-0.07615893
82	0x41a8c0ad	21.09408
83	0xbfb216d6	-1.3913219
84	0xbf51189d	-0.8167818
85	0x41017941	8.092103
86	0x3f72c415	0.9483045
87	0xbfd68650	-1.6759739
88	0xbeab084e	-0.33404773
89	0x3f8d819a	1.1055176
90	0x403f23a8	2.9865513
91	0x400c28bd	2.1899865
92	0x40c01115	6.002085
93	0x4025c88e	2.590366
94	0x41556f51	13.339677
95	0x40b1c3ac	5.5551357
96	0x3f9c2620	1.2199135
97	0x413a68f2	11.650621
98	0x402549e7	2.5826356
99	0x3f8558cb	1.0417722
100	0x3ea42949	0.32062748
101	0xbf4788b4	-0.7794297
102	0x403fb025	2.995126
103	0xbeb0c234	-0.34523165
104	0x409e376c	4.9442654
105	0x3c7f43b2	0.015580105
106	0x3efd4366	0.49465483
107	0x40b2c52c	5.586569
108	0x3d35864c	0.04431753
109	0xc015282f	-2.3305776
110	0x3f922485	1.1417395
111	0xbe9901a7	-0.29884073
112	0x3e2c553a	0.16829386
113	0xbf859a75	-1.0437762
114	0x3e9ce48b	0.30643114
115	0xc0020f7e	-2.0321956
116	0x40525072	3.28616
117	0x3db3e829	0.087845154
118	0xbfe97a5f	-1.824047
119	0x3ddd84b2	0.10816325
120	0x406181cd	3.5235474
121	0x403cdd94	2.951024
122	0xbf233ef4	-0.63767934
123	0xbfd10709	-1.6330272
124	0xbe4323c3	-0.19056611
125	0x3dfb1656	0.122601196
126	0xbec59f1a	-0.38597947
127	0xbeb2ede1	-0.34947112
128	0x4060865e	3.5082011
129	0x3f5f72bd	0.8728445
130	0xbf26e0bb	-0.6518666
131	0xc0314db7	-2.7703683
132	0xbfa4ebf0	-1.2884502
133	0x3eb73f56	0.3579051
134	0xc0e4a86b	-7.145559
135	0x3fb628f5	1.4231249
136	0x3e0163bd	0.12635703
137	0xc0c06d46	-6.013339
138	0x3fc819e9	1.5632907
139	0xbf91d757	-1.1393842
140	0xc015de48	-2.341692
141	0x3dd65eec	0.10467324
142	0xc0c8ea25	-6.278582
143	0x40f22e98	7.5681877
144	0x3d845c67	0.06462937
145	0x3ee36630	0.444139
146	0x404732a8	3.1124668
147	0x41494bdd	12.581021
148	0x3eb2ad53	0.3489786
149	0x3fe95b47	1.8230981
150	0xbfbadf78	-1.4599447
151	0xbead2bca	-0.3382247
152	0xbe6490b2	-0.22320822
153	0x4084e465	4.15288
154	0x3e7dc63f	0.24782656
155	0x4006758c	2.1009245
156	0x4032adaa	2.7918496
157	0x3d16e744	0.036841646
158	0x416d960d	14.8491335
159	0x3f3e1b79	0.7426067
160	0xbe089683	-0.13338666
161	0xc000cc28	-2.0124607
162	0x3f3a17ff	0.72692865
163	0xc00268c4	-2.0376444
164	0xc08f0f48	-4.4706154
165	0xc094b952	-4.647622
166	0x41933a18	18.403366
167	0x3eb40f23	0.35167798
168	0x3fc24663	1.517773
169	0xbfc8bf66	-1.568341
170	0x3dbedd8c	0.093196005
171	0xc10e3942	-8.888979
172	0xbd8f27e9	-0.06990034
173	0x3fcef13e	1.6167371
174	0xbf81a40d	-1.0128189
175	0x4123fd6c	10.249371
176	0x3fcd0d66	1.6019714
177	0xc1126624	-9.149937
178	0xbed4a0fc	-0.4152907
179	0x403061e4	2.7559748
180	0x400e5f7e	2.2245784
181	0xbef8bfeb	-0.48583922
182	0x3fbf2c45	1.4935385
183	0x3e167c93	0.14695959
184	0x3f4c1e84	0.79734063
185	0xbf027553	-0.5096027
186	0x3d87a8fb	0.06624027
187	0x3fd9ae18	1.7006254
188	0x3fed4142	1.853554
189	0x40b88976	5.76678
190	0xbf2f1726	-0.68394697
191	0x4059d195	3.4034169
192	0xbeecf129	-0.4627774
193	0x3efdf2a2	0.49599177
194	0x3f264b4f	0.6495866
195	0xc00f56e0	-2.2396774
196	0x3f9c33a5	1.2203261
197	0xc009a2e2	-2.1505666
198	0x3f8d5bcb	1.1043638
199	0x3fe8c882	1.818619
200	0x407e32ce	3.9718509
201	0x40470678	3.1097698
202	0x3ecfa5ff	0.40556332
203	0x3f921794	1.1413445
204	0x405f4144	3.4883585
205	0xbf690bbd	-0.91033536
206	0xbf1e2f59	-0.61790997
207	0xc0b70e71	-5.720513
208	0x40a29d77	5.081722
209	0xc0a68a34	-5.2043705
210	0x404e301e	3.2216868
211	0x3ddc3d68	0.107539
212	0x3ec5271a	0.38506395
213	0xc00eccb3	-2.2312438
214	0x4017c4d7	2.3713892
215	0xbe638056	-0.22216925
216	0x3e26ce39	0.16289605
217	0x4030a299	2.7599242
218	0x3f30a1b9	0.6899677
219	0x3fddf20c	1.7339492
220	0x40065d13	2.0994308
221	0xbe3008de	-0.17190883
222	0xbfc9fb18	-1.5779753
223	0x402938a1	2.6440814
224	0x3f923477	1.1422261
225	0xc0f26560	-7.574875
226	0xc0c65265	-6.197558
227	0x3e4d0d15	0.20024522
228	0x3fcc2ea4	1.5951734
229	0x3d5ece83	0.054396164
230	0x41cc8b7a	25.568104
231	0xbfaeeada	-1.3665421
232	0xbf4df3cd	-0.80450135
233	0x40e158aa	7.0420732
234	0x3f2655fa	0.6497494
235	0xbfc9c1d8	-1.5762281
236	0xbe9bf107	-0.30457327
237	0x3f4defc1	0.8044396
238	0x403ec237	2.980604
239	0x4017b786	2.3705764
240	0x4056e02b	3.3574321
241	0x40125af4	2.2868013
242	0x4159450f	13.57936
243	0x40adbe07	5.4294467
244	0x3ff276c3	1.8942493
245	0x41289511	10.536393
246	0x401ea2d4	2.4786882
247	0x3f56049c	0.83600783
248	0x3ee6627c	0.44997013
249	0xbf1caf7b	-0.6120526
250	0x3fd7a38e	1.6846788
251	0xbee8d2d4	-0.4547335
252	0x40a1dce3	5.0582137
253	0xba92e006	-0.001120568
254	0x3ee65a31	0.44990686
255	0x40a40f97	5.126903

fc2.bias f4 [148]
0	0xbe180106	-0.1484414
1	0xbe620f1e	-0.22076079
2	0xbd2e4670	-0.042547643
3	0xbdb39a33	-0.087696455
4	0xbd0a81e6	-0.033815287
5	0xbd21d111	-0.039506022
6	0xbe0770cf	-0.13226627
7	0xbddf62c3	-0.10907509
8	0x3b425ac9	0.0029656163
9	0xbde6b289	-0.11264522
10	0xbe833e84	-0.25633633
11	0x3d0b6f55	0.03404172
12	0xbe3b5476	-0.18293938
13	0xbed79157	-0.42103073
14	0xbe5b3541	-0.21407034
15	0xbc132d2f	-0.008982941
16	0xbd984c38	-0.074364126
17	0xbe8800ad	-0.26563016
18	0xbcc20394	-0.023683347
19	0xbe1af6d0	-0.15133214
20	0xbe8b0a89	-0.27156475
21	0xbe9da14f	-0.3078713
22	0xbe53669b	-0.2064461
23	0xbdc21536	-0.09476702
24	0x3998102e	0.00029003754
25	0xbde6849d	-0.11255763
26	0xbe74c4bb	-0.23903172
27	0x3f426520	0.75935555
28	0xbf0079ff	-0.5018615
29	0xbe7c7e66	-0.24657592
30	0xbebeb421	-0.37246802
31	0xbe870b4a	-0.263758
32	0xbd9f44c2	-0.077767864
33	0xbe2511df	-0.16120099
34	0xbdadf024	-0.08493069
35	0xbcb57b57	-0.02215354
36	0xbe20e0d3	-0.15710764
37	0xbdb7cde6	-0.08974819
38	0xbe00da7f	-0.1258335
39	0xbd8132e3	-0.06308534
40	0xbcadb43a	-0.021204103
41	0x3f5f8550	0.87312794
42	0xbe49d348	-0.19709504
43	0xbd0751fc	-0.03303717
44	0xbe5e02c6	-0.21680745
45	0x3c6a683a	0.014307076
46	0xbe8d4955	-0.2759501
47	0xbf19f2f7	-0.6013636
48	0xbdc70f41	-0.09719706
49	0xbe4825bf	-0.19545649
50	0xbe965af2	-0.2936626
51	0xbe8bc02f	-0.27295062
52	0xbe97bef8	-0.29637885
53	0xbec8d1ba	-0.3922251
54	0x3f4afa3e	0.7928809
55	0xba734350	-0.00092797447
56	0xbec6acfb	-0.3880385
57	0xbe2b9f15	-0.16759904
58	0xbe1fd101	-0.15607072
59	0xbe1a54d5	-0.15071423
60	0x3c2d6cfd	0.010585067
61	0xbeaaf602	-0.33390814
62	0xbebf4a38	-0.37361312
63	0xba6fc3b1	-0.0009146287
64	0xbe59e1fd	-0.21277614
65	0xbf002793	-0.50060385
66	0x403983c6	2.8986678
67	0xbda3b699	-0.07993812
68	0xbc48a222	-0.012245687
69	0xbc6be702	-0.014398338
70	0xbe4ec355	-0.20191701
71	0xbdf08ab3	-0.11745205
72	0xbe8eda93	-0.27901134
73	0xbe8b3ab1	-0.27193215
74	0xbe791a31	-0.24326397
75	0xbe881638	-0.26579452
76	0xbe560911	-0.20901896
77	0x3d651c02	0.055934913
78	0xbe457ce3	-0.19285922
79	0xbe2f1cc9	-0.17100824
80	0xbe2f6932	-0.17129973
81	0xbe261c5c	-0.16221756
82	0xbc0946d8	-0.008378707
83	0xbdd0760b	-0.10178765
84	0x3b480464	0.0030520195
85	0x3d741810	0.05959326
86	0xbec55eaa	-0.38548785
87	0xbe22f6f9	-0.15914525
88	0xbd8a2ab9	-0.0674643
89	0xbe7fb33c	-0.24970716
90	0x3c9bc0db	0.01901286
91	0x3d3865cc	0.045018956
92	0xbdb1772e	-0.0866531
93	0x404dbf15	3.2147877
94	0x3e27df6c	0.16393822
95	0xbea9c401	-0.33157352
96	0xbc3c7437	-0.011502317
97	0xbb4d5099	-0.0031328558
98	0xbee89937	-0.45429394
99	0xbd76bcb2	-0.060238548
100	0xbdd1ccd8	-0.10244149
101	0xbdb9abfb	-0.09066006
102	0xbddfa41f	-0.109199755
103	0x3c3f0150	0.011658028
104	0xbe665538	-0.22493446
105	0x3cd4793b	0.025936713
106	0xbe8827c6	-0.26592845
107	0xbe24ccac	-0.16093701
108	0xbe98e700	-0.2986374
109	0xbec8b666	-0.3920166
110	0xbebe7801	-0.3720093
111	0xbd315680	-0.043295383
112	0xbe8eca6a	-0.27888805
113	0xbea32f0f	-0.3187184
114	0xbdf0ad3b	-0.11751791
115	0x3d507620	0.050893903
116	0xbd2e2b4e	-0.042521767
117	0xbfa7021a	-1.3047516
118	0xbe8e016e	-0.27735466
119	0x3b97ce34	0.0046327356
120	0xbe6d3c41	-0.23167516
121	0xbe3d01b5	-0.18457682
122	0xbe5ce56e	-0.21571895
123	0xbdd1dc6e	-0.10247122
124	0xbc4af8c9	-0.012388417
125	0xbd5fb399	-0.054614637
126	0xbbd7affb	-0.006582258
127	0xbea48f58	-0.32140613
128	0xbe4449bc	-0.19168752
129	0xbea6cc07	-0.32577536
130	0xbeabad4d	-0.33530656
131	0xbdff8e20	-0.1247828
132	0xbc280205	-0.010254388
133	0xbe9e05ef	-0.30863902
134	0x3b969330	0.004595183
135	0xbd0a852f	-0.03381842
136	0xbe5826f3	-0.21108608
137	0xbed057da	-0.40692025
138	0xbe9638da	-0.2934025
139	0xbdb3ddea	-0.08782561
140	0xbebc21c9	-0.36744526
141	0xbe1ee8bd	-0.1551847
142	0x3d1848e5	0.037178893
143	0xbe084ed4	-0.1331132
144	0xbe888c25	-0.26669422
145	0x3f4c0864	0.79700303
146	0xbe8df31d	-0.27724543
147	0xbeabd9e2	-0.3356467

fc3.weight f4 [1, 148]
0	0xc1538ea3	-13.222323
1	0xc16fe43c	-14.993221
2	0x3d040a2e	0.03223627
3	0x3c1b52ea	0.0094802175
4	0xbc86b6f2	-0.016444657
5	0x3b690388	0.0035555083
6	0xc15f0b5b	-13.940272
7	0x3cb10bbd	0.021612043
8	0x3d30121e	0.042986028
9	0xbcd91d45	-0.026503215
10	0xc14f46d2	-12.95479
11	0x3cda7905	0.026669035
12	0xc151c239	-13.109918
13	0xc21d7ba3	-39.37074
14	0xc152ce1c	-13.17532
15	0x3ce761f5	0.028244952
16	0x3d2cbc76	0.042171918
17	0xc096c7df	-4.7118983
18	0x3d6ecca3	0.058300626
19	0xc1792b4d	-15.5730715
20	0xc15e0ce2	-13.878145
21	0xc16070e1	-14.027558
22	0xc1519926	-13.09989
23	0x3c95e2e3	0.018296665
24	0xbbc348bf	-0.0059595997
25	0x3bc564d7	0.006023984
26	0xc158a044	-13.539127
27	0x41dfa582	27.955814
28	0xc22751ce	-41.829887
29	0xc15bde04	-13.741703
30	0xc1e1f1f7	-28.243147
31	0xc1515b97	-13.084861
32	0xbd62af41	-0.055342916
33	0xc15887bc	-13.533138
34	0x3cebb515	0.02877287
35	0x3ce78a52	0.028264198
36	0xc2129f64	-36.655655
37	0xbbd64560	-0.006539032
38	0x3c326d60	0.010890335
39	0x3c7c8033	0.015411424
40	0x3d70f425	0.058826584
41	0x406e56ca	3.7240472
42	0xc153c4b1	-13.23552
43	0xbc53f4be	-0.012936769
44	0xc14df6e3	-12.872775
45	0x3bc2a1b5	0.005939687
46	0xc2059bae	-33.40203
47	0xc1bdb8b1	-23.715181
48	0x3ca6597f	0.020306347
49	0xc1562678	-13.384392
50	0xc15a7b51	-13.655107
51	0xc1780a9e	-15.502592
52	0xc09680e3	-4.7032332
53	0x4037ad6e	2.8699603
54	0x407b31ba	3.92491
55	0x3d268781	0.04065657
56	0xc19ce92d	-19.613855
57	0xc150b8dd	-13.045133
58	0xc156eadd	-13.43234
59	0xc14f3cf9	-12.952386
60	0x3d0ef3d2	0.034900494
61	0xc1b2d438	-22.353622
62	0xc2217856	-40.367516
63	0x3cf78598	0.03021507
64	0xc1d85d21	-27.045473
65	0xc14989a2	-12.596102
66	0x4110eaa3	9.057284
67	0xbc04008a	-0.008056769
68	0xbc7cf24f	-0.01543863
69	0x3c91dad3	0.017804539
70	0xc155e4c4	-13.368351
71	0x3a728835	0.0009251864
72	0xc155e34b	-13.367991
73	0xc159ad56	-13.604818
74	0xc157120e	-13.441908
75	0xc152ebca	-13.182566
76	0xc1521ee9	-13.132546
77	0x3cea525b	0.028603723
78	0xc14d5739	-12.833795
79	0xc14e1651	-12.880448
80	0xc1553594	-13.325581
81	0xc158da0c	-13.553234
82	0x3ce2b5af	0.027674524
83	0x3a882429	0.0010386753
84	0x3bb0435a	0.0053791227
85	0x3d282cd8	0.04105839
86	0xc19e1c84	-19.763924
87	0xc15ad221	-13.676301
88	0x3d903f5c	0.07043335
89	0xc15e547a	-13.895624
90	0x3d826da9	0.06368572
91	0x3d307101	0.04307652
92	0xbcda0ab0	-0.026616424
93	0x40cfabcf	6.4897227
94	0x3f651c25	0.8949607
95	0xc210236f	-36.034603
96	0xc11d9db0	-9.850998
97	0xbcdb4c29	-0.026769714
98	0xc26af5cd	-58.74004
99	0xbd0bdbd7	-0.034145202
100	0xbcf56897	-0.029957099
101	0xc1ef39c4	-29.903206
102	0x3ca680f1	0.020325156
103	0xbaae0cb5	-0.0013278933
104	0xc1575779	-13.458856
105	0x3d6087a6	0.054816864
106	0xc1978a0d	-18.942408
107	0xc154e85c	-13.306728
108	0xc155c452	-13.36043
109	0xc163d97b	-14.240596
110	0xc0958739	-4.6727567
111	0x3d497b27	0.049189713
112	0xc1529e39	-13.163629
113	0xc18dd231	-17.727633
114	0xbc218559	-0.009858453
115	0x3c23de99	0.010001802
116	0x3d4bd53a	0.049763896
117	0xc0df8a60	-6.9856415
118	0xc15d7e38	-13.843315
119	0x3bb88518	0.0056311004
120	0xc163bd57	-14.233726
121	0xc1944247	-18.532362
122	0xc1718b4c	-15.096508
123	0xbca11913	-0.019665277
124	0x3d2795a4	0.040914193
125	0x3d332408	0.043735534
126	0x3cb1df23	0.021712845
127	0xc0998f31	-4.7987294
128	0xc1647bdb	-14.280238
129	0xc1b1e160	-22.235046
130	0xc21e3365	-39.55019
131	0x3c9afc7b	0.01891922
132	0x3d573e6c	0.052549765
133	0xc17a5a0b	-15.646983
134	0x3ca95e6b	0.020674905
135	0x3c1b50f0	0.009479746
136	0xc15059b7	-13.021903
137	0xc28a323d	-69.09812
138	0xc0e11c98	-7.0347404
139	0x3cb83292	0.022485051
140	0xc094d3f9	-4.6508756
141	0x40a486d5	5.141459
142	0xbceccc38	-0.028905973
143	0xc156d155	-13.426106
144	0xc1559b58	-13.350426
145	0x408a87b5	4.329066
146	0xc14a0b5f	-12.627776
147	0xc0c12810	-6.0361404
