demo/2_2_5/critic_2_0.pth (torch, 108582 bytes, 5 tensors)

fc1.weight f4 [148, 28]
000000 e4 4a 3f 3e 64 cc 44 bf 04 df 60 bf 1c 47 47 3f
       0.18680912 -0.76874375 -0.87840295 0.7784288
000010 be 31 58 bf db 60 b7 be 9b 17 e3 3c 8c ad 39 bf
       -0.844509 -0.35816082 0.027721217 -0.72530437
000020 69 dd a2 be a2 6a a0 3d 06 76 6b 3e 65 dd 26 be
       -0.31809548 0.078328386 0.22994241 -0.16295393
000030 5b 44 9e bf 1c af 62 3f c6 02 de bd 56 13 71 be
       -1.236461 0.88548446 -0.10840373 -0.23542532
000040 d3 ce 0e bd 7e 13 83 3e da 62 6e 3d d7 d9 2f 3e
       -0.03486521 0.2560081 0.05819974 0.17172943
000050 dd 7e 0e bd 2e 76 8a 3d b2 f1 99 3f 26 d9 32 c0
       -0.034788955 0.06760822 1.2026885 -2.7945037
000060 c1 07 27 c0 b0 c5 06 3f 40 9f 6d 3f 13 a2 55 bf
       -2.6098483 0.526454 0.9282112 -0.8345043
000070 f4 e5 db 3e b8 c5 0c 40 5e 70 d1 be 5f c8 52 3f
       0.42948878 2.1995678 -0.40906042 0.8233699
000080 f3 21 a3 bd 60 4c fa 3f 7b a2 b1 be 13 e3 9c be
       -0.0796546 1.9554558 -0.34694275 -0.30641994
000090 26 86 23 be 07 41 3d 3d 9c 02 ef 3e 9f d2 b6 bd
       -0.15969142 0.046204593 0.46681678 -0.089268915
0000a0 b0 29 08 3f 7d b0 4f c0 1f f8 ef 3f f0 97 d5 be
       0.5318861 -3.245147 1.8747596 -0.41717482
0000b0 68 65 2b be 66 0b d8 3e bf ce 37 be c6 46 cd 3d
       -0.16737902 0.42196196 -0.17949961 0.100232646
0000c0 6e 2e c8 bd ec 95 ec bd 76 85 ec 3f c7 d4 9f bf
       -0.09774481 -0.11552033 1.8478229 -1.248681
0000d0 ba 3c 85 c0 b3 19 1e bf 3f 98 88 c0 bb 38 a5 3f
       -4.163663 -0.61757964 -4.2685847 1.2907938
0000e0 2e 62 76 3f 10 33 93 3f af 24 73 3f c5 c2 c8 be
       0.9624356 1.1499958 0.9497785 -0.39211097
0000f0 06 75 3c bf 88 33 9c be a3 2b 07 3d d3 cf 37 3e
       -0.73616064 -0.30508065 0.0330006 0.17950372
000100 7a c7 19 3d bb 8d 2c bb 25 e0 03 3c 91 34 83 3e
       0.03754375 -0.0026329595 0.008049046 0.25626042
000110 84 80 82 3d 0b b1 46 40 66 68 0f 40 9b e4 3f be
       0.06372169 3.1045558 2.240747 -0.1873955
000120 78 51 43 be 1f d3 32 3e 5d 52 2f 3e 3b 1d 03 bc
       -0.19074047 0.17463349 0.17121263 -0.008002575
000130 84 3e 1c be 4c 19 0a 3e 74 a2 87 3d 4f eb 3a 40
       -0.15258223 0.13486212 0.06622782 2.920612
000140 fe 36 0f 40 96 3b f6 bf 7d 38 b3 3f 52 15 a3 3f
       2.2377315 -1.9236934 1.4001614 1.2740881
000150 42 3a 04 c0 43 85 d4 be bf 40 49 bf f0 30 1e 40
       -2.0660558 -0.4150792 -0.7861442 2.471737
000160 b3 0b 53 bf d7 85 92 3f d7 74 58 3e 05 17 e8 3d
       -0.82439727 1.1447095 0.21138321 0.113325156
000170 aa f2 6f be 33 75 80 3f 72 b0 91 3e 25 7c 97 be
       -0.23432413 1.0035766 0.2845493 -0.29586902
000180 24 de 11 3f 97 c9 d4 3f 22 02 10 3e 5f 01 9a bd
       0.56979585 1.662402 0.14063314 -0.07519793
000190 21 0c 1b 3e 23 72 2b 3e 62 0f 32 be 3e 25 fa 3c
       0.15141346 0.16742758 -0.1738868 0.030535337
0001a0 fd d5 e1 3d a8 71 91 bd 81 ed 9b 40 2c 72 90 c0
       0.11027143 -0.07101756 4.872742 -4.513937
0001b0 4b b6 ab 40 5a 39 11 c0 4c 63 1c bf ce 9d 95 bf
       5.3660026 -2.2691255 -0.61089015 -1.1688783
0001c0 77 7f 1f c0 b3 55 06 3e 80 48 4c bf 95 7f ec 3f
       -2.4921548 0.13118629 -0.79798126 1.8476435
0001d0 86 20 5a 3f a1 d1 9a 3f 4b 10 7e 3e 67 f3 cc 3d
       0.85205877 1.2095224 0.24810903 0.10007363
0001e0 88 2b 76 3c 0c 8a d5 3c ca fa bb bd 16 05 b9 3d
       0.015025027 0.026066802 -0.091786936 0.09034173
0001f0 5e 3f 80 3d 46 ce a6 3e 05 49 e1 3f eb 64 b7 be
       0.06262086 0.3257925 1.7600409 -0.35819182
000200 d3 86 b1 3d 91 b7 99 3e 47 a5 f6 bc cc 3b 93 3d
       0.08668294 0.30022863 -0.030108107 0.0718914
000210 10 36 00 be ed 5e 21 bd 44 f2 0b 3f 2d f3 06 3f
       -0.12520623 -0.03939717 0.54666543 0.52714807
000220 d8 48 7f bd d9 f3 4f c0 31 97 7a 3f 8f 1e 30 bf
       -0.06232533 -3.2492583 0.9788695 -0.6879663
000230 60 bd 1b c0 e7 87 a3 3f ae 27 12 bf 97 61 e7 3f
       -2.4334335 1.2775849 -0.57091796 1.8076657
000240 cf be 0f 3f e4 74 87 3e 0c 6d a8 be 7a 39 79 3e
       0.56150526 0.26456368 -0.32895696 0.24338332
000250 9e 28 37 bf 32 12 86 be 1b dc 00 3f 36 4e 04 be
       -0.7154635 -0.26185757 0.50335854 -0.1292046
000260 1c f0 b4 3f f5 31 8f c0 1f 37 1c 3f 6d 8c 40 3e
       1.4135776 -4.4748483 0.6102161 0.18803568
000270 14 d8 f3 bd 55 e4 06 bf cb 51 aa 3d bd 06 02 bd
       -0.11906448 -0.5269216 0.08316382 -0.031744707
000280 a5 d6 8c bd 83 0b 0e bd 11 56 e1 bf c4 c7 ea bf
       -0.06876878 -0.034678947 -1.760439 -1.8342214
000290 79 1b 87 3f a5 42 15 c1 db 11 bd c0 ff a1 8c 40
       1.0555259 -9.328771 -5.9084296 4.394775
0002a0 d2 6c 0d 3f 17 6e a1 3f ec 4d d5 be 9d ed cd be
       0.5524417 1.2611722 -0.41661012 -0.40220347
0002b0 a4 05 70 3e 80 57 98 3d ee 53 89 3d 15 db 82 3e
       0.23439652 0.07438564 0.067054614 0.2555777
0002c0 28 0c 1a bf 18 ae f2 be 75 04 fe 3c 3f ca fb bd
       -0.601748 -0.47398448 0.031007985 -0.12294435
0002d0 c8 60 bb 3f cd f1 eb bf 09 58 f6 c0 a1 23 3b 3f
       1.463891 -1.8433167 -7.6982465 0.7310124
0002e0 d1 21 4e 3d 97 65 72 bf 62 19 58 3d c8 53 64 bd
       0.05032522 -0.94686264 0.052758582 -0.055743963
0002f0 73 0b f7 3d 46 db 94 3c 96 93 ee 3e b3 ed 67 bf
       0.12062731 0.018170964 0.46596974 -0.90597075
000300 43 0e c6 c0 29 aa 7c bf 36 50 ae bf fd 0c 38 bc
       -6.189241 -0.98697144 -1.3618228 -0.011233565
000310 17 cb 1e 3d 0d 51 94 3f 9a 21 8e 3e f4 97 8f bf
       0.0387679 1.1587235 0.2776001 -1.1218247
000320 28 b3 b1 3c df 39 ee be c4 4f 88 3c 5c 01 04 3d
       0.021691874 -0.46528527 0.016639598 0.03222786
000330 c1 46 d0 bc 61 41 da 3d 18 d5 82 3b fa 9f e0 bc
       -0.025424363 0.10657001 0.003992688 -0.027420033
000340 ca f3 4f 3e f1 31 1e 41 f8 74 37 3f 95 35 22 be
       0.20307842 9.887193 0.71662855 -0.15840752
000350 b3 37 ac 3e c1 c4 82 be ef 18 5d 3b 6b 28 e3 bd
       0.33636245 -0.25540736 0.0033736785 -0.110916935
000360 15 26 05 be d5 71 37 3e fa 26 59 c0 75 01 89 3f
       -0.13002808 0.17914517 -3.393004 1.070357
000370 aa 46 2f 3d d7 24 81 c0 6c 66 95 bd e5 ae 3b be
       0.042792 -4.035747 -0.07294926 -0.18328436
000380 83 c0 84 3f 61 03 cd 3f 0c 5d 2b be c0 f9 4e c0
       1.037125 1.6016656 -0.16734713 -3.2339935
000390 18 c0 16 3f 02 8f c4 bd f5 c0 03 bf 17 82 2e 38
       0.5888686 -0.09597589 -0.51466304 4.160599e-05
0003a0 a8 75 cf 3e 46 24 0d bf 15 3e 51 bf bd 57 1e c0
       0.40519452 -0.55133474 -0.81735355 -2.4741051
0003b0 0b fa d4 3f 75 98 eb 3f 6e 6a 87 c0 78 82 b6 3f
       1.6638807 1.8405901 -4.231742 1.4258566
0003c0 2d 2a 3e bd 27 ea b5 bf 96 f9 63 bc 12 f4 d7 bd
       -0.04642694 -1.4212083 -0.013914486 -0.105445996
0003d0 74 84 da bd e4 37 d4 3d ea 4c 3e 40 9a e7 44 c0
       -0.10669795 0.10362223 2.9734445 -3.0766358
0003e0 92 24 2d c0 96 e7 be bd dd e0 f0 3f 35 c4 9b 3f
       -2.705357 -0.09321515 1.8818623 1.2169253
0003f0 13 71 dc 3f 7e 23 b4 bf 4f f5 ab 3e 98 02 e8 bf
       1.7222008 -1.4073331 0.33585593 -1.8125792

fc1.bias f4 [148]
000000 b3 11 c0 3e 7e fd ff 3e 7b fc 6b 3e 7c d4 d3 bd
       0.37513503 0.49998087 0.23045532 -0.103432626
000010 9c cf 03 3f 5f 9d 56 be ed 81 81 bf 87 17 ca 3d
       0.5148866 -0.2095847 -1.0117775 0.09867769
000020 17 8b b1 bf c1 c0 3e bf 69 9c 4e 3f 55 09 2e 3f
       -1.3870572 -0.7451287 0.8070741 0.6798299
000030 e5 cd cb be d1 3e a1 3e da 08 ed 3e 58 ee 75 be
       -0.39805523 0.31493238 0.46295816 -0.24016702
000040 18 f6 80 be 03 56 80 bf 0d 28 20 3f 89 b9 89 3e
       -0.25187755 -1.0026249 0.6256111 0.26899365
000050 5e 76 9f 3e ba a4 33 3d 68 05 10 3d f9 98 74 bf
       0.31144994 0.043858267 0.035161406 -0.9554592
000060 a0 87 23 3f dc 39 d8 be 33 53 2c bf ea 94 80 bf
       0.6387882 -0.42231643 -0.6731445 -1.0045445
000070 47 9a 70 3f 5f 41 b3 bf a1 e1 04 be 2f dc 87 be
       0.9398541 -1.4004325 -0.12976696 -0.26535174
000080 4f e8 08 bf e4 60 ce be 23 da 34 3e a3 40 15 be
       -0.53479475 -0.40308297 0.17661338 -0.14575438
000090 7a 5c 06 be ce dd 83 be 96 d4 d0 bc 10 fc c7 bd
       -0.13121215 -0.2575516 -0.025491994 -0.09764874
0000a0 61 06 ab 3e c0 56 23 3f 8c 16 70 3e 27 9d f0 be
       0.33403304 0.63804245 0.23446101 -0.46994898
0000b0 52 16 8c 3d 52 bc 13 bf 92 e8 17 3e 87 d8 8f be
       0.06840195 -0.5770923 0.14834812 -0.28094885
0000c0 2c 62 d4 bd 8d 04 0e 3f f4 9b 12 3e a8 7c ab 3e
       -0.10370287 0.55475694 0.14317304 0.33493543
0000d0 de dc e4 3e b0 21 b3 be 25 d2 cb be 09 1c 6f 3d
       0.44699758 -0.3498664 -0.39808765 0.058376346
0000e0 af 44 86 be 99 e7 77 be 9b db 04 3e 87 da da 3e
       -0.26224276 -0.24209441 0.12974398 0.42744848
0000f0 41 c5 8f be a6 60 69 bf 03 ff 47 be e9 3c 40 3f
       -0.2808018 -0.911631 -0.19530873 0.7509294
000100 8a 81 1e bf 7a 8c 12 3f 44 db 5d 3f a7 30 d8 be
       -0.6191641 0.572456 0.866627 -0.4222462
000110 19 78 31 3f 11 90 be 3e a5 bf 0f bf 1f 0f 87 3c
       0.6932388 0.3721929 -0.561518 0.016486702
000120 5e 8d 8f 3e 7a d4 71 3e ce b1 8d 3f fd 37 0a 3e
       0.28037542 0.2361621 1.1069887 0.1349792
000130 e2 00 f3 3b 85 92 fd 3d d1 ef ec 3e f5 4b bd 3d
       0.0074158767 0.12381462 0.46276715 0.09243003
000140 6f e1 59 3c 9a 0f b1 3f e2 5a 2f 3f 93 37 8b 3e
       0.013298376 1.3832886 0.6849805 0.27190837
000150 c2 f0 f2 be 49 29 7c 3e 23 d9 f6 3e 8f 78 1b 3f
       -0.4744931 0.24625124 0.48212537 0.6073083
000160 93 e1 8d bf 70 8d 88 3d 17 ff 4c be aa 01 d8 bd
       -1.1084465 0.06667602 -0.20019184 -0.105471924
000170 ce 42 1f be 99 7d 61 3f 64 04 37 3e ac c5 49 bf
       -0.15552828 0.8808227 0.17872769 -0.7881725
000180 47 e7 47 be 40 35 af 3e 67 08 ce 3c c3 c0 e9 be
       -0.19521819 0.34220314 0.02515049 -0.45654878
000190 26 f2 81 3e f0 0e 39 bd e6 a6 33 3f af 3a 8a bf
       0.25380057 -0.04518026 0.7017654 -1.0799159
0001a0 6f 97 e0 3c 70 15 11 3f 28 40 e5 bd 4b 9b a0 bf
       0.02741596 0.56673336 -0.111938775 -1.2547392
0001b0 9d d6 41 bf ba 08 39 3f 58 f9 c1 3f c7 99 05 3e
       -0.757181 0.7227894 1.5154219 0.13046943
0001c0 d0 4f 93 3e 25 a6 f4 3e 5a 62 2e bd 36 ac 4f be
       0.2877183 0.47783008 -0.042574264 -0.20280537
0001d0 64 d6 a1 bf 17 14 a3 3e 92 6a 9e 3d 40 d3 37 bb
       -1.2643552 0.31851265 0.077351704 -0.0028049499
0001e0 e7 41 8b be f9 38 af 3e f8 e9 40 bf 17 8c 80 3f
       -0.27198717 0.34223154 -0.7535701 1.0042752
0001f0 12 b1 a4 3e 0e dc 29 bd e3 47 f2 3c 60 28 27 3e
       0.32166344 -0.041469626 0.029575294 0.16323996
000200 d6 b0 00 be ff 22 43 bf ff ce 7e 3d e6 91 13 3d
       -0.12567458 -0.76225275 0.062209126 0.03602781
000210 35 6c e8 3f 4f 0b 5c 3e c6 c2 2c be ed 8a 86 3e
       1.8158022 0.21488689 -0.16871175 0.26277867
000220 25 f9 5f 3f 76 b4 72 3e 22 36 09 bb 11 4d 0a 3d
       0.8748954 0.23701653 -0.0020936807 0.033764903
000230 8c 13 14 3f d0 e4 b3 be 09 3d 6e 3e e3 a3 73 3e
       0.57842326 -0.35135508 0.2326547 0.23792987
000240 8c a7 06 3f b8 0d 9d 3e 22 d5 66 3e b9 f4 5e bf
       0.52599406 0.3067453 0.22542241 -0.8709217

fc2.weight f4 [148, 148]
000000 82 79 55 bf 9f 68 92 be 32 cc 02 c1 97 27 bc bf
       -0.8338853 -0.28595445 -8.174852 -1.4699582
000010 03 10 bf 3f 6a 55 cb 3f b0 f6 d1 bf 41 64 69 c0
       1.4926761 1.5885441 -1.6403408 -3.646744
000020 a7 7e 12 c0 21 0f 66 c0 5d f1 16 40 e0 78 c5 3d
       -2.2889802 -3.5946734 2.3584816 0.09642196
000030 83 e1 04 3f d1 81 84 be 5a 91 79 c0 1b 6b 11 c0
       0.51906604 -0.25880292 -3.8994966 -2.2721622
000040 26 f7 51 c1 3d 54 ec 3f c9 a1 1d c0 27 44 e8 c0
       -13.122839 1.8463207 -2.4629996 -7.2583194
000050 86 92 6c c0 76 91 e5 be fa 3e 16 3e 57 83 14 bf
       -3.696443 -0.4483754 0.14672461 -0.5801291
000060 4c 11 17 c1 cb 0c 99 bf 06 d9 6d 3d 92 30 e1 bf
       -9.441723 -1.1957029 0.058068298 -1.7592947
000070 3c 47 c4 be 39 a1 70 bf 13 cc b4 40 23 e9 be 3e
       -0.38335598 -0.93996006 5.6499114 0.37287244
000080 54 4f 9f c0 cb 65 df c0 8d 4b 0e 3f 47 54 81 c0
       -4.9784336 -6.981176 0.5558403 -4.041538
000090 74 1c 0c c0 83 38 b9 c0 43 ba 4d 3f 62 60 10 c0
       -2.1892366 -5.7881484 0.8036234 -2.2558827
0000a0 55 13 aa bf e5 f3 0c 40 55 20 2e c0 b3 4e 3e 3f
       -1.328715 2.2023861 -2.7207234 0.74338835
0000b0 8a c4 d3 c0 3d a5 be 3f 79 1a d3 c0 46 96 bf 3f
       -6.6177416 1.4894177 -6.5969815 1.4967735
0000c0 d9 7a 5a c0 dd 0a a2 c0 0b f1 5b c0 dc 30 b1 bf
       -3.413748 -5.063826 -3.436587 -1.3843036
0000d0 6a 30 6f 3f c3 09 83 c0 09 c3 da 3f ba 6d 78 c0
       0.9343325 -4.0949416 1.709077 -3.8816972
0000e0 dd 1b 05 3e e0 6b 7f 3c 01 df 3a c0 f4 06 9e bf
       0.1299891 0.015589684 -2.919861 -1.2345872
0000f0 fa a7 35 be 52 2f 20 c0 16 f9 84 c0 48 1e fa 3f
       -0.17739859 -2.5028882 -4.155406 1.9540491
000100 56 32 36 c0 26 c8 a1 3f 01 e3 ca 3f a1 a3 81 c0
       -2.8468223 1.2639205 1.5850526 -4.051224
000110 52 26 4f 40 0e d9 d1 3f e4 5e fe bf c4 c1 1c 40
       3.236714 1.6394365 -1.9872708 2.4493265
000120 76 22 96 be 28 4e af 3f 85 0f 0a c1 24 0f 7b c0
       -0.29323167 1.3695726 -8.628789 -3.922799
000130 ec bf 86 3f ce 17 13 c0 54 a3 04 c0 19 fd ef 3f
       1.052732 -2.298328 -2.0724688 1.8749114
000140 02 3f ab c0 95 17 00 c1 13 cc 18 3f 46 b8 11 3d
       -5.3514414 -8.005757 0.5968639 0.035576127
000150 22 33 32 c0 23 2b 02 3f d0 8b 0a c0 8d af b0 bf
       -2.784371 0.5084707 -2.1647835 -1.3803574
000160 5a b7 a5 bf 1d 81 00 40 19 aa c1 3f 68 22 71 c0
       -1.294658 2.0078804 1.5130035 -3.767725
000170 82 00 60 c0 a1 5f d2 3e 97 20 04 c0 fd af b4 bf
       -3.500031 0.41088584 -2.0644891 -1.4116207
000180 fe f0 43 40 6e 45 78 c0 a3 52 93 3e 07 7e c9 bf
       3.061584 -3.8792377 0.28773984 -1.5741585
000190 42 b0 97 c0 f4 81 b6 c0 aa 89 3d c1 39 63 3d 40
       -4.740266 -5.7033634 -11.846109 2.959181
0001a0 00 68 d8 3f 68 95 84 c0 94 05 15 c0 b9 81 ca c0
       1.6906738 -4.143238 -2.3284655 -6.3283353
0001b0 86 a2 46 c1 ec c2 e9 3f 5e 40 95 c0 79 6f 22 be
       -12.414679 1.826261 -4.6641073 -0.15862836
0001c0 f1 c9 be c0 6d a2 2c be 73 03 ef 3f 50 09 85 c0
       -5.962151 -0.16858836 1.8672928 -4.157387
0001d0 f4 3e 75 40 b7 c4 c3 3f 20 71 2a c0 0e 49 98 c0
       3.8319674 1.5294408 -2.6631546 -4.758918
0001e0 1c 4e 05 3e 97 2c 86 c0 94 dc 31 c0 af 48 8e c0
       0.13018078 -4.192943 -2.779088 -4.4463725
0001f0 20 30 85 c0 b4 48 94 c0 e3 f5 24 c1 17 f3 91 3e
       -4.1621246 -4.633875 -10.310031 0.28505775
000200 79 16 41 3f 51 61 8a 3f b1 69 49 be f4 b1 55 40
       0.75424916 1.0810949 -0.19669224 3.3389864
000210 60 0e 09 c0 75 63 b5 c0 c1 dd eb 3e 39 12 6c 3f
       -2.1415024 -5.6683908 0.46067622 0.92215306
000220 69 dd f1 c0 f1 81 17 c0 fd 4a c9 c0 70 60 62 bf
       -7.5582776 -2.367306 -6.290404 -0.884284
000230 c1 8b 73 bf 03 82 ea 3f e4 87 fb 3f 88 61 e0 be
       -0.9513512 1.8320926 1.9650846 -0.4382441
000240 77 97 60 40 1f 71 e8 3c 69 e0 1c c1 4c 13 01 40
       3.5092447 0.028374253 -9.804788 2.0168028
000250 e7 53 53 3e 38 97 af bf 02 2c 39 40 c2 e6 ab bf
       0.20637475 -1.3718023 2.893311 -1.3429797
000260 08 a8 43 40 78 c5 5d bf fb 63 ae 40 97 e8 2b 40
       3.0571308 -0.8662944 5.4497046 2.6860712
000270 96 e1 1b 3f d3 54 64 bf f6 ce 3d 40 a7 b3 8e 3f
       0.6089109 -0.8919193 2.965757 1.1148576
000280 4e 9a 7d c0 3a 9a a8 bf a8 6d 65 40 fb 9a a4 3f
       -3.962543 -1.3172066 3.584818 1.2859796
000290 07 3a 8f 3f d0 2f c0 3f 2e 07 35 40 54 ca f5 be
       1.1189584 1.5014591 2.8285632 -0.48005927
0002a0 3c b4 2c bf 11 eb 64 40 79 e9 3b 40 ac de 12 40
       -0.67462516 3.5768473 2.936125 2.2948408
0002b0 87 51 85 3e 0b 00 94 3f 79 a2 3d bf c0 1a 23 40
       0.26038763 1.1562513 -0.7407604 2.5485077
0002c0 fe 81 0f bf 80 7d 0b 40 00 79 4f bf 98 d5 d9 be
       -0.5605773 2.179535 -0.81044006 -0.42545772
0002d0 71 b8 b8 40 c0 ae 62 40 73 cc db bf a1 48 8d 3e
       5.772515 3.541916 -1.7171768 0.27594474
0002e0 f5 c1 9e 40 e1 87 10 bf 5c 57 8e 3f f1 e6 51 bf
       4.9611764 -0.56457335 1.112041 -0.81993014
0002f0 98 1a 88 3e 2c 3d da be a4 a0 12 bf d4 de 62 bf
       0.2658279 -0.42624795 -0.5727637 -0.8862126
000300 85 31 ad 3f 12 57 83 40 96 2f d0 3f d9 b3 f6 bf
       1.3530737 4.1043787 1.6264522 -1.9273635
000310 a9 ba f8 3f 40 9a 99 3e fb f1 1b 3e 21 bd 83 40
       1.9431964 0.30000496 0.15229027 4.116837
000320 15 fd 09 40 25 82 b0 bd 37 07 14 40 7e 92 68 3e
       2.156072 -0.08618573 2.3129404 0.22712132
000330 ac 20 57 c0 86 a8 cc bf 8c 04 4d 3e 25 ed d2 3e
       -3.3613691 -1.5988929 0.20021266 0.41196552
000340 24 94 1c 40 ba 31 14 40 08 25 fb 3f 03 12 ce bf
       2.4465418 2.315535 1.9620676 -1.6099247
000350 5e 64 cb 3f c5 dc f8 3f 9e b0 07 40 45 86 97 40
       1.5890005 1.9442374 2.1201549 4.7351403
000360 d6 38 78 bf a0 55 cb bf 80 c4 05 40 87 6d ac bc
       -0.96961725 -1.5885506 2.0901184 -0.02104832
000370 6a 1a 06 be ce 5f b8 3f d1 b5 16 3f 2e be 29 3e
       -0.13096014 1.4404237 0.5887118 0.16576454
000380 a8 f4 72 be 5a ee 0f bd b1 20 6a 40 c2 42 74 40
       -0.23726141 -0.03513942 3.6582453 3.8165746
000390 b4 7a 92 3f a8 11 63 3e d4 96 ac 3f 2a 09 9a be
       1.1443696 0.22174704 1.3483529 -0.30085117
0003a0 c3 dd 54 c0 d5 08 c8 bf c6 cc f3 3f 00 7c fa 3f
       -3.3260353 -1.5627695 1.9046867 1.9569092
0003b0 a9 ac 01 c0 8e b6 8e 3f 7a 25 ae 3f d8 bc d3 bf
       -2.0261633 1.1149461 1.3605187 -1.6542006
0003c0 19 f2 dc 3f 09 2f 43 40 5f e5 d7 3e 5d 14 25 40
       1.7261382 3.0497458 0.42167184 2.5793679
0003d0 41 7e 1b bf 39 42 9c 3f af c1 07 c0 32 7e 0c 40
       -0.60739523 1.220771 -2.1211965 2.1952024
0003e0 12 cd 74 3e 07 6f b0 bd 2d 06 c7 3d 8f 07 01 c0
       0.23906353 -0.08614927 0.09717975 -2.0160863
0003f0 23 37 c3 3f 15 24 e9 3e 86 9b 1a 3f 56 92 81 3f
       1.5251201 0.4553534 0.6039356 1.0122783

fc2.bias f4 [148]
000000 3a 45 5b be 0e 0f 84 3d 1a 94 a8 3d 47 a6 d3 bd
       -0.21413127 0.06448184 0.08231373 -0.10334449
000010 03 f8 37 3e 0f b8 d0 3d f5 f0 2f 3e 0b 7a 08 bd
       0.17965703 0.101913564 0.17181762 -0.033319514
000020 ca 05 b1 3d 58 84 48 bd 4b c7 91 bd 11 3c 2a 3e
       0.08643682 -0.048954338 -0.0711809 0.16624476
000030 24 ab d7 bd 15 c0 65 3e 91 50 2c 3e 66 88 b3 bd
       -0.10530689 0.22436555 0.16827609 -0.0876625
000040 83 45 a3 3d fc de be bd 39 08 07 3e b1 7f 56 3e
       0.07972243 -0.09319875 0.1318673 0.20947148
000050 30 84 3e 3f 0b 80 af bd 24 53 17 3f 27 74 11 3d
       0.7442045 -0.08569344 0.5911124 0.035511162
000060 fd 14 63 bd 6f cc 0c bf 77 8b 3f 3e 00 dd 48 3d
       -0.055439938 -0.5499944 0.18705545 0.049038887
000070 46 2c 15 3e 88 6b 5c be 26 76 da 3d 92 7c 35 bd
       0.1456767 -0.21525395 0.10667066 -0.044308253
000080 d7 9f b5 3d 0a 21 41 3e 54 8b 2d 3e 67 45 86 3c
       0.08868378 0.1886026 0.1694768 0.016390515
000090 2a 2a fc 3d 24 d8 2e be 11 fd b1 bd e8 ef 47 bd
       0.1231273 -0.17074639 -0.08690847 -0.048812777
0000a0 0a fb 87 bd df 02 d8 3d 4a 82 8d 3f 23 2b 66 bd
       -0.06639679 0.105474226 1.1055386 -0.056193482
0000b0 a9 c4 94 bd 1d 7e 30 3d a3 8c c7 3c fa cc 4d 3e
       -0.072640724 0.04308902 0.024359053 0.20097724
0000c0 ed 5d 06 3e 47 16 e3 be 41 5a 09 3e 33 bd 75 bd
       0.13121767 -0.44352934 0.13413335 -0.059994888
0000d0 6a 65 18 3d 83 27 15 3e d1 2a da be 0f 24 dc 3b
       0.03720609 0.14565854 -0.4261079 0.0067181657
0000e0 55 ac cf bd 6f 3a 8a bd 7b 1c 9b bc 31 67 b0 bd
       -0.101402916 -0.067494266 -0.018934479 -0.08613432
0000f0 4b 74 27 bd 30 62 b4 3d 47 9f 86 bb ae d0 ca 3e
       -0.04088239 0.0880779 -0.004108343 0.39612335
000100 03 e4 84 3d 03 15 43 3e b0 b2 b4 bd 98 6c d9 3e
       0.06488802 0.19050984 -0.088231444 0.42465663
000110 4f 9a c4 bd bd f0 8e bf fa f8 5d 3d ae 54 58 3d
       -0.095997445 -1.1167217 0.05419252 0.05281513
000120 ad e3 06 3e ce 9a 1f 3e f8 af 4a bd f2 f3 e4 bd
       0.13172789 0.15586397 -0.049484223 -0.111793414
000130 8b 33 20 3f 40 89 8a bd b9 5a 6a 3d 68 ff 02 be
       0.6257865 -0.067644596 0.057215426 -0.12792742
000140 2b 21 3e 3e 6e e6 47 3e 1f 37 f0 bc c9 97 8f 3d
       0.1856734 0.19521496 -0.029323159 0.070113726
000150 36 0d 19 3e 91 7e 4b 3e e4 29 c5 bd e2 c6 0b 3e
       0.14946446 0.198725 -0.09627131 0.13650087
000160 d8 98 b3 3c c6 74 e6 3d f7 0f 28 3e 5b 76 af bb
       0.021923468 0.112527415 0.1641234 -0.0053546852
000170 96 e5 24 3e 65 69 78 3d 0d 9f 93 bd f4 8f 66 bd
       0.16103205 0.060647387 -0.07208071 -0.05628963
000180 1d 7e 38 bb f2 55 74 bd 92 d8 34 3e dc 52 c6 3d
       -0.0028151341 -0.059652276 0.1766074 0.09683773
000190 27 64 df 3d 76 d9 40 3c 27 53 b6 3f 4d b9 09 3e
       0.109077744 0.011770597 1.4244126 0.13449593
0001a0 7c a9 42 3e ac b2 40 3e 32 29 eb 3d 84 e5 a6 3d
       0.19009966 0.18818158 0.11482467 0.081492454
0001b0 3e e9 49 3e ef f8 68 bd 8b a3 b3 bd d1 ec 68 3e
       0.19717881 -0.056878027 -0.08771428 0.22746588
0001c0 7b cc 1d 3e ed a4 4e 3e f2 24 0b bd a2 1b 9b bd
       0.15410034 0.20180102 -0.03397078 -0.0757363
0001d0 53 d6 11 3e db 73 35 3d 5e c2 03 be 4d 47 c5 3f
       0.14241914 0.04429994 -0.12867114 1.5412384
0001e0 5c 4f 3b 3e 93 95 c1 bc 4d 06 c7 3d 17 ce d5 bd
       0.18291992 -0.023630893 0.09717999 -0.10439699
0001f0 fe be 99 3d 2b 05 45 3f 07 eb 87 bd 52 69 46 3e
       0.07507132 0.7696101 -0.06636625 0.19376114
000200 75 e5 1e 3e 37 08 e9 bd 5c 67 eb bc cc 4f aa bd
       0.15517218 -0.1137852 -0.028735809 -0.08316001
000210 01 3c b2 3d 85 19 48 3e da 5a ee 3d 81 49 00 bf
       0.08702851 0.19540985 0.11638422 -0.5011216
000220 99 58 8e 3f 21 64 1d 3e dc f6 0f bb 5d e6 53 3d
       1.1120788 0.15370227 -0.0021967208 0.051733363
000230 54 5a f9 3d 2c d5 8f 3d cf 58 39 3d 2e 3c 14 3e
       0.12175432 0.07023081 0.04525071 0.14476082
000240 09 74 96 bd 4f bb 23 3e 8a 73 09 3e 05 e7 c3 3b
       -0.07346351 0.15989421 0.13422981 0.0059784674

fc3.weight f4 [1, 148]
000000 9b 30 12 41 a8 c3 80 bf 7b 47 82 bf 91 e7 b3 3c
       9.136867 -1.005971 -1.0178064 0.021961005
000010 e2 f0 86 bf b7 af 6e bf 5c 7b 7f bf 99 8d 5b bc
       -1.0542262 -0.9323687 -0.99797606 -0.013400459
000020 13 b9 75 bf bb 72 26 3c 1d 43 01 bc 32 77 86 bf
       -0.95985526 0.01015919 -0.007889536 -1.0505126
000030 1b da a7 bc 60 30 92 bf 14 26 6f bf 5a 91 28 3d
       -0.020489743 -1.1421013 -0.9341748 0.041154243
000040 87 de 86 bf f5 cd 04 bc ff 2e 8e bf 48 26 86 bf
       -1.053666 -0.008105745 -1.1108092 -1.0480433
000050 b5 d6 f8 40 a2 31 b9 bc 55 cb 26 c1 26 43 5d 3d
       7.7762094 -0.022606675 -10.424642 0.054019116
000060 fb 2c 12 3d 58 82 19 41 bf 66 75 bf de 2e e1 bb
       0.035687428 9.594322 -0.95859903 -0.006872042
000070 68 aa 87 bf 08 15 f2 3f a0 9b 89 bf 4d 95 3f 3c
       -1.0598879 1.8912668 -1.0750618 0.011693311
000080 68 ae 84 bf e2 35 63 bf fd e0 63 bf 8f 9f 82 bc
       -1.0365725 -0.88754094 -0.8901518 -0.015945224
000090 fb 29 86 bf 45 e5 c0 40 95 87 fe 3c 84 cb 58 bc
       -1.0481561 6.027987 0.03107051 -0.013232116
0000a0 36 e9 34 bc ed 69 7c bf aa 46 9a 40 4c 14 16 3c
       -0.01104193 -0.9859913 4.821126 0.009160113
0000b0 47 f9 1c 3d b5 ce 77 bf 48 43 c9 3b a8 c2 92 bf
       0.038323667 -0.96799785 0.0061420538 -1.1465654
0000c0 bd 70 70 bf 93 e2 f5 3f 60 e0 7c bf 00 e0 14 3d
       -0.93922025 1.920977 -0.9877987 0.036346436
0000d0 a1 af 6d bf 1d 42 c7 bf b8 c2 dc 3f fb 32 a1 3c
       -0.92846113 -1.5567051 1.7246923 0.01967763
0000e0 2e 9d 1c 3c 73 fe 6d 3d b5 83 70 3b 1e ae 17 3d
       0.009558959 0.05810399 0.0036699597 0.037031285
0000f0 66 c9 8b 3b b3 60 85 bf 83 7d 14 3d be 6d 5e 40
       0.004265952 -1.0420135 0.03625251 3.4754481
000100 1d 0c 84 bf 4a de 88 bf 80 03 c9 3c 92 8c 77 40
       -1.0316197 -1.0692837 0.024537802 3.8679547
000110 1f ae e6 3c 3f c9 1e 41 47 13 87 bf bc 33 78 bf
       0.0281592 9.924132 -1.0552758 -0.9695394
000120 59 b0 80 bf c1 f7 64 bf ea d7 1c 3d 56 b3 6a 3c
       -1.0053817 -0.8944054 0.03829185 0.014324984
000130 03 04 df 40 49 dd 4f 3d f5 2f 8a bf 03 dd ce 3c
       6.9692397 0.050748143 -1.0795885 0.025251871
000140 e0 d6 8e 40 20 0d 79 bf 29 2e 33 3d 48 85 8d bf
       4.46373 -0.9728565 0.043745194 -1.1056299
000150 05 f6 82 bf db 2f 71 bf 2b 50 35 3d 6f ed 86 bf
       -1.0231329 -0.94213647 0.044265907 -1.0541209
000160 0d bb 86 40 d0 76 81 bf 9e b8 7b bf b8 95 a9 bc
       4.2103333 -1.0114384 -0.9832858 -0.020701274
000170 15 b3 7e bf 4f 41 e3 3f e0 b3 ea 39 8b 64 e7 3c
       -0.9949201 1.7754306 0.00044765975 0.028246185
000180 06 de a9 3b 65 55 d6 3c b2 e1 6d bf 81 ca 83 bf
       0.005183938 0.026163766 -0.9292251 -1.0296174
000190 f6 86 93 bf af db 2d bb 5c 58 c9 40 a6 ff 63 bf
       -1.1525562 -0.0026528647 6.292036 -0.89061964
0001a0 4b 51 82 bf ed a7 d9 40 df 6a 8f bf 74 c9 3c bf
       -1.0181059 6.8017488 -1.120449 -0.73744893
0001b0 dc ca 85 bf 33 e9 87 3c 07 b4 54 bc a5 f6 8d 40
       -1.0452533 0.01659069 -0.012982375 4.436358
0001c0 cc d3 7a bf 3a f5 83 bf 3b 00 0a 3d 7b 22 bc bb
       -0.97979426 -1.0309212 0.033691626 -0.005741415
0001d0 cb 57 7c bf b9 19 7f bf ba 99 a4 3c 1f d5 c4 40
       -0.9857146 -0.99648625 0.020092834 6.1510158
0001e0 f7 7d 86 bf 23 bc fa 3c c0 c1 8b bf 1d 49 62 bc
       -1.0507191 0.030607289 -1.0918503 -0.013811377
0001f0 e2 f1 89 bf 7f 22 05 41 45 0a 15 bb 20 9a 73 bf
       -1.0776942 8.320922 -0.0022741717 -0.9515705
000200 97 36 76 bf b8 12 86 3b ea 34 d8 bc e8 4f 86 3c
       -0.9617705 0.004091587 -0.026392419 0.016395524
000210 57 d3 7a bf 99 7d 6c bf e4 e1 76 bf 39 ec 62 c1
       -0.9797873 -0.92379147 -0.9643843 -14.182672
000220 6b bc 8b 40 a0 65 6a bf 77 66 a6 ba fb fd 71 bf
       4.3667502 -0.9156132 -0.0012695332 -0.9452817
000230 b8 71 8c bf 7d 84 8c bf 17 87 80 bf 6b 50 84 bf
       -1.0972204 -1.0977932 -1.0041226 -1.0337042
000240 27 44 80 3d 44 e9 64 bf 4a ec 50 bf b0 0a 0a bc
       0.06262999 -0.89418435 -0.8161055 -0.0084254
