demo/2_2_5/discr_5.pth (torch, 70984 bytes, 5 tensors)

lin1.weight f4 [128, 3]
0	0xbefbbd23	-0.49167737
1	0x3d2436be	0.04009127
2	0x3e81f7e7	0.25384447
3	0xbda9fb31	-0.08299864
4	0x3e82f791	0.25579503
5	0x3eddc9ce	0.43318027
6	0x3ed45d10	0.4147725
7	0xbd40115e	-0.046891563
8	0xbf2b4abb	-0.66910905
9	0xbf4b8a56	-0.7950796
10	0x3e8de0da	0.2771061
11	0x3d4c7b0f	0.049922045
12	0xbeb9fa3d	-0.3632373
13	0xbbdaa02c	-0.006671926
14	0x3e7612fb	0.24030678
15	0xbf29b597	-0.6629271
16	0xbee6333a	-0.44960958
17	0x3e8b1e02	0.27171332
18	0xbe2086a3	-0.1567636
19	0x3f240364	0.64067674
20	0xbdceba51	-0.10094131
21	0xbe5d924d	-0.2163784
22	0xbef2fe0d	-0.4745945
23	0xbcb4b71b	-0.022059968
24	0xbf4bd29e	-0.7961825
25	0x3e67523a	0.2258996
26	0x3e97de1f	0.29661652
27	0xbebc8143	-0.3681737
28	0xbd3b1301	-0.04567242
29	0x3d7b50f6	0.061356507
30	0x3f2e4a0f	0.68081754
31	0x3eef04eb	0.4668344
32	0xbf36dd64	-0.71431565
33	0xbf152c12	-0.5827037
34	0xbf207900	-0.6268463
35	0x3c421b32	0.011847304
36	0xbf046de5	-0.51730186
37	0x3d217a5b	0.039423328
38	0xbf891b6f	-1.0711497
39	0xbf761ef7	-0.96141
40	0xbec80489	-0.3906596
41	0xbed31dee	-0.41233772
42	0x3d7c6437	0.06161901
43	0x3ead2611	0.33818105
44	0xbef6db06	-0.48213977
45	0x3d62451e	0.055241697
46	0xbed9ca74	-0.42537272
47	0xbf272329	-0.65288025
48	0x3d786aee	0.06064885
49	0x3ecfc2c3	0.4057828
50	0xbf46662f	-0.7749967
51	0x3e2dfd6e	0.16991207
52	0xbeb1421b	-0.34620747
53	0xbdaef18b	-0.085421644
54	0xbd4b26bc	-0.049597487
55	0x3d8938c7	0.067002825
56	0xbf950b9b	-1.1644167
57	0x3e9dfb4d	0.3085579
58	0x3e8aae8a	0.27086288
59	0xbec114c5	-0.37711158
60	0x3e36f9ac	0.1786868
61	0xbe140a17	-0.14456974
62	0x3d9ce778	0.07661337
63	0x3e396763	0.18105845
64	0x3edf2e5a	0.4359005
65	0x3ecfb69a	0.40569
66	0xbe5ef5be	-0.2177343
67	0x3e09e3ac	0.13465756
68	0xbef38147	-0.47559568
69	0xbebc16bb	-0.36736092
70	0x3e6bc837	0.23025595
71	0x3d8e6215	0.069523014
72	0xbc4a1a86	-0.012335425
73	0x3ea45065	0.32092586
74	0xbf18dfff	-0.5971679
75	0x3e932297	0.28737327
76	0x3e5ff780	0.21871758
77	0x3dbe44e4	0.092904836
78	0x3db3e6c8	0.087842524
79	0x3dc9de19	0.09856815
80	0xbf998965	-1.1995054
81	0x3f05871e	0.521593
82	0xbe9cfda7	-0.3066227
83	0xbe68f0c9	-0.22748102
84	0xbf62d3c0	-0.88604355
85	0xbec7577e	-0.3893394
86	0x3f1e1267	0.6174683
87	0x3eb62929	0.35578278
88	0xbf07cb8d	-0.5304497
89	0x3e14aec3	0.14519791
90	0x3f1fcef5	0.62425166
91	0xbe48601f	-0.19567917
92	0xbf6cedfe	-0.9255065
93	0x3f2df086	0.67945135
94	0x3e0bbb94	0.13645774
95	0xbf15ef1a	-0.58567965
96	0xbcbb0e69	-0.02283402
97	0x3e94b7e3	0.29046544
98	0xbef7781e	-0.4833383
99	0xbed9adf5	-0.4251553
100	0xbe7ea95f	-0.24869297
101	0xbdef853c	-0.11695334
102	0xbca712c6	-0.020394694
103	0x3f78e294	0.9722073
104	0xbf509c54	-0.8148854
105	0xbdeb92a2	-0.11502577
106	0x3eb1c2fa	0.34719068
107	0xbdd8c730	-0.10584867
108	0x3e9acbb2	0.30233532
109	0xbf0855ad	-0.5325573
110	0xbea405f6	-0.32035798
111	0x3e42e695	0.19033273
112	0x3ebe253f	0.37137792
113	0xbe99bf6f	-0.30028865
114	0xbf2378b4	-0.63856053
115	0x3edd78ed	0.43256322
116	0xbef48157	-0.47754928
117	0xbdfec4da	-0.1243989
118	0xbdf594b5	-0.11991254
119	0xbea60e4f	-0.32432792
120	0xbd710658	-0.05884394
121	0xbf3b8dba	-0.7326313
122	0xbf94faba	-1.1639016
123	0xbf255ebb	-0.6459767
124	0x3f47c1a0	0.78029823
125	0x3e97a4c8	0.29617906
126	0x3e977a40	0.29585457
127	0x3b14aa3e	0.002268448
128	0x3ceffb08	0.029294506
129	0x3eb3c174	0.3510853
130	0x3db07f4e	0.086180314
131	0xbe9265d7	-0.28593323
132	0xbf9243ff	-1.1427001
133	0xbed97766	-0.42473906
134	0x3eac3e13	0.3364111
135	0x3e35ef86	0.17767152
136	0x3f243698	0.64145803
137	0xbe110494	-0.14161903
138	0x3eb7a3ee	0.35867256
139	0xbe991d2d	-0.29905072
140	0xbd87fce0	-0.06640029
141	0xbf8425f9	-1.0324088
142	0xbee9ab35	-0.45638433
143	0x3f3d25c5	0.73885757
144	0x3e001fa2	0.12512067
145	0xbf0a2ec6	-0.5397762
146	0xbe94903f	-0.290163
147	0x3eb82467	0.35965273
148	0xbf5b6fba	-0.85717356
149	0xbf89e8a9	-1.0774127
150	0xbe0a9701	-0.13534166
151	0xbef0a5dd	-0.47001544
152	0xbe1b7596	-0.15181574
153	0x3e56e39d	0.20985265
154	0x3c36ae35	0.011149933
155	0xbd3cb932	-0.046075054
156	0xbf46474a	-0.7745253
157	0x3ead4b89	0.3384669
158	0xbf33c683	-0.7022478
159	0xbe88c93e	-0.26716036
160	0xbd5c0d82	-0.05372382
161	0x3f04a138	0.518085
162	0xbedb167a	-0.42790586
163	0x3cff2e5e	0.03115004
164	0x3f0f6fda	0.56030047
165	0x3db76340	0.08954477
166	0xbe414ee8	-0.18877757
167	0x3e313f73	0.1730936
168	0xbf600b67	-0.875174
169	0x3e6bec16	0.23039278
170	0x3ea21b18	0.31661296
171	0xbe6deddd	-0.23235269
172	0xbf451cba	-0.7699696
173	0xbf373807	-0.71569866
174	0xbedbb936	-0.42914742
175	0x3f351064	0.70728135
176	0x3ddb7b96	0.107169315
177	0xbe8eba80	-0.27876663
178	0x3ed75027	0.4205334
179	0x3e110b0d	0.14164372
180	0xbf0376f0	-0.5135336
181	0xbe70416d	-0.23462458
182	0x3e902ae8	0.28157735
183	0x3e53a509	0.20668425
184	0x3ebe2ca4	0.37143433
185	0x3e56827d	0.20948215
186	0xbe540c30	-0.20707774
187	0x3e201666	0.15633544
188	0x3d930865	0.071793355
189	0xbdbbbdc2	-0.09167053
190	0x3e91058d	0.28324547
191	0x3ee315fa	0.44352704
192	0xbf8085db	-1.004085
193	0xbe4976a4	-0.19674164
194	0xbeb3e6c6	-0.35137004
195	0x3e977e6e	0.29588646
196	0xbe8c78e1	-0.27435973
197	0xbf1da9db	-0.61587304
198	0x3e3959a1	0.18100597
199	0xbd8ccfb2	-0.06875552
200	0x3e75db46	0.24009427
201	0x3ee79e9f	0.45238206
202	0xbdac0cad	-0.08400855
203	0xbed206c0	-0.41020775
204	0x3e833876	0.25629014
205	0xbecabdc4	-0.39597905
206	0xbef8eb54	-0.4861704
207	0xbf1415b2	-0.57845604
208	0xbed6848e	-0.41898006
209	0xbe520221	-0.20508625
210	0xbe8edfc0	-0.27905083
211	0xbe886f2a	-0.2664731
212	0x3e1e5662	0.1546264
213	0xbf46142e	-0.7737454
214	0x3d2ad334	0.041705325
215	0x3c4d4b39	0.0125301415
216	0x3b8a8c8d	0.0042281807
217	0x3ee2e3ce	0.44314426
218	0x39c0b161	0.0003675325
219	0xbf91ed34	-1.1400514
220	0x3db55463	0.08853986
221	0x3dcb669a	0.09931679
222	0x3ee53473	0.44766578
223	0xbf219352	-0.6311542
224	0xbeba2c8b	-0.3636211
225	0x3ecb1b0a	0.39669067
226	0x3dd1339e	0.10214923
227	0xbeeaa472	-0.45828587
228	0x3ed30219	0.41212538
229	0x3edd8298	0.43263698
230	0xbe9b963a	-0.3038805
231	0x3e18e6d9	0.14931811
232	0x3f05bf1c	0.52244735
233	0xbf3e29f8	-0.7428279
234	0xbf7e2ec5	-0.99290115
235	0xbdf5f469	-0.12009508
236	0xbdbac0eb	-0.091188274
237	0xbd695545	-0.056966085
238	0xbebfab0a	-0.3743518
239	0xbf0e4311	-0.55571085
240	0xbda144c5	-0.07874445
241	0xbf309e3b	-0.6899144
242	0x3e080cc3	0.13286118
243	0x3e229014	0.15875274
244	0xbeb0377a	-0.34417325
245	0x3ea45b9c	0.32101142
246	0xbf7950fb	-0.9738919
247	0x3e1660a3	0.14685301
248	0x3e8e7054	0.27820075
249	0x3e3a3fcf	0.18188404
250	0x3eed950f	0.46402785
251	0xbf03d162	-0.5149137
252	0xbf6ce894	-0.92542386
253	0xbd95503e	-0.072906956
254	0xbd88e86a	-0.066849545
255	0xbe7698fa	-0.24081793

lin1.bias f4 [128]
0	0x3ead0f0c	0.33800542
1	0xbe5bf8fb	-0.21481697
2	0xbe64500e	-0.22296163
3	0x3c7d7720	0.015470296
4	0x3e30356d	0.1720788
5	0xbe524199	-0.20532836
6	0x3c946ede	0.018119272
7	0x3d71d470	0.059040487
8	0xbe0530cc	-0.13006896
9	0x3e9e8ef9	0.30968454
10	0xbea33c8c	-0.3188213
11	0x3d8394ea	0.064248875
12	0x3e5a0a37	0.21292959
13	0x3ea546af	0.3228049
14	0x3e4fd23d	0.20295043
15	0x3e8252be	0.25453752
16	0x3ea22df3	0.3167568
17	0xbea17803	-0.31536874
18	0x3e7d23de	0.24720713
19	0x3d9c838b	0.07642277
20	0xbebe809e	-0.37207502
21	0xbed6c472	-0.4194675
22	0x3e5ae459	0.2137617
23	0x3bd91fc5	0.0066261017
24	0x3dde2582	0.10846998
25	0xbf087943	-0.5331003
26	0x3dab904f	0.08377134
27	0xbe92e76a	-0.2869218
28	0xbe6d5fef	-0.23181127
29	0xbf27e14b	-0.65578145
30	0xbe494724	-0.19656044
31	0xbe0475d5	-0.12935574
32	0x3e39e743	0.18154626
33	0x3cc54228	0.024079397
34	0xbcf1f984	-0.029537924
35	0xbdf6cbde	-0.12050603
36	0xbebd1bff	-0.36935422
37	0xbe3a4510	-0.18190408
38	0x3e9cecfc	0.30649555
39	0x3e351624	0.17684227
40	0x3ee70d77	0.4512746
41	0xbea9c597	-0.33158562
42	0xbec2384f	-0.37933585
43	0x3e035fb2	0.12829474
44	0xbde0a86e	-0.109696254
45	0xbf00c750	-0.50304127
46	0xbebf9199	-0.3741577
47	0xbe4f5c25	-0.20249994
48	0xbdaa0213	-0.08301177
49	0x3e174be9	0.14775051
50	0x3d8a5e56	0.067562744
51	0xbc321ba2	-0.010870846
52	0x3e0c1fc3	0.13683991
53	0x3d82cb2d	0.06386409
54	0x3e887850	0.2665429
55	0xbe21e181	-0.15808679
56	0x3d625faf	0.055267032
57	0xbe1b4acb	-0.1516525
58	0xbe234a20	-0.15946245
59	0xbef49bb7	-0.4777505
60	0x3e03444b	0.1281902
61	0xbf171534	-0.5901673
62	0x3da7e116	0.081972286
63	0xbe61283d	-0.21988006
64	0xbe28ff2c	-0.1650359
65	0xbe049be3	-0.12950091
66	0xbe920918	-0.28522563
67	0xbe75c020	-0.23999071
68	0x3d88828f	0.06665527
69	0x3e365d81	0.17809106
70	0xbe2c856d	-0.16847773
71	0x3e611018	0.21978796
72	0xbf1fd355	-0.6243184
73	0xbd953caa	-0.072869614
74	0xbefbc461	-0.49173263
75	0x3e96afe6	0.29431075
76	0xbedb56fd	-0.42839804
77	0x3de1971e	0.110151514
78	0xbd45dab6	-0.048304282
79	0x3e7a62d8	0.24451768
80	0xbe8c32d6	-0.27382535
81	0xbeec056a	-0.4609788
82	0xbe3f11d2	-0.18659142
83	0xbe7dabbd	-0.24772544
84	0x3e91e792	0.28496987
85	0x3bd37843	0.0064535453
86	0xbc86589e	-0.016399678
87	0x3ed94197	0.42432854
88	0x3e8b0b69	0.27157143
89	0x3e8da5ed	0.27665654
90	0xbe1f465d	-0.15554185
91	0xbebcadfc	-0.3685149
92	0x3ec53062	0.38513476
93	0xbf01e3af	-0.5073804
94	0xbd853a9b	-0.06505319
95	0xbd84f31e	-0.064916834
96	0x3d95b619	0.07310123
97	0xbe9e0521	-0.30863288
98	0x3e7ec255	0.2487882
99	0xbdafb630	-0.085796714
100	0x3dda09ce	0.10646401
101	0xbec193a7	-0.37807962
102	0x3e23ef2c	0.16009206
103	0x3e748aaf	0.23881029
104	0xbed4c04a	-0.41552955
105	0xbe02de0d	-0.12780018
106	0x3eaebc31	0.34127954
107	0x3e6a3560	0.22871923
108	0xbdb0722a	-0.08615525
109	0xbf18a4ff	-0.59626764
110	0x3ebdb3b6	0.3705117
111	0x3e066eee	0.13128254
112	0xbec4509a	-0.38342744
113	0xbe1ae51b	-0.1512646
114	0xbe8506a2	-0.25981623
115	0x3d536cc6	0.051617406
116	0xbf227892	-0.63465226
117	0xbf029918	-0.5101485
118	0x3eecc9a5	0.46247593
119	0x3ec2be1f	0.38035676
120	0x3ea34d38	0.3189485
121	0xbef8a4dd	-0.4856328
122	0x3e3a1ef0	0.18175864
123	0xbcdfc996	-0.027317803
124	0x3c9dbf11	0.019256147
125	0xbe8f4727	-0.27983972
126	0x3e3ed3e2	0.18635514
127	0xbf0b2e7a	-0.5436779

lin2.weight f4 [128, 128]
0	0xbd66cf7b	-0.056350213
1	0xbd170976	-0.036874257
2	0x3dd2da29	0.10295517
3	0xbdbaf49c	-0.09128687
4	0xbd769a55	-0.060205776
5	0x3bc9d17d	0.006159006
6	0xbeab3371	-0.33437684
7	0x3cc84725	0.024447987
8	0x3f1e0add	0.61735326
9	0x3c967a20	0.01836878
10	0xbe9b01bb	-0.30274758
11	0x3e5917ef	0.21200536
12	0xbe4d100a	-0.2002565
13	0x3e23e542	0.16005424
14	0xbe032e78	-0.12810695
15	0x3d9921bf	0.0747714
16	0xbeb6185c	-0.3556546
17	0xbc023367	-0.007946826
18	0xbf6f8de4	-0.9357588
19	0x3c688255	0.01419123
20	0x3d39cd0e	0.04536157
21	0xbd1a1e2a	-0.037626423
22	0x3e873085	0.26404205
23	0x3da803bc	0.08203837
24	0xbc6b2a22	-0.014353307
25	0x3e91aa90	0.2845044
26	0xbe536ff9	-0.20648183
27	0x3dbd15d1	0.09232677
28	0x3f0bcc7d	0.546089
29	0x3f0a9055	0.54126483
30	0xbe3ceb0e	-0.18449041
31	0x3ddbac7f	0.107262604
32	0x3e165d28	0.14683974
33	0xbd958fa0	-0.07302785
34	0xbdb5852a	-0.0886329
35	0x3e10aa46	0.14127454
36	0x3dc8c7e5	0.09803752
37	0x3e7f4b33	0.2493103
38	0xbe1a4cc3	-0.15068345
39	0x3d33f3af	0.043933567
40	0x3c4e5a3a	0.012594754
41	0x3e9b628f	0.30348632
42	0xbd9fb4d5	-0.07798163
43	0xbe8831c6	-0.26600474
44	0xbd19c701	-0.0375433
45	0xbc65d08c	-0.014026772
46	0x3ed24218	0.4106605
47	0xbec5b3aa	-0.38613635
48	0x3e6bdbc8	0.23033059
49	0xbe200c2f	-0.15629648
50	0x3c0ba9a8	0.008524336
51	0xbe043bfd	-0.12913509
52	0xbecb8caa	-0.39755756
53	0xbe53ee54	-0.20696384
54	0xbdfab502	-0.12241556
55	0x3e51e625	0.2049795
56	0xbe3198f1	-0.17343499
57	0xbd762e18	-0.060102552
58	0x3dd11327	0.10208731
59	0x3e832f6b	0.25622115
60	0xbe03c33e	-0.12867448
61	0x3e6d302d	0.23162909
62	0xbd5c0b0f	-0.053721484
63	0xbda13936	-0.0787224
64	0xbe8ca046	-0.2746603
65	0xbeb94db8	-0.36192107
66	0xbf12a267	-0.57279056
67	0x3da735c5	0.081645526
68	0xbd00efab	-0.031478565
69	0x3e162460	0.14662313
70	0x3e58b63b	0.21163265
71	0x3d9006f6	0.07032578
72	0x3b4e9321	0.00315208
73	0x3e2d9027	0.16949521
74	0xbd9db8f9	-0.07701296
75	0xbd06f82d	-0.032951523
76	0xbe49df3c	-0.19714063
77	0xbe677d1e	-0.22606322
78	0x3e812339	0.25222185
79	0x3da677cb	0.081283174
80	0x3e2d5687	0.16927539
81	0x3ec8cdfd	0.39219657
82	0x3e22df28	0.1590544
83	0xbcd7cf89	-0.026344078
84	0x3e959f4a	0.2922309
85	0x3e213896	0.15744242
86	0x3d20ec96	0.039288126
87	0xbc71a200	-0.0147480965
88	0xbe9780f8	-0.29590583
89	0x3c792e3d	0.015208778
90	0xbeb0f18b	-0.34559283
91	0x3ddbe712	0.107374325
92	0xbed7b5d3	-0.42130908
93	0x3e24d299	0.16095962
94	0xbefdb0e8	-0.4954903
95	0xbdeab0cd	-0.11459503
96	0x3e8104b4	0.251989
97	0x3de4db5e	0.111746535
98	0xbdffc926	-0.12489538
99	0x3d3cd4b0	0.046101272
100	0xbec11b74	-0.37716258
101	0x3ecfa422	0.4055491
102	0x3e189365	0.14899977
103	0x3c8b6fde	0.017021116
104	0x3f05eed6	0.5231756
105	0x3e9bc1ee	0.30421394
106	0x3dd9b1e5	0.10629634
107	0xbc335f8a	-0.010948071
108	0x3c1f8c85	0.009738092
109	0x3d0719a5	0.03298344
110	0xbc82c577	-0.0159633
111	0xbe3bc930	-0.18338466
112	0x3f005140	0.5012398
113	0x3e569342	0.20954612
114	0x3e7a40d4	0.24438792
115	0x3b04ed5b	0.0020283076
116	0x3e9cb5ca	0.30607444
117	0xbdcf987d	-0.10136507
118	0x3e20a490	0.15687776
119	0xbda3a17f	-0.07989787
120	0xbd9e2608	-0.07722098
121	0x3e306f30	0.17229915
122	0xbd06a28a	-0.032869853
123	0x3ef3a3b7	0.47585842
124	0xbe63f023	-0.22259574
125	0xbdc039d2	-0.09386028
126	0xba5d3811	-0.00084388355
127	0xbe37f299	-0.17963637
128	0xbda6c93d	-0.08143852
129	0x3e716b14	0.23576003
130	0xbdd346a7	-0.1031621
131	0x3daf6288	0.08563715
132	0xbed1a416	-0.409455
133	0xbd89d066	-0.06729202
134	0x3c0e7a7c	0.008696195
135	0x3d4dbb35	0.050227363
136	0xbdcc7db6	-0.09984915
137	0xbdcba1e1	-0.09942985
138	0xbd89686d	-0.06709371
139	0xbe24343d	-0.16035552
140	0xbe09e8cf	-0.13467716
141	0xbe229b86	-0.1587964
142	0xbf0a9fad	-0.54149896
143	0x3c900010	0.017578155
144	0xbe85e944	-0.2615453
145	0x3e0ab012	0.13543728
146	0xbf0e8068	-0.5566468
147	0xbe0b7d57	-0.13622032
148	0x3da00810	0.07814038
149	0x3ede0403	0.43362436
150	0xbf2bcc8c	-0.6710899
151	0xbd88cccb	-0.06679686
152	0x3e3214ab	0.17390697
153	0x3ea429d3	0.3206316
154	0xbc3a6ff0	-0.011379227
155	0x398e3202	0.0002712161
156	0xbeb1f85c	-0.34759796
157	0xbde28b8d	-0.110617734
158	0xbdc6a96d	-0.09700284
159	0x3d6620d1	0.05618364
160	0xbefc57bf	-0.49285695
161	0xbdcaa230	-0.09894216
162	0x3dd10234	0.10205498
163	0x3ea08195	0.31348863
164	0x3e9e4064	0.309085
165	0xbe22d1f0	-0.15900397
166	0xbe9fdca3	-0.3122302
167	0xbdc8dada	-0.098073676
168	0xbe4744d9	-0.19459857
169	0x3ea009f0	0.31257582
170	0x3e974558	0.29545093
171	0xbe681472	-0.2266405
172	0xbdb03768	-0.08604318
173	0x3e7c4a97	0.24637829
174	0x3db534ef	0.08847987
175	0xbe32df68	-0.17468035
176	0x3d7314ad	0.05934589
177	0xbd1838a1	-0.03716338
178	0xbd0f977c	-0.035056576
179	0xbc95ed60	-0.018301666
180	0xbe31605a	-0.17321911
181	0xbd7c5ed4	-0.061613873
182	0xbe4711cd	-0.19440384
183	0x3e0a79ea	0.13523069
184	0x3dac6646	0.084179446
185	0x3e4b6a18	0.1986469
186	0x3eb28d32	0.34873348
187	0x3ee31014	0.44348204
188	0xbf1dfaaa	-0.6171061
189	0x3dff20eb	0.124574505
190	0xbdb86774	-0.09004107
191	0x3e4e0a52	0.20121124
192	0xbcce5fec	-0.025192223
193	0x3e24d124	0.16095406
194	0xbd26e855	-0.040748913
195	0xbd4d0595	-0.05005415
196	0xbd3f29d2	-0.046670742
197	0xbe7731b1	-0.2414005
198	0x3df089e0	0.117450476
199	0xbe4e76b2	-0.20162466
200	0x3eb75b18	0.35811687
201	0x3da29dd8	0.079402626
202	0x3e686973	0.22696476
203	0x3d718125	0.058961052
204	0x3e6964ae	0.22792313
205	0xbdbce470	-0.092232585
206	0xbe9e6a43	-0.30940446
207	0xbc149b95	-0.009070297
208	0xbd76bb44	-0.060237184
209	0x3e8cc785	0.2749597
210	0xbcc1e8a4	-0.023670502
211	0x3e193815	0.149628
212	0xbee3fc5b	-0.4452847
213	0x3e1254a6	0.14290103
214	0xbe88aca3	-0.2669421
215	0xbb5b26bf	-0.0033439843
216	0xbe2e5886	-0.17025957
217	0xbec72669	-0.38896492
218	0xbdf6084f	-0.120133035
219	0x3e9d7ace	0.30757755
220	0xbf21194e	-0.62929237
221	0xbe51ba76	-0.20481285
222	0x3c415d4a	0.011802027
223	0xbedde7d2	-0.43340927
224	0xbeddd8f7	-0.43329594
225	0x3e91c240	0.28468513
226	0xbc4a2013	-0.012336749
227	0xbe64d85a	-0.22348157
228	0xbe21cc6f	-0.15800641
229	0x3dc98c15	0.09841172
230	0xbea8f76e	-0.33001274
231	0xbd6deb90	-0.058085978
232	0xbd954d88	-0.072901785
233	0xbe1eddd8	-0.15514314
234	0xbe895d4b	-0.2682899
235	0x3cc8e22e	0.024521913
236	0xbc85a052	-0.016311798
237	0x3e03bc99	0.12864913
238	0xbcaafab6	-0.020871501
239	0x3bd8ec24	0.006619947
240	0x3dac7b16	0.08421914
241	0x3dba3712	0.09092535
242	0x3ce42048	0.027847424
243	0x3e0535f7	0.13008867
244	0x3e97bbcf	0.29635474
245	0x3e98e423	0.29861555
246	0xbe4d7c1f	-0.2006688
247	0xbe891c10	-0.26779222
248	0xbdf192a3	-0.11795547
249	0x3d9edd60	0.07757068
250	0x3e81ea34	0.25373995
251	0xbecbeed8	-0.3983066
252	0xbed94270	-0.424335
253	0x3e5ea7ab	0.21743648
254	0xbe27165f	-0.16317128
255	0x3c9572a9	0.01824315

lin2.bias f4 [128]
0	0xbe325178	-0.1741389
1	0xbe761713	-0.2403224
2	0x3d2916f3	0.04128165
3	0xbdd9fda2	-0.1064408
4	0xbcdd0af6	-0.026982766
5	0xbdb5d98e	-0.08879386
6	0xbd6e11ea	-0.058122553
7	0xbe1f9592	-0.155844
8	0x3d12b4c8	0.035816938
9	0xbd5725c7	-0.05252626
10	0x3e29efa8	0.16595328
11	0xbd2d510f	-0.04231363
12	0x3db0e3a4	0.08637169
13	0xbd972bf1	-0.07381428
14	0x3e164a91	0.14676882
15	0x3ce9e84c	0.02855315
16	0xbd57aa9a	-0.052652933
17	0x3dc7027b	0.0971727
18	0xbdcb3869	-0.09922869
19	0xbd97167a	-0.07377334
20	0xbe993327	-0.2992184
21	0xbe092ada	-0.13395253
22	0xbe11e2d9	-0.14246692
23	0x3d1cdddf	0.03829753
24	0x3d154f73	0.03645272
25	0xbd3b60a2	-0.045746453
26	0xbddef0dc	-0.10885784
27	0xbe052fd8	-0.13006532
28	0x3d00c3b1	0.031436626
29	0x3c8484e3	0.016176647
30	0xbe5e7b14	-0.21726638
31	0x3d839f5f	0.06426882
32	0xbca812c0	-0.020516753
33	0xbe875220	-0.26429844
34	0xbde81bcf	-0.11333429
35	0xbb6d161f	-0.0036176515
36	0x3d132139	0.035920355
37	0x3bae0fd1	0.005311944
38	0x3d24b958	0.04021582
39	0xbe03cd8a	-0.12871376
40	0xbded269b	-0.11579629
41	0x3dfbf269	0.123020954
42	0xbc438841	-0.011934341
43	0x3dd9f4a6	0.10642366
44	0xbdc719b1	-0.09721697
45	0xbda77958	-0.08177441
46	0x3dbb1792	0.09135355
47	0x3dd97038	0.10617107
48	0xbcf137a0	-0.02944547
49	0x3dcea4be	0.10090016
50	0x3b907783	0.004408778
51	0xbb43152e	-0.0029767263
52	0x3d17bc6d	0.03704493
53	0x3d3378b5	0.043816287
54	0x3e15be8d	0.1462347
55	0xbe4dbc24	-0.20091301
56	0x3d6c4e77	0.057692017
57	0xbe3efa42	-0.18650153
58	0xba4cdfcf	-0.00078153325
59	0xbda521fb	-0.08063122
60	0xbdf70da1	-0.120631464
61	0x3da58058	0.0808112
62	0x3d05d38a	0.032672442
63	0xbe70c378	-0.23512065
64	0xbe0b721a	-0.13617745
65	0xbdc0691a	-0.093950465
66	0x3c9c35fb	0.019068709
67	0x3d8e8c93	0.06960406
68	0x38f3c394	0.00011623572
69	0xbc11c372	-0.008896695
70	0x3e628b47	0.22123443
71	0x3c5ab0f6	0.013347855
72	0xbd60af96	-0.05485495
73	0x3de434a0	0.1114285
74	0xbde8b100	-0.11361885
75	0xbc14dabf	-0.009085356
76	0x3de81d11	0.11333669
77	0xbd1d2069	-0.038360987
78	0xbe230823	-0.15921073
79	0xbb03f5e1	-0.002013557
80	0xbde74325	-0.11292104
81	0x3d98e0f9	0.07464785
82	0xbd6fedee	-0.058576517
83	0x3d04ec59	0.03245196
84	0xbe11ca48	-0.1423732
85	0x3d1430f3	0.036179494
86	0x3debb2fa	0.115087464
87	0xbd21a47c	-0.039463505
88	0xbdfa664f	-0.12226545
89	0xbdd3c02e	-0.1033939
90	0x3e2c3b5e	0.16819522
91	0xbe072c58	-0.1320051
92	0xbdb97756	-0.09055965
93	0x3de2f1a8	0.110812485
94	0xbe567a03	-0.20944981
95	0x3d920c01	0.07131196
96	0x3d510d0c	0.051037833
97	0xbd860eec	-0.06545815
98	0xbd1fa400	-0.038974762
99	0xbc3de018	-0.011589073
100	0xbde83809	-0.11338813
101	0xbe0668cd	-0.13125916
102	0xbcd93dda	-0.026518751
103	0xbd753651	-0.059866253
104	0x3d84a5b6	0.06476919
105	0xbbc611b1	-0.0060445894
106	0xbd0d0950	-0.03443271
107	0x3c31fa18	0.01086285
108	0xbdcc0e4c	-0.099636644
109	0x3bfe4709	0.007759933
110	0x3dac1ed7	0.0840432
111	0xbe1f0d53	-0.15532427
112	0xbe3c29a0	-0.18375254
113	0x3dd96a5a	0.10615988
114	0xbe0493f2	-0.12947062
115	0x3db9cd7e	0.09072398
116	0xbe7c9185	-0.24664886
117	0x3daf66bc	0.08564517
118	0xbd98bb77	-0.07457631
119	0x3d85d3bf	0.06534528
120	0xbcf01476	-0.029306632
121	0xbe343c72	-0.17601183
122	0xbe111f52	-0.14172104
123	0x3d9b1070	0.075714946
124	0xbded89ce	-0.1159855
125	0xbe2a5a75	-0.16636069
126	0x3cea64df	0.028612552
127	0x3e020f17	0.12701069

lin3.weight f4 [1, 128]
0	0xbe43c5d6	-0.19118437
1	0x3e55d3b2	0.20881537
2	0x3e7fa5b1	0.2496555
3	0x3e164ac8	0.14676964
4	0x3e6bb77f	0.23019217
5	0xbf1e9621	-0.6194783
6	0x3f465709	0.77476555
7	0x3d9d5e0f	0.07683956
8	0xbe461796	-0.19344935
9	0x3e04d323	0.12971167
10	0xbe9557cf	-0.29168555
11	0xbda45989	-0.0802489
12	0xbf47c6a5	-0.7803748
13	0x3e4faabb	0.20279972
14	0xbdff6f13	-0.124723576
15	0x3e09da0f	0.13462089
16	0x3e42a785	0.19009216
17	0x3e3a3a7d	0.18186374
18	0x3e1ee680	0.15517616
19	0x3e0f4521	0.13991214
20	0x3ed0d825	0.40789905
21	0x3e33a0da	0.17541829
22	0xbe7393b1	-0.23786809
23	0x3e9128e0	0.28351498
24	0x3e938bf3	0.2881771
25	0x3e643581	0.22286035
26	0x3e9b2ede	0.30309194
27	0x3f1ec6b7	0.62021965
28	0x3b1ec3ce	0.0024225595
29	0xbdbe342c	-0.09287295
30	0x3e10eb29	0.14152206
31	0xbdf77060	-0.12081981
32	0xbea28479	-0.31741694
33	0x3e8ff212	0.28114372
34	0x3e03d7c4	0.12875277
35	0x3d5cee1b	0.053938013
36	0xbe050baf	-0.12992738
37	0x3d83c226	0.06433515
38	0x3e5f22c8	0.21790612
39	0xbf06fce8	-0.52729654
40	0x3dbdf383	0.09274962
41	0xbe095871	-0.13412644
42	0x3e8463b1	0.25857309
43	0xbe0e1cb2	-0.13878134
44	0x3ede3699	0.4340103
45	0xbe689876	-0.22714409
46	0xbd3a519e	-0.045487992
47	0xbe89abca	-0.26888877
48	0xbdc93e84	-0.09826377
49	0x3e4f686b	0.20254676
50	0x3e512043	0.20422463
51	0xbf30b09b	-0.6901948
52	0xbdb6aa65	-0.08919219
53	0xbd4ed4d0	-0.050495923
54	0x3ecad91e	0.39618772
55	0x3e7cd3f1	0.24690224
56	0xbda4d61f	-0.08048653
57	0xbda5536e	-0.080725536
58	0x3ede1c43	0.43380937
59	0x3ee4a413	0.4465643
60	0xbf6058be	-0.8763541
61	0xbe650645	-0.22365673
62	0x3eb0702f	0.3446059
63	0x3eb6df4a	0.3571723
64	0x3e48f1bc	0.19623464
65	0x3ed03993	0.40668926
66	0x3ee74a29	0.45173767
67	0xbf1fb5a2	-0.62386525
68	0xbdb3c681	-0.08778096
69	0xbd4087c1	-0.047004465
70	0xbe74588d	-0.23861904
71	0x3eb49eb4	0.3527733
72	0xbe9cbde2	-0.3061362
73	0xbe043881	-0.1291218
74	0xbe24766c	-0.160608
75	0x3e45a9bf	0.19303034
76	0xbd47e43a	-0.04880164
77	0xbe94dd9c	-0.29075325
78	0x3eb16646	0.3464834
79	0x3e71e0e4	0.23620945
80	0xbe9a7dee	-0.30174202
81	0x3dfee6bd	0.124463536
82	0x3ea97b4f	0.3310189
83	0x3df45b50	0.11931479
84	0xbe38fd48	-0.18065369
85	0x3f267461	0.6502133
86	0xbe107d5b	-0.1411032
87	0xbf125153	-0.5715534
88	0xbd29d7bd	-0.04146551
89	0xbf432f43	-0.7624399
90	0xbe194ef7	-0.14971529
91	0x3f1865ae	0.5953015
92	0x3eb7eeb1	0.35924295
93	0x3e62d51d	0.22151609
94	0x3eb0a1f4	0.3449856
95	0xbdadac0a	-0.084800795
96	0xbeb2d1e3	-0.34925756
97	0xbf1f64dd	-0.6226328
98	0xbf1eb301	-0.6199189
99	0x3e580aee	0.2109792
100	0xbe540800	-0.20706177
101	0xbf06f9a7	-0.5272469
102	0x3ea16490	0.31522036
103	0xbe82d52b	-0.2555326
104	0xbf509487	-0.81476635
105	0x3ef6ab4e	0.4817757
106	0xbd59ab37	-0.0531418
107	0xbeebcd74	-0.46055186
108	0x3d385952	0.045007057
109	0x3de31d9c	0.11089632
110	0xbe86e748	-0.2634833
111	0xbeb7c94e	-0.3589577
112	0x3db7d663	0.08976438
113	0xbcc0c9ed	-0.023533786
114	0x3ec40bb2	0.38290173
115	0x3f707a9d	0.93937093
116	0xbeb091bb	-0.34486184
117	0x3e0b5efd	0.13610454
118	0x3e511d14	0.20421249
119	0xbe30e7e4	-0.17275959
120	0xbf80ac24	-1.0052533
121	0xbe89b0a7	-0.26892588
122	0x3e9c381f	0.30511567
123	0xbe4f48d0	-0.2024262
124	0x3efe3f69	0.49657753
125	0x3ddb1a3b	0.106983624
126	0xbdc59b27	-0.096487336
127	0xbe11c254	-0.14234287
