demo/2_2_5/gen_2.pth (torch, 292148 bytes, 6 tensors)

lin1.weight f4 [256, 22]
000000 20 f2 c0 3b c5 9a 52 bc ee fc a4 bc d4 b0 50 bd
       0.0058882385 -0.012854283 -0.020140138 -0.050949886
000010 97 f0 b3 3c ae 2b 91 3d cb 2b 71 3b 44 78 41 3d
       0.021965308 0.07088409 0.0036799784 0.047233835
000020 39 4f b4 bd 12 f0 5c bb f5 a8 09 3c 4d dc a6 3c
       -0.08804173 -0.003371243 0.008402099 0.02036872
000030 e5 16 f0 3c 17 a1 a3 3d f3 d9 ed bc 17 a0 0c 3c
       0.029307792 0.0798971 -0.02903459 0.00858309
000040 cd 58 54 3d 2e ac cb bd 24 73 83 3d 51 1d f3 38
       0.0518425 -0.0994495 0.06418446 0.000115926036
000050 a6 89 42 3c 8d 9d 2b 3d 47 05 f6 3b 9f 18 b6 3c
       0.011873638 0.0418983 0.0075079533 0.022228537
000060 25 f6 d8 bd 57 f3 82 bd ab b1 07 3d bf 0e 08 bd
       -0.10593823 -0.0639407 0.03312842 -0.033217188
000070 f1 20 25 3d 9e 53 4e 3d f7 cd 88 3d 64 ff 63 bc
       0.04031462 0.050372712 0.0667991 -0.01391587
000080 7e 50 e9 bd 89 1a f8 3c 33 70 e2 bc e9 36 c9 3b
       -0.11392306 0.03028609 -0.027641391 0.006140579
000090 03 dc c7 bd e0 9c f3 bc 76 a7 9d 3d 7c d9 b2 bc
       -0.09758761 -0.02973789 0.07697956 -0.02183222
0000a0 50 71 50 3c 66 90 d5 3d 51 e5 7b bd d4 43 4f 3d
       0.012722328 0.104279324 -0.06149799 0.050601795
0000b0 80 42 07 be 18 43 35 3d 00 cf 23 3d c0 25 bf 3d
       -0.13208961 0.04425344 0.039992332 0.09333372
0000c0 1e 9c 1f be a0 00 cc bb 23 9b 2a bd 7c 3c 04 bd
       -0.15586898 -0.0062256604 -0.041651856 -0.032284245
0000d0 d0 64 5a 3d a3 e9 0c 3d bf 89 d1 3d 11 ca 3a 3b
       0.0533188 0.0344025 0.10231351 0.0028501789
0000e0 ff ea ad bd 95 19 bd bd 44 5a df 3c 0a bd e6 3d
       -0.084920876 -0.09233395 0.027264722 0.11266525
0000f0 d6 b9 5a bd 96 de 33 3d a1 f8 c1 bd 7f 87 9d ba
       -0.053399883 0.043913446 -0.0947125 -0.001201853
000100 d6 e3 ac 3d e4 10 e4 bd ea 7f 05 3e c6 7a ab bd
       0.08441894 -0.11136034 0.13037077 -0.083730265
000110 f1 09 20 3d c5 0e c4 bd 9a e6 06 3d a4 3a f2 bc
       0.03907198 -0.095731296 0.032934763 -0.029568978
000120 ff bd 4b 3d c0 cd d5 3b a7 a1 60 3b 60 f3 09 3e
       0.04974174 0.0065247715 0.003427604 0.13471746
000130 01 99 4b bc ad 89 d7 3d ca c9 03 be 20 51 24 3e
       -0.012426616 0.105243064 -0.12869945 0.16046572
000140 61 ef 1a bd bb 7a e5 bd ed a3 6a 3e 00 76 f1 3b
       -0.037825946 -0.112050496 0.22914095 0.007368803
000150 46 18 cc bc 3b 97 b5 3d f8 c5 11 be c1 f8 57 3d
       -0.024913918 0.088667355 -0.14235675 0.052727465
000160 e2 d3 a2 3c 51 c0 30 3d c7 4a 91 bb 50 3c dd bb
       0.019876424 0.043152157 -0.004433963 -0.0067515746
000170 53 c7 0d 3d ce f8 c6 bd 47 51 26 3d 4e 10 24 bc
       0.03461392 -0.097154245 0.040604856 -0.010013653
000180 11 7c e5 bb ef ac 16 bd 53 0e 54 bd 85 81 e7 bc
       -0.0070033153 -0.036786016 -0.051771473 -0.028260002
000190 3c 61 82 bd 39 48 12 bd fc 74 00 bd d4 9b 82 bd
       -0.06366202 -0.03571341 -0.031361565 -0.06377378
0001a0 97 65 1b 3d fb e8 82 3b 65 62 39 3d 12 e1 bd bc
       0.03793868 0.0039950586 0.045259852 -0.023178611
0001b0 c6 4e ae bc d5 fd 81 3c e1 78 7c 3c 53 17 9d bc
       -0.021277796 0.015868107 0.015409679 -0.01917616
0001c0 fd 21 4d bd fc 48 d7 bc a2 13 af 3c 95 6e 64 bd
       -0.050081242 -0.026279919 0.021371666 -0.05576952
0001d0 81 03 98 bd 12 a3 35 bd fe 50 86 bd f3 54 23 3d
       -0.07422543 -0.04434497 -0.06558417 0.039875936
0001e0 fc cb c3 bc 14 66 5c bd b6 5e 84 3b 81 22 2e 3d
       -0.023900978 -0.053808287 0.0040396107 0.042513374
0001f0 56 89 6d bd 49 49 04 bd 24 47 aa 3d a9 04 e3 bb
       -0.057992302 -0.032296453 0.0831435 -0.006928046
000200 4a 26 c9 3c c1 97 39 3c a4 f8 4c 3c e1 5d c5 bb
       0.02455439 0.011327685 0.012510452 -0.006023154
000210 da 9f 96 3c 55 f5 7e bd 28 cc 21 bd 8c 69 ed bd
       0.01838677 -0.062245686 -0.03950134 -0.11592397
000220 0e b3 c7 3d 6b 50 6a 3c 98 29 0e bc 0a 00 db bd
       0.09750949 0.0143014 -0.008676909 -0.10693367
000230 a0 51 1e 3c 9f 62 04 3b ec 63 3a 3d cd 6e 10 bd
       0.009663016 0.0020200384 0.04550545 -0.035261918
000240 b8 f3 c4 bc b3 c9 47 3d 67 3f bd 3c 89 24 2a bd
       -0.024041995 0.04877634 0.023101522 -0.04153875
000250 ac f6 21 bd 58 7a 26 bd 11 7a 2e bd 2a 46 58 3c
       -0.039541885 -0.04064402 -0.04259688 0.013200322
000260 76 a5 94 bc 26 1e 48 bd 3d 47 76 bc a1 69 f6 bd
       -0.018145304 -0.048856877 -0.015031633 -0.12031866
000270 d4 af 87 3d 5e 75 ac bd e6 80 38 3b e3 3d e1 bd
       0.066253334 -0.084208235 0.0028153001 -0.10998132
000280 02 0d a6 3c dc 5a 13 bc 5b d5 30 bc d0 da f4 bc
       0.020269874 -0.0089938305 -0.010793055 -0.029889494
000290 6f c2 cb 3d 60 ee 59 bd 11 4b 0f 3d 1a 39 94 3c
       0.09949195 -0.053205848 0.0349837 0.018093634
0002a0 55 0a 34 bc ed 87 a5 bc c7 7c 33 bd 9b 02 06 bd
       -0.0109887915 -0.020206416 -0.04382017 -0.03271733
0002b0 25 a0 02 3b 5d c5 84 3d 52 ed 74 3d 37 15 33 3d
       0.001993188 0.064829566 0.05979664 0.043721404
0002c0 4e 49 7b bd 0c 31 65 bd 52 5f 61 3c a1 d5 78 bd
       -0.061349206 -0.055954978 0.013755636 -0.060750607
0002d0 40 d2 6d 3d 5c c0 39 bd f8 38 cc 3d 4a 80 d2 bc
       0.05806184 -0.045349464 0.099718034 -0.025695939
0002e0 e8 1c 1a 3b a4 c3 ed 3c d6 0d 1b 3d 56 77 7f 3d
       0.0023515765 0.029023953 0.03785499 0.062369667
0002f0 c3 4b c5 3c 1b f8 42 bd ac 6f a6 3c 77 f7 32 3d
       0.024083978 -0.047599893 0.020316921 0.043693032
000300 15 94 f7 3d bb c2 9a 3d 49 a1 d5 3d 61 61 d0 bc
       0.12088791 0.07556673 0.10431153 -0.025437059
000310 b8 fc 48 bd cd 8c 88 3d c0 53 7b bd 78 1c 90 bd
       -0.049069136 0.066674806 -0.061359167 -0.0703668
000320 ad 23 07 3d a1 51 6a bd cc 51 26 3d e1 17 b4 bd
       0.032993007 -0.057206754 0.04060535 -0.08793617
000330 d1 e7 95 3d 82 1f 96 bd 23 c5 5d bc 8a 51 0e bd
       0.07319606 -0.073302284 -0.013535771 -0.03474573
000340 64 2b b6 bd 6c d0 db bb 12 68 3d 3d d9 35 1f 3d
       -0.08894995 -0.0067081954 0.046241827 0.038869713
000350 0a ed e8 3a 93 87 60 bd f4 dd 5d bd 87 7e 2a 3d
       0.0017770838 -0.054816794 -0.05416675 0.041624572
000360 ad 66 9d bd 8f 9c 81 bc 96 25 6c 3c e1 0a cd bd
       -0.076855995 -0.015821723 0.014413258 -0.100118406
000370 72 27 1c 3b bc e2 89 3d a4 18 0f 3d 33 33 51 bc
       0.0023827222 0.06732699 0.03493561 -0.0127685545
000380 62 3a 72 3d 3c f4 d2 3c 99 aa c9 bc d6 b2 73 bd
       0.05913771 0.025751226 -0.02461748 -0.059496723
000390 d8 5d 0b bc 62 bd 77 3d 64 76 fd bd c3 29 ec bc
       -0.008506261 0.060483344 -0.12376097 -0.028828507
0003a0 e8 95 cf 3d c6 ff 8a 3d a5 9f 20 3d 02 52 b6 bc
       0.10136014 0.06787066 0.03921475 -0.022255901
0003b0 bc 9b 2f 3b d2 3d 32 3d 80 7c 94 bc 72 8a fe bb
       0.0026795706 0.043515988 -0.018125772 -0.007767969
0003c0 85 2c f5 3b 59 b5 59 3c 35 fe 06 3d e4 c8 7f 3c
       0.007482114 0.013287866 0.032957274 0.015611861
0003d0 22 c9 a9 bd 03 68 29 bc 1f 8f c3 3c 98 92 66 3d
       -0.08290316 -0.01033974 0.023871956 0.056292146
0003e0 92 3b ce 3d 79 ed 87 3d c4 83 48 3c 90 94 0e 3b
       0.10069956 0.06637091 0.012238447 0.002175603
0003f0 b7 7c d0 bc 3a b7 45 bd 58 aa 18 3c fe cf d6 3d
       -0.025450094 -0.04827044 0.009317957 0.1048889

lin1.bias f4 [256]
000000 8c b8 a8 bd 04 d1 61 3d ee 36 d1 be e9 51 ce be
       -0.082383245 0.055130973 -0.4086222 -0.40296867
000010 5f 95 c2 3d 58 66 51 be 32 8b c2 3d cc b8 a6 be
       0.095011465 -0.20449197 0.09499206 -0.32562864
000020 c5 94 7f be 28 20 21 bd 09 4b 6a be d0 31 a5 3d
       -0.24959095 -0.039337307 -0.22880186 0.080661416
000030 b6 6d a8 be 3d d4 ad be b2 bf e0 be ee 84 d4 be
       -0.32896203 -0.33950987 -0.43896252 -0.41507667
000040 4e 72 d2 be 04 c2 10 be 2f dd e9 be 40 27 89 be
       -0.41102833 -0.14136511 -0.45676562 -0.26787758
000050 f4 19 f4 be 87 c4 72 be 74 46 ed bc ba 56 d6 3c
       -0.4767605 -0.23707782 -0.028964259 0.026164401
000060 9e 0b 93 3d 2b 0a 5c bd 83 cc d1 be 94 a4 29 be
       0.0717995 -0.053720634 -0.40976343 -0.16566688
000070 2c 12 79 be 00 e5 ed bd 42 29 da be c0 7d fe bd
       -0.24323338 -0.11615944 -0.42609602 -0.12426329
000080 34 a8 d6 be 3c c0 c3 be 2a 7e 97 3c 74 95 af bd
       -0.41925204 -0.382326 0.018492777 -0.08573428
000090 4d 8d a5 be 28 54 bd 3d f3 70 de bd 3f 0d e8 be
       -0.32334366 0.09244567 -0.10861387 -0.45322606
0000a0 0a d3 a3 be 3e bb bf be 7d 61 b8 be c1 c5 71 be
       -0.31996948 -0.37447542 -0.36011878 -0.23610593
0000b0 cf e2 a4 be fe cf 37 be 69 23 fa be 4b 6d 97 be
       -0.3220429 -0.17950436 -0.4885514 -0.2957557
0000c0 ef 2b cd be 4b a3 18 be f5 f8 cd be c2 36 fa be
       -0.4007258 -0.14906041 -0.40229002 -0.48869902
0000d0 29 fc d7 be 9b 1c 9f be 11 93 1a 3e d8 5f 32 be
       -0.4218457 -0.31076512 0.15095164 -0.17419374
0000e0 ea 39 b1 be a5 10 13 be 64 1d c8 be 65 54 2c be
       -0.34614497 -0.14361818 -0.39084923 -0.16829069
0000f0 c7 1b d6 be f0 a4 c9 bd 6f e8 bc bd 6e 13 f4 be
       -0.41818067 -0.098459125 -0.09224021 -0.47671074
000100 93 03 84 be d5 ea 12 bd 79 05 b3 be 5d 83 b6 be
       -0.25783977 -0.035868485 -0.34965113 -0.35647097
000110 e5 22 93 be 53 80 9e be da de eb be ab c7 8b be
       -0.2873756 -0.3095728 -0.4606846 -0.27300772
000120 58 2e 1b be c0 af 7f be 41 e5 87 be fd 1a e5 be
       -0.15154397 -0.24969387 -0.26542094 -0.44747153
000130 85 9c 92 be 88 17 bb be df af e7 3d 6a 0e 74 be
       -0.2863504 -0.3654139 0.113128416 -0.23833624
000140 55 f3 2f bc 8b f6 0e 3e 36 2d db be 91 cb f9 be
       -0.010739167 0.13961236 -0.4280793 -0.4878812
000150 59 51 d5 be 32 48 92 be 95 f8 f1 bc 6a 29 00 bf
       -0.41663626 -0.28570706 -0.029537478 -0.5006319
000160 83 cb b1 be bd c1 cc be 70 63 3d be 35 81 38 be
       -0.3472558 -0.3999156 -0.18494964 -0.18018039
000170 8f 23 6e be eb 74 96 be b4 c2 db be a2 91 96 be
       -0.23255752 -0.29386076 -0.42921984 -0.29407984
000180 cb 3d 15 be 3a a6 f7 be 0c 4b ac be ab 1f d7 be
       -0.14574353 -0.48369008 -0.33651006 -0.42016348
000190 06 1c c7 bd c3 e8 c0 be 5e 69 a9 be 67 3c cc be
       -0.09722142 -0.37677583 -0.330882 -0.39889833
0001a0 67 aa c9 be 57 81 09 be 61 cd 86 be 8a 25 d8 be
       -0.3938782 -0.13428245 -0.26328567 -0.4221614
0001b0 8b b9 cb 3a 07 a2 b9 be d4 3b 48 be 80 07 60 be
       0.0015542967 -0.3625643 -0.19554073 -0.21877861
0001c0 03 54 bd 3d a1 40 f2 bc 97 67 92 3d 84 09 64 3d
       0.092445396 -0.029571833 0.071486644 0.055673137
0001d0 92 01 cc be 0f 05 87 be 8b f3 d7 be b5 75 0b be
       -0.39844948 -0.26371047 -0.42177996 -0.1361912
0001e0 b0 6e 78 be 0e e8 d4 be cf 30 a7 be 66 cb 00 bf
       -0.24260974 -0.41583294 -0.32654426 -0.5031036
0001f0 ba 4c eb bd 83 39 ca be 12 48 86 bd 1f 09 37 be
       -0.11489244 -0.39497003 -0.06556715 -0.17874573
000200 42 ef 35 be 2a 5c b8 be f0 f9 33 be d9 21 01 bf
       -0.17767051 -0.36007816 -0.17575812 -0.5044227
000210 67 94 81 be 97 f3 0c bf 8c 68 ce be 50 1d fb bc
       -0.25308535 -0.5505919 -0.40314138 -0.030653626
000220 c3 9d dc be 20 a4 d3 be 9a 63 01 3e ef b3 d3 be
       -0.43089113 -0.41336155 0.12635651 -0.41348216
000230 bf 6e 9a be 1e d4 01 bf 3c 4a c3 be 8f 30 e8 be
       -0.30162618 -0.5071429 -0.38142574 -0.45349547
000240 38 ee ee be 5f a3 be be 69 e4 c5 be 64 69 e9 be
       -0.4666612 -0.37234017 -0.38650826 -0.4558822
000250 98 81 56 be d0 64 3e be 8a b7 c2 be ae e2 89 be
       -0.20947874 -0.18593144 -0.38030654 -0.26930755
000260 3a 2b df be da f0 d0 be 19 7e a4 be 9e 0d 0f be
       -0.43587667 -0.40808755 -0.32127455 -0.13970038
000270 43 4e 99 38 f7 2a d4 be 67 05 93 be 4e 69 45 be
       7.310186e-05 -0.4143903 -0.2871506 -0.19278452
000280 2c d7 93 be 2c e6 9f be d9 b1 e1 be 53 06 ca be
       -0.288751 -0.31230295 -0.44081 -0.3945795
000290 8e 64 7b be ac 82 e7 be 77 62 e7 be 95 9c 4c bb
       -0.24550077 -0.45216882 -0.4519231 -0.003122126
0002a0 11 9d 79 be 70 2a fb be 3a f2 93 be 3f b0 cb be
       -0.24376322 -0.49055815 -0.28895742 -0.39782903
0002b0 ed 42 e4 be 30 ea fb be b3 5a 97 be 2b 8f b7 be
       -0.4458231 -0.49202108 -0.29561386 -0.35851416
0002c0 57 ad 48 be f3 0e e7 be 78 22 ce bc 60 0a eb 3d
       -0.19597374 -0.45128593 -0.02516292 0.11476588
0002d0 87 14 c5 be 12 66 ad be 2f de e4 be 83 22 81 be
       -0.38492224 -0.33866936 -0.44700763 -0.25221643
0002e0 d4 bb 8a bc dd 8d 01 be 54 29 42 be ff b6 cc be
       -0.016935267 -0.12651773 -0.18961078 -0.39983365
0002f0 e5 d9 85 bd 0b c1 02 bc 39 40 76 be 2f 24 4a bd
       -0.06535701 -0.007980595 -0.24047936 -0.049350914
000300 0b 37 02 bf fc 1a 04 bf e7 ce dd be 89 e6 29 be
       -0.5086524 -0.51603675 -0.43321916 -0.16591848
000310 fc a8 14 bd 70 56 10 bd f9 b4 2e be ad f8 e3 be
       -0.03629397 -0.035238683 -0.17061223 -0.44525662
000320 c3 a8 8c be 47 94 4e 3d b6 4f f6 ba 9a 68 5d be
       -0.27472505 0.050434377 -0.0018792066 -0.21621934
000330 ee 2b 07 bf 89 76 1c bd 08 de 1a be 46 5c 9e be
       -0.52801406 -0.03819898 -0.1512376 -0.30929774
000340 e8 8c 34 be 59 21 3f be b6 5e b9 be 31 13 a8 be
       -0.17631876 -0.18665065 -0.3620507 -0.32827142
000350 73 85 85 be d6 6c 52 be 0d db 84 be de 22 d2 be
       -0.26078376 -0.2054933 -0.25948372 -0.41042227
000360 92 b4 a4 be 74 ed 28 be 60 a2 19 be 69 59 37 be
       -0.32169014 -0.16496831 -0.15003347 -0.17905201
000370 9c b9 08 bd 49 c7 8e be fd 02 3a be 2b d9 32 be
       -0.033380136 -0.27886418 -0.18165202 -0.17465656
000380 1b db e9 be fb 88 0b be 34 89 bc be 96 d2 59 be
       -0.45674977 -0.13626473 -0.36823428 -0.21271738
000390 4f 7f b7 be 2e 8f 39 be cf 65 cc be 93 a3 b9 be
       -0.35839316 -0.18121025 -0.39921424 -0.3625761
0003a0 d4 25 d7 be 94 47 e1 be f1 18 1e be d4 e5 a9 be
       -0.42021048 -0.43999922 -0.15439202 -0.33183157
0003b0 ac 5b d7 bc 98 fa dd be 5a 3f 8a be 41 ea b6 be
       -0.02628883 -0.4335525 -0.27001458 -0.35725597
0003c0 0a 36 b6 be 8f 9c da be 3f de 95 be 97 32 05 bf
       -0.35588104 -0.4269757 -0.29271123 -0.5203032
0003d0 ff 97 07 be 56 21 bb be 3f 22 31 3e ad d8 c4 be
       -0.13241576 -0.3654887 0.1729822 -0.3844656
0003e0 f1 ef 66 3e f7 21 db be 3f b7 b9 be 49 c4 ab be
       0.22552468 -0.4279935 -0.36272618 -0.3354819
0003f0 8c 34 ee be 88 d6 b7 be 5f 35 cc be a1 8f ff be
       -0.46524465 -0.35905862 -0.3988447 -0.49914268

lin2.weight f4 [256, 256]
000000 e5 e3 9b bd b4 ec 08 3d 41 b5 4b bc e8 e6 de bd
       -0.07611827 0.033428863 -0.012433351 -0.108838856
000010 51 8d 02 3d 38 f9 97 bd b6 84 5b bd 6b d1 29 be
       0.03187305 -0.074205816 -0.05359336 -0.16583793
000020 be f4 e4 3c 11 97 83 bc f0 cf d9 bc cf 15 88 bd
       0.027948733 -0.016063245 -0.02658841 -0.06644785
000030 b7 13 e7 bd ff e5 65 3c 5a cf 15 be 5f 90 93 bd
       -0.11283057 0.014031886 -0.1462988 -0.07205271
000040 96 29 01 bd f6 5e 7e 3d 15 5a da bd 57 cb 61 b9
       -0.0315338 0.06210228 -0.10661713 -0.00021533422
000050 0b dd 03 3e 0a f2 04 bd dc 3a c9 bd af 82 ec 3d
       0.1287729 -0.03245739 -0.0982568 0.115483634
000060 31 4a 1a be 3f 71 bf 3d 9c b1 a4 3c e9 cc 82 bd
       -0.15067364 0.09347772 0.020104222 -0.0638674
000070 bd b2 0c be 02 fa db bb a8 36 01 bc c6 88 8e 3d
       -0.13740058 -0.006713153 -0.007886566 0.06959681
000080 98 83 16 be 33 81 7e 3d 84 22 b4 38 91 34 af 3c
       -0.14698637 0.062134933 8.589498e-05 0.02138737
000090 7c 7e 90 3c 6e f9 8c bd 72 82 17 bc fc fa 9c bb
       0.017638437 -0.068835124 -0.009247409 -0.004790662
0000a0 8e 14 51 bc be 9d 02 be a0 e2 56 bd a4 e3 fd bd
       -0.012761248 -0.12755486 -0.05246222 -0.12396935
0000b0 10 0b d4 bd 9a bf a5 bc 0e bc ec bc 42 62 a9 3c
       -0.103536725 -0.020232964 -0.028898265 0.020676736
0000c0 91 09 11 bd 82 91 09 bc 71 c2 01 3e 18 a4 86 bc
       -0.035409514 -0.008396508 0.1267183 -0.016435668
0000d0 c4 07 9c 3d 8e 4b 14 3d 23 69 8e 3c 2c fb 7f bc
       0.07618669 0.036204867 0.017384117 -0.015623849
0000e0 fe cb 98 3d 59 01 d6 3d 01 6b 21 be 7f d0 08 3d
       0.074607834 0.10449476 -0.15763475 0.033401962
0000f0 67 dc 21 bd bc b1 3c bd 2f 43 b9 3c 23 25 f3 3d
       -0.039516833 -0.04606794 0.022615043 0.11872318
000100 c1 f6 40 bd 4d fa bb bd ed cb 5b bd 82 a5 aa 3c
       -0.047110323 -0.091786005 -0.053661276 0.020830873
000110 50 49 9d bd 59 c1 91 bc 5b 76 aa 3c 01 9a ed 3c
       -0.07679999 -0.01779239 0.02080839 0.029004099
000120 b2 fa 1a be 88 9f 2b be 6d 20 df 3c d4 79 d6 bc
       -0.15134695 -0.16760075 0.027237142 -0.026181139
000130 1b ee 16 bd ba e3 47 bd 9a d9 b4 3c ad 98 9c bc
       -0.03684817 -0.04880116 0.022076417 -0.01911577
000140 b9 fb 41 bd f9 b2 92 bd 9a 39 47 bd 73 a5 32 3d
       -0.047359202 -0.071630426 -0.048638918 0.043614816
000150 8d c9 bb bd b8 4e ca bd 2d bc 8e ba 54 ee a9 3d
       -0.09169302 -0.09878296 -0.0010889821 0.082974106
000160 df 11 fe bb 8d b2 cb 3d 4a d2 ff bd 99 2f 42 bd
       -0.0077535952 0.09946165 -0.12491281 -0.047408674
000170 c0 22 b5 3c de 79 ce bd 0f bd c9 3c 01 39 07 3d
       0.022111297 -0.10081838 0.024626283 0.033013348
000180 7c 1e 14 bd 64 36 73 3c 24 cd 0a 3e 52 c8 8b bd
       -0.036161885 0.014844511 0.13554817 -0.068253174
000190 b1 6f e0 3c bc e5 44 3e 0c 1a a8 bd 10 46 45 3e
       0.027397009 0.19228262 -0.08208093 0.19265008
0001a0 6e 81 45 be 48 a8 aa 3d 6b b6 72 3c 69 af 98 bd
       -0.19287655 0.08332878 0.014814 -0.07455332
0001b0 58 82 ba bd e5 b2 02 bd f1 c9 37 bd 15 f7 24 bd
       -0.09106892 -0.03190889 -0.04487032 -0.0402747
0001c0 87 7d c4 bd 7d 4e 65 bd 43 4d 19 bd cf 28 29 3d
       -0.09594255 -0.055983055 -0.0374272 0.041298684
0001d0 eb c8 2d be fb c6 7a bd 9c 62 5e bd f0 83 6f 3c
       -0.16971175 -0.06122492 -0.05429326 0.014618859
0001e0 58 af f7 3d 83 5b 3f 3d eb 4e 09 be a6 05 8d 3d
       0.12093991 0.04671813 -0.13409011 0.06885843
0001f0 03 0b da bb bb 2f 21 3c 94 28 e0 bd bf 2c 1b 3c
       -0.0066541447 0.00983804 -0.1094524 0.0094711175
000200 3c b3 24 bd c6 fd 7c bd ee 87 03 be a4 56 cd bc
       -0.040209994 -0.061765455 -0.12844822 -0.025065728
000210 60 eb de bd 95 47 9e bd d8 e5 31 3e 8e 01 1c bd
       -0.10884738 -0.07728497 0.17372835 -0.03808742
000220 9d a1 8f 3d 52 82 66 bd 53 10 84 bd 6d 41 29 bd
       0.07013247 -0.056276627 -0.06448426 -0.04132216
000230 a6 d0 70 3d 30 b4 01 3d b6 20 86 3b 03 cf ee 3c
       0.058792733 0.03166598 0.004093255 0.029151445
000240 ee ae bf 3a f2 da db bb a3 80 a2 3d 0e 8d d1 3d
       0.0014624277 -0.00670945 0.07934692 0.10231982
000250 02 37 1d 3d 6c c1 e6 3b 3b 14 a4 3c f3 3d 89 bc
       0.038382538 0.0070421007 0.020029178 -0.016753173
000260 f0 92 19 be 02 79 20 3e 1e 56 60 3d a8 19 7d 3d
       -0.14997458 0.15671161 0.054769628 0.061792046
000270 b8 d1 19 bd ec 0f a7 3c a1 fd 28 3d 57 7d e7 ba
       -0.03755352 0.020393334 0.041257504 -0.0017661256
000280 a7 f4 21 3c bb 8e 4a 3b 81 16 e5 bd 7b 5c 81 3d
       0.00988499 0.0030907828 -0.11185933 0.063164674
000290 82 1a 9c bc b1 e0 6f 3e 69 02 90 3c 4e 71 8c bd
       -0.019055609 0.23425557 0.017579274 -0.06857549
0002a0 c0 1b e8 bc 25 61 b0 3c ac 0c 1d 3c 80 27 af bd
       -0.028333545 0.021530697 0.009585541 -0.08552456
0002b0 05 bc 6f 3c e1 e8 cc bd 94 9f ae 3d 1f 6a 80 3d
       0.01463223 -0.100053556 0.08526531 0.06270241
0002c0 f3 0e 0e be 19 80 0c be 4d 1a 18 bd 2c 68 a1 3c
       -0.1387289 -0.1372074 -0.037134457 0.019702993
0002d0 49 6f 99 bd 42 86 a3 3d 1e 16 1c 3d d6 7f f8 bd
       -0.07491929 0.07984592 0.03810703 -0.12133758
0002e0 e9 87 56 bd b9 03 b4 3c 63 7b 8c bd 69 e7 4e bd
       -0.052375708 0.021974431 -0.06859472 -0.05051366
0002f0 15 ea 71 bd dd b3 63 bd 35 b7 81 bd d1 5c 93 bd
       -0.05906113 -0.055591453 -0.06333772 -0.07195438
000300 d9 84 7c 3d 16 a6 04 be 23 7b 83 bd 5d f1 1c be
       0.06165013 -0.12953982 -0.06419971 -0.15326448
000310 1b d5 b6 3d fd 04 e5 3c a4 0f 40 be 87 38 e0 3d
       0.089273654 0.02795648 -0.18755966 0.10948282
000320 06 4d fd 3c e6 e2 28 be 27 c3 dd bb f9 30 d2 bd
       0.030920517 -0.16492805 -0.0067676487 -0.10263247
000330 ef da 0c be d4 df c9 bc fc 56 2a 3d cb 93 bb bd
       -0.13755392 -0.024642862 0.04158686 -0.09159049
000340 02 e9 c0 bc b3 ef fc bd 6f b4 9b bc 1d ea 1a 3d
       -0.023548607 -0.123504065 -0.019006936 0.037820924
000350 76 e6 12 be d3 96 f7 bc 38 a4 94 3d 99 f5 24 bc
       -0.14345726 -0.030223286 0.07257885 -0.010068321
000360 3e 51 bc 3c 57 07 09 3e 9e 5b 85 3d 60 dd 88 bd
       0.022987958 0.13381706 0.06511615 -0.06682849
000370 ef 21 f1 bd c5 1f b7 3b 6c 19 5a bd 5e 77 97 ba
       -0.117740504 0.005588504 -0.0532469 -0.001155596
000380 52 dc 8f bd b1 a5 75 bd 92 e9 c5 bd 77 3c d8 bd
       -0.07024445 -0.05997247 -0.096636906 -0.10558408
000390 0e e6 b3 3d 3f 51 8b 3c 17 6a 0d bd 6b a2 86 3d
       0.08784114 0.017006515 -0.034525003 0.065739475
0003a0 af 11 ec bc 94 d2 87 3d 9d bf 2b 3c 0a 1f 40 be
       -0.028817026 0.066319615 0.010482696 -0.1876184
0003b0 ca 51 3b bd 02 3f 14 bd 25 fc d9 3b 0d 78 df bb
       -0.045732297 -0.0361929 0.0066523724 -0.006819731
0003c0 89 bf 03 3e b4 25 f9 bc 4a 40 1a 3c 2f 81 bb 3d
       0.12866034 -0.030413486 0.009414742 0.09155499
0003d0 9f 9d 01 be 2e 5c c9 bb 2d e1 cf bd 20 0e 57 bc
       -0.12657784 -0.006145022 -0.10150371 -0.013125926
0003e0 ec 7c 8e 3d b5 38 9e 3c 70 87 29 bd 20 ec f5 3d
       0.06957421 0.01931415 -0.04138893 0.12007928
0003f0 95 ad 73 bc 67 d6 6e bd c3 20 81 3a 75 c9 3d bd
       -0.014872928 -0.05830994 0.0009851683 -0.046334703

lin2.bias f4 [256]
000000 ab 10 6d 3c 03 78 09 3d 71 3e 26 be 18 33 44 bc
       0.014469306 0.033561718 -0.16234757 -0.011975072
000010 14 48 e1 3d d6 73 c6 bd 21 a0 b2 3d 9b 3a 1c be
       0.11000076 -0.09690063 0.087219484 -0.15256731
000020 f6 2e 5a be b7 6d b0 bd 10 fc 85 bd 3a c6 0a be
       -0.21306977 -0.086146764 -0.06542218 -0.1355218
000030 f6 e3 84 bd 96 a8 66 bd e3 dc 3d bd a6 93 00 be
       -0.064887926 -0.05631312 -0.046353232 -0.12556323
000040 2d 7d 99 3a bc c4 e6 3c 5a 59 86 3b b9 59 f1 bd
       0.0011710279 0.028169982 0.004100007 -0.11784691
000050 62 86 46 3e 02 3a 01 3e 6b 59 3d be 04 b4 df bc
       0.193872 0.12619784 -0.18491141 -0.027307518
000060 73 aa 1a be c4 bb 6d be 3f 59 32 3d af ce 79 3d
       -0.15104084 -0.23216158 0.043542143 0.060988124
000070 a9 aa 3d be 35 e5 4e bd 00 b9 84 3d 38 6e 36 3d
       -0.18522133 -0.050511558 0.064805984 0.044538707
000080 f1 75 46 be 83 00 4a 3d 95 ed b4 bd 3c 4c 22 be
       -0.19380929 0.049316894 -0.08834378 -0.15849394
000090 34 09 38 bd 58 47 7d 3d ae 3e 1c be 1d 8f 5e be
       -0.04493065 0.061835617 -0.15258285 -0.21734281
0000a0 0e 3d 0d 3d 92 ec 06 be cf cb 4e be db 3e 82 3e
       0.034482054 -0.13176182 -0.20194934 0.2543858
0000b0 22 fc a2 3d 84 bd ff 3d ed ca 3c bc be 77 05 3e
       0.07958247 0.12487319 -0.011522991 0.1303396
0000c0 fa af 0e bd 6c 48 5b bd d1 8a fe bd ce 95 fe bd
       -0.034835793 -0.053535864 -0.12428821 -0.12430917
0000d0 66 99 64 3e 84 25 02 3c 38 c9 2a be b9 a3 50 bd
       0.22324142 0.007943515 -0.16678321 -0.050937388
0000e0 cf 0b a1 3d b0 5f d1 3d ab 8f b0 bd bb e6 84 bd
       0.078635804 0.10223329 -0.086211525 -0.06489321
0000f0 d2 bd 17 3c 9f 5e 0f be 89 05 e5 3d 3c 02 82 3d
       0.009261565 -0.14000939 0.11182696 0.063480824
000100 25 e8 0c 3c 4d d1 35 3c c5 3f 4e be da d5 05 3c
       0.008600269 0.0110972645 -0.20141514 0.008168662
000110 64 a3 26 3e f4 d1 97 bb 8a 55 30 be 8c f6 0c be
       0.16273266 -0.0046331827 -0.1722013 -0.13765925
000120 93 b5 e4 bd ae a4 e4 bd dd cc de bd e0 a3 29 be
       -0.11167445 -0.11164223 -0.10878918 -0.1656642
000130 63 64 c6 bd ba de f3 bd d0 61 6e 3e 1d c5 de 3d
       -0.09687116 -0.11907716 0.232795 0.1087744
000140 ef b3 09 be a5 1d f4 bd 09 05 0d 3e ff 02 22 3e
       -0.13447545 -0.11919717 0.13771452 0.15821455
000150 36 13 97 bd 10 0a 7f 3c 2c 7b 6d 3e 7d cb 03 be
       -0.07376711 0.015566364 0.23191518 -0.12870593
000160 d4 fb 95 bd 3a fe 38 3e 3e 6d f4 3d 5a f4 8c 3e
       -0.07323423 0.1806573 0.11934899 0.27530175
000170 77 5f d7 bd 55 73 f1 bc 31 24 0d be 58 50 4d 3d
       -0.10516255 -0.02947394 -0.13783337 0.05012545
000180 32 9a c9 3c 8b 4f cc 3d 1e 41 5e 3e 2b 19 2d be
       0.024609659 0.09976109 0.21704528 -0.16904132
000190 09 01 38 be 85 11 ae bd bb d7 39 bc 22 6c 78 be
       -0.17969145 -0.08499435 -0.011342938 -0.2426
0001a0 ed a8 4c 3e 78 af 22 3e ff 2f 02 be af c1 65 be
       0.19986315 0.15887249 -0.12713622 -0.22437166
0001b0 86 0e 21 3e 80 de ce 3d 45 35 0d bd bf df 2f be
       0.15728197 0.10101032 -0.03447463 -0.17175196
0001c0 8e 21 01 3e 5d 05 d8 3d b3 62 5a bd 79 ef 51 be
       0.12610456 0.10547898 -0.053316783 -0.20501508
0001d0 81 f4 e6 bd b3 76 5e 3d 51 c6 ac 3d 17 e5 17 be
       -0.11277104 0.05431242 0.08436263 -0.14833485
0001e0 f6 8a c5 bd a8 8a 18 be 3b 1b 1e 3c 7e b8 19 be
       -0.09645645 -0.14896643 0.009650047 -0.15011784
0001f0 d2 b3 34 be 0a a0 55 be 27 96 b0 bd 6d 37 91 3d
       -0.17646721 -0.20861831 -0.08622389 0.0709065
000200 6e 14 65 be 29 d3 3a 3d 1c 8b 23 be 2b 02 48 be
       -0.22371075 0.045611534 -0.15971035 -0.19532077
000210 6f 61 ba bd 0e 9b 76 3d 5b 4b f1 bd 95 ce d0 bd
       -0.09100615 0.060206465 -0.11781951 -0.101956524
000220 07 30 d7 bc 0b 04 a7 3d d9 0d c2 3c dd 5c f4 bd
       -0.026268018 0.08155068 0.023688244 -0.11931775
000230 f4 51 4b 3e fc 28 bc bd 70 6c a9 3d 53 1b 5a bd
       0.19855481 -0.09187505 0.08272636 -0.053248715
000240 be 7a 86 3e 84 90 0a bd 48 e6 51 bd 46 db 47 3d
       0.2626552 -0.033829227 -0.051245004 0.0487931
000250 2c b1 74 be b4 1c 51 be 40 30 04 be b9 c7 4a 3b
       -0.2389571 -0.20421106 -0.12909031 0.0030941798
000260 33 ad 83 3c f1 fa 93 bd e8 11 4c bd 6f bd a9 bd
       0.016073799 -0.07225598 -0.049821764 -0.08288085
000270 8a fd 29 be a5 25 6c 3c fb c6 07 be 83 81 0e be
       -0.16600624 0.014413272 -0.13259499 -0.13916592
000280 01 41 cc bd 2e df e9 bd f6 4c ae bb 35 9e 2e be
       -0.09973336 -0.11419521 -0.005319233 -0.17052539
000290 f4 0f c5 bd 95 46 f7 bd eb 51 6d 3d 07 66 22 be
       -0.096221834 -0.12074009 0.05793945 -0.15859233
0002a0 1f a1 49 bd f9 34 b6 bd fd 50 d1 bd 2f 9d af bd
       -0.049225923 -0.088968225 -0.102205254 -0.08574902
0002b0 ff d1 d0 bd 70 18 ec 3d c2 cf 89 3d 61 57 0e 3e
       -0.101963036 0.115280986 0.0672908 0.1390052
0002c0 49 38 48 be 5c ba 70 bd bb 36 c9 bd 08 77 b8 3d
       -0.19552721 -0.058771476 -0.09824892 0.090070784
0002d0 0b 8d dd bd 90 3e b3 3d 2d f8 a0 3e f4 30 4e 3e
       -0.108179174 0.08752167 0.31439343 0.20135862
0002e0 b7 6f 93 3d 62 07 8d bd 81 d5 a0 bd 74 57 91 3c
       0.07199042 -0.06886174 -0.07853223 0.017741896
0002f0 f9 20 b1 3d 4e c5 25 be ca de ff bd 86 e6 ba 3d
       0.08648867 -0.16188547 -0.124936655 0.09126
000300 17 4c 0c 3e ce 66 41 bd 07 8d 89 3d da 0c 82 bd
       0.13700901 -0.047217183 0.06716352 -0.063501075
000310 3e 1c 36 be 8b 64 fa 3d 4f 98 80 3c 49 b6 d3 3c
       -0.17784211 0.12226208 0.015697626 0.025843756
000320 17 33 21 bd 09 30 44 bd 5e 68 33 bd 72 15 df bd
       -0.039355364 -0.047897372 -0.043800704 -0.10892762
000330 8e 9e a8 3e 7f fa 5d 3b 02 b9 cc bd 4e cb 0f 3c
       0.32933468 0.003387123 -0.09996225 0.008776499
000340 89 3a 51 be 35 5b 64 be 1d 14 ff 3c f5 24 f4 3d
       -0.20432486 -0.22300418 0.03113752 0.119211115
000350 c6 31 36 bc c6 7f d1 bd 37 9d 90 be 5f 12 c2 39
       -0.011120265 -0.10229449 -0.28244945 0.0003701625
000360 4e 84 14 3c 15 59 52 3d 7a 62 19 bd 51 9e c7 3c
       0.009064747 0.051354486 -0.03744743 0.024367483
000370 e3 95 e7 3d 4f cc 5c 3e 8a 0b 6c bc d5 79 17 bd
       0.113078855 0.21562313 -0.014407048 -0.036981422
000380 1c 1a 0f 3d d0 c5 04 3e e7 2a 71 be 43 57 b3 3d
       0.03493701 0.12966084 -0.23551522 0.08756878
000390 7f ff 0e be 4f 04 bc 3d 87 57 87 3d 7d 34 75 bd
       -0.13964652 0.09180509 0.066084914 -0.05986451
0003a0 54 d9 fd bd 97 ab 0f be e1 50 fa bd 99 94 32 bd
       -0.12394968 -0.140303 -0.12222458 -0.043598745
0003b0 77 40 00 3d 67 bc a8 3d fb 7f 5e be 6b d1 da bd
       0.03131148 0.0823906 -0.21728508 -0.106844746
0003c0 76 2a ac bd 60 11 17 bd da 1e e2 bd e3 c0 8a 3d
       -0.08406536 -0.036881804 -0.11041041 0.067750715
0003d0 75 5f 36 3e ad 9c 92 3c 4f be dc bd 52 62 3f bd
       0.17809851 0.017896974 -0.10778486 -0.046724625
0003e0 61 b8 47 bd 5b 26 1c be 5b c4 3e 3e c8 65 c6 3d
       -0.04875982 -0.15249006 0.18629591 0.09687382
0003f0 b9 8a 9f 3d d8 2a 55 3d 0f 61 05 3d 5e f4 06 be
       0.07790131 0.052042812 0.032563265 -0.13179156

lin3.weight f4 [3, 256]
000000 4e 92 1b bc b7 c7 4f bc 2f ef d0 3c f0 3e c3 3c
       -0.009495331 -0.012681893 0.025504677 0.023833722
000010 9e 19 c4 bc a2 ed 9c bc c4 54 2d 3d 5a da ec 3c
       -0.023937996 -0.01915628 0.042317167 0.028912712
000020 f7 05 c4 bc fb 72 1c bc 74 e9 ad 3c 20 b5 8d 3c
       -0.023928626 -0.009548898 0.021229483 0.017298281
000030 a5 6b c2 3b 0c c0 a7 39 05 83 55 3c 46 59 2f 3c
       0.0059332424 0.00031995808 0.013031726 0.010702437
000040 c2 8d 8c bc 20 39 a1 bb e8 7e 53 3d ff 60 88 3c
       -0.01715744 -0.00492014 0.0516347 0.016647814
000050 29 89 f9 3c 8a 3c 87 3c 82 cb a5 bc d0 f8 a3 bb
       0.03046091 0.01650836 -0.020238642 -0.005004026
000060 67 7c b1 bb 2f 2c e1 3b 1e ae 2e bb c4 87 d7 bc
       -0.0054164412 0.006871722 -0.0026654075 -0.026309855
000070 5e 0a 02 3b 9e 5f a5 3c 42 62 b3 3d c9 b2 07 3c
       0.0019842605 0.020187195 0.087589756 0.008282372
000080 24 8c dc bc cb 96 f1 3b a1 12 ee 3c 79 da a9 3c
       -0.026922293 0.0073727123 0.029061617 0.020734059
000090 b9 1c 1b 3d 6f a3 92 bc 0c 2e 3b 3b 32 48 0f be
       0.03786919 -0.017900197 0.0028561382 -0.13992384
0000a0 ac b1 0e bc 8e c1 33 3d 68 bf e9 bc 5c 72 6e 3e
       -0.008709352 0.04388576 -0.028533652 0.23285812
0000b0 80 1f fd 3c e3 dd 88 3d bf 04 46 3d d9 ef 61 bd
       0.03089881 0.066829465 0.04834437 -0.055160377
0000c0 50 44 32 3b b9 43 f0 3c 6d f9 57 bd 3e 35 dd 3c
       0.0027201362 0.029329168 -0.052728105 0.027002927
0000d0 64 e2 18 3e 9d e4 bc bd 76 14 44 3d 96 41 da bc
       0.14930111 -0.09223292 0.047871076 -0.026642602
0000e0 c0 6c f7 3d 68 ff 9d 3d 16 b1 31 bd 80 d2 b6 3c
       0.12081289 0.077147305 -0.043381773 0.022317171
0000f0 51 72 a9 3c 0b b5 55 3c 42 d8 c5 3d 2b 6b a6 3d
       0.020684393 0.013043652 0.096603885 0.081259094
000100 8e be 3e 3d 00 e5 37 3d bd 17 86 3b 30 93 8f 3d
       0.046568446 0.044896126 0.0040921853 0.07010496
000110 e6 3e 83 3d 87 1e bb 3b 5b 92 cb 3c 6a 4c a6 bc
       0.06408481 0.0057104263 0.024850061 -0.020300109
000120 e9 40 a2 3c 94 4b de 3b 91 04 86 bb ee f5 02 bd
       0.019806342 0.006783912 -0.0040899 -0.031972818
000130 c0 5e 90 3d 61 42 41 bb 5c 5f f3 3c 97 cd 13 3c
       0.07049322 -0.0029489028 0.029708557 0.009021184
000140 7d 24 b4 3c e3 e9 f0 bc fd 9e 06 3d 69 78 4f 3d
       0.021990055 -0.0294084 0.032866467 0.05065194
000150 6c 13 e0 ba 9a 91 6a bc ac f7 55 3d e0 80 2d bd
       -0.0017095632 -0.014316941 0.05223815 -0.042359233
000160 ca 72 bd bb d4 15 cc 3c e7 a2 ac 3c 13 62 70 3e
       -0.005781506 0.024912752 0.021073772 0.23474912
000170 5d 26 85 bc aa 1b fc bb 76 b1 1d bd 62 ba 89 3b
       -0.016253645 -0.0076937275 -0.038499318 0.0042031268
000180 5b 56 12 3c cd b8 e8 3d 14 88 fe 3d 73 c9 8d 3d
       0.008931722 0.11363373 0.124282986 0.06923189
000190 ef 5e 2a bd 13 c5 20 3c 7e 52 34 bc 8e a1 4e bd
       -0.041594442 0.009812611 -0.011005996 -0.05044704
0001a0 5b f9 9a 3d 19 06 63 3d 03 5f 3a 3d 23 b5 a3 bd
       0.07567092 0.055425737 0.045500766 -0.079935335
0001b0 8a 31 cf bc 4d b6 48 3d c8 fe b4 bc 58 f2 df 3c
       -0.025292177 0.04900198 -0.022094145 0.027337238
0001c0 05 7d 03 bd 27 69 0d 3d d4 6e ab 3c 57 34 83 bd
       -0.03210165 0.03452411 0.02092687 -0.064064674
0001d0 47 76 f2 3c 87 c6 09 3d b4 69 25 3d 2e d2 82 bc
       0.029597415 0.033636596 0.04038401 -0.015969362
0001e0 cd 37 1e bd 10 7b a5 bb 6e 71 a5 bc 3d 24 e1 bc
       -0.038627435 -0.0050500706 -0.020195689 -0.0274831
0001f0 33 ae 85 3d 04 92 8a 3b 17 e8 37 bd 62 87 fe 3c
       0.065273665 0.004228832 -0.044899072 0.031070415
000200 90 01 2b bc a8 35 97 3c 0d 6b 51 3d 20 ec 72 bb
       -0.010437384 0.018458202 0.051127482 -0.003706701
000210 df 01 4d 3c 5e 12 9f 3c 63 2b b2 3c e1 a0 95 bd
       0.012512653 0.019417938 0.021749204 -0.07306076
000220 26 d7 07 3a 1e ff 2b bd 12 fe d5 bc da 8e 1b bb
       0.0005181901 -0.041991346 -0.026122127 -0.002373627
000230 2f 55 89 3d d9 09 d6 bb 6f c0 38 3d 27 64 9a 3c
       0.067057006 -0.0065319357 0.045105394 0.018846584
000240 75 e5 b7 3d 76 83 4d ba b2 26 10 3c 65 d3 17 3c
       0.08979312 -0.00078397186 0.008798288 0.009266709
000250 2a 69 42 bc 3d 41 84 3b b0 67 03 bd 85 b2 fa 3c
       -0.011865893 0.0040360973 -0.032081306 0.030602703
000260 43 9e 74 3b 2d b1 e9 bc 41 6c f3 bb b2 e7 f9 3b
       0.0037325777 -0.028526867 -0.0074286764 0.007626497
000270 d9 c7 e0 bc ab 4e c3 bc b3 33 18 bc 90 70 fb bc
       -0.027439045 -0.023841223 -0.00928967 -0.030693322
000280 18 72 29 3d 71 10 cd bc 3e c6 49 bd 8b d5 11 bd
       0.041368574 -0.025032254 -0.049261324 -0.03560404
000290 6e 0e a4 3c 34 3e 13 bb ff 83 75 3c b1 31 b0 bb
       0.020026412 -0.0022467496 0.014985084 -0.0053770174
0002a0 89 9d 8e 3c 55 c2 1b bd 21 0f 30 3c 08 a2 0b 3d
       0.017409103 -0.038027126 0.0107457945 0.034090072
0002b0 e5 5b 8d bc b9 93 b8 bc 60 50 c8 3c ad 41 93 bc
       -0.017255733 -0.022531377 0.024452388 -0.017975653
0002c0 91 01 b1 bd 09 db 10 bc c8 52 a4 bc 0a 30 95 bc
       -0.08642877 -0.008841285 -0.020059004 -0.018211383
0002d0 09 83 87 3d b6 ad 54 3d 54 2d 23 3e 17 33 0a 3d
       0.0661679 0.051923476 0.1593526 0.03374013
0002e0 11 ca 2e 3c f5 fd 90 3d 16 d4 31 bd 42 07 e2 bc
       0.010668294 0.070796885 -0.04341515 -0.027591351
0002f0 0f 97 6f 3d e4 2b ca b9 d6 f0 c0 bd f0 00 4a 3d
       0.05849367 -0.00038561143 -0.09420936 0.0493173
000300 58 3d e2 3d cd f1 80 bb f7 90 02 bc 4b 65 93 3c
       0.11046857 -0.003935075 -0.007969133 0.017992636
000310 e1 20 c4 bc 4d 73 a9 3d 84 60 3a 3d 26 b7 80 bd
       -0.02394146 0.08273945 0.0455022 -0.06284933
000320 54 8f a0 3b 34 e9 19 bc 95 97 1f 3d a1 d6 c0 bc
       0.0048998985 -0.009393979 0.03896292 -0.023539843
000330 94 28 ed 3d db db 9c 3b 31 1f 5d 3c d4 6b a3 3c
       0.11580005 0.004786951 0.013496206 0.019948877
000340 f3 e7 8d 3d ee d4 5e 3d 69 14 12 3d 9b 12 ce 3c
       0.069290064 0.054402284 0.035663996 0.025155356
000350 2f b3 95 3c 92 88 a6 bd 03 c0 12 bd 37 3a 0e bd
       0.018273918 -0.081315175 -0.035827648 -0.034723487
000360 c4 4f 51 bc 52 4c 8d bd 90 70 b7 bc 65 56 88 3d
       -0.012775365 -0.068993226 -0.022392541 0.066571034
000370 37 25 8d 3c 46 50 05 3d b4 72 05 bd c5 8e f7 bc
       0.01722966 0.032547258 -0.032580093 -0.030219445
000380 64 05 96 bb f6 f3 1e 3d 78 b7 02 3d 9e f2 57 3d
       -0.0045782793 0.038806878 0.03191325 0.052721612
000390 a8 3f 14 3c 20 81 ec bc 8f 42 5d 3c 16 f0 70 3c
       0.00904838 -0.028870165 0.013504638 0.014705678
0003a0 17 7f 82 ba 40 a7 40 bb ae 27 83 3d 06 f6 fb 3c
       -0.0009956089 -0.0029396564 0.06404053 0.030756962
0003b0 9a 51 b0 3d 67 ca bf 3d a1 58 39 3a 8b 9d a5 bd
       0.08609314 0.09364777 0.00070703967 -0.080866896
0003c0 32 b1 d6 bc f2 cf 34 3c ff 28 62 3d c0 0f 49 bb
       -0.02620754 0.011035906 0.05521488 -0.0030679554
0003d0 70 0c cb bb 0b 90 ab 3c 31 f3 82 3d ce 18 39 3c
       -0.006196551 0.020942708 0.06394041 0.011297418
0003e0 66 c2 80 bb 3e 42 7d 3c 64 8a e7 3b c9 69 91 3b
       -0.003929424 0.015457688 0.007066058 0.0044376594
0003f0 ab 89 25 3d c3 fc 12 3d cb 43 98 3c 8c f2 32 bd
       0.040414494 0.035885584 0.018587014 -0.043688342

lin3.bias f4 [3]
000000 de b5 47 3e 39 e9 0b bd fe cd bc 3d
       0.1950297 -0.034157965 0.092189774
