demo/5_2_1tran2_3_act2/critic_1_1.pth (torch, 108582 bytes, 5 tensors)

fc1.weight f4 [148, 28]
0.52671623 0.84121907 0.28918505 -2.4236445 -0.53181493 1.5175308 -0.06634629 -0.19510822
0.08201111 0.33186206 -0.0072129327 0.3833916 -0.70887923 6.4917536 0.9390808 -0.798751
2.8613353 0.79632205 -1.7493443 0.5639442 0.41131285 1.2293733 2.023126 -2.0151799
-7.010752 3.7690077 -0.9046756 3.9976747 5.8289084 -1.4120291 1.7534528 -3.4425507
-1.4420296 0.06659209 0.1429997 -0.16862182 0.35623395 -0.26816884 -0.4662733 -0.0031209425
-1.1707144 -4.3085504 0.41098276 -1.3581227 -5.3099213 2.9223075 1.9114922 1.8413769
-2.8584118 0.74370223 8.981403 -3.7461765 -1.3647848 -0.05609991 4.061863 3.284222
-0.67114216 -9.722962 1.6721814 4.550389 -1.7913637 -0.43745127 -0.099066995 -0.27610147
-0.024250247 -0.48228693 -0.5482294 0.2580462 -2.1355746 0.6118379 -3.6028116 -0.87583905
-4.194195 -3.9631994 1.3765955 3.6217444 3.8342245 0.5377186 0.9889302 -14.074386
-0.19118789 -4.781827 -1.4742446 4.2884693 3.236951 -2.0609846 0.6764946 -0.32568035
1.162648 -0.49100274 0.029447181 -0.12668823 0.33438852 0.5976785 0.05873176 0.23724715
1.7631092 -4.945492 -3.8969438 2.71464 -3.1258924 -0.030740727 1.7039104 2.3593302
-0.24569313 -0.4112016 8.112816 -1.8728625 3.1009235 -6.6226873 -3.390817 1.5171
-1.0537944 0.7877184 -0.8860613 1.2268399 0.32147723 -0.03729321 -1.2119792 -0.9361494
-2.2209854 0.901195 1.0669839 0.0831388 -2.0320394 1.2506242 0.010495004 -3.23024
-4.1537604 0.38064632 -1.4568794 -0.55346227 -0.41835862 0.10101092 -0.19573675 6.746358
3.0041347 -4.6421695 0.4074364 2.365402 -0.70121384 2.4817402 -1.8033259 0.7356639
2.375975 0.3787676 -0.10899659 -0.1094421 -0.1844561 -0.10956939 0.14002615 -0.027424809
-2.3721292 -0.3261994 0.43802482 -2.1654787 -9.239322 0.14175622 0.44626212 0.58809114
-2.8444192 0.49302995 2.8532176 -4.200874 -2.1048403 0.5522567 4.7910123 -6.4501357
1.8536426 3.2294044 -0.49952582 2.0262976 0.29341063 -3.2544358 1.3975866 0.07303869
1.7166104 -0.9010628 -1.9556154 -2.1775434 -0.808782 -3.39028 -1.9875256 0.7020393
-0.1385106 0.21306333 1.3843427 5.884232 -1.6302948 -0.0059225047 4.479442 5.546465
6.168912 -1.9622864 -2.9538133 2.9618409 0.96008325 1.8390874 -0.098487616 4.8439903
1.091306 0.618623 1.0442271 0.76204735 0.020098481 0.4429919 -1.0921052 0.49469632
0.3096156 -2.1997237 0.64205706 -1.1333658 1.4201729 2.5464008 1.4310881 0.2070399
1.6501316 -0.3934887 2.661444 -1.0045935 -1.0371807 6.755754 -4.481509 -9.534365
-0.48916548 0.46717414 0.2847558 0.32072905 -0.14285825 0.81865823 -0.010008138 -0.064309716
-0.018942295 0.07037267 -0.070756786 0.0887732 -3.667 -1.2337077 -1.3975105 4.707669
8.740889 0.9679005 -2.0442016 0.517065 1.6270558 -0.41794428 -2.6709094 -0.6131072
1.1537591 -0.6562663 1.5064529 1.5864788 -2.7274358 -4.4236026 0.7565442 0.8292985
00000000: e0d6 063f 225a 573f 1010 943e fe1c 1bc0
00000010: 0625 08bf 733e c23f 90e0 87bd 73ca 47be
00000020: 71f5 a73d d3e9 a93e 775a ecbb e74b c43e
00000030: 1c79 35bf 72bc cf40 9967 703f f27a 4cbf
00000040: 1e20 3740 c3db 4b3f 84ea dfbf a65e 103f
00000050: 9997 d23e 1b5c 9d3f e57a 0140 b5f8 00c0
00000060: 1558 e0c0 6c37 7140 d298 67bf e7d9 7f40
00000070: 6b86 ba40 5fbd b4bf 2471 e03f c052 5cc0
00000080: 6d94 b8bf 6f61 883d 836e 123e 33ab 2cbe
00000090: 4c64 b63e 6d4d 89be 60bb eebe ba88 4cbb
000000a0: f8d9 95bf a5df 89c0 556c d23e f7d6 adbf
000000b0: e0ea a9c0 1607 3b40 c7ab f43f 3db2 eb3f
000000c0: 38f0 36c0 4563 3e3f d4b3 0f41 5bc1 6fc0
000000d0: 45b1 aebf 05c9 65bd c8fa 8140 b130 5240
000000e0: f9cf 2bbf 4191 1bc1 0a0a d63f c99c 9140
000000f0: 684b e5bf 9df9 dfbe a3e3 cabd 2c5d 8dbe
00000100: 74a8 c6bc 50ee f6be c358 0cbf a21e 843e
00000110: 41ad 08c0 69a1 1c3f 7794 66c0 fd36 60bf
00000120: d836 86c0 0fa5 7dc0 4834 b03f a9ca 6740
00000130: ef63 7540 eda7 093f 882a 7d3f af30 61c1
00000140: c2c6 43be ba04 99c0 0cb4 bcbf 243b 8940
00000150: 352a 4f40 2ce7 03c0 c02e 2d3f 93bf a6be
00000160: a6d1 943f b664 fbbe 373b f13c 8fba 01be
00000170: f934 ab3e 7501 193f b790 703d ebf0 723e
00000180: 90ad e13f 7841 9ec0 8767 79c0 a9bc 2d40
00000190: 9f0e 48c0 fad3 fbbc bc19 da3f 44ff 1640
000001a0: fb96 7bbe 0489 d2be 18ce 0141 f5b9 efbf
000001b0: 8875 4640 0eed d3c0 2503 59c0 5530 c23f
000001c0: bce2 86bf eaa7 493f ead4 62bf 1709 9d3f
000001d0: aa98 a43e c4c0 18bd 2222 9bbf 7da7 6fbf
000001e0: a024 0ec0 b7b4 663f ee92 883f ad44 aa3d
000001f0: ef0c 02c0 7414 a03f 3df3 2b3c 41bc 4ec0
00000200: 9beb 84c0 13e4 c23e 067b babf b4af 0dbf
00000210: 1a33 d6be d0de ce3d 376f 48be 2ae2 d740
00000220: be43 4040 a78c 94c0 819b d03e bf62 1740
00000230: c082 33bf d5d4 1e40 62d3 e6bf 7854 3c3f
00000240: f90f 1840 d4ed c13e 9b39 dfbd 2e23 e0bd
00000250: 0fe2 3cbe eb65 e0bd 0463 0f3e fea9 e0bc
00000260: f7d0 17c0 9c03 a7be ca44 e03e 3497 0ac0
00000270: 43d4 13c1 8b28 113e 787c e43e 248d 163f
00000280: f70a 36c0 6c6e fc3e 1e9b 3640 8f6d 86c0
00000290: b4b5 06c0 b260 0d3f f94f 9940 8367 cec0
000002a0: 2944 ed3f 90ae 4e40 d9c1 ffbe dcae 0140
000002b0: eb39 963e ad48 50c0 1ee4 b23f 4f95 953d
000002c0: e4b9 db3f 0dac 66bf 9b51 fabf df5c 0bc0
000002d0: 560c 4fbf 59fa 58c0 3d67 febf d9b8 333f
000002e0: b9d5 0dbe 462d 5a3e 2432 b13f a14b bc40
000002f0: 80ad d0bf 9211 c2bb 9757 8f40 a47c b140
00000300: ba67 c540 332c fbbf 470b 3dc0 cd8e 3d40
00000310: 04c8 753f 3767 eb3f e0b3 c9bd f801 9b40
00000320: eaaf 8b3f 145e 1e3f 3ca9 853f 8915 433f
00000330: 92a5 a43c d6cf e23e 1aca 8bbf d648 fd3e
00000340: f085 9e3e 46c8 0cc0 da5d 243f 2112 91bf
00000350: 3ac8 b53f 3bf8 2240 e52d b73f 4402 543e
00000360: 8337 d33f 5a77 c9be 1955 2a40 8596 80bf
00000370: 56c2 84bf 232f d840 8668 8fc0 c28c 18c1
00000380: e673 fabe 7331 ef3e 83cb 913e 9936 a43e
00000390: 6f49 12be 9693 513f 2cf9 23bc d0b4 83bd
000003a0: df2c 9bbc 8c1f 903d efe8 90bd b9ce b53d
000003b0: 21b0 6ac0 22ea 9dbf a0e1 b2bf 39a5 9640
000003c0: aeda 0b41 54c8 773f 33d4 02c0 5f5e 043f
000003d0: 5d43 d03f cbfc d5be 2ef0 2ac0 98f4 1cbf
000003e0: 61ae 933f 1101 28bf 73d3 c03f bd11 cb3f
000003f0: 4f8e 2ec0 278e 8dc0 e1ac 413f e84c 543f

fc1.bias f4 [148]
1.1086656 -0.07458591 -0.10786201 -3.6399655 0.71070606 0.26065946 -1.110202 -0.75793135
0.071521886 -1.0708447 1.8861425 -0.82993627 -0.30196938 -0.73881173 -1.5264733 1.4450997
-0.20890541 6.4544473 -0.2805182 -1.2687552 -0.6810549 0.20476697 1.1264673 2.3621786
1.7256132 0.46789303 -1.3197057 4.049499 -1.8861163 -2.2239554 -0.6963223 1.7800344
-0.87705827 0.7375253 -3.0894067 -0.22430038 3.922108 -0.17029454 0.52757657 -0.16377752
0.29923314 0.053421214 -0.48354125 -0.87071234 -0.34147382 -0.36727232 0.010591192 -0.38614625
3.243784 -0.03914814 0.033913907 -0.15402408 0.7785197 -0.049197484 0.2596057 -0.42869338
0.39206654 0.59053457 0.45764259 -0.20714062 1.9504294 -1.8910946 -0.638922 -0.19544913
-1.6142898 -0.8071299 1.434726 -0.19781236 -0.569156 0.43986022 -0.6607453 -0.9055821
-1.6783671 -0.7585222 0.89423555 0.6592617 1.8488319 0.48941457 -0.6291135 -0.053488705
-0.6822004 -0.92746323 -1.2342725 -1.855547 2.0849671 -0.757426 -0.9128981 -3.2701683
-0.6532598 0.25788337 0.80226135 -1.2018421 0.96622914 0.34572324 -1.1378325 0.39863726
0.84256554 -0.45064145 4.7984376 1.8144864 1.6735961 0.49141467 0.40148523 -0.082050495
-0.88982075 -1.6594208 -0.21757606 -1.1395333 0.64975697 1.0495976 4.506675 -0.65506333
-0.18918976 1.1299707 -3.3738153 -0.9798556 0.26954287 0.95415986 0.9650859 -0.18332922
0.26964527 -0.25125593 -0.7164454 0.3316529 -0.45428386 -0.8546481 -0.24099068 0.14390728
1.3983526 1.7081867 1.4083458 0.61462194 0.3037003 -0.85706633 -1.3586876 1.2947247
0.7359195 0.36868557 -0.34319907 -0.05178062 0.3160411 0.047687564 -1.6008389 -1.6522323
-0.5754867 1.3099195 -0.12893234 0.079210676
00000000: c1e8 8d3f 7fc0 98bd c2e6 dcbd 32f5 68c0
00000010: d5f0 353f 2875 853e 191b 8ebf ca07 42bf
00000020: 117a 923d 7011 89bf 1e6d f13f b476 54bf
00000030: bb9b 9abe c422 3dbf 7a63 c3bf 07f9 b83f
00000040: 4deb 55be d58a ce40 15a0 8fbe 9266 a2bf
00000050: 9d59 2ebf 6fae 513e 1530 903f ef2d 1740
00000060: e5e0 dc3f ad8f ef3e 1eec a8bf 7f95 8140
00000070: 426c f1bf 4955 0ec0 2e42 32bf 2bd8 e33f
00000080: e486 60bf 75ce 3c3f d7b8 45c0 00af 65be
00000090: d103 7b40 b161 2ebe 420f 073f 4bb5 27be
000000a0: 1635 993e 34d0 5a3d b892 f7be 01e7 5ebf
000000b0: a8d5 aebe 1e0b bcbe ae86 2d3c f6b4 c5be
000000c0: 289a 4f40 cd59 20bd 4fe9 0a3d 7db8 1dbe
000000d0: 114d 473f 4d83 49bd 0aeb 843e b37d dbbe
000000e0: f2bc c83e 462d 173f 2150 ea3e ac1c 54be
000000f0: aca7 f93f 630f f2bf 6490 23bf d123 48be
00000100: 0ca1 cebf 11a0 4ebf 1aa5 b73f 538f 4abe
00000110: 35b4 11bf 5c35 e13e 9b26 29bf 3ad4 67bf
00000120: bcd4 d6bf 832e 42bf 9fec 643f 60c5 283f
00000130: 86a6 ec3f 8c94 fa3e 950d 21bf f916 5bbd
00000140: afa4 2ebf 3b6e 6dbf a4fc 9dbf 9082 edbf
00000150: 1a70 0540 ace6 41bf b1b3 69bf 704a 51c0
00000160: 093c 27bf 4a09 843e 0061 4d3f f6d5 99bf
00000170: cb5a 773f a302 b13e 7fa4 91bf 2f1a cc3e
00000180: 60b2 573f 7aba e6be cd8c 9940 1741 e83f
00000190: 6638 d63f b49a fb3e 798f cd3e 170a a8bd
000001a0: 4bcb 63bf e767 d4bf 42cc 5ebe 3adc 91bf
000001b0: 7956 263f 3759 863f ae36 9040 3bb2 27bf
000001c0: f6ba 41be e1a2 903f 97ec 57c0 d1d7 7abf
000001d0: 8601 8a3e d243 743f df0f 773f a8ba 3bbe
000001e0: f20e 8a3e 9ea4 80be f768 37bf 69ce a93e
000001f0: e597 e8be 38ca 5abf 43c6 76be 6e5c 133e
00000200: 38fd b23f dda5 da3f ad44 b43f dd57 1d3f
00000210: 9b7e 9b3e b368 5bbf 7ae9 adbf 8ab9 a53f
00000220: 3865 3c3f 5bc4 bc3e cab7 afbe ea17 54bd
00000230: 24d0 a13e 0954 433d 4ae8 ccbf 597c d3bf
00000240: 1953 13bf 71ab a73f d706 04be 3539 a23d

fc2.weight f4 [148, 148]
-0.6810754 1.5045358 1.6720505 -6.264927 0.46118015 2.3203216 -0.67649436 0.72570217
17.084864 -3.2060928 0.117675014 2.333428 5.989744 1.0900993 3.406486 -1.4837332
-1.7073724 0.22100976 -1.2159282 1.2328961 0.30025294 -0.9062826 -0.35217127 -1.0464488
-0.3699594 -0.6608664 1.9665997 0.22592466 1.0008962 2.0618134 -0.2569131 -0.20871224
11.27784 2.4977455 6.689189 9.329057 0.13611703 1.0068011 -0.5573198 -0.7845023
1.3323331 -0.5646413 7.1838427 -4.160292 7.8628683 5.2522135 0.22957796 -1.36489
0.12817423 1.2448821 1.084403 -4.6991606 -0.07342789 -0.2733481 0.9336733 -8.582586
1.45704 -0.28321674 0.23195179 3.0290549 -0.23215476 1.2230421 15.253038 2.7154567
3.7377748 0.8889654 -0.47864756 0.7312468 1.6816386 -0.3925166 0.9832944 1.7705947
-3.3327007 0.7860955 -0.18452817 -0.8202603 0.076863445 -0.7164526 2.3333976 3.648047
0.8864622 -3.760138 1.2104919 -0.2243328 -0.0059675677 -1.0527998 2.6531813 3.1904926
1.441412 2.4954531 0.38748348 2.0188055 -0.049214862 -0.52212274 8.060518 13.8224945
-1.3655188 -0.3602374 0.14278577 -0.2508815 -0.28555995 -0.63400483 -0.4867653 1.2045492
1.3010763 1.9383925 0.65075105 1.5263264 -0.7718054 -0.3226622 0.24408267 1.8103951
6.8969946 -0.5280463 2.1771736 3.7239735 -1.8269087 -0.38218382 -0.505351 1.4015946
-0.4722966 4.8080378 1.1412196 -0.43827796 2.4506 0.9277838 0.8429713 0.42502818
-1.4322994 0.0015402676 -0.89991015 -1.397613 1.0801911 -0.61498016 -0.25533795 -0.76179487
-1.6197124 9.345222 -1.0708872 1.8284225 2.051135 -0.40750805 1.8257496 -0.047523245
1.224572 -1.9201165 6.364261 15.712802 -0.0047325017 -0.08117419 0.056755215 -0.028023297
0.019032752 0.025793737 -0.0013909865 -0.05708995 -0.013077548 -0.05192165 0.011846242 -0.0024114556
0.039027277 0.041654915 -0.08409885 0.024973173 -0.015581094 -0.08270391 -0.012553648 -0.03674099
-0.06764262 -0.11288721 -0.009228086 -0.044728115 0.019727562 -0.06897473 0.011497412 -0.029870234
-0.0514152 0.015167517 0.0005350806 0.008290177 -0.064053394 -0.1071602 -0.090900615 -0.09301223
-0.06120624 -0.06707712 0.008860152 -0.025500862 0.046293136 -0.04359951 -0.093014695 0.0015765394
0.024064563 -0.033720475 -0.023565741 -0.0041077 0.002215714 0.024836868 -0.095561214 -0.05515386
0.043305892 -0.10243821 0.040702436 -0.10895593 -0.084102295 -0.0073168688 -0.0028249207 0.04294387
-0.103736 -0.0025327653 -0.0020889146 -0.071040295 -0.087184794 -0.104599416 -0.09804888 -0.08585572
0.030566297 -0.037999522 0.027168121 -0.11652367 -0.04535287 -0.041651987 0.009651014 0.04006852
0.038678546 0.007817146 0.028949553 -0.06949561 0.020440103 -0.025920097 0.030558683 0.030526418
-0.011618558 -0.015334868 -0.10810992 0.011497253 -0.11276442 -0.12880927 0.095971115 -0.015213415
-0.075207144 -0.014681664 0.003209542 0.10696355 -0.032282844 -0.030580644 -0.082789384 -0.09877381
-0.06233771 -0.035675194 0.010630183 -0.060539585 -0.009570618 0.055318087 -0.021292206 0.04517435
00000000: f55a 2ebf a194 c03f c005 d63f 487a c8c0
00000010: ce1f ec3e 2680 1440 bc2e 2dbf 9ec7 393f
00000020: cdad 8841 a030 4dc0 99ff f03d e256 1540
00000030: fcab bf40 6088 8b3f de03 5a40 f8ea bdbf
00000040: 2e8b dabf 6250 623e 89a3 9bbf 8acf 9d3f
00000050: c1ba 993e 2302 68bf cb4f b4be 09f2 85bf
00000060: 526b bdbe 8a2e 29bf 8ab9 fb3f cb58 673e
00000070: 5e1d 803f c0f4 0340 1d8a 83be a9b8 55be
00000080: 0872 3441 10db 1f40 d60d d640 d143 1541
00000090: 4362 0b3e dcde 803f 83ac 0ebf 25d5 48bf
000000a0: e489 aa3f 558c 10bf 0ae2 e540 1d21 85c0
000000b0: 9e9c fb40 2212 a840 7c16 6b3e b7b4 aebf
000000c0: 1b40 033e 4c58 9f3f b8cd 8a3f 865f 96c0
000000d0: 5d61 96bd 48f4 8bbe 3705 6f3f 4652 09c1
000000e0: 4980 ba3f c901 91be c584 6d3e 09dc 4140
000000f0: fab9 6dbe a58c 9c3f 720c 7441 0bca 2d40
00000100: b437 6f40 3d93 633f 4b11 f5be fe32 3b3f
00000110: ef3f d73f f0f7 c8be 2fb9 7b3f d9a2 e23f
00000120: f84a 55c0 8e3d 493f f4f4 3cbe 94fc 51bf
00000130: 956a 9d3d 7069 37bf 6356 1540 9a79 6940
00000140: 30ef 623f 1aa6 70c0 66f1 9a3f 7fb7 65be
00000150: 968b c3bb 25c2 86bf b9cd 2940 0831 4c40
00000160: 3080 b83f 81b5 1f40 3c64 c63e 1c34 0140
00000170: 8695 49bd d6a9 05bf e2f7 0041 f028 5d41
00000180: 52c9 aebf 0971 b8be 6f36 123e 8a73 80be
00000190: ea34 92be 244e 22bf 4d39 f9be ab2e 9a3f
000001a0: ab89 a63f 3f1d f83f 9f97 263f aa5e c33f
000001b0: 0a95 45bf fb33 a5be cff0 793e 07bb e73f
000001c0: 2eb4 dc40 0b2e 07bf d056 0b40 9555 6e40
000001d0: 25d8 e9bf 99ad c3be af5e 01bf 7467 b33f
000001e0: dcd0 f1be 72db 9940 7c13 923f f865 e0be
000001f0: a1d6 1c40 3d83 6d3f f8cc 573f 4b9d d93e
00000200: 9655 b7bf cee2 c93a 8360 66bf fce4 b2bf
00000210: b443 8a3f 576f 1dbf a8bb 82be fd04 43bf
00000220: bc52 cfbf 0886 1541 d512 89bf c009 ea3f
00000230: cc45 0340 e5a4 d0be 2ab2 e93f bca7 42bd
00000240: c6be 9c3f 61c6 f5bf 07a8 cb40 a367 7b41
00000250: 1a13 9bbb a73e a6bd 2878 683d 1d91 e5bc
00000260: 93ea 9b3c 634d d33c c351 b6ba 27d7 69bd
00000270: 3643 56bc ccab 54bd bd16 423c 8309 1ebb
00000280: 11db 1f3d 589e 2a3d 053c acbd 8a94 cc3c
00000290: d847 7fbc ab60 a9bd d1ad 4dbc b87d 16bd
000002a0: 3788 8abd 6931 e7bd 6631 17bc d434 37bd
000002b0: b29b a13c a042 8dbd a45f 3c3c 6cb2 f4bc
000002c0: bf98 52bd 2d81 783c a744 0c3a 86d3 073c
000002d0: 6d2e 83bd cf76 dbbd 1a2a babd 327d bebd
000002e0: 65b3 7abd bb5f 89bd 2c2a 113c 2fe7 d0bc
000002f0: df9d 3d3d 6695 32bd 7d7e bebd e2a3 ce3a
00000300: 0c23 c53c 7b1e 0abd f10c c1bc e399 86bb
00000310: 8335 113b b076 cb3c 99b5 c3bd 04e9 61bd
00000320: 8561 313d 20cb d1bd 99b7 263d 4924 dfbd
00000330: d33d acbd 58c2 efbb 4e22 39bb e9e5 2f3d
00000340: 8a73 d4bd c0fc 25bb 2ce6 08bb 937d 91bd
00000350: f18d b2bd 3838 d6bd dacd c8bd 20d5 afbd
00000360: 2c66 fa3c 63a5 1bbd ae8f de3c f6a3 eebd
00000370: eec3 39bd 469b 2abd 491f 1e3c e31e 243d
00000380: 656d 1e3d 7d13 003c 9d27 ed3c b753 8ebd
00000390: 0172 a73c 6256 d4bc 3456 fa3c 8a12 fa3c
000003a0: c45b 3ebc 193f 7bbc bc68 ddbd f95e 3c3c
000003b0: 08f1 e6bd 94e6 03be 818c c43d b041 79bc
000003c0: 3406 9abd 5d8b 70bc 2e57 523b b50f db3d
000003d0: 043b 04bd 4284 fabc 7b8d a9bd ec49 cabd
000003e0: d455 7fbd 2720 12bd 382a 2e3c 5bf8 77bd
000003f0: 15ce 1cbc 3895 623d fe6c aebc bd08 393d

fc2.bias f4 [148]
-0.28685486 0.048995763 -0.065674536 -0.118521646 -0.034708247 -0.00759057 -0.068386346 -0.22612365
-0.07561979 -0.35353085 -0.3613857 -3.7437196 -0.08010631 -0.072185494 -0.3471906 -0.27533486
0.013773626 -0.019696806 -0.046082046 -0.26237306 -0.3122676 -0.12145543 0.06331309 -0.32402998
-1.5704374 -0.332833 -0.063507915 -0.323699 -0.0021263699 -0.0610563 -0.2836976 -0.36543486
-0.059538312 -0.084301524 -0.08556394 -0.31651068 -0.30838507 -0.39304143 -0.08492818 -0.107526004
-0.09943454 -0.39113247 0.0379336 -0.26977333 4.6786304 0.034010112 -0.36363146 -0.112783946
-0.332294 -0.01686862 -0.25587654 -0.30078626 -0.060164087 -0.09025182 -0.04883293 -0.04917885
-0.35102963 -0.36495262 0.03208174 -0.3893153 -0.06919363 -0.030840049 -0.2898619 -0.32013908
-0.02411604 -0.30097264 -0.3077817 -0.3199808 -0.04198231 -0.11084361 -0.9231289 -0.24335372
-0.36127964 -0.02194054 4.1163836e-05 -0.0035509977 -0.07925389 -1.0554974 -0.33609897 -0.312784
-0.03718932 -0.002037763 -0.024812546 -0.29088387 -0.3342568 -0.32731384 -0.2555048 -0.09396001
-0.09230694 -0.32069498 -0.34355363 -0.09035834 -0.103114955 -0.24818 -0.2908986 -0.1076641
-0.04384517 -0.2581991 -0.096862145 -0.30883056 -0.11495969 -0.01573403 -0.397292 -0.31694594
-0.41397402 -0.27692878 -0.34324777 0.003226007 -0.384441 -0.36751953 -1.2873458 -0.015113762
-0.28508127 -0.07950055 -0.06795732 -0.121433504 -0.34910616 0.019043522 -0.3542345 -0.06365135
-0.32376942 0.051067453 0.34642467 -0.33536497 -0.37567204 -0.39691135 -0.40739748 -0.057535727
-0.31026116 -0.0794643 -0.28933772 -0.2973253 -0.04084719 -0.29126346 4.6859813 -0.06432008
-0.055105228 -0.101507895 -0.29735932 -0.08293161 -0.010668753 -0.08011838 -0.23924536 0.10834748
-0.017840575 -0.28611887 -0.3660855 -0.5701734
00000000: a4de 92be c8af 483d 5f80 86bd 7abb f2bd
00000010: 3c2a 0ebd 51ba f8bb 240e 8cbd f58c 67be
00000020: 8cde 9abd ff01 b5be 8c07 b9be 1a99 6fc0
00000030: c70e a4bd fdd5 93bd f7c2 b1be b1f8 8cbe
00000040: c6aa 613c 325b a1bc 87c0 3cbd c355 86be
00000050: 8ae1 9fbe a0bd f8bd 4baa 813d 42e7 a5be
00000060: 1804 c9bf 1669 aabe 7010 82bd e0bb a5be
00000070: 915a 0bbb 2c16 7abd d040 91be 471a bbbe
00000080: 72de 73bd 47a6 acbd 263c afbd b00d a2be
00000090: a6e4 9dbe ba3c c9be d3ee adbd 9836 dcbd
000000a0: 56a4 cbbd 8442 c8be 4360 1b3d bb1f 8abe
000000b0: 57b7 9540 304e 0b3d e72d babe 45fb e6bd
000000c0: 7022 aabe 0f30 8abc 4002 83be a800 9abe
000000d0: 9e6e 76bd f2d5 b8bd 0a05 48bd c36f 49bd
000000e0: 28ba b3be 12db babe 2568 033d 5654 c7be
000000f0: 64b5 8dbd 45a4 fcbc c768 94be 45e9 a3be
00000100: 008f c5bc 1619 9abe 9095 9dbe 86d4 a3be
00000110: a5f5 2bbd f901 e3bd 2d52 6cbf b831 79be
00000120: a5f9 b8be a6bc b3bc 55a7 2c38 dbb7 68bb
00000130: dd4f a2bd 8a1a 87bf 2a15 acbe 3925 a0be
00000140: d453 18bd fd8b 05bb ae43 cbbc bbee 94be
00000150: b523 abbe ae95 a7be 86d1 82be 1b6e c0bd
00000160: 6c0b bdbd 2232 a4be 43e6 afbe cb0d b9bd
00000170: ef2d d3bd e622 7ebe a9f0 94be ff7e dcbd
00000180: fe96 33bd ac32 84be a95f c6bd 0a1f 9ebe
00000190: fc6f ebbd a7e4 80bc db69 cbbe bd46 a2be
000001a0: 67f4 d3be 9cc9 8dbe 2cbe afbe 6b6b 533b
000001b0: 73d5 c4be 852b bcbe bfc7 a4bf b69f 77bc
000001c0: 2cf6 91be 2fd1 a2bd 352d 8bbd 21b2 f8bd
000001d0: 0bbe b2be 2901 9c3c 395e b5be a45b 82bd
000001e0: 1bc5 a5be 1b2c 513d 935e b13e f5b4 abbe
000001f0: 1658 c0be f737 cbbe 6796 d0be 95aa 6bbd
00000200: 8dda 9ebe 2ebe a2bd 1324 94be 063b 98be
00000210: 624f 27bd 7c20 95be 8ff3 9540 3fba 83bd
00000220: 05b6 61bd 5fe3 cfbd 7b3f 98be 0cd8 a9bd
00000230: fecb 2ebc 1b15 a4bd bcfc 74be 49e5 dd3d
00000240: 6626 92bc 2c7e 92be 8f6f bbbe e2f6 11bf

fc3.weight f4 [1, 148]
-4.493625 0.04785187 -0.0020480305 -0.012129186 0.020661462 -0.01592708 -0.09527298 -4.50243
0.022649197 -4.5220957 -4.565708 -19.2907 0.023121022 0.04655883 -4.7714677 -4.5435443
0.029593397 0.0043953406 -0.019986069 -4.632071 -4.531852 -0.0028162447 0.046287593 -4.5363646
14.95751 -4.964612 0.070590876 -4.6390824 0.02778909 0.017149465 -4.654346 -4.6681457
-0.028307248 0.030197 -0.014925983 -4.614644 -4.570962 -4.5307446 -0.008157563 -0.023175646
0.15634958 -4.6646466 0.014213084 -4.6600513 6.9896207 0.046144824 -4.691981 0.021307481
-4.47569 -0.00089294964 -4.5356083 -4.6533914 0.034045324 0.013461934 0.029624067 -0.0200652
-4.7831764 -4.618904 -0.008907463 -4.640382 -0.018877087 0.0014313237 -4.6574564 -4.6193476
-0.025256034 -4.6292276 -4.576668 -4.570374 -0.016603192 0.0018149214 -17.44442 -4.569903
-4.7105694 0.037875198 0.009106601 0.023231238 0.017167836 52.889282 -4.6553802 -4.6120806
0.0032700435 0.03298165 0.047986478 -4.481353 -4.8366847 -4.637782 -4.751822 0.038666297
-0.01743807 -4.587669 -4.5482345 -0.022575391 -0.0024303233 -4.531796 -4.520641 0.042987384
0.026315471 -4.5995426 -0.017160524 -4.622183 0.03982787 0.026650488 -4.8344326 -4.5386543
-4.475911 -4.6642284 -4.6811604 0.024874372 -4.5444446 -4.544207 -29.341997 -0.029565087
-4.53994 0.008133112 0.057533503 0.024467833 -4.626386 0.053834718 -4.560218 0.038463317
-4.6125855 0.001588636 -26.280092 -4.524061 -4.7266965 -4.6634088 -4.6687145 0.064422704
-4.8790183 -0.008882588 -4.677003 -4.643142 0.0035376034 -4.679926 6.3700576 0.025224742
0.027340364 0.023827273 -4.478306 -0.021326289 0.03439306 0.02041748 -4.6076202 7.7523475
-0.47108692 -4.615024 -4.604421 20.1275
00000000: c7cb 8fc0 5300 443d 4038 06bb 7eb9 46bc
00000010: 3a42 a93c 8279 82bc 7b1e c3bd e813 90c0
00000020: cf8a b93c 02b5 90c0 481a 92c0 5b53 9ac1
00000030: 4c68 bd3c 79b4 3e3d ddaf 98c0 b764 91c0
00000040: da6d f23c ca06 903b d3b9 a3bc ed39 94c0
00000050: ee04 91c0 bf90 38bb 0f98 3d3d e629 91c0
00000060: f651 6f41 1ade 9ec0 f391 903d 5d73 94c0
00000070: f2a5 e33c 097d 8c3c 67f0 94c0 7361 95c0
00000080: 9ae4 e7bc b35f f73c 1c8c 74bc 2aab 93c0
00000090: 5245 92c0 dcfb 90c0 4da7 05bc dada bdbc
000000a0: 1b1a 203e c944 95c0 ffdd 683c 241f 95c0
000000b0: f9aa df40 5b02 3d3d b524 96c0 078d ae3c
000000c0: da38 8fc0 d614 6aba b423 91c0 95e8 94c0
000000d0: 1c73 0b3d 728f 5c3c 2cae f23c c65f a4bc
000000e0: c80f 99c0 10ce 93c0 9cf0 11bc 027e 94c0
000000f0: 1fa4 9abc 419b bb3a e209 95c0 b2d1 93c0
00000100: bee5 cebc a222 94c0 1074 92c0 8140 92c0
00000110: 6b03 88bc a8e2 ed3a 2c8e 8bc1 a53c 92c0
00000120: fcbc 96c0 0623 1b3d da33 153c 704f be3c
00000130: 90a3 8c3c a08e 5342 e0f8 94c0 2a96 93c0
00000140: 3a4e 563b c417 073d 788d 443d 3e67 8fc0
00000150: 1fc6 9ac0 b668 94c0 ed0e 98c0 8d60 1e3d
00000160: 49da 8ebc 2fce 92c0 238b 91c0 07f0 b8bc
00000170: 0f46 1fbb 7904 91c0 17a9 90c0 8a13 303d
00000180: 8b93 d73c 742f 93c0 3a94 8cbc ece8 93c0
00000190: 8c22 233d 2052 da3c acb3 9ac0 a83c 91c0
000001a0: aa3a 8fc0 5c41 95c0 11cc 95c0 57c5 cb3c
000001b0: 176c 91c0 256a 91c0 69bc eac1 7b32 f2bc
000001c0: 3047 91c0 bf40 053c 40a8 6b3d c470 c83c
000001d0: 5b0b 94c0 cb81 5c3d 4eed 91c0 b68b 1d3d
000001e0: 4d9a 93c0 c739 d03a a13d d2c1 1cc5 90c0
000001f0: 1941 97c0 a53a 95c0 1c66 95c0 0df0 833d
00000200: eb20 9cc0 4688 11bc 02aa 95c0 9f94 94c0
00000210: 23d7 673b f4c1 95c0 83d7 cb40 1ea4 ce3c
00000220: e6f8 df3c 6a31 c33c 484e 8fc0 78b4 aebc
00000230: bddf 0c3d 8f42 a73c a071 93c0 3b13 f840
00000240: 4e32 f1be 47ae 93c0 6b57 93c0 1f05 a141
