demo/2_3_tran1_obs1/critic_2_42.pth (torch, 108592 bytes, 5 tensors)

fc1.weight f4 [148, 28]
0	0x412a60da	10.648645
1	0xc158c4a4	-13.548008
2	0xbf81519d	-1.0103031
3	0xc0726c28	-3.7878513
4	0x40ffea5e	7.9973593
5	0x40d00ed2	6.501809
6	0xbf7be983	-0.98403186
7	0xbec49cc5	-0.38400856
8	0x3fed1cfa	1.8524468
9	0xbe82dbaa	-0.25558215
10	0xbf4f1483	-0.80890673
11	0xbe29b9ee	-0.16574833
12	0xc00d9431	-2.21217
13	0xc0b034b9	-5.506436
14	0xc1926afd	-18.30224
15	0x3e7c34d2	0.24629524
16	0x41064fe4	8.394505
17	0xc01db156	-2.4639487
18	0x3e2e7082	0.17035106
19	0x3c15e991	0.009149925
20	0x3cedaa43	0.029011851
21	0x3dc4e178	0.09613317
22	0x407bf44f	3.9367864
23	0xc123a813	-10.228534
24	0xc102c32a	-8.172647
25	0xbfb6a79a	-1.4269898
26	0x3ec6f5f9	0.38859537
27	0x3f05e5e4	0.5230391
28	0xc08be34a	-4.3714952
29	0xc0e53254	-7.1623936
30	0xbe23b743	-0.15987878
31	0xc0da7ecd	-6.8279786
32	0xc0838a06	-4.1105986
33	0x3fcb58ca	1.5886471
34	0x3e02931c	0.1275143
35	0xbdeafade	-0.1147363
36	0xbd48ba60	-0.049005866
37	0xbd52290a	-0.05130867
38	0x3e5742e5	0.21021612
39	0xbeb6b626	-0.35685843
40	0xbe9ae42b	-0.30252203
41	0x3f78eeb8	0.97239256
42	0xc0fdd7bf	-7.932586
43	0x4143d3be	12.239195
44	0x413fdb68	11.991066
45	0xc0890670	-4.282036
46	0x3c0257a6	0.007955467
47	0xbe25bca9	-0.1618525
48	0xbdd977fb	-0.106185876
49	0x3da578a7	0.08079653
50	0xc0212d36	-2.5183845
51	0xc002cf39	-2.0438979
52	0xc0bad701	-5.8387456
53	0x403e7656	2.9759727
54	0x3ebd65d2	0.36991745
55	0xc00b7acb	-2.1793697
56	0xc02763b2	-2.61546
57	0xbfdabe7c	-1.7089381
58	0xbfd68df9	-1.6762077
59	0xbfadec12	-1.3587668
60	0xc0a3ccad	-5.118735
61	0x4076e33c	3.8576193
62	0x3f12469f	0.5713901
63	0xbe7ee45f	-0.24891804
64	0xbf056465	-0.52106315
65	0xbe6043f3	-0.2190092
66	0xbe115381	-0.1419201
67	0x3f1fca8e	0.6241845
68	0x3f03fcf0	0.51557827
69	0x3f9ab101	1.2085267
70	0xc0148875	-2.3208287
71	0x3fceb229	1.614812
72	0x40a48c6a	5.1421404
73	0xc1a85030	-21.039154
74	0xbd0c009f	-0.03418028
75	0xbd9695a9	-0.07352764
76	0xbdc4ffe8	-0.09619123
77	0x3d76e748	0.06027916
78	0x40fab6a9	7.8347974
79	0xc0e5a92b	-7.1769004
80	0xc0c1d245	-6.0569177
81	0xbeb5c547	-0.35502073
82	0xc0bc9294	-5.892893
83	0x4100473d	8.017392
84	0x4109e984	8.619511
85	0xc0ae9c42	-5.4565744
86	0x3fb5f3dd	1.4215046
87	0x40687fb2	3.632794
88	0xbf94e042	-1.1630938
89	0xc076fe0e	-3.8592563
90	0x3ee72e1e	0.45152372
91	0xbece0357	-0.40236923
92	0x3eb7d548	0.35904908
93	0x3eafd78e	0.34344143
94	0x3e74173e	0.23836991
95	0xbf14a201	-0.580597
96	0xbe0b4449	-0.13600267
97	0x3fb00bd5	1.3753611
98	0xc0dd355d	-6.912764
99	0x3ec8dd97	0.3923156
100	0x40a4e0ef	5.1524577
101	0x410ff3da	8.997034
102	0x3d8e2050	0.06939757
103	0x3db8fa39	0.09032101
104	0xba8c6ffb	-0.0010714525
105	0xbe3c8ccf	-0.18413089
106	0x41aea265	21.829294
107	0xc127698f	-10.463271
108	0xc11bf1c9	-9.74653
109	0x4131fbb7	11.123954
110	0xc0e92046	-7.2851896
111	0x40b7ce6c	5.743948
112	0x412317a0	10.193268
113	0xc13be31a	-11.742945
114	0x40277558	2.616537
115	0xc08aae18	-4.3337517
116	0x3fc0fcb3	1.5077118
117	0x40a223be	5.066863
118	0x3f19f5b1	0.6014052
119	0xbe193ae8	-0.14963877
120	0x3e2f2ed3	0.17107706
121	0x3e41aabb	0.18912785
122	0x3e6f97a0	0.23397684
123	0x3db15b62	0.08660008
124	0xc0b1b291	-5.5530477
125	0xc0b13ea5	-5.538897
126	0xc066c11d	-3.6055367
127	0x403d3ce6	2.956842
128	0xbf8d5a37	-1.1043156
129	0x417d0291	15.813127
130	0xbdd3d8e2	-0.103441015
131	0xbe26280a	-0.16226211
132	0xbc759d51	-0.01499112
133	0x3d0ea870	0.034828603
134	0x4152f36e	13.184431
135	0xc1819d05	-16.20167
136	0xc0118bd3	-2.2741592
137	0x3f9b5314	1.2134728
138	0x410c9be1	8.788056
139	0x3f498ec6	0.7873348
140	0x3e144fed	0.14483614
141	0xc01ca241	-2.4474032
142	0xbfbcb491	-1.4742604
143	0x3fbb588d	1.4636399
144	0x3ff2f431	1.8980771
145	0xbf744201	-0.95413214
146	0x3c9a1f65	0.018813798
147	0x3e2c5dd1	0.16832663
148	0xbd918e50	-0.07107222
149	0x3ec2a57e	0.38016886
150	0xbd684f1e	-0.056716077
151	0xbe068c45	-0.13139446
152	0xc02b2e73	-2.67471
153	0xc06eb554	-3.7298174
154	0xc0a78496	-5.234935
155	0x404bbf51	3.183552
156	0x3fc59365	1.5435606
157	0x41738a70	15.221298
158	0xbdcbd357	-0.09952419
159	0x3ca80f8e	0.02051523
160	0xbe14ba3c	-0.14524168
161	0x3e3cc37f	0.18433951
162	0x40200f6f	2.500942
163	0x3e26c1b6	0.16284832
164	0xc01ab57b	-2.4173267
165	0xbfb6aadc	-1.4270892
166	0xc0e41746	-7.127841
167	0xc08c620d	-4.386969
168	0xc030ef1a	-2.7645936
169	0x3ff56a7e	1.9173124
170	0x40084bbb	2.1296222
171	0x4088ed54	4.2789707
172	0xc02ae8f8	-2.6704693
173	0xbf7a8c44	-0.9787028
174	0xbd231c5b	-0.039821964
175	0xbd090823	-0.033455025
176	0x3f4cf07f	0.8005447
177	0x3d84826a	0.06470187
178	0xbd65b69b	-0.05608235
179	0x3e212952	0.15738419
180	0x40a04d4f	5.009437
181	0x4138de39	11.554254
182	0xc0d9349a	-6.787671
183	0x4150cdf6	13.050283
184	0xc132d5cd	-11.177197
185	0xbe69e1a1	-0.22839977
186	0xbc6364dc	-0.013879027
187	0xbe174ee1	-0.14776184
188	0xbe304754	-0.1721471
189	0xbc947ce1	-0.018125953
190	0xc11caf64	-9.79282
191	0x41318bcb	11.096629
192	0x4111db43	9.116031
193	0x403d869a	2.9613404
194	0xc0302e5a	-2.752829
195	0xbde56414	-0.11200729
196	0xc0bc8c32	-5.8921137
197	0x4083a2e6	4.113635
198	0x408b666c	4.3562527
199	0x3ff18502	1.8868716
200	0x3fe66663	1.7999996
201	0x409aa571	4.8326955
202	0xbe5c2d2f	-0.21501611
203	0xbe8abcc3	-0.2709714
204	0x3ee0bbe7	0.43893358
205	0xbddfbad1	-0.10924304
206	0x3f07962b	0.52963513
207	0x3f87e1a0	1.061573
208	0xc089324b	-4.2873893
209	0x410db619	8.856957
210	0x413ae76b	11.681499
211	0xbfcfb433	-1.6226867
212	0x3f941452	1.1568701
213	0x40f4e0a3	7.6524215
214	0xbddc9ac1	-0.107717045
215	0xbe27fe93	-0.16405706
216	0xbdbc7ff1	-0.092040904
217	0xbd979961	-0.074023016
218	0x410c08bc	8.752132
219	0x400a5611	2.161503
220	0x4009822f	2.1485708
221	0xc03a6209	-2.9122336
222	0x412a8af5	10.658925
223	0x411bbc65	9.733495
224	0x4023e103	2.5606086
225	0xbff7eb6d	-1.9368721
226	0xbedecc87	-0.43515417
227	0x40428a91	3.0397074
228	0x3ecf535a	0.4049328
229	0x412024c4	10.008976
230	0x3f75e8c8	0.9605832
231	0x3ec78dcb	0.38975367
232	0xbde7643a	-0.112984136
233	0xbf32bc3b	-0.69818467
234	0xbe5e95a9	-0.21736778
235	0x3e551fe3	0.20812945
236	0xbfccb74a	-1.5993435
237	0xc086a82d	-4.2080293
238	0x40c443bf	6.13327
239	0xbffcb1d8	-1.9741774
240	0x40e20353	7.062906
241	0xbfa82239	-1.3135444
242	0xbdc3e465	-0.09565047
243	0xbd4e4d54	-0.050366715
244	0xbd6e5bac	-0.058192894
245	0xbdfc68ad	-0.12324653
246	0x4147017b	12.437861
247	0xbf2d8f71	-0.67797
248	0x4102bf51	8.171708
249	0x4117373f	9.450988
250	0x4067b471	3.6203883
251	0x410a6d54	8.651691
252	0x40e38d2e	7.110984
253	0xc1922419	-18.267626
254	0x3fa3d765	1.2800108
255	0xbf93c658	-1.1544905

fc1.bias f4 [148]
0	0xc00eaee3	-2.2294242
1	0xbe0b7b39	-0.13621224
2	0xbe8c4f3b	-0.27404198
3	0xc063be0d	-3.5584748
4	0x3f5f3e11	0.8720408
5	0x3fb0debc	1.3817973
6	0xc077523b	-3.864394
7	0x3eacd817	0.33758613
8	0x400ec9ca	2.2310662
9	0xc00fcda4	-2.2469263
10	0xc00048c0	-2.0044403
11	0xbf950f30	-1.164526
12	0x3f395007	0.7238774
13	0xc00efbf8	-2.234129
14	0xbf9a5a2b	-1.2058767
15	0xc067a6a5	-3.6195462
16	0x3f8a7858	1.0817976
17	0xc00d485f	-2.2075422
18	0xc048f9fe	-3.1402583
19	0x40141d0d	2.314273
20	0xc01a6af4	-2.412778
21	0x3e62138d	0.2207777
22	0xc070324f	-3.7530706
23	0xbeb77086	-0.35828036
24	0x3d178dca	0.037000455
25	0x3f66b986	0.90126836
26	0xbfa77ecb	-1.3085569
27	0xc05634ea	-3.3469796
28	0xc004d0fd	-2.0752556
29	0x3e842211	0.2580724
30	0xbeeb58f6	-0.4596631
31	0xc00c349a	-2.1907105
32	0xc0558aab	-3.3365886
33	0x402b4b8d	2.6764863
34	0x406e0ae0	3.7194138
35	0xbf060fad	-0.5236767
36	0xbead5367	-0.33852693
37	0x3f35f8f6	0.7108301
38	0xc05edf34	-3.4823732
39	0xbf9631dc	-1.1733966
40	0xbe564094	-0.20923072
41	0x40342310	2.81464
42	0x40096d57	2.1472986
43	0xc056c4af	-3.3557546
44	0xbfbd5935	-1.4792849
45	0xbfb38283	-1.4024204
46	0x3ebcb9c4	0.36860478
47	0x4027c03a	2.6211076
48	0xc0dca736	-6.8954115
49	0xc066f3e2	-3.6086354
50	0xc01d61c3	-2.459092
51	0xbfd8301c	-1.6889682
52	0xbee96ce9	-0.45590904
53	0x3f9450f7	1.1587209
54	0xbf2b2eee	-0.66868484
55	0xc043d08f	-3.0596044
56	0x3fe92541	1.8214494
57	0xbfd24d4b	-1.6429838
58	0xc09fbcf5	-4.991816
59	0xc01f9dc3	-2.494004
60	0xbf2f0601	-0.68368536
61	0xc03bcba9	-2.9343054
62	0xc028a4bb	-2.6350543
63	0xbfc96960	-1.5735283
64	0x3fec8379	1.8477622
65	0xc020ad32	-2.510571
66	0xbef3dce0	-0.47629452
67	0x401fce86	2.4969802
68	0xc022f79f	-2.5463636
69	0xc0edf93d	-7.4366746
70	0xc09b7321	-4.857804
71	0xbf5411b0	-0.8283949
72	0x401a452b	2.4104717
73	0x40184bfc	2.3796377
74	0xbf7baf57	-0.9831442
75	0xbe99b0a9	-0.30017594
76	0xc0cc44dd	-6.383406
77	0xc046c535	-3.1057866
78	0xbebcf5b4	-0.36906207
79	0xc00607fd	-2.0942376
80	0x3f582f28	0.84446955
81	0xbfa0c4cd	-1.2560059
82	0x401289dc	2.2896643
83	0x3f71a08f	0.9438562
84	0xbeea473c	-0.45757473
85	0x400db28d	2.2140229
86	0xc00b61f3	-2.1778533
87	0xbf64c036	-0.8935579
88	0x3f2f7891	0.68543345
89	0xbfb796e5	-1.4342924
90	0xbf866491	-1.049944
91	0xbdcf6a39	-0.10127682
92	0xc0e9d3b8	-7.3070946
93	0x3f199a8d	0.6000145
94	0xbf07bbbb	-0.5302083
95	0x3d4d7028	0.05015579
96	0xbdfd1af6	-0.12358658
97	0xc04b43e9	-3.17602
98	0xbec127b4	-0.37725604
99	0x403c9876	2.9468055
100	0x3f3e890f	0.74427885
101	0xc03839b0	-2.878521
102	0xbe65091c	-0.22366756
103	0xc0055f27	-2.0839326
104	0x3fb6c932	1.428015
105	0x3ec574fe	0.3856582
106	0xc00ce7d4	-2.2016497
107	0xc0c02b13	-6.005258
108	0xbfd6e998	-1.6790037
109	0x403290b6	2.7900825
110	0xbfce86ff	-1.6134948
111	0xc087e1db	-4.2463202
112	0xbf9bd859	-1.2175399
113	0x3fcbe755	1.5929972
114	0x3f64042a	0.89068854
115	0xc02341a1	-2.5508807
116	0xc04d1e23	-3.2049644
117	0xc068d2be	-3.6378627
118	0x3f9e8b8b	1.2386335
119	0xbeb3e928	-0.35138822
120	0x3e1ef7bd	0.15524192
121	0x3d776ef0	0.060408533
122	0xbf2e9304	-0.6819308
123	0xbf0b7f3f	-0.5449104
124	0xc07c9c7f	-3.9470518
125	0xc0926a95	-4.5755105
126	0xbe110f13	-0.14165907
127	0xc02075f1	-2.5071986
128	0xc06dbece	-3.7147708
129	0x3be52612	0.0069930637
130	0x3f641c76	0.8910593
131	0xc0219749	-2.5248587
132	0xc00595b6	-2.0872626
133	0xbd9a389b	-0.07530328
134	0x3fc0f375	1.5074297
135	0xbd5b3b82	-0.053523548
136	0x3fa00747	1.2502221
137	0x3f98606e	1.1904428
138	0xbcf6c74b	-0.030124327
139	0xc0393050	-2.8935738
140	0x3ffe8151	1.9883214
141	0xbf8ada76	-1.0847919
142	0x3eb9b65d	0.36271945
143	0x3f67e426	0.905825
144	0x400189c8	2.0240345
145	0xbffe6a4e	-1.9876192
146	0xbf679668	-0.90463877
147	0xc0428ee8	-3.0399723

fc2.weight f4 [148, 148]
0	0x3ef29d4c	0.47385633
1	0x3e804940	0.25055885
2	0xbec0324b	-0.3753837
3	0xc0be787e	-5.9522085
4	0xc0bcb2d1	-5.896828
5	0x40917246	4.5451994
6	0xc00bd906	-2.185121
7	0x3ea91ccd	0.33029786
8	0x3fbdc954	1.4827065
9	0xc11703fc	-9.438473
10	0x3eafc93b	0.34333214
11	0x3fd4de98	1.663043
12	0xc0230818	-2.547369
13	0x3ed3b377	0.41347858
14	0xc0677495	-3.6164906
15	0xc051da54	-3.2789507
16	0xc0824acf	-4.071632
17	0x403b8cb2	2.9304624
18	0x3ef879ab	0.48530325
19	0x3f10d3b9	0.56573063
20	0x3f90c23e	1.1309278
21	0xbffb55ff	-1.9635619
22	0xbed6830e	-0.41896862
23	0xc0d6ff2d	-6.7186494
24	0xbe7176b8	-0.23580444
25	0xc13f5a5f	-11.959563
26	0x40e9f98c	7.3117123
27	0xc07ec5ef	-3.980831
28	0x3fb53d54	1.4159341
29	0xbff583db	-1.9180864
30	0x3fabdc5c	1.3426623
31	0x40f58d1f	7.6734767
32	0xbda5e04b	-0.08099421
33	0xbfaaca7a	-1.3343041
34	0xbff0d5d6	-1.8815258
35	0x4066c667	3.6058595
36	0x3fc26c03	1.5189213
37	0x3fdab805	1.7087408
38	0x40c2eb5d	6.091231
39	0x40e104f6	7.0318556
40	0x3f8dc1fc	1.1074824
41	0xc094eb28	-4.6537056
42	0x40d12a7c	6.536436
43	0x401ed293	2.4816024
44	0x4041d53a	3.0286393
45	0xc0601648	-3.50136
46	0x3f2a8739	0.66612583
47	0x3fd0a8f8	1.6301565
48	0xc0a43486	-5.1314116
49	0x3fd272b9	1.644126
50	0x406891ac	3.633891
51	0xbfda8b15	-1.7073694
52	0x40043f5a	2.0663667
53	0xc1256650	-10.337479
54	0x40a29bf5	5.0815377
55	0x400bd5eb	2.1849315
56	0xbf54e52f	-0.83162206
57	0xbfe6c352	-1.8028357
58	0x40a1c938	5.055813
59	0xbdb7be27	-0.089718156
60	0x409ede8c	4.9646664
61	0x4069f294	3.6554308
62	0x413c9abd	11.787778
63	0xc01029fa	-2.252562
64	0x404a79cf	3.1636846
65	0xbfc97e7a	-1.5741723
66	0x3ff6c9d7	1.9280347
67	0xc01f6b6e	-2.490932
68	0x3ecd6e23	0.4012309
69	0x402608ef	2.5942953
70	0xc0e7b7e9	-7.2412
71	0x408dcaa4	4.4309864
72	0xbfb1c2df	-1.3887595
73	0xbf91525b	-1.1353258
74	0xbf3e647f	-0.74372095
75	0x40c2d80d	6.0888734
76	0xbf68df8d	-0.9096611
77	0x40615bd6	3.5212302
78	0xbf2ec695	-0.6827176
79	0x407c4111	3.9414713
80	0xbfd0287a	-1.6262352
81	0xbfc5fd4e	-1.5467927
82	0xc10da8dd	-8.853726
83	0x41017803	8.0918
84	0xc0df61ba	-6.9806795
85	0xc054bce1	-3.3240283
86	0x402d70bb	2.7100055
87	0xbfa8403d	-1.3144604
88	0x3fe1b495	1.7633234
89	0x41d44e28	26.538162
90	0x3fe39e14	1.7782617
91	0x40b461a9	5.6369214
92	0xc0157b93	-2.3356674
93	0xbfd5b522	-1.6695902
94	0xc070e012	-3.7636762
95	0x3f38cef2	0.72190773
96	0x3f00d163	0.503195
97	0xc01974d1	-2.397755
98	0xbfec3a76	-1.8455341
99	0x3ec39574	0.3819996
100	0xbf3d9b70	-0.74065304
101	0x4097e89d	4.747145
102	0x40101b40	2.2516632
103	0xbc2fd841	-0.010732711
104	0x3f5a53e2	0.85284245
105	0xc0ab8361	-5.3597875
106	0x4067cd20	3.6218948
107	0xc0deeea3	-6.9666305
108	0x4034d489	2.825472
109	0xc0876336	-4.2308607
110	0x4052114d	3.282306
111	0xbfa96d94	-1.3236566
112	0x3f931cb0	1.149313
113	0xbf9da75a	-1.2316697
114	0x3f52c11d	0.8232592
115	0x41249f2f	10.288863
116	0x411bdf79	9.742059
117	0x4018f351	2.3898509
118	0xbe1ba5de	-0.15199992
119	0xc13e3d49	-11.889962
120	0xc005ab50	-2.088581
121	0xc0417e7a	-3.0233445
122	0xc0337ac0	-2.804367
123	0xbf9bd54b	-1.2174467
124	0xc02eacf7	-2.729307
125	0x409788ea	4.735463
126	0x40728cf2	3.7898526
127	0x402dbb27	2.7145479
128	0x409b6c41	4.8569646
129	0xc0b021cc	-5.5041256
130	0x3fbda845	1.4816977
131	0xc0fbddbf	-7.8708186
132	0x411c3130	9.762009
133	0x40e8473b	7.258695
134	0x3f0cbd3b	0.5497624
135	0xc0354701	-2.8324587
136	0xc08d2c8d	-4.4116883
137	0x3fd8073b	1.6877207
138	0x40041c0e	2.0642123
139	0x3fa6b6c2	1.3024523
140	0x3d4ca1d7	0.04995903
141	0x4070d8e1	3.7632372
142	0xc0a566ca	-5.1687975
143	0xbfadb03c	-1.3569407
144	0xbf20fbdd	-0.6288431
145	0xc09be653	-4.8718657
146	0xc0b40316	-5.6253767
147	0x3fbcca76	1.4749286
148	0xbd0f672d	-0.035010505
149	0x3ce4a9f2	0.027913067
150	0xbd6fdede	-0.058562152
151	0xb918b26a	-0.00014562314
152	0xbdc1a9a7	-0.09456187
153	0xbdd29579	-0.10282416
154	0xbc97a6a5	-0.01851208
155	0xbdcac589	-0.09900958
156	0xbde0e23d	-0.109806515
157	0x3c9a7676	0.018855315
158	0x3bcc37f4	0.006232256
159	0xbd5139ff	-0.0510807
160	0x3bff262f	0.0077865343
161	0xbdeb2aff	-0.1148281
162	0x3c17220b	0.009224425
163	0xbd8c9c14	-0.06865707
164	0xbd43eb68	-0.047831923
165	0xbc045b36	-0.008078387
166	0x3d61922d	0.055071045
167	0xbdc4703e	-0.09591721
168	0x3cbbb670	0.022914141
169	0xbdcacd8f	-0.099024884
170	0xbd4fff2d	-0.050780464
171	0x3d131c0c	0.03591542
172	0x3d298029	0.04138199
173	0xbd7fba37	-0.062433448
174	0xbd5f7541	-0.05455518
175	0xbd57ea01	-0.052713398
176	0x3c6e8b3e	0.014559565
177	0x3be90d32	0.0071121687
178	0x3b8e59a1	0.0043441807
179	0xbd1715e8	-0.036886126
180	0xbdf3acc2	-0.11898185
181	0xbd2b765d	-0.041860927
182	0xbcc774cb	-0.024347683
183	0x3d18b84d	0.037285138
184	0xbd3e1f31	-0.046416465
185	0x3d87c4c3	0.06629326
186	0xbda60141	-0.08105708
187	0xbacd7766	-0.0015675842
188	0x3d5d9e68	0.054106146
189	0xbdeec632	-0.116588965
190	0xbd16fc03	-0.03686143
191	0xbb72d876	-0.003705529
192	0x3b950f40	0.004548937
193	0xbd9d472e	-0.07679592
194	0x3cad9068	0.021187022
195	0xbdbf134a	-0.09329851
196	0xbd8bcbab	-0.06825956
197	0xbda621af	-0.081118934
198	0x3c8d1440	0.01722157
199	0xbd247b5e	-0.040156715
200	0xbd9919d0	-0.074756265
201	0x3d8967fc	0.067092866
202	0xbdb3f8b9	-0.087876745
203	0x3cdc9828	0.026928023
204	0xbac029f2	-0.0014660938
205	0xbb843c0d	-0.004035479
206	0x3c173618	0.009229206
207	0xbda6c06d	-0.08142171
208	0xbd07b6b7	-0.033133235
209	0xbd33123b	-0.043718558
210	0xbca859a1	-0.02055055
211	0xbdc92f70	-0.09823501
212	0x3be589bf	0.007004946
213	0xbcb899f7	-0.022534354
214	0x3cfc84c4	0.030825026
215	0xbd19a331	-0.037509147
216	0x3cd6d5a4	0.026224919
217	0x3c72f0af	0.014827891
218	0xbd39d5d6	-0.045369945
219	0xbc6a8925	-0.014314924
220	0xbd93e366	-0.07221107
221	0xbd04017d	-0.03222798
222	0x3c914740	0.01773417
223	0xbdf6b288	-0.12045771
224	0xbd8d5868	-0.06901628
225	0xbcf63a6c	-0.030057155
226	0x3d02951d	0.031880487
227	0xbba148e5	-0.00492202
228	0xbdcfdc8a	-0.10149486
229	0xbd382cb2	-0.0449645
230	0xbc9b83a8	-0.018983677
231	0xbd3f6a01	-0.046731953
232	0xbd937a40	-0.07201052
233	0x3d032dd6	0.032026134
234	0xbcb8dffe	-0.022567745
235	0xbda1c6d1	-0.07899249
236	0xbc57c7b2	-0.01317017
237	0xbdca5907	-0.09880262
238	0x3d2ccdd0	0.042188466
239	0xbc45c6e1	-0.012071342
240	0x3c94228d	0.018082881
241	0xbc9f8174	-0.019470908
242	0xbdb0ca1c	-0.08632299
243	0x3c630626	0.013856446
244	0xbc7a46cf	-0.015275671
245	0xbc1de58f	-0.009637251
246	0xbcc83f28	-0.024444178
247	0xbc857003	-0.016288763
248	0xbd6a03f6	-0.057132684
249	0xbd2b4714	-0.041815832
250	0xbc053377	-0.008129946
251	0xbd2a761e	-0.04161655
252	0x3c9863ab	0.018602213
253	0xbd7b5837	-0.061363425
254	0x3d8d2b3b	0.06893011
255	0xbd7e5d86	-0.06210091

fc2.bias f4 [148]
0	0x3e9cee0d	0.30650368
1	0xbd843e86	-0.06457238
2	0xbde11d4f	-0.10991918
3	0x3fe7a401	1.8096925
4	0xbfe6ff02	-1.8046572
5	0x3cccd487	0.025003685
6	0xbc1c4660	-0.009538263
7	0xbcf8cb1a	-0.030370284
8	0xbf3ee8f1	-0.7457419
9	0x3fd0736d	1.6285225
10	0xbedd729e	-0.43251508
11	0x3e534cfe	0.20634839
12	0x3f223f47	0.63377804
13	0x40a23d40	5.069977
14	0xbd8f63a2	-0.07001425
15	0x3d2990a2	0.0413977
16	0xbf9d89a4	-1.230763
17	0xbd85451a	-0.06507321
18	0xbd968fae	-0.073516235
19	0x3f33af46	0.7018932
20	0x3cf0316f	0.029320447
21	0xbd15326c	-0.03642504
22	0xbd97bbef	-0.07408892
23	0x40098f2a	2.149363
24	0x40622165	3.5332882
25	0x3f1998dc	0.5999887
26	0xbfa4b43e	-1.2867506
27	0x3f7b31b4	0.98122716
28	0x3f6fb010	0.93628025
29	0x3c587be1	0.013213129
30	0xbdcfa632	-0.10139121
31	0x3ef5e8a6	0.4802906
32	0xbe3ae657	-0.1825193
33	0x3fa0a23c	1.254951
34	0x3f84dada	1.0379288
35	0xbc820975	-0.01587365
36	0xbddf1839	-0.10893292
37	0xc007b99c	-2.1207037
38	0x3bd38dd4	0.006456116
39	0x3b3da345	0.0028936428
40	0x3f153c14	0.58294797
41	0xbd5d8226	-0.054079197
42	0x409a0750	4.8133926
43	0xbcc68816	-0.024234813
44	0x408634c0	4.193939
45	0xbcbdcdf5	-0.023169497
46	0x3cae1eb6	0.021254878
47	0xbc532e8b	-0.012889515
48	0xbfe4a72e	-1.7863519
49	0x3fb4c615	1.412295
50	0xbf3990bd	-0.7248648
51	0x3dfe0cd7	0.12404793
52	0xbd7480a1	-0.059692983
53	0x3f120e97	0.5705351
54	0x3fca8c7a	1.582412
55	0x3fe335de	1.7750814
56	0xbd88668e	-0.06660186
57	0x3fb29980	1.3953094
58	0xbdc4de26	-0.09612684
59	0x3f3db4b2	0.74103844
60	0xbf9dc0f0	-1.2324505
61	0x3eade681	0.33964923
62	0xbda56e45	-0.08077673
63	0xbd3d71ee	-0.04625123
64	0xbd8bbf92	-0.068236485
65	0x3cff771b	0.031184724
66	0x3fc56b02	1.5423281
67	0xbe714ff3	-0.23565654
68	0xbd1d6ee8	-0.038435847
69	0x40183fa9	2.3788855
70	0xbbe78da9	-0.0070664478
71	0x3f50c76d	0.815543
72	0xbc671451	-0.014103965
73	0xbdfc96a8	-0.12333423
74	0x3dfd2942	0.12361385
75	0xbdae273a	-0.085035756
76	0x3ff60abe	1.9222028
77	0x3c8bcff1	0.017066928
78	0xbd3a9dad	-0.045560528
79	0x3fb98829	1.4494678
80	0xbd2eef00	-0.042708397
81	0xbfcc9dd7	-1.5985669
82	0x3f1edfd7	0.620603
83	0xbdac3f2f	-0.08410489
84	0x3cb3283a	0.021869767
85	0xc01085b2	-2.25816
86	0x408bebe5	4.3725457
87	0x3cb374b2	0.02190623
88	0x3ff2c644	1.8966756
89	0xbcea2ead	-0.02858671
90	0xbd8aa406	-0.06769566
91	0x3cda1fba	0.026626457
92	0xbe05c88a	-0.13064781
93	0xbdf24b40	-0.11830759
94	0xbdab8780	-0.08375454
95	0x40858ef2	4.1736994
96	0xbd7ec267	-0.062197115
97	0xbcb7d088	-0.022438303
98	0x3f9394d8	1.1529799
99	0x39ba38eb	0.00035519092
100	0xbf4bed39	-0.7965885
101	0x3fe5f07e	1.7964017
102	0x3f7dcb10	0.99137974
103	0x3d48fec4	0.04907109
104	0xbd344d59	-0.044019077
105	0xbd3d6688	-0.04624036
106	0xbd95b603	-0.073101066
107	0x3ffb897a	1.965133
108	0x3f8c08ff	1.0940245
109	0x3c279d52	0.010230379
110	0xbf9ab28e	-1.208574
111	0x3c2edad9	0.010672295
112	0x3fd32bd0	1.6497746
113	0x3f27db6b	0.6556918
114	0xc04584e9	-3.0862372
115	0x3f1ddc4e	0.61664283
116	0xbf3fabe7	-0.7487168
117	0xbf85b6a5	-1.0446364
118	0x3fbe1eef	1.485319
119	0x3b659a9e	0.0035034786
120	0xbd66115c	-0.0561689
121	0xbe937a96	-0.28804463
122	0xbcca62de	-0.024705347
123	0x3f7f3a47	0.996983
124	0x4025d673	2.591214
125	0xbc5ea021	-0.013587982
126	0xbc36d919	-0.011160159
127	0xbdb4cb69	-0.0882786
128	0xbd8ee6b8	-0.069776
129	0x3fe32123	1.7744488
130	0x3f4c2ce2	0.79755986
131	0xbdc0d215	-0.0941507
132	0x3faa13f2	1.3287337
133	0xbdc71ab5	-0.09721891
134	0xbdf75f70	-0.1207875
135	0xbc9deaa2	-0.01927692
136	0xbdd34706	-0.10316281
137	0x40176119	2.3653014
138	0x401721bb	2.3614337
139	0x3fb2201c	1.3916049
140	0xbf7faad3	-0.9987003
141	0xbd0e7655	-0.03478082
142	0x3f2e09a5	0.67983466
143	0x3f926478	1.1436911
144	0xc00e4b3d	-2.2233422
145	0x3caeaad9	0.0213217
146	0x3c650dd8	0.013980351
147	0xc04cf70f	-3.2025793

fc3.weight f4 [1, 148]
0	0xc0073b98	-2.1130123
1	0x3d1a3580	0.037648678
2	0xbc348a8d	-0.011019361
3	0xc0466fd2	-3.100575
4	0xc2469d4c	-49.65361
5	0xc09d97e8	-4.9247932
6	0x3d3023a9	0.04300276
7	0xbb41416a	-0.0029488453
8	0xc212d5c7	-36.708767
9	0xc08a5ba4	-4.3236866
10	0x41a01e18	20.014694
11	0xc086fa65	-4.2180657
12	0xc023aa9d	-2.5572884
13	0x4120ef2e	10.0583935
14	0x3b7f3e26	0.0038946955
15	0xc284ef44	-66.467316
16	0xc0ab9c3a	-5.3628206
17	0xbd09dd2b	-0.033658188
18	0x3c3753bc	0.011189397
19	0xc01cb65d	-2.4486306
20	0xc042702d	-3.0380967
21	0x3c95a36a	0.018266398
22	0x3b431989	0.0029769859
23	0xc0407558	-3.007162
24	0x4184a1c8	16.578995
25	0xc0603288	-3.5030842
26	0xc220909e	-40.141228
27	0xbfbef303	-1.4917911
28	0xc02f1a36	-2.7359748
29	0xbc0fe31c	-0.008782174
30	0x3d32f193	0.043687414
31	0xc062fec7	-3.5468004
32	0xc0ecd106	-7.4005156
33	0xc14199d9	-12.10006
34	0xc04508a8	-3.0786533
35	0x3d07e4e0	0.033177257
36	0x3c75a863	0.01499376
37	0x4225a8cd	41.414845
38	0x3b54283e	0.003237262
39	0x3cc431c9	0.02394952
40	0xc01f2eb4	-2.4872255
41	0xbd091015	-0.033462603
42	0x421dfe2c	39.498215
43	0x3d0ffaca	0.03515128
44	0x40c03eb8	6.007656
45	0xc02590c8	-2.5869617
46	0x3d4e5103	0.050370228
47	0xbbd2c32c	-0.0064319577
48	0xc2502960	-52.040405
49	0xbfbfb64f	-1.4977511
50	0xc07fe1c8	-3.9981556
51	0xc0123873	-2.2846954
52	0xbc9a0900	-0.01880312
53	0x4187ce44	16.975716
54	0xc00b8959	-2.180258
55	0xbfd4ffeb	-1.66406
56	0x3cb56706	0.022143852
57	0xc039d5b1	-2.9036677
58	0xbcbdabc2	-0.02315319
59	0xc01413e9	-2.3137152
60	0xc04d80c1	-3.2109835
61	0xc1bbdc98	-23.482712
62	0x3bc2fea2	0.0059507648
63	0x3c7ae9f8	0.015314572
64	0x3cb9eb33	0.02269516
65	0xbc229519	-0.009923243
66	0xc16e6a0f	-14.900893
67	0xc0cc5094	-6.384836
68	0x3cbbe628	0.022936895
69	0xc03c4c8c	-2.942172
70	0xbc758bb9	-0.014986926
71	0xbf61f5b9	-0.8826557
72	0x3cd57b0b	0.026059648
73	0x3d064d6d	0.032788683
74	0xbf91a102	-1.1377261
75	0xbb9370e2	-0.0044995407
76	0xc034b86f	-2.823757
77	0x3d052ef6	0.03251549
78	0xbcb96421	-0.022630753
79	0xbf94547d	-1.1588284
80	0xbcc46533	-0.023974037
81	0xc0aa439c	-5.320753
82	0x412a2a75	10.6353655
83	0x3cf5ab96	0.029989045
84	0x3d2c4567	0.042058375
85	0xc08ce843	-4.4033523
86	0x40cb0407	6.3442416
87	0xbd23b7fa	-0.039970376
88	0x420e360d	35.552784
89	0x3b89a008	0.0041999854
90	0x3d184103	0.037171375
91	0xbbecb01a	-0.0072231414
92	0xbcfa0512	-0.030519996
93	0x3d280e0e	0.04102903
94	0x3c4ea0fa	0.012611622
95	0x40e46b68	7.138111
96	0xbc34d288	-0.011036523
97	0x3c38c3a5	0.011277114
98	0xc01c6546	-2.4436812
99	0x3ce5dcef	0.02805945
100	0xc23472ee	-45.112236
101	0xbfef748e	-1.8707445
102	0xc0379686	-2.8685622
103	0xbc9a68b2	-0.01884875
104	0xbfa0e1a4	-1.256886
105	0xc033d62a	-2.8099465
106	0x3b5f7cf3	0.0034101575
107	0xc03d93e2	-2.962151
108	0xc047195d	-3.110923
109	0x3b3ebe93	0.002910529
110	0xc101feea	-8.124735
111	0x3ba90bcc	0.005158877
112	0xbfc5ec63	-1.5462765
113	0xc02774f3	-2.616513
114	0xc1e6a36f	-28.829802
115	0xbfa247f4	-1.2678208
116	0xc268e209	-58.220737
117	0xc103e725	-8.243932
118	0xbffb60c7	-1.9638909
119	0x3c484a1f	0.012224703
120	0xbc6e931d	-0.014561442
121	0xc09e231d	-4.9417863
122	0x3d0b916c	0.034074232
123	0xbf6d3af1	-0.9266806
124	0x41770ce6	15.440649
125	0x3b1c33bb	0.0023834545
126	0xbca98a05	-0.020695696
127	0xbd4d03c9	-0.050052438
128	0xbce12905	-0.02748538
129	0xc02393d2	-2.5558972
130	0xc01985c1	-2.3987887
131	0x3c4cb46b	0.012494187
132	0xc2708de7	-60.138577
133	0xbcf0a5b5	-0.02937589
134	0x3ca45fa7	0.020065142
135	0xbca37dd7	-0.019957466
136	0x3d10e149	0.0353711
137	0xbff38c04	-1.9027104
138	0xbf92bded	-1.1464211
139	0xbfd2c533	-1.646643
140	0xc11cd590	-9.802139
141	0xbac88135	-0.0015297296
142	0xc02a2d92	-2.6590314
143	0xc09e6751	-4.950112
144	0xc1512658	-13.071861
145	0x3d34effd	0.044174183
146	0xbcc3fbac	-0.023923717
147	0xc10a8f20	-8.659943
