demo/4_1_1tran2_3_act2/actor_17.pth (torch, 83538 bytes, 6 tensors)

fc1.weight f4 [128, 22]
0	0x3f441507	0.76594585
1	0x3e859803	0.26092538
2	0xbe0ac8a8	-0.13553107
3	0x3e10b7c9	0.14132608
4	0xbef188ad	-0.47174588
5	0xbe3d8d72	-0.18510988
6	0x3bafeca8	0.005368788
7	0xbe0360af	-0.1282985
8	0x3d38ddc0	0.045133352
9	0xbd5b79e1	-0.05358303
10	0xbe4ac71f	-0.19802521
11	0x3db5d91d	0.08879302
12	0x3f04b929	0.5184503
13	0xbf7a385e	-0.9774226
14	0x3e97b7b8	0.29632354
15	0xbe83565b	-0.25651821
16	0x40134087	2.3008134
17	0xbf6c3b47	-0.9227795
18	0x3d689904	0.056786552
19	0xbd9c9ec8	-0.076474726
20	0x3e5728ba	0.2101163
21	0x3e3b2efa	0.18279639
22	0xbf39cc9d	-0.7257784
23	0xbe20a993	-0.15689687
24	0xbed62f28	-0.41832852
25	0x3ec068be	0.37579912
26	0xbda49221	-0.080356844
27	0x3f372266	0.7153686
28	0xbd5ad99f	-0.053430196
29	0xbd695398	-0.056964487
30	0xbdfc352f	-0.123148315
31	0x3cb205ce	0.021731284
32	0xb9e653eb	-0.00043931542
33	0x3d3faa5a	0.04679332
34	0xbdaf05f6	-0.08546059
35	0xbfef0a5b	-1.8675035
36	0xbf460e7b	-0.77365845
37	0xbd70517b	-0.058671456
38	0x3f466a8f	0.77506346
39	0xbdc96627	-0.09833937
40	0x3e02bf02	0.12768176
41	0x3e0d0210	0.13770318
42	0xbe3e9dbe	-0.18614861
43	0x3db66de5	0.089076795
44	0x3eb14aad	0.34627286
45	0xbe4bf93b	-0.19919293
46	0x3cc50829	0.024051743
47	0xbec513a4	-0.38491547
48	0xbdcc560e	-0.09977351
49	0xbf20c7d9	-0.62804943
50	0xbd3d85eb	-0.046270292
51	0xbd3ed9c8	-0.04659441
52	0xbda913fb	-0.08255764
53	0xbc07ccb0	-0.008288547
54	0xbda58b6c	-0.08083233
55	0x3e1355a7	0.14388143
56	0xbee28be8	-0.44247365
57	0xbe3ca5e6	-0.1842266
58	0x3f82371b	1.0173067
59	0xbfa88b24	-1.3167462
60	0xc00d4315	-2.2072194
61	0xbe527225	-0.20551355
62	0x3e381ee0	0.17980528
63	0x3e2d50b3	0.16925316
64	0x3d20c10d	0.039246608
65	0xbdaf441f	-0.08557915
66	0x3d86ada8	0.06576091
67	0x3dd906cd	0.10597
68	0xbe7d196a	-0.24716726
69	0x3e00bfc9	0.1257316
70	0x3e42a9fa	0.19010153
71	0x3df4469f	0.119275324
72	0xbdb3c3a0	-0.08777547
73	0xbe20412d	-0.15649863
74	0x3cb4c998	0.022068784
75	0x3c862a9f	0.016377745
76	0x3dd1298f	0.10213005
77	0x3d8cc1fc	0.06872937
78	0xbf85be5c	-1.0448718
79	0xbeb67821	-0.35638526
80	0xbd9d4f07	-0.07681089
81	0x3f415e01	0.75534064
82	0x3f8f8aea	1.1214268
83	0x3f50aeab	0.8151652
84	0x3e481b65	0.195417
85	0xbcd9513f	-0.026527999
86	0x3e29b369	0.16572346
87	0xbd7deb87	-0.061992195
88	0xbefd09ab	-0.4942144
89	0x3ecce36a	0.40017253
90	0xbb2b474f	-0.0026135033
91	0x3ea880d2	0.32910782
92	0xbb9e4f3c	-0.004831223
93	0xbf0d2e2e	-0.5514859
94	0xbdb14e0f	-0.086574666
95	0xbc2c953b	-0.010533626
96	0xbdef7c25	-0.116936006
97	0xbdfa021c	-0.122074336
98	0x3e0fd4f9	0.14046086
99	0xbc381f3e	-0.0112379175
100	0xbee6dc7c	-0.4509009
101	0xbf2b92f6	-0.6702112
102	0x3e4bd67b	0.19906037
103	0xbf6491ac	-0.8928478
104	0x40189568	2.384119
105	0x3ed48307	0.41506216
106	0x3dadafff	0.08480834
107	0xbd8420e0	-0.06451583
108	0xbe1788d2	-0.14798287
109	0xbd938519	-0.07203121
110	0x3b62460a	0.003452661
111	0xbdd2c000	-0.10290527
112	0xbe7a5c17	-0.24449192
113	0xbfb2d5c3	-1.3971485
114	0xbcdeeba9	-0.02721198
115	0xbf70a6c6	-0.94004476
116	0x3d1193c2	0.035541303
117	0xbcf0e4a6	-0.029405903
118	0xbd575c75	-0.05257841
119	0x3d48adf9	0.04899404
120	0x3db9288d	0.090409376
121	0xbe00135e	-0.12507388
122	0x3e0a140b	0.13484208
123	0xbef6327b	-0.4808539
124	0xbf22d8a5	-0.63611823
125	0x3ef8890d	0.4854206
126	0x3ff23819	1.892337
127	0x3e4fbb46	0.20286283
128	0x3d7923ed	0.060825277
129	0xbdaaa70d	-0.08332644
130	0x3e89348a	0.26797897
131	0x3e2b4e02	0.16728976
132	0x3ee99b47	0.4562628
133	0x3efcf3a7	0.49404642
134	0x3d2eb8dd	0.042656768
135	0x3e2532ed	0.16132708
136	0xbda23b16	-0.07921426
137	0xbe99efa9	-0.3006566
138	0xbd52e2d1	-0.05148584
139	0xbcb89bc9	-0.022535222
140	0x3ca49447	0.020090235
141	0xbca90642	-0.020632867
142	0x3cf5e29a	0.030015279
143	0x3de6b69a	0.11265297
144	0x3d943a1f	0.07237648
145	0xbfa00ad4	-1.2503304
146	0x3ec4687a	0.3836096
147	0x3d902600	0.07038498
148	0xc032f195	-2.795995
149	0xbfd269d8	-1.6438551
150	0x3e28fc85	0.16502579
151	0x3e6d7ddd	0.23192544
152	0xbe60c304	-0.21949393
153	0xbe65e0ba	-0.22449008
154	0xbedf0205	-0.43556228
155	0x3c938ddc	0.01801198
156	0x3de9c684	0.11414817
157	0x3ec1f0f1	0.37879136
158	0xbe026b88	-0.12736332
159	0xbf87ceae	-1.0609949
160	0xbc815649	-0.015788214
161	0x3afefe5d	0.0019454468
162	0xbd28178d	-0.041038085
163	0xbd0de6df	-0.034644004
164	0x3d3599e5	0.04433622
165	0x3c558a66	0.013033485
166	0xbf3bd6f7	-0.73374885
167	0x3f26c61d	0.65146047
168	0xbdd8a850	-0.10578978
169	0x3eab1053	0.33410892
170	0x4038c54b	2.8870418
171	0xbe0f7bf1	-0.14012124
172	0x3e150aa9	0.14554848
173	0xbe2b2453	-0.16713075
174	0xbe1146be	-0.14187142
175	0xbd2e3443	-0.04253031
176	0x3ed1221b	0.40846333
177	0x3cb3a997	0.021931453
178	0xbe5ae690	-0.21377015
179	0xbec2afbb	-0.38024697
180	0x3d5d0ad8	0.05396542
181	0xbda35198	-0.07974547
182	0xbd5e60cb	-0.054291528
183	0xbc596908	-0.01326967
184	0x3e27c625	0.1638418
185	0x3d278488	0.040897876
186	0x3d40d97d	0.047082413
187	0xbe144bfe	-0.14482114
188	0xbf01936e	-0.50615585
189	0xbe962be7	-0.2933037
190	0x3d162acc	0.036661908
191	0x3f5e8101	0.86915594
192	0x3f98d40e	1.1939714
193	0x3fb0333b	1.3765634
194	0x3d9b76f3	0.07591047
195	0xbe6d20e0	-0.23157072
196	0xbd55a98b	-0.052163642
197	0x3d3ddd3d	0.046353567
198	0x3f0a5456	0.54034936
199	0x3e6f7bc9	0.23387064
200	0xbe1d801f	-0.15380906
201	0xbd929216	-0.0715677
202	0xbd38f093	-0.045151304
203	0x3e1aa827	0.15103208
204	0x3d70802a	0.058715977
205	0xbcd7415a	-0.02627628
206	0x3e0c0a9d	0.13675924
207	0xbdc1f04a	-0.094696596
208	0x3e12c5ce	0.14333269
209	0xbc28b9e2	-0.010298224
210	0xbee59008	-0.4483645
211	0x3f7285cc	0.9473541
212	0xbc72382a	-0.014783898
213	0xbfcda69a	-1.6066468
214	0xbf03c08c	-0.5146568
215	0x3f828d57	1.0199383
216	0x3e12b222	0.14325765
217	0x3d002748	0.03128746
218	0x3d335e53	0.043791126
219	0xbe438376	-0.19093117
220	0x3eb9200c	0.36157262
221	0x3e0af0a0	0.13568354
222	0xbefb7767	-0.49114534
223	0x3d672779	0.05643413
224	0x3e20c79d	0.15701146
225	0xbd84e176	-0.06488316
226	0xbc5f2b62	-0.013621183
227	0xbd0544d5	-0.032536346
228	0x3d920ee2	0.07131745
229	0x3c8b171b	0.016978791
230	0xbdb08851	-0.0861975
231	0xbcd030f1	-0.025413962
232	0x3c3a4340	0.011368573
233	0x3edc4ed6	0.43028897
234	0xbf74aba6	-0.95574415
235	0xbf6d50f9	-0.9270168
236	0x3e8b35b6	0.27189416
237	0x3f9e7604	1.2379766
238	0xbe0a6abf	-0.13517283
239	0xbcf656c8	-0.030070677
240	0xbd27882b	-0.040901344
241	0x3df06da6	0.11739664
242	0x3e284193	0.16431265
243	0x3ec2f0a5	0.38074222
244	0xbe38aea6	-0.18035373
245	0x3ee63fdd	0.449706
246	0xbe4b6415	-0.19862397
247	0x3ec63e66	0.3871948
248	0x3d3aa421	0.04556668
249	0xbd4f83e7	-0.0506629
250	0xbd5ce010	-0.05392462
251	0xbb7b30dd	-0.0038328685
252	0x3d87b156	0.06625621
253	0x3e00cdb0	0.12578464
254	0x3f82d5c8	1.0221491
255	0x3f20b3e1	0.62774473

fc1.bias f4 [128]
0	0x3d18a782	0.037269123
1	0xbd3df933	-0.046380233
2	0x3dac96b3	0.08427181
3	0x3ef6fae3	0.48238286
4	0x3d15fd56	0.036618553
5	0x3dd9d3d1	0.10636104
6	0xbca8b56f	-0.020594327
7	0x3edd193e	0.4318332
8	0x3f0439aa	0.5165049
9	0x3e57b1f5	0.21063979
10	0x3e4d3649	0.2004024
11	0x3da39b1d	0.0798857
12	0x3d920fd0	0.07131922
13	0x3d75bc33	0.059993934
14	0x3e31c700	0.17361069
15	0xbe88cb55	-0.2671763
16	0xbc82e497	-0.01597814
17	0x3f234f56	0.6379293
18	0x3f02608a	0.50928557
19	0xbdacfe95	-0.08446995
20	0x3d0a115a	0.033707954
21	0x3e1ee0af	0.15515397
22	0xbe252fe7	-0.16131555
23	0x3d1dfbfe	0.038570397
24	0xbe4df165	-0.20111616
25	0x3d4fb952	0.050713845
26	0xbb98b37f	-0.0046600695
27	0x3da017b1	0.07817019
28	0x3edd8ce2	0.43271548
29	0x3ea01b9a	0.31271058
30	0x3e09434d	0.1340458
31	0x3e516517	0.20448719
32	0xbe06ac2c	-0.13151616
33	0x3da4610b	0.08026322
34	0x3e816ced	0.25278416
35	0x3eb212cb	0.34779963
36	0xbe6b417b	-0.22974198
37	0x3ee70ed2	0.45128495
38	0x3d4ca771	0.049964372
39	0x3ebf89ed	0.37409917
40	0x3cb9d173	0.022682881
41	0xbd78082a	-0.06055466
42	0x3ef4e98b	0.4783443
43	0x3e5badae	0.21452972
44	0x3efbca32	0.491777
45	0x3d795bc5	0.060878534
46	0x3e9e2881	0.30890277
47	0xbda1b7ff	-0.078964226
48	0x3d7ee088	0.06222585
49	0x3e13e1f0	0.14441657
50	0x3e51262f	0.20424722
51	0x3f11f182	0.57009137
52	0x3e623dc4	0.22093874
53	0x3e2ab391	0.16670062
54	0x3edbe01a	0.42944413
55	0x3eb27391	0.34853795
56	0x3ea5d221	0.32386878
57	0x3ee2c283	0.44289026
58	0x3dc829a5	0.09773568
59	0xbe5a32fd	-0.21308513
60	0xbe0071cc	-0.1254341
61	0x3e9f8052	0.31152588
62	0x3ddb32ce	0.107030496
63	0xbc6a6fce	-0.014308883
64	0xbe327a3c	-0.17429441
65	0xbd8c2b8f	-0.06844246
66	0xbe1ac320	-0.15113497
67	0x3edb0c8e	0.42783016
68	0x3e05d6ee	0.1307027
69	0x3f099db3	0.53756255
70	0x3e09c5c4	0.13454348
71	0x3e8a6c01	0.27035525
72	0x3f0af749	0.5428358
73	0xbea40a53	-0.32039127
74	0x3cba9bed	0.02277943
75	0xbe107860	-0.1410842
76	0x3ea152f7	0.3150861
77	0xbdfebc48	-0.124382555
78	0xbddad788	-0.106856406
79	0x3d560a87	0.052256133
80	0xbe724dc2	-0.23662475
81	0x3ca2e557	0.019884748
82	0x3d432009	0.047637973
83	0x3ceaefc3	0.02867878
84	0x3e739167	0.23785935
85	0x3dad7d3c	0.08471152
86	0x3ed8f55b	0.4237469
87	0xbdef6af9	-0.11690325
88	0x3ebed1aa	0.37269336
89	0x3e8c5b51	0.2741342
90	0x3ed5c411	0.4175115
91	0x3a9a35d4	0.001176531
92	0x3e220e93	0.15825872
93	0x3da75f96	0.081725284
94	0xbdd0e811	-0.10200513
95	0xbeb919c7	-0.3615248
96	0x3cf78e54	0.030219235
97	0x3e29b9a6	0.16574726
98	0xbeea143a	-0.45718557
99	0xbcd11401	-0.025522234
100	0x3ee0ca9c	0.4390458
101	0xbec40bd4	-0.38290274
102	0x3e032af7	0.12809359
103	0x3e18a92a	0.14908281
104	0x3d65d789	0.056113753
105	0xbea326ac	-0.31865442
106	0x3e142ec9	0.14470972
107	0xbe04a943	-0.12955193
108	0xbcf87cb6	-0.030332904
109	0x3e87dff2	0.26538044
110	0x3eb9266b	0.36162123
111	0xbd6d2fb0	-0.057906806
112	0x3daeefcb	0.08541831
113	0x3eeac799	0.45855406
114	0x3eec4328	0.46144986
115	0xbe18c3c1	-0.14918424
116	0x3c90d6fa	0.017680634
117	0x3e85bddb	0.2612141
118	0x3db5b83e	0.08873032
119	0x3d89ce70	0.06728828
120	0x3e1d9a95	0.15391
121	0x3e316d97	0.17326961
122	0x3d98824c	0.07446727
123	0xbdbb7a49	-0.091541834
124	0x3e9ba9c2	0.30402952
125	0xbe853662	-0.26018053
126	0xbe9e653a	-0.30936605
127	0x3cbb34c5	0.02285231

fc2.weight f4 [128, 128]
0	0xbd976db9	-0.07393975
1	0xbd2bafd1	-0.04191572
2	0x3e1e3d35	0.15453036
3	0xbf2656dc	-0.64976287
4	0x3e41cb2b	0.18925159
5	0x3f38eb6a	0.72234213
6	0x3f2a7193	0.6657955
7	0xbdce9595	-0.10087124
8	0xbf0c4f1b	-0.54808205
9	0x3b23e680	0.0025009215
10	0xbf205a04	-0.6263735
11	0x3e272eb8	0.16326416
12	0x3eb5001b	0.35351643
13	0xbf8cf614	-1.1012597
14	0x3f95edde	1.1713216
15	0xbf02bc01	-0.5106812
16	0x3f061c61	0.5238705
17	0x3f6e414d	0.9306839
18	0xbed78d09	-0.4209979
19	0x3e564fc1	0.20928861
20	0xbe0f1b14	-0.13975173
21	0xbe696503	-0.22792439
22	0xbf019611	-0.5061961
23	0x3f71dafc	0.9447477
24	0x3ecec758	0.40386462
25	0x3f6f41b2	0.9345962
26	0x3eae832f	0.3408446
27	0x3d700c02	0.0586052
28	0x3defe0ad	0.117127754
29	0xbf0b199f	-0.5433597
30	0xbfe29cbf	-1.7704085
31	0xbeef2839	-0.46710375
32	0x3f13cb75	0.57732326
33	0x3f49ab96	0.78777444
34	0x3e2bcc38	0.16777122
35	0xbf1c03f5	-0.6094354
36	0x3e4c3391	0.19941546
37	0xbd6940f6	-0.056946717
38	0x3eae7b50	0.34078455
39	0x3e38c3e1	0.18043472
40	0xbe3d2376	-0.18470559
41	0xbea085e8	-0.31352162
42	0xbe629a25	-0.22129114
43	0xbfadf95c	-1.3591723
44	0xbf21c02c	-0.63183856
45	0xbf309df4	-0.6899102
46	0xbe27b894	-0.16379005
47	0xbd7bf018	-0.061508268
48	0x3e20a780	0.15688896
49	0xbd11aba6	-0.035564087
50	0xbdf0d5f1	-0.11759556
51	0xbe1690c5	-0.14703663
52	0xbf001589	-0.5003286
53	0xbe528fc2	-0.20562652
54	0xbe02e4a0	-0.12782526
55	0xbe581b0e	-0.2110407
56	0x3ed83fe6	0.4223625
57	0xbf2d1c82	-0.67621624
58	0xbe0937ac	-0.13400143
59	0xbf4ec1da	-0.80764544
60	0xbfa828e1	-1.3137475
61	0xbe59b94e	-0.21262094
62	0xbe66868e	-0.22512266
63	0x3dcc9fb2	0.09991397
64	0x3f000734	0.5001099
65	0x3e3ad01d	0.18243451
66	0x3e4a74e8	0.19771159
67	0xbdd08eb8	-0.101834714
68	0x3ff29576	1.8951862
69	0xbfac085a	-1.3440049
70	0xbe9801ac	-0.29688776
71	0xbe07d4f8	-0.13264835
72	0xbf3ee1e6	-0.74563444
73	0x3e783a4d	0.2424099
74	0x3e875334	0.26430666
75	0xbebc774c	-0.36809766
76	0xbe52e572	-0.20595339
77	0x3ee94b37	0.45565197
78	0xbe7c1a71	-0.24619462
79	0xbf597f68	-0.8496003
80	0x3b8330ff	0.0040036435
81	0xbe964cc2	-0.29355437
82	0x3ec708ec	0.38873994
83	0xbfd44277	-1.6582783
84	0x3cf037df	0.029323516
85	0xbe926863	-0.28595266
86	0x3f133c98	0.57514334
87	0xbf715ab7	-0.94279045
88	0xbe3670ae	-0.17816421
89	0xbf06394c	-0.5243118
90	0xbeb3c3a9	-0.35110214
91	0x3ed3e883	0.4138833
92	0xbdda6c2f	-0.10665166
93	0x3fc2668a	1.5187542
94	0x3f1f7b3a	0.62297404
95	0x3f8a3df2	1.0800154
96	0xbee19f6e	-0.44066948
97	0x3e06b03e	0.13153169
98	0x3e3e4af3	0.18583278
99	0x3eacd8cf	0.33759162
100	0xbdb931f4	-0.09042731
101	0xbee7f372	-0.45302922
102	0xbf873567	-1.0563172
103	0xbf383cee	-0.7196797
104	0x3f35d374	0.71025777
105	0x3f02919f	0.5100345
106	0xbf03ceec	-0.5148761
107	0xbe8032ae	-0.25038666
108	0xbe95a1ec	-0.292251
109	0xbdae12e1	-0.084996946
110	0x3e3cf9fd	0.18454738
111	0x3e945abf	0.28975484
112	0x3d0d4d6d	0.034497667
113	0x3e8dae2a	0.2767194
114	0xbdb62056	-0.08892886
115	0xbe9a48f3	-0.3013378
116	0x3e01dd2f	0.12682031
117	0xbf5f54ee	-0.8723897
118	0x3e06c31a	0.13160363
119	0x3da7c734	0.08192292
120	0xbf5f59b3	-0.87246245
121	0x3d901666	0.07035522
122	0xbf871f08	-1.0556345
123	0x3fbc9655	1.4733378
124	0xbdf896c5	-0.12138132
125	0x3db74abf	0.089498036
126	0xbebc2e49	-0.36754063
127	0x3da2345d	0.07920144
128	0x3db242f7	0.08704179
129	0xbe2aac71	-0.16667344
130	0x3e7ba3f0	0.24574256
131	0xbe3a2f31	-0.18182065
132	0xbd9e3ca3	-0.07726409
133	0xbf10eb74	-0.5660927
134	0x3e09dbe3	0.13462786
135	0x3e9753f5	0.29556242
136	0xbdb3849b	-0.08765527
137	0x3e88fdca	0.26756126
138	0xbf51f6be	-0.82017124
139	0x3f16b70d	0.58873063
140	0x3d2fe250	0.042940438
141	0xbfa56178	-1.292037
142	0xbe13fd36	-0.14452061
143	0x3d913f0e	0.07092105
144	0x3ef3b5e6	0.47599715
145	0x3e9610d3	0.2930971
146	0xbed34659	-0.41264609
147	0x3ebbc735	0.3667542
148	0xbd9f7648	-0.07786232
149	0x3e4990fa	0.1968421
150	0x3e60cb4d	0.21952553
151	0xbeaf8fd5	-0.34289423
152	0x3ee050f0	0.4381175
153	0x3f310333	0.69145507
154	0xbd42ee06	-0.047590278
155	0xbef805f5	-0.48442045
156	0x3e72c8cb	0.23709409
157	0xbe0e3af2	-0.13889673
158	0xbcfe487f	-0.031040428
159	0xbdb6b9a6	-0.089221284
160	0x3e7218d8	0.2364229
161	0x3e6784e0	0.22609282
162	0xbec7a458	-0.38992572
163	0xbf0e2e1a	-0.55539095
164	0xbe337516	-0.17525133
165	0x3dd00240	0.10156679
166	0xbdc32b74	-0.095297724
167	0x3de89ba1	0.11357809
168	0xbe67a429	-0.22621216
169	0xbd6a7f1e	-0.057250135
170	0x3eba3e87	0.3637583
171	0xbea7bff9	-0.3276365
172	0x3e846711	0.25859883
173	0x3de786b5	0.1130499
174	0x3ea07851	0.31341794
175	0x3e99af7a	0.3001669
176	0xbe8d87ac	-0.27642572
177	0x3e1e14a1	0.15437557
178	0x3e6703f1	0.22560097
179	0xbdd86e5f	-0.105679266
180	0xbd7a68b2	-0.061135
181	0x3df175a0	0.11790013
182	0xbe090aca	-0.13383022
183	0x3c946c7c	0.018118136
184	0x3e02b164	0.12762982
185	0xbe9875c3	-0.29777345
186	0xbda65549	-0.081217356
187	0xbe766426	-0.24061641
188	0xbf20b9be	-0.6278342
189	0x3c29303c	0.010326441
190	0xbf63bf20	-0.8896351
191	0x3dae781c	0.08519003
192	0x3ef33b06	0.4750597
193	0x3d1cefaf	0.038314518
194	0x3f374660	0.7159176
195	0x39846067	0.00025248827
196	0x3e59eacf	0.21280979
197	0x3ec79d3b	0.38987145
198	0xbef7a4d8	-0.48367953
199	0xbf1dd935	-0.61659557
200	0xbed1e8c7	-0.40997908
201	0x3f17afb7	0.59252495
202	0x3e2d1281	0.1690159
203	0xbd88a769	-0.06672556
204	0xbe19f161	-0.15033485
205	0x3e380b25	0.17973001
206	0xbdca9c08	-0.09893042
207	0xbfc1a2df	-1.5127829
208	0xbe34383c	-0.17599577
209	0x3f3705bc	0.71493125
210	0xbce667e8	-0.028125718
211	0x3e2cd674	0.16878682
212	0xbbd36b1a	-0.0064519765
213	0xbc7a48a6	-0.01527611
214	0xbf0b499c	-0.54409194
215	0xbe3907df	-0.18069409
216	0x3e98bbdb	0.29830822
217	0x3edbc79b	0.42925724
218	0xbe2335c4	-0.15938479
219	0x3e8794cf	0.2648072
220	0x3df79c17	0.12090319
221	0x3e205de5	0.15660818
222	0x3f8524e3	1.0401882
223	0xbef3236e	-0.47487968
224	0x3e1fe6f7	0.1561545
225	0xbe6f5ce9	-0.23375286
226	0xbf14b4df	-0.5808849
227	0xbe5620d3	-0.20910959
228	0x3dce1540	0.10062647
229	0x3eaca9cc	0.33723295
230	0xbea89b07	-0.32930776
231	0x3f956dfe	1.1674192
232	0xbb95731c	-0.0045608412
233	0x3f3cf9da	0.73818743
234	0x3f0919bd	0.535549
235	0x3e50637f	0.20350455
236	0x3f83bbbb	1.0291666
237	0x3e4c01a7	0.19922505
238	0xbe7cf50a	-0.2470285
239	0x3e4d1d4b	0.20030706
240	0x3ca2f600	0.019892693
241	0xbe515d87	-0.20445834
242	0x3e860dd1	0.26182416
243	0xbdc29aca	-0.0950218
244	0x3dcf2602	0.10114671
245	0x3f104f9d	0.5637148
246	0x3ec7c305	0.39015976
247	0xbf2af828	-0.66784906
248	0xbf33a6b3	-0.7017624
249	0xbe78fdc9	-0.24315561
250	0x3e56aae4	0.20963627
251	0xbef731ff	-0.48280331
252	0x3d65bf73	0.056090783
253	0x3e13568d	0.14388485
254	0xbe175740	-0.14779377
255	0x3f17a499	0.5923553

fc2.bias f4 [128]
0	0xbdb2c018	-0.08728045
1	0x3e3551d8	0.17707002
2	0x3e288843	0.1645823
3	0x3c49a24c	0.012306761
4	0x3ab6a6b3	0.0013935178
5	0x3e30c1db	0.1726145
6	0x3d9eff76	0.07763569
7	0x3e43aed0	0.19109654
8	0x3e0a4503	0.13502888
9	0x3eb10a7e	0.34578317
10	0x3de2603a	0.1105351
11	0x3dda542d	0.106605865
12	0x3cd088fa	0.02545594
13	0x3d2e34ed	0.042530943
14	0xbe2bc11d	-0.16772886
15	0x3d52cbd7	0.051463928
16	0x3e7039c9	0.23459543
17	0x3cae33b9	0.021264898
18	0x3e76a3d2	0.2408593
19	0x3e7d6e1f	0.24749039
20	0x3dad1c0e	0.08452617
21	0x3da29635	0.07938806
22	0x3e0d967d	0.13826938
23	0xbe8486e7	-0.25884172
24	0x3db77780	0.0895834
25	0x3e84937f	0.2589378
26	0x3d74fd78	0.05981204
27	0x3d07cb22	0.033152707
28	0xbd03e583	-0.0322013
29	0x3e521098	0.20514143
30	0x3da91487	0.082558684
31	0x3e350bdb	0.17680304
32	0xbd8894a8	-0.06668979
33	0x3da730e3	0.08163621
34	0xbcd94098	-0.026520059
35	0x3e3b6eee	0.18304035
36	0xbe5e3019	-0.21698035
37	0x3ddcb1ac	0.10776076
38	0x3e3e665c	0.18593735
39	0x3e1feeae	0.15618393
40	0xbe112bb9	-0.14176835
41	0x3e0ee308	0.13953793
42	0x3ec00a0d	0.37507668
43	0x3e0f0dad	0.1397006
44	0x3e9f7d89	0.31150463
45	0x3d956056	0.07293765
46	0x3c53d077	0.01292812
47	0xbe638c28	-0.22221434
48	0x3da36f4d	0.07980213
49	0xbbba857a	-0.005692181
50	0x3cd6ac7a	0.02620529
51	0x3d4b55f5	0.049642522
52	0xbda43973	-0.0801877
53	0x3e68336e	0.22675869
54	0xbe39dc5c	-0.18150467
55	0xbcb71cb9	-0.022352563
56	0x3d492b29	0.049113426
57	0x3e4afd94	0.19823295
58	0x3e407cf2	0.18797663
59	0xbdb8a3d1	-0.090156205
60	0x3dd33bd9	0.103141494
61	0x3dd47a69	0.103749104
62	0x3e5b62cc	0.21424407
63	0x3e4aea70	0.19815993
64	0x3ca56692	0.02019051
65	0xbd965e5a	-0.07342215
66	0x3ddf4aa6	0.1090291
67	0xb87168d0	-5.755649e-05
68	0x3e1f9b03	0.15586476
69	0x3d7d1f80	0.06179762
70	0x3e956970	0.29182005
71	0x3de94b80	0.113913536
72	0x3e0de99b	0.13858645
73	0x3ca8ea20	0.020619452
74	0x3e009229	0.12555756
75	0xbdc82e51	-0.09774459
76	0xbc1032c6	-0.008801168
77	0xbdc3a911	-0.09553731
78	0xbe956372	-0.29177433
79	0xbd108a38	-0.035288066
80	0xbe0b33b1	-0.13593937
81	0x3ea802c3	0.32814607
82	0xbd95fe62	-0.0732391
83	0xbcc4ccfe	-0.02402353
84	0xb8330e52	-4.2690262e-05
85	0xbdd77007	-0.105194144
86	0x3cb1149a	0.021616269
87	0x3d861dd8	0.06548661
88	0xbb8d568c	-0.0043132957
89	0xbc8bb4de	-0.017054018
90	0xbe10e4da	-0.141498
91	0xbd75627f	-0.059908386
92	0x3d320be6	0.04346838
93	0xbd580bdc	-0.052745685
94	0xbda78eac	-0.081815094
95	0xbe871616	-0.26384038
96	0x3dfdc59f	0.12391209
97	0x3da7fd34	0.082025915
98	0x3d63ec91	0.05564553
99	0x3e1445ba	0.14479724
100	0x3d0ed737	0.034873214
101	0x3cff9b98	0.031202123
102	0x3db6859c	0.08912203
103	0x3dfdf24d	0.12399731
104	0x3d0bdf81	0.034148697
105	0xbea7c392	-0.32766396
106	0x3e41fcd8	0.18944108
107	0x3e5e42b6	0.21705136
108	0xbd84b686	-0.06480126
109	0x3eb238ad	0.34808865
110	0xbddb2774	-0.107008845
111	0xbd543e2e	-0.05181711
112	0x3e1f753b	0.15572064
113	0x3da19f56	0.07891719
114	0xbdf912ee	-0.12161814
115	0x3e24e468	0.16102755
116	0xbcdf6c04	-0.027273186
117	0x3e06cf53	0.13165025
118	0x3dc48039	0.09594769
119	0x3d9771da	0.07394762
120	0x3e637a7b	0.22214691
121	0xbdaef664	-0.08543089
122	0xbded5e24	-0.115902215
123	0x3e967cb4	0.29392016
124	0x3e512010	0.20422387
125	0x3d9ef315	0.07761208
126	0x3cb2b208	0.021813408
127	0xbde8823b	-0.113529645

fc3.weight f4 [6, 128]
0	0x3f4ed104	0.8078768
1	0xbfc18e8f	-1.512163
2	0x3e8fe706	0.28105944
3	0xbe16d3f3	-0.1472929
4	0x3e50472a	0.20339647
5	0x3fe181f3	1.7617782
6	0x4005151b	2.0794132
7	0x3fa66437	1.2999333
8	0x3bf7fe40	0.0075681508
9	0xbed397df	-0.41326806
10	0x3fa821d0	1.3135319
11	0xbd797ea7	-0.0609118
12	0x402431d0	2.5655403
13	0x3c5e23ca	0.013558337
14	0xbf0366cb	-0.51328725
15	0x3df94f54	0.12173334
16	0x3eb4b757	0.35296127
17	0xbb8d1a3e	-0.004306107
18	0xbf4d8d26	-0.802935
19	0x3eefc14c	0.4682716
20	0x40ba2439	5.8169217
21	0x3cfb330c	0.03066399
22	0xbf91751d	-1.1363865
23	0x3f04aae4	0.5182326
24	0x3effeaa4	0.49983704
25	0x3f20de8a	0.6283957
26	0x3e71d5f7	0.23616777
27	0xbef8621d	-0.48512354
28	0x3e801c6f	0.25021693
29	0xbeda8869	-0.42682198
30	0x3f4791d9	0.7795692
31	0xbea20d0d	-0.31650582
32	0xbf99d5c7	-1.2018365
33	0xbf471127	-0.7776055
34	0xbd6cc946	-0.057809137
35	0x3ee18422	0.44046122
36	0xbef1861c	-0.4717263
37	0xbf1ef212	-0.6208812
38	0xbde51073	-0.11184778
39	0xbfc8cf15	-1.5688196
40	0xbf2d951f	-0.67805666
41	0xbcce570a	-0.025187988
42	0x3eda0219	0.42579725
43	0xbf49d696	-0.7884306
44	0xbe779307	-0.2417718
45	0x3e5c7c5a	0.21531811
46	0x3f15a0e3	0.5844862
47	0x3f92f153	1.1479896
48	0xbf60da23	-0.8783285
49	0xbcf35c01	-0.029706957
50	0xbf0234ba	-0.50861704
51	0xbf531079	-0.8244701
52	0xbd253f97	-0.040343847
53	0x3ea1262a	0.3147443
54	0xbf00c388	-0.50298357
55	0xbc45693b	-0.012049015
56	0x3fa509d4	1.2893624
57	0xbf3a1c2f	-0.72699255
58	0xc0097363	-2.1476676
59	0x3e7b0314	0.24512893
60	0x3e626c98	0.22111738
61	0x3f0eeec8	0.558331
62	0x3ffc4e3a	1.9711373
63	0xbeb66a44	-0.3562795
64	0x3f1fa221	0.62356764
65	0x3e9b4845	0.30328575
66	0xbf18155b	-0.59407586
67	0xbe21b452	-0.15791443
68	0x3f292bf9	0.6608272
69	0x3f94fc87	1.1639565
70	0x3ef90bd9	0.48641852
71	0x3f14f1de	0.5818156
72	0x40142772	2.3149076
73	0x3ebf91c4	0.37415898
74	0x3f6c8bd7	0.9240088
75	0x3e67444d	0.22584648
76	0xbcdf7818	-0.027278945
77	0xbdb4bb3d	-0.08824775
78	0xbf7328e4	-0.9498427
79	0x3fe5645b	1.7921251
80	0xbebca30a	-0.3684314
81	0xbf0d15fb	-0.55111665
82	0xbbc53737	-0.006018545
83	0xbec36f68	-0.38170934
84	0xc07a2952	-3.908772
85	0xbf78f2c6	-0.9724544
86	0x3f9e402f	1.2363337
87	0x402e43ba	2.7228837
88	0xbe8c147e	-0.27359384
89	0xbc7e5c7c	-0.01552498
90	0xbfa5f81a	-1.296634
91	0x3e30158e	0.17195722
92	0x3f8b98f6	1.0906055
93	0x3eafa24b	0.34303507
94	0xbd1d6cd7	-0.038433876
95	0x3f5c11ad	0.8596447
96	0xbedb009a	-0.42773896
97	0x3cccac02	0.024984363
98	0xc045649e	-3.0842662
99	0xc0171c9f	-2.361122
100	0x3ed0fbc9	0.40817097
101	0xbf5b09cb	-0.8556182
102	0x4074eadb	3.8268344
103	0x3f085b98	0.5326476
104	0xbf4dddbc	-0.80416465
105	0x3f7c4a50	0.9855089
106	0x3d069db0	0.032865226
107	0x3fcdf3b0	1.6089993
108	0xbd7c2bb5	-0.06156512
109	0x3e7833f6	0.24238572
110	0xbfa496fe	-1.2858579
111	0xc034c9ee	-2.8248248
112	0xbed255b1	-0.41081002
113	0x3fb10b94	1.3831658
114	0xbfe755ce	-1.807306
115	0xbf2aab3a	-0.6666752
116	0xbe2cb7e4	-0.16867024
117	0x3dd907e0	0.10597205
118	0x3dcc5a7a	0.099781945
119	0xbf4c1bd1	-0.79729944
120	0xbe482894	-0.1954673
121	0x3f551a69	0.83243424
122	0x3ddafcb3	0.1069273
123	0x3e8aa658	0.27080035
124	0xbd4c651b	-0.04990111
125	0x3df748f7	0.12074464
126	0x3e113257	0.1417936
127	0xbda51211	-0.080600865
128	0xbf967f27	-1.1757554
129	0x3f85ea7b	1.0462183
130	0x3dc01aa8	0.09380084
131	0xbda4f278	-0.0805406
132	0xbeb42ecc	-0.35191953
133	0xbf543539	-0.8289371
134	0xbeb27a1c	-0.34858787
135	0x3e734702	0.23757556
136	0x3e2dce75	0.16973288
137	0x3f91c83f	1.1389235
138	0xbfc62b79	-1.5482017
139	0xbf04b647	-0.51840633
140	0x3ebebf99	0.37255552
141	0xbe5f5a6c	-0.21811837
142	0xbf9b4797	-1.2131222
143	0xbe9559e2	-0.29170138
144	0x3ed32383	0.4123803
145	0xbab03766	-0.0013444244
146	0x3f0d0c5a	0.5509697
147	0x3f1eb4bf	0.61994547
148	0x401ef4fb	2.4837024
149	0xbe19ebd1	-0.15031363
150	0x3e9c5e1a	0.30540544
151	0x3fa9d3c0	1.3267746
152	0xbeb88082	-0.36035544
153	0x3f8a4964	1.0803647
154	0x3e8197fe	0.25311273
155	0xbea9343b	-0.3304766
156	0x3e8db479	0.27676752
157	0x3f811c72	1.0086806
158	0x4042a5e2	3.0413747
159	0x401570ac	2.335002
160	0x403f055d	2.9847023
161	0xbf78e9b4	-0.972316
162	0x3d3a7123	0.04551805
163	0x3f4c2fef	0.7976064
164	0xbe88bb39	-0.2670534
165	0x3f723825	0.9461692
166	0x3fca80eb	1.5820593
167	0x3ff5d9cf	1.9207095
168	0x3e3ed09f	0.1863427
169	0xbf411bae	-0.7543286
170	0xbf1b93ed	-0.6077259
171	0x3c9d532c	0.019204699
172	0x3f71be2b	0.944308
173	0xbe95fef6	-0.29296082
174	0xbd45a422	-0.048252232
175	0xbf84c0d7	-1.037135
176	0xbfe2c78e	-1.7717149
177	0x3c4b0306	0.012390858
178	0x3f6a85a1	0.9161015
179	0xbff2fbd2	-1.89831
180	0xbf02eaec	-0.5113971
181	0xbed179f4	-0.40913355
182	0xbed68c4e	-0.4190392
183	0xbd36d904	-0.044640556
184	0x3f3aa1fc	0.7290342
185	0xbfd9fdaa	-1.7030537
186	0x3fcb9847	1.5905846
187	0xbe46fb34	-0.19431764
188	0xbe3b6569	-0.18300404
189	0x3e96203d	0.2932147
190	0xbed0feca	-0.4081939
191	0x3fdaf504	1.7106023
192	0x3ec96d52	0.39341217
193	0xbf68667c	-0.9078138
194	0xbf9610bb	-1.1723856
195	0xbe6f1218	-0.23346746
196	0xbf1e9c1d	-0.6195696
197	0xbe4aa6a2	-0.19790128
198	0xbfb7178a	-1.4304059
199	0x3f0af150	0.54274464
200	0x3d967b93	0.07347789
201	0xbe305da5	-0.17223223
202	0x3fa714df	1.3053244
203	0x3e7cad44	0.2467547
204	0xbcfe6a64	-0.03105659
205	0xbcd7ea1a	-0.026356746
206	0xbf845d73	-1.0341018
207	0x4008a7f3	2.1352508
208	0xbe94c949	-0.29059818
209	0xbf741c97	-0.95356125
210	0x3c681c9a	0.014166975
211	0xbdebc269	-0.1151169
212	0x3ccf0a43	0.025273448
213	0x3e4e4c21	0.20146228
214	0xbfa86d2e	-1.3158319
215	0x4046e77c	3.1078787
216	0xbd5da44d	-0.054111768
217	0xbd256bd4	-0.040386036
218	0xbf6b9ecc	-0.9203918
219	0xbfdc91a3	-1.7231945
220	0xbf82cbbd	-1.0218426
221	0x3f05bdb8	0.5224261
222	0xbc9b6c0f	-0.018972425
223	0xbe75185f	-0.23935078
224	0x3efa4f62	0.4888869
225	0x3fdcf129	1.7261096
226	0x3fa82841	1.3137285
227	0xbf33cc1f	-0.7023334
228	0xbe870f8a	-0.26379043
229	0xbed24137	-0.4106538
230	0xc011cd09	-2.2781394
231	0xbefe7b3b	-0.49703392
232	0x3d0f558e	0.0349937
233	0xbf23a91d	-0.6392992
234	0xbeb5836d	-0.35451832
235	0x3ffa40c5	1.9551016
236	0x3e3c5326	0.18391094
237	0x3edd7067	0.4324982
238	0xc00beaaa	-2.1861978
239	0x3ff8dff0	1.944334
240	0xbfc88d38	-1.5668097
241	0xbfc89831	-1.5671445
242	0xbd98e2b2	-0.07465114
243	0x3f9a3479	1.2047263
244	0xbdebd0ed	-0.11514459
245	0xbf793f7f	-0.9736251
246	0x3e0c0cc7	0.13676749
247	0x3ece040b	0.4023746
248	0xbfdd869e	-1.7306707
249	0x3f8ad881	1.0847322
250	0xbf4f10a7	-0.80884784
251	0x3f84bd7f	1.037033
252	0x3daa26b1	0.08308161
253	0x3e243d34	0.16038972
254	0x3df1fd83	0.11815932
255	0xbe0844c8	-0.13307488

fc3.bias f4 [6]
0	0x3d8cdbfa	0.06877895
1	0x3c8498ce	0.016186144
2	0xbd037dba	-0.032102324
3	0x3cc5ea61	0.024159612
4	0xbd8ee0ac	-0.069764465
5	0x3d0eacd4	0.03483279
